model/dqn_team_a_ep30.pth (torch, 286773 bytes, 6 tensors)

fc1.weight f4 [256, 14]
000000 20 d3 9c 3e 63 f2 89 3e 15 8b 17 3e de f2 6d be
       0.30629826 0.2694274 0.1479915 -0.23237178
000010 57 52 cb bd af d5 ef 3d 3f ed 1b be fd ed 8f be
       -0.099278145 0.11710679 -0.15227221 -0.28111258
000020 46 62 88 3e d9 c1 25 3e 50 db f8 3e 33 ef 87 bd
       0.26637477 0.16187228 0.48604822 -0.066374205
000030 b7 9e 57 3d 37 1c 27 3e 09 03 0b 3e 2a 20 bf be
       0.052641597 0.16319357 0.13575377 -0.37329227
000040 95 1e 19 be e9 3b 3a 3d a0 18 ff 3d 97 e7 2c 3d
       -0.14953072 0.04546729 0.12455869 0.04221305
000050 ff e9 9e 3e 15 65 8a be 5e 27 3a 3e 9b bd a0 3c
       0.310379 -0.27030244 0.1817908 0.019621661
000060 f1 f3 35 be d3 af cd 3d fa 55 e1 bd 09 33 68 bd
       -0.17768838 0.100433014 -0.11002727 -0.056689296
000070 a4 22 41 be 6c 52 1f 3e fe 39 62 3d 1f f6 82 bd
       -0.1886087 0.15558785 0.055231087 -0.063946
000080 67 93 9b bd 55 97 5a 3e 1b 92 a7 3d 1d c7 4d 3d
       -0.07596474 0.21346791 0.08182164 0.050238717
000090 15 25 5c be fc ec 1c be ac 46 1d 3e e1 46 20 3d
       -0.2149852 -0.15324777 0.1535899 0.039130095
0000a0 4a 1d 87 bd cc 46 45 3e a9 3e ab 3d a3 7d 89 3c
       -0.06597383 0.19265288 0.08361561 0.016783541
0000b0 58 9f 37 3d ed 3b fe 3c 1f 52 1a bd 40 85 2b bd
       0.044829696 0.031034434 -0.037675973 -0.041875124
0000c0 ba f8 32 3d 49 19 c0 3d 3b 30 06 be 0e a3 0c be
       0.043694235 0.09379823 -0.13104336 -0.13734075
0000d0 4c 41 2d 3e 33 51 07 bd a4 ce 63 be 9c 84 7a be
       0.1691944 -0.033036422 -0.22246796 -0.24464649
0000e0 8e d6 36 be cf 4f ce bd 15 b0 6e bd df e6 29 be
       -0.17855284 -0.10073816 -0.058273394 -0.16591977
0000f0 70 e0 24 3e 10 ec 58 be 18 13 5f be 14 dc 3c 3e
       0.16101241 -0.211838 -0.21784627 0.18443328
000100 c2 35 3a bd f1 63 6e 3e 79 9e f4 3d cc e9 6a 3e
       -0.045461424 0.23280312 0.11944289 0.22940749
000110 7e 54 96 3d f9 96 9a bc ab 66 63 bc a5 33 42 bd
       0.07340334 -0.018870817 -0.013879458 -0.047412533
000120 43 29 83 be 1f 71 54 3e c1 52 9a 3d a7 6c 37 3d
       -0.25617418 0.20746277 0.07535315 0.044781353
000130 21 5d e3 bd 82 cc 3a 3d e9 b3 88 3e ad 8f 0c be
       -0.11101747 0.04560519 0.2669976 -0.13726683
000140 12 f6 db bd 43 5f 38 3e b9 37 d4 bc a4 37 eb 3d
       -0.107402936 0.1800509 -0.025905477 0.11485222
000150 7d 18 50 bc 27 1b 6a be 9d 0c 29 be f8 2a 63 3e
       -0.012701151 -0.2286192 -0.16508718 0.2218436
000160 cb a2 2e be 55 3b 32 be 17 54 99 3d ac 7e 5b 3d
       -0.17054288 -0.17405446 0.07486742 0.0535876
000170 0d c7 f7 3d 01 56 fc 3d 76 1d ff 3d cf d5 01 3e
       0.12098513 0.123210914 0.12456791 0.12679218
000180 2a 28 0e be 33 f6 7b bd b8 3d 55 3c 33 0b 02 3c
       -0.13882509 -0.06151409 0.013015203 0.00793724
000190 b2 25 84 3e c3 5b 41 be 80 35 79 3e 48 90 12 be
       0.2581001 -0.1888266 0.24336815 -0.14312851
0001a0 d2 45 01 3e 38 4f 83 bd 51 1f b4 be d9 42 0d 3d
       0.1262429 -0.06411594 -0.35180143 0.03448758
0001b0 7e 94 a4 3c c5 a4 56 3e 4d 73 6c 3d b8 45 47 be
       0.020090338 0.20961292 0.057727147 -0.1946019
0001c0 c2 47 e3 3e ef 9e 92 3e 00 17 08 3f 57 05 b1 3d
       0.44390684 0.28636882 0.53160095 0.086435966
0001d0 65 60 33 bc 6f e5 83 be 21 b0 3a be 2c 5b 83 be
       -0.010948275 -0.2576098 -0.1823125 -0.25655496
0001e0 ee f7 88 bd e8 f3 0f 3e 0f 60 3e bd 53 ad 0e 3d
       -0.06687914 0.14057887 -0.046478327 0.034833264
0001f0 4f ea 7b 3e 78 93 50 be d5 49 10 bf 6e 55 a1 3d
       0.246011 -0.20368755 -0.5636266 0.078776225
000200 a3 5c 11 bf 30 8c b6 3d 52 be 72 3d 93 da 96 3d
       -0.5678198 0.089134574 0.059263535 0.073659085
000210 6e b6 31 be 96 9e 13 3e 95 cb 25 be c4 0d 52 3e
       -0.17354748 0.14415964 -0.16190942 0.20513064
000220 e4 ca 66 be 8a 0c 02 be 7e 0c 2d 3e 6f 1a e1 bd
       -0.22538334 -0.12700096 0.16899297 -0.1099137
000230 b5 af 83 3e 9c e6 f4 3c 0d 56 87 be 80 37 84 3c
       0.2571999 0.02989512 -0.2643284 0.016139746
000240 59 67 cd bd a2 fb 09 be 1c c7 a9 bd 87 8b 64 3e
       -0.100294776 -0.13474897 -0.0828993 0.2231885
000250 41 ef 23 3e ab c7 cf bd 8d 85 08 be 34 3c f7 bd
       0.16009237 -0.101455055 -0.13332196 -0.1207203
000260 0c 5f 6b be 06 35 69 3e 5c 7b 7f be ec 24 be bd
       -0.22985476 0.22774133 -0.24949402 -0.09284386
000270 61 4f 7f be 9f 5a 56 be 3d b5 6a be 5f b2 d5 bc
       -0.24932624 -0.20933007 -0.229207 -0.02608603
000280 ed f3 9e 3d be 1d 3e bc 79 47 6e be 74 90 3a 3d
       0.07761369 -0.011603771 -0.23269452 0.045547917
000290 76 de 26 3e 9b d9 1f bd e2 8b 4e be a7 04 33 be
       0.162958 -0.039025884 -0.20170549 -0.17482243
0002a0 81 32 2e 3e eb 02 e9 3d 61 b0 e6 3d c0 7b 69 3d
       0.17011453 0.1137751 0.1126411 0.057002783
0002b0 66 08 71 be 39 0a a2 be dc 73 0f be 13 6b ad 3d
       -0.2353836 -0.31648424 -0.1400904 0.084676884
0002c0 00 b7 0e 3e fb f6 ae 3d c6 e5 f3 3e 48 82 1e 3e
       0.13936996 0.085432015 0.4763624 0.15479386
0002d0 1f 66 9c 3d cf 7e ac 3d 3b be 71 3e c3 e1 88 bd
       0.076366656 0.08422624 0.23607723 -0.06683686
0002e0 61 f2 74 be ff 48 c7 bd c6 05 31 be 02 02 04 3e
       -0.23920585 -0.0973072 -0.17287359 0.12891391
0002f0 ad 8d ad 3d e8 53 2c be a2 d4 b5 bd 91 88 2b 3d
       0.08474288 -0.16828883 -0.08878447 0.041878287
000300 96 16 96 bc 82 f8 a0 bd d3 11 14 3e 4b 6e 20 be
       -0.018321317 -0.07859899 0.14459924 -0.15667073
000310 44 4d 76 be 90 a5 87 be bd 63 c6 bd 3f fe d1 3d
       -0.24052912 -0.26493502 -0.09686992 0.10253572
000320 e4 e5 91 bc 66 c5 5e 3e 08 a5 0f be 5f 09 5e be
       -0.017809816 0.21754989 -0.14027798 -0.21683262
000330 98 c3 ad bd 7a c8 29 3e ed 0e 6a be 3a 17 b2 bd
       -0.08484572 0.16580382 -0.22857256 -0.08695836
000340 37 19 09 3d 8d 86 83 be 0f 12 42 3d 0e 41 2a 3e
       0.033471312 -0.25688592 0.047380503 0.16626379
000350 3b df 01 be 56 c5 7d 3e 73 c5 33 bd 85 0d ac 3d
       -0.12682812 0.24782309 -0.043889474 0.08401016
000360 56 74 44 be 80 97 51 be fd d5 05 3d 09 27 20 be
       -0.19185004 -0.20467949 0.03267478 -0.1563989
000370 e4 c4 02 3e a2 c8 6e be ed 57 08 be e5 18 1d 3e
       0.1277042 -0.23318723 -0.13314791 0.15341528
000380 f2 0d 4d be fe 7e 07 bd 71 a6 d2 3d bf 1a 6f be
       -0.20024851 -0.033080094 0.102856524 -0.23350047
000390 41 7a 04 3e 75 ac 03 3d e5 43 90 be cb fb 16 3e
       0.12937261 0.03214689 -0.281768 0.14744489
0003a0 5c c8 cc bd dc 71 93 be 2b e3 63 be 10 42 4c 3d
       -0.09999153 -0.28797805 -0.22254626 0.04986769
0003b0 33 24 05 3e 92 c1 e5 3c df b7 37 be f8 88 97 bc
       0.1300209 0.028046403 -0.17941235 -0.018497929
0003c0 4e 18 a4 3d 6a 71 02 be 0e 7b 6f 3d 51 b7 8f 3c
       0.08012448 -0.12738577 0.058466963 0.017543467
0003d0 8c f4 ce bd 88 94 62 3e 78 00 d3 bd 5a 93 3a 3e
       -0.10105237 0.22126973 -0.10302824 0.18220273
0003e0 59 ef e3 bc a1 ae 15 be 99 bc 6e be 2b f0 47 3d
       -0.02782409 -0.14617397 -0.23314132 0.048813026
0003f0 43 28 76 3e 9a 81 bf 3e 57 20 8a 3e ef ec 18 be
       0.24038796 0.37403566 0.26977798 -0.14934133

fc1.bias f4 [256]
000000 7a 90 5a 3e 4d 6e 21 be ca a6 67 be 63 ba e6 bd
       0.21344176 -0.15764733 -0.22622219 -0.11266019
000010 bb 3b 6b bd e7 90 a4 3d a9 d6 7d 3e dd a9 64 be
       -0.05743001 0.080354504 0.24788918 -0.22330423
000020 ba b8 54 3e 40 59 4f be 4c e6 e4 3d d5 93 aa 3d
       0.20773593 -0.2024889 0.11176738 0.08328978
000030 ec a3 67 bc 1d 69 3e 3d a1 87 ed bd 10 bd ca ba
       -0.014138203 0.046486963 -0.11598135 -0.0015467722
000040 2f 56 91 be f9 02 09 3e 10 42 48 3a 9f a1 0f 3e
       -0.28386065 0.1338004 0.00076392386 0.14026497
000050 a2 4c f7 3d 85 a2 21 3d de 8e 20 3e 18 90 18 be
       0.120751634 0.03946163 0.156795 -0.14898717
000060 ee 84 b0 3c 72 57 bf 3d dd 7e 8b bc 1f 66 42 3e
       0.02154776 0.09342851 -0.017028267 0.18984269
000070 48 56 c3 bd 1a 74 33 3d 48 fa 18 be 23 8f 58 3e
       -0.09537941 0.043811895 -0.14939225 0.21148352
000080 f0 fb 6d be 1f 62 2e be bb 4b 7f bd 7c fd 7a be
       -0.23240638 -0.17029618 -0.06232808 -0.24510759
000090 1a c1 05 3e 84 99 53 be eb 93 7e be 74 20 60 3e
       0.13061944 -0.2066403 -0.24861114 0.2188738
0000a0 fd fb 4b be cb c7 dd 3b c8 6f 36 3b 5c 8e 55 3e
       -0.19920345 0.006768202 0.0027837623 0.20855087
0000b0 b1 96 19 be e5 00 14 3e 62 d0 84 be c6 4b 34 bd
       -0.1499889 0.14453466 -0.25940233 -0.044017576
0000c0 fb 32 59 3e f5 1d 8e be 8e c8 90 be e9 3e c4 3d
       0.21210854 -0.2775723 -0.2827801 0.09582312
0000d0 c1 ba 83 bc a8 2f 52 3e 3e e8 61 be e1 ef 2c 3c
       -0.016080262 0.20525992 -0.2206125 0.010555238
0000e0 70 12 30 be 44 c8 8b be 17 4f 27 bc a1 74 cd bd
       -0.17194533 -0.27301228 -0.010211728 -0.10032011
0000f0 b8 fd a7 bd ff 57 8c 3c c7 32 25 3e d4 05 b5 3d
       -0.0820269 0.017131804 0.16132651 0.08839002
000100 11 5a 14 be 78 39 65 3e 66 4e cf 3d 28 de 1f be
       -0.14487483 0.22385204 0.10122375 -0.1561209
000110 75 c6 6a 3e db 9e 92 be 98 2d 44 3c 43 2c 40 be
       0.22927268 -0.28636822 0.011973761 -0.18766885
000120 75 62 69 3d 58 94 80 3e 11 18 6c be 52 73 03 3e
       0.05697866 0.25113177 -0.23056056 0.1283696
000130 d8 4f cd bd 1c 12 1d be 9e 47 72 3e 08 a3 47 bd
       -0.100249946 -0.1533894 0.23660132 -0.048739463
000140 ff 13 08 bc ce 95 bd bd d0 52 54 be 31 9e 7d be
       -0.008305549 -0.092570886 -0.20734715 -0.24767376
000150 c8 a4 a9 bd 71 8a 64 be 6e 29 35 bc 9b 5d 80 3e
       -0.08283383 -0.22318436 -0.011057241 0.25071415
000160 1b 4d 15 be a5 7d 84 3e 54 89 2c be 88 a9 06 be
       -0.14580195 0.2587711 -0.16849262 -0.13150609
000170 07 59 4d 3e fe 39 42 be 7a cd 0d be 64 5a fe bd
       0.20053492 -0.18967435 -0.13847914 -0.124195844
000180 c4 c8 85 3e 8b 99 e4 3c 48 1f f7 bd cc ce d3 3d
       0.26129735 0.027905246 -0.12066513 0.10342178
000190 a4 c9 f8 3d fe 31 36 be 26 dd 3e be ca ac 20 be
       0.12147835 -0.17792508 -0.18639049 -0.15690914
0001a0 91 01 65 be fe fa 0d be d4 98 35 3d 65 30 0a 3d
       -0.22363879 -0.13865277 0.0443352 0.03373756
0001b0 05 79 19 be 1f 49 72 bd 9c 30 a2 3d 97 24 55 bd
       -0.14987572 -0.059151765 0.07919428 -0.052036848
0001c0 cb 51 48 3e 3c 33 34 be 7c 4f 2f 3e d2 c6 a6 be
       0.19562452 -0.1759767 0.17120165 -0.32573563
0001d0 db 40 9c bc 7f a2 0c 3d 99 ff d0 3c 42 78 67 bd
       -0.019073894 0.034334656 0.025512503 -0.05651117
0001e0 77 c4 d4 bc aa 87 81 3e 33 6f e5 bc a7 1a 11 be
       -0.025972588 0.25298816 -0.028007125 -0.14170323
0001f0 9e 85 7c 3e 8d f1 b1 3d 5b 51 12 be cf 69 a2 3d
       0.24660346 0.0868865 -0.14288847 0.07930338
000200 4f 17 87 bc 7c 43 12 be f0 8c 26 3e 69 d4 e6 3d
       -0.016490607 -0.14283556 0.16264701 0.11270983
000210 10 27 8c 3c 23 f4 5d 3e 20 64 93 3d 6c 6e 35 be
       0.01710847 0.21675162 0.07196832 -0.17717904
000220 33 fe c2 3d 38 e3 59 3e 5e 6f 25 3d aa 7c 79 3e
       0.09521141 0.21278083 0.04038941 0.24363962
000230 11 0d be 3c ca 4a bd bd 17 1a 80 bd 76 74 48 be
       0.02319959 -0.092427805 -0.06254976 -0.19575676
000240 57 8f 60 3e da 74 0f be 0a dd 85 3c 73 93 b7 bd
       0.2192968 -0.14009419 0.016340751 -0.089636706
000250 bc 23 3f ba 9f e9 04 be 4c 35 f8 bd 62 e7 ad 3c
       -0.00072913966 -0.12979744 -0.121195406 0.021228496
000260 c1 14 f2 3d 90 81 4a be 75 e0 5e 3e 93 9f 99 3d
       0.11820365 -0.19775987 0.21765311 0.075011395
000270 54 24 2b 3e 3c 74 57 be 5a 5c 51 3e 13 f1 31 bd
       0.16713077 -0.21040434 0.20445386 -0.043442797
000280 f5 b3 26 be 95 62 06 3e 55 b1 96 bd 5c 40 4c 3d
       -0.16279586 0.13123544 -0.07358042 0.049866065
000290 e3 bf 38 bc ef 73 d3 3c 63 fd f0 3d 7c 72 51 3d
       -0.011276218 0.025812117 0.1176708 0.05113457
0002a0 ca 2d c5 3d 19 55 0f 3c 6b 1c c8 bd 2b 60 41 be
       0.09627874 0.008748316 -0.09771045 -0.18884341
0002b0 78 a7 3d be f8 3f 17 3d c0 a8 1b be bb 9a 6b be
       -0.18520916 0.03692624 -0.15201092 -0.23008244
0002c0 b2 08 61 39 9e 36 d5 bd 85 a3 6c be 1a 38 8f be
       0.00021460911 -0.10410808 -0.23109253 -0.2797249
0002d0 a2 51 56 3e 5e c1 8e be 7f 1b a6 bd 7d 5f 91 3d
       0.20929578 -0.27881902 -0.08110713 0.07098291
0002e0 1c f2 3e 3e 96 39 44 bd a3 4e 0c 3d 33 84 16 bc
       0.18647045 -0.04790648 0.03425468 -0.009186792
0002f0 b8 73 a1 be 66 09 49 be fe b4 f9 bd ac cd fb 3c
       -0.315336 -0.19632491 -0.12192725 0.03073772
000300 54 fd 46 3e e4 e4 6b be 35 f0 45 3e 50 b0 c2 bd
       0.19432575 -0.23036534 0.19329913 -0.09506285
000310 78 e4 ed 3d 2c 41 2c 3e c0 46 5b 3d a3 91 c3 3d
       0.116158426 0.16821736 0.05353427 0.095492624
000320 11 60 94 bc 52 86 82 be ef 1c 31 be fb a7 72 3e
       -0.018112214 -0.25493103 -0.17296194 0.23696892
000330 89 46 0a be 6e c1 18 3e ab 4d dd bd 01 cd 53 3e
       -0.1350347 0.14917538 -0.108058296 0.20683672
000340 a6 6a 5d 3d 24 71 ce bd 08 13 aa bc f0 93 a6 3c
       0.054056786 -0.100801736 -0.020761028 0.020334214
000350 71 e3 e5 3d 57 3b 6d be 48 87 06 3b e6 4f 99 3d
       0.11225022 -0.23167168 0.0020527411 0.074859425
000360 52 c2 4e bd 81 25 54 be fe b5 8b 3d ff c1 16 3d
       -0.050478287 -0.20717432 0.06821822 0.036806103
000370 91 10 48 3e e6 53 05 3d ea f2 70 3d ce 02 ad bd
       0.1953757 0.032550715 0.05882541 -0.084478006
000380 46 6d 34 3e 6b e2 8b bd f7 39 a3 bc 5b 1a 89 bd
       0.1761981 -0.06830295 -0.0199251 -0.0669448
000390 f1 96 50 be 61 d2 97 bd 6a 18 7a be af 7a a6 3c
       -0.2037008 -0.074131735 -0.24423376 0.020322172
0003a0 e3 be 45 be 95 0b a4 3c 91 3b 7b 3d 8e 76 05 3c
       -0.19311099 0.020025054 0.061336104 0.008145941
0003b0 7a 2d 67 3e 59 7d 53 3e 89 4f 5f 3e eb 85 68 be
       0.22575942 0.20653285 0.21807684 -0.22707336
0003c0 08 64 39 be 0e 46 01 3d 44 b4 9a 3d 33 c1 d3 3c
       -0.18104565 0.03156095 0.07553914 0.02584896
0003d0 c2 c5 4d bd 77 54 90 3d 01 86 e0 bb 7b da 0a be
       -0.050237425 0.070473604 -0.006851912 -0.13559906
0003e0 5e ae 87 be 8c f1 18 3e 63 6c 4b bb 18 e8 28 be
       -0.2650022 0.14935893 -0.0031039945 -0.16494787
0003f0 c8 07 69 3e ee fb 9e bc e0 7b dd 3c df ed 0d 3e
       0.22756875 -0.019407239 0.027036607 0.13860272

fc2.weight f4 [256, 256]
000000 ec 5b 58 39 e6 2e 3c bb c2 b6 b4 bc 7e 72 5c bd
       0.00020633609 -0.0028714477 -0.022059802 -0.053820126
000010 33 31 1e 3d f5 7e c8 3d bf 72 16 3c 42 cf 07 be
       0.03862114 0.0978984 0.009182631 -0.13262656
000020 e0 5a 8f bc 63 d9 30 3e 08 fb 8c bc b2 bf 29 3d
       -0.017499387 0.17270426 -0.017209545 0.04144258
000030 e2 83 46 bc 2c 68 a2 bc 5c b3 30 bd b8 b3 60 bd
       -0.012116404 -0.019825064 -0.0431398 -0.054858893
000040 ad 59 9e 3d 88 fc 31 bd 39 5c 4f bc e6 b2 7c be
       0.07731948 -0.043453723 -0.012656265 -0.2467762
000050 f3 7e a0 be 10 6a 53 bc 47 cf 3a 3d cf e4 39 bd
       -0.31346855 -0.012903705 0.04560783 -0.045384225
000060 6c d1 20 bd 7b ff b4 3d 1e b5 84 bd 8f 93 71 3d
       -0.03926222 0.088377915 -0.06479858 0.058978613
000070 93 34 db 3d d8 3d 46 bd 38 13 a4 3d f7 97 47 bd
       0.10703387 -0.048398823 0.08011478 -0.04872891
000080 aa ca d3 bc ee 4d 71 3d b8 8f b3 bc 7e 0b 0f bd
       -0.025853474 0.05891221 -0.021919116 -0.03492307
000090 9a d5 4a bd fe 0d d1 3c f9 ed 9b 3c 60 14 9a bc
       -0.049520113 0.025519367 0.019034373 -0.018808544
0000a0 6f 15 7c 3d c7 14 19 be 50 26 98 3d 34 df 73 bd
       0.06154388 -0.14949332 0.074291825 -0.059539035
0000b0 38 1e 1d 3e b1 4b 63 3f d0 07 c6 3d b8 f1 1a be
       0.15343559 0.8878737 0.09669459 -0.15131271
0000c0 74 12 fd 3c 5e c5 83 3d 84 24 0d bd c0 95 44 bb
       0.030892588 0.06434129 -0.034458652 -0.0029996485
0000d0 c2 66 83 bc 9c cc d3 3b 38 56 df bd 57 50 87 3d
       -0.01604021 0.0064636003 -0.10905117 0.066071205
0000e0 b7 ab b3 3c be 16 17 3d 3d b7 75 3d eb 5c 9e bd
       0.021932466 0.036886923 0.059989203 -0.077325664
0000f0 98 ae 4a be 40 ae 5f bb c0 13 a8 39 d0 16 8c 3b
       -0.19793165 -0.003413096 0.00032058172 0.0042751804
000100 8e e5 53 bc 98 65 50 3d c5 f0 06 bd 61 49 0b 3d
       -0.012933148 0.050878137 -0.03294446 0.034005526
000110 30 8c 6c 3d 45 4c 1a be 6c db 52 3d 08 45 6d 3c
       0.05775088 -0.15068157 0.05147879 0.01448179
000120 65 32 aa 3c 7c c3 5b 3d ee e4 b3 bc 96 31 47 bd
       0.020775983 0.053653225 -0.021959748 -0.048631273
000130 54 a6 5c bc bf 78 0d bb dc 47 bc bc 26 0f 0b 3d
       -0.01346739 -0.0021586863 -0.022983484 0.033949994
000140 d4 df 7c 3d 7a a2 02 be a8 02 31 3d a8 6a a5 ba
       0.061736897 -0.12757292 0.043215424 -0.0012620287
000150 aa 83 72 3d 9c 48 67 3c 0a 8c 04 3c f6 a2 0f be
       0.059207596 0.0141164325 0.008090029 -0.14027008
000160 b8 83 10 bc d4 11 8a 3c 00 30 9d bc a0 d0 55 3d
       -0.008820467 0.016854204 -0.019187927 0.052200913
000170 ab 4d 58 bd c2 07 22 bd 1e 8c 51 bd 6c 58 b6 bc
       -0.052808445 -0.03955818 -0.051159017 -0.02225896
000180 90 82 5f 3c 58 a7 52 3a 3f 9a 06 bb d9 4c 0d 3d
       0.013641968 0.00080358004 -0.0020538715 0.034497116
000190 4a 7d 45 bd d9 a5 5a 3d f0 bb 48 3d b8 c7 60 bd
       -0.048215188 0.05338082 0.049007356 -0.054877967
0001a0 63 80 88 bc 7c 98 d4 bc f2 d9 dc 3d 32 62 6d 3e
       -0.016662782 -0.025951616 0.10783757 0.2318199
0001b0 50 ec 56 3d e0 7b 5c bb 78 7a f8 bc 2c d6 04 be
       0.05247146 -0.0033643171 -0.030331835 -0.12972325
0001c0 6c 58 54 3d 08 2d a6 bc 2d 8f 20 bf ea ac f0 bd
       0.05184214 -0.020285144 -0.6271847 -0.11751731
0001d0 48 5a 31 bd 67 ab 22 3d 18 d1 1e bd ea 34 7e bd
       -0.04329899 0.039714243 -0.038773626 -0.06206218
0001e0 2e 0e d1 3d 68 62 16 bc bc 7f 42 bd f0 e5 6f be
       0.10207783 -0.009178735 -0.0474851 -0.23427558
0001f0 6e 00 66 3d da 2b b2 3d d4 0e 8e bc bc 33 c9 3c
       0.056152754 0.0869977 -0.017341055 0.024560802
000200 0a 70 6a 3d b7 4e a6 bb 18 dc 6f bc da 36 04 bd
       0.057235755 -0.0050753015 -0.014639877 -0.032278873
000210 e2 f5 23 bd 47 93 df be 77 00 01 bf 4c cd 1f bd
       -0.040029414 -0.4366705 -0.50391334 -0.039014146
000220 d0 cc 82 bd 47 d1 ba bb 59 e0 dd bb 2f e6 74 3d
       -0.06386721 -0.0057012173 -0.006771129 0.059789833
000230 7d dd 29 bd 5d ce 64 bd bc 2b ef 3b 80 88 a1 3b
       -0.041470993 -0.055860866 0.0072989147 0.004929602
000240 c2 68 9e 3e 3e ec 72 3d 5e f3 4e 3d 10 a8 90 3b
       0.309393 0.05930733 0.05052506 0.004414566
000250 63 fb 64 be 62 81 27 bd cb b8 85 3c 8d 14 77 3c
       -0.22361521 -0.040894873 0.016323468 0.015080583
000260 da a5 aa 3d 64 bf 1d bd 80 85 5a 3d d0 c9 ad 3c
       0.08332415 -0.038512602 0.05334997 0.021214396
000270 18 b9 8b bc d9 56 9b 3c 50 3c ff bc a2 78 0e bd
       -0.017056033 0.01896231 -0.031156689 -0.034783013
000280 8c dd 9b bc b2 2b 3d 3d 6b ee 8e bd 94 82 5a 3d
       -0.01902654 0.04618425 -0.06979068 0.053347185
000290 9a 0e 40 3d d8 38 1d 3d 6e 60 1b 3e 48 55 42 bc
       0.046888925 0.03838429 0.15173504 -0.011861153
0002a0 a7 1b b2 3e 58 66 0d 3d f0 66 2b 3d e9 bd e4 bd
       0.34786722 0.03452143 0.041846216 -0.11169035
0002b0 ed e5 72 3c d0 17 9e 3c 8f ce 2c 3d b8 0f 34 bd
       0.014825326 0.019298464 0.042189177 -0.043960303
0002c0 00 73 71 bb 48 fa ab bd 30 88 97 bc a1 20 ea 3c
       -0.0036842227 -0.08397347 -0.018497556 0.028580012
0002d0 26 12 0a 3d 86 b2 65 bd ff c7 8d 3c 41 59 c8 3d
       0.033708714 -0.056078456 0.01730728 0.09782649
0002e0 08 17 cf 3b 76 e7 0b 3d 78 e7 11 be 81 3c 03 be
       0.006319884 0.034156285 -0.14248455 -0.12816049
0002f0 76 94 fd bd 81 21 2e 3f da ce b1 3d fe f5 12 bd
       -0.12381832 0.6801987 0.08682032 -0.035879128
000300 e0 19 5f bc e3 22 1a bd ac 32 e3 bc 82 e6 13 3d
       -0.013617009 -0.037630927 -0.027734123 0.0361085
000310 4a 40 00 3d 29 50 93 bd fc ee 2d bd 5c 52 30 bc
       0.03131131 -0.07193024 -0.04246424 -0.0107618235
000320 17 57 5e bd 88 da cb bc 48 63 26 bf 54 76 f3 bc
       -0.054282274 -0.024884477 -0.6499524 -0.02971951
000330 4c 6c b2 bc 30 1c 31 3c a4 af b6 3c d5 6f 1d 3d
       -0.021780156 0.010809943 0.022300549 0.03843673
000340 ec 8a 7f 3e 50 33 3a bd c5 e1 43 3c c6 6a 32 3d
       0.24955338 -0.04545909 0.011955683 0.04355886
000350 e8 25 85 3c ce ff 66 bd c0 00 f3 3a c7 7e 22 be
       0.016253427 -0.056396298 0.0018539652 -0.15868674
000360 3b 4e 37 3d 44 77 91 bc 7e 2d b0 3d 3c 0f fc 3e
       0.04475234 -0.017757066 0.08602427 0.49230373
000370 60 f3 9a 3b 5e 7b 4f bd a5 09 b8 3c cd 07 ac bd
       0.0047287196 -0.05065476 0.022465536 -0.083999254
000380 66 fc 10 bd ee b7 35 3d 9e e0 e7 bd 1e 77 52 bc
       -0.035396956 0.044364862 -0.11322139 -0.012845783
000390 6a a2 12 bf 90 c8 0f bd f8 98 ec ba 2b f4 ac bb
       -0.57279074 -0.03510338 -0.0018050959 -0.0052781305
0003a0 22 51 46 3d 4c af e8 3c c2 9e 77 3c 52 50 20 3e
       0.048417218 0.0284039 0.015113534 0.1565564
0003b0 42 04 10 3d 13 93 da 3c 5f 88 32 3d 00 66 dd bb
       0.03516031 0.026681459 0.043587085 -0.006756544
0003c0 1b 87 98 be 0e f3 e5 3d 8f 7c b1 3b 68 3d 06 bd
       -0.29790577 0.11228 0.00541646 -0.032773405
0003d0 c8 60 54 bd d2 ef 54 bd b8 fa d2 3c 38 92 06 bd
       -0.05185011 -0.051986523 0.025754318 -0.03285429
0003e0 f8 25 40 3d 8d f8 08 bc 68 c8 52 bd f0 6e fb 3c
       0.04691121 -0.00836004 -0.051460654 0.030692548
0003f0 d8 81 5b bd 15 52 49 3b 9e f0 5a 3e bd 00 03 bd
       -0.053590626 0.003071909 0.2138085 -0.031983126

fc2.bias f4 [256]
000000 26 76 d6 3d 33 3a 6a 3c 9e a6 c4 bc f0 be 83 bd
       0.10471754 0.014296102 -0.02400523 -0.06432903
000010 18 e4 80 bc 43 da 46 bc 4b f3 6a 3d 84 d1 6e 3c
       -0.015733764 -0.012136999 0.05736093 0.01457632
000020 a5 8a a6 3c 83 c3 77 bb 5d 71 b1 3b a6 b0 4c bc
       0.020329783 -0.0037805743 0.0054151253 -0.012493288
000030 2a a2 b8 bd a4 e1 07 3d 88 f0 50 bd 60 34 85 bd
       -0.09015305 0.033174172 -0.05101064 -0.0650413
000040 18 eb ac bd 8c b0 25 3d 49 2d 0c bc d3 cc e2 3d
       -0.08443278 0.04045157 -0.008555719 0.11074223
000050 bb 21 10 bc ef e3 cc 3c 60 48 7d 3c 54 e4 2e 3d
       -0.0087971045 0.025011031 0.01545915 0.04269822
000060 6a 9a ac bd d7 43 29 bd 11 b6 95 3d 39 53 89 bc
       -0.0842789 -0.041324463 0.07310117 -0.016763316
000070 f2 a4 dc 3d c0 74 30 3d 63 22 48 3d 5f d6 59 bd
       0.10773648 0.04308009 0.04886092 -0.053182956
000080 99 4a d2 3b ea ea 11 bd 7e 43 c9 bc 6b 20 f8 3d
       0.006417584 -0.035624422 -0.024568316 0.12115558
000090 7d 21 07 3d 6f 91 3d bd 2b a5 24 3d a6 47 2b bd
       0.03299092 -0.046281274 0.04019658 -0.041816376
0000a0 6e cb 47 bd 6e c9 8c 3c 5d 57 85 bd 87 8a b1 3a
       -0.04877799 0.017185893 -0.06510804 0.0013545313
0000b0 9a a9 97 bd 1a 38 13 bd fa b5 11 3d 17 fa cc bc
       -0.07405396 -0.035942174 0.035573937 -0.025021596
0000c0 59 c6 87 3b 15 d3 f3 bc 4f 79 34 bd 67 75 33 bd
       0.004143518 -0.029763738 -0.044061 -0.043813135
0000d0 d2 ba d4 bc 60 72 fa 3c 11 68 42 3d 40 ef 84 3c
       -0.02596799 0.030572116 0.047462527 0.016227365
0000e0 17 1b 8f bd 18 b1 98 bc 38 97 44 3d 57 d7 07 bd
       -0.06987589 -0.018639132 0.047995776 -0.03316435
0000f0 48 d3 6a 3d b8 ae 1e 3d 4f 30 63 bc dc 3a 27 3d
       0.0573304 0.038740844 -0.013866498 0.040827617
000100 da 78 d2 3d 4f fe 49 bd 2a e1 d8 3d cc c0 63 bd
       0.10276957 -0.049314793 0.10589822 -0.055603787
000110 f0 e2 da 3c a5 b2 14 bd 2b 9d 80 3d e6 bb 78 bd
       0.02671954 -0.03630318 0.062799774 -0.06072607
000120 5c 8b 39 3c 86 c7 80 3c c3 f2 3c bd da d7 52 bd
       0.01132473 0.01572014 -0.046129953 -0.051475383
000130 a3 19 81 bd c7 2f 23 3d cf 67 10 3d ce 36 81 bd
       -0.06303718 0.039840486 0.03525525 -0.06309281
000140 9c 02 d0 bc 37 ba 8b bd 0b 78 e4 bb 02 9f 89 3d
       -0.02539187 -0.06822627 -0.006972318 0.067197815
000150 14 63 8a bd 40 3a 5e 3c cc da e1 bc 34 3b d3 bc
       -0.06757179 0.013563693 -0.02757015 -0.025785066
000160 d6 81 a4 3d 4f 11 50 bd cc 2a c6 3c 0a 8c e2 3c
       0.08032577 -0.050797757 0.024190329 0.027654666
000170 18 f7 b6 bc 9a 3e 57 bd d4 4d ee bc 91 82 8f 3d
       -0.02233462 -0.052549936 -0.029089846 0.070073254
000180 22 88 c6 3c db df 53 3d 61 16 5b 3d 98 0e 49 3c
       0.024234835 0.051727157 0.05348814 0.012271546
000190 00 73 17 3d 9e bc 45 3d ed a2 20 3d b7 4e 4e bc
       0.036974907 0.048275582 0.039217878 -0.012592009
0001a0 7f 9e 40 bd f5 eb 25 bd 31 df 54 3d 01 8f f8 3d
       -0.047026154 -0.04050823 0.051970664 0.12136651
0001b0 f7 9a 04 3d 89 f9 35 bd 69 04 80 3c 3a ca 0e 3d
       0.03237435 -0.04442743 0.015627103 0.034860827
0001c0 e0 06 53 3c de ee 3a 3d 7c 03 bc bc 6d e5 c5 3c
       0.012880057 0.045637958 -0.02295088 0.02415725
0001d0 e2 5f c1 bc db dd 8e bd e3 7e 03 39 00 96 39 3d
       -0.02360529 -0.06975909 0.00012540403 0.045309067
0001e0 fb a0 a3 bd 33 41 d4 bc f6 a6 02 be 78 ca bf 3c
       -0.07989689 -0.025909996 -0.12759003 0.023411974
0001f0 b5 42 9e 3d 73 10 a3 3c 83 b1 9d 3b 8b 5b 0a bd
       0.07727567 0.019905305 0.004812421 -0.03377871
000200 9e a5 83 3b 5e 54 ee bc af db df 3d 04 2f a7 3c
       0.004017546 -0.029092964 0.10930573 0.020408161
000210 18 6d 98 3c b8 38 12 3d cc bb ea 3c 5c 2a bb bd
       0.018606707 0.035698622 0.028654002 -0.09138939
000220 93 17 a4 3c df 8d 96 3d 2c 42 ad 3b a1 32 44 bd
       0.020030772 0.073512785 0.0052874293 -0.047899846
000230 37 56 86 bd 8c b1 6d bd e0 74 86 3d a0 d4 60 bb
       -0.06559413 -0.05803065 0.06565261 -0.0034306422
000240 b8 cb 9e bd 45 6e c7 bc 1b eb 08 3c a4 bb a5 3c
       -0.077537 -0.024344573 0.008356835 0.020231076
000250 c4 4e 8a bc 91 32 b8 3d 8a 52 ce 3d 2e 9b 0d bd
       -0.016883262 0.0899402 0.10074337 -0.03457182
000260 ef 8d 50 bd cc ca 86 bd c2 4f 0c 3d 84 04 a2 3c
       -0.05091661 -0.06581649 0.03425575 0.019777544
000270 d4 4c 39 3d 08 08 2b bc 48 e8 35 bd 6c e9 f3 bc
       0.045239285 -0.0104389265 -0.044410974 -0.02977439
000280 88 da 2f 3d 00 a0 8f b7 18 00 c1 3c 5f cf dd 3b
       0.042933017 -1.7121434e-05 0.023559615 0.0067691053
000290 40 b3 7d 3c 2c 88 12 3c b9 f5 1c bd d8 d3 12 3d
       0.015484631 0.008943599 -0.038320277 0.03584656
0002a0 7b db 38 3d 00 5a 9b 3d a6 12 1a 3d 3e cd f5 3c
       0.045131188 0.075855255 0.03761544 0.030005094
0002b0 25 0b b4 bb 46 e4 c8 bb 6f 4a 5c 3c b3 b7 7e bb
       -0.0054944926 -0.006130728 0.013445481 -0.0038866817
0002c0 52 f0 9f bd 0d 6f 1a 3d 40 f2 39 3c f7 9e ff 3b
       -0.07809509 0.037703563 0.011349261 0.0078009325
0002d0 29 6b 39 3d 58 7e b4 3c f2 5d 46 3c d3 3f 97 bd
       0.04526821 0.022032902 0.012107359 -0.073852204
0002e0 a4 c7 ba 3d cb 15 b8 3c 20 c3 cc 3c 48 a2 70 bd
       0.0912011 0.02247133 0.024995387 -0.058748513
0002f0 d8 02 95 3d 9c df f7 3d 28 9c fd 3c 95 97 9b bd
       0.07275933 0.12103197 0.03095825 -0.07597271
000300 a7 09 85 bc ca 0e 54 bd 57 6a 37 bc 42 26 25 bd
       -0.016239954 -0.051771916 -0.011194787 -0.04031969
000310 4d 76 a9 bc e2 c3 00 3d d6 ed 76 bb 6e aa 34 bd
       -0.020686293 0.03143681 -0.0037678382 -0.044107847
000320 24 aa 12 3d 46 5c d8 3d 62 22 c5 3c 60 d7 71 3c
       0.03580679 0.10564475 0.024064247 0.014760822
000330 9a 80 8c bc d7 a3 a4 bd a8 e0 78 bd 0e f7 5c bd
       -0.017151166 -0.080390625 -0.060761124 -0.053946547
000340 72 cb 37 bd 34 95 c0 3c 1c c0 f9 3c 56 fc ed 3c
       -0.044871755 0.023508646 0.030487113 0.029050987
000350 21 3e 35 3c d4 5d 6e 3d 72 0d c5 bc a2 66 2c 3d
       0.011062176 0.05819495 -0.024054263 0.042090066
000360 77 88 42 bc ab d5 98 3c 1f 43 3e 3d 02 e7 83 bd
       -0.011873356 0.018656572 0.04645073 -0.064405456
000370 25 d9 66 3a 48 5e c0 3c 9f 1b 4b 3d 47 3c 79 bd
       0.0008806161 0.023482457 0.04958689 -0.0608485
000380 7e e2 2f bd 8f ed 60 bd 2e 06 11 bd 6a a5 2f 3c
       -0.04294061 -0.054914054 -0.035406284 0.01072059
000390 95 4c 55 bc 7f eb 65 bd 02 95 54 bd 0b a4 2e bd
       -0.013018747 -0.05613279 -0.051899917 -0.042636912
0003a0 6e b7 ed 3d 95 4f cc 3c d0 2d 01 bc 44 b8 d6 bc
       0.11607252 0.024940291 -0.007884458 -0.026210912
0003b0 03 90 41 bd 73 e9 0b 3d 6d 76 80 bd 86 31 f6 3b
       -0.04725648 0.03415818 -0.06272588 0.007513228
0003c0 ad 37 01 3e a8 21 aa bb 35 28 9e bc bc c9 b3 bc
       0.12618895 -0.0051920004 -0.019306282 -0.02194678
0003d0 6c 79 ab bc 73 d3 b9 bc 5a 60 2d 3d 10 0c cc ba
       -0.020931922 -0.022683835 0.042328216 -0.001556756
0003e0 c2 42 82 3c 30 b9 da bb 2d dd 3f bd a7 2c 60 bd
       0.015900973 -0.006674908 -0.04684179 -0.054730084
0003f0 4c 72 89 3d dc f2 bb 3c 74 f9 8b b9 c0 86 ce ba
       0.067112535 0.022942953 -0.00026698003 -0.0015756711

fc3.weight f4 [5, 256]
000000 36 00 09 3e 65 ba 59 bd 53 8d 65 3a 63 37 fe bb
       0.13378987 -0.053156275 0.00087567157 -0.0077580675
000010 10 6a 11 3d 1b a5 38 bc 13 99 0c 3e ab 89 b0 bc
       0.03550154 -0.011269833 0.13730268 -0.02155002
000020 2d 0e 3a bd 96 ee 6f 3b 80 2c c1 bb de bf 3e 3d
       -0.045423675 0.0036610714 -0.0058951974 0.046569698
000030 98 b8 b8 3c ed f3 67 bd 40 37 ec bc f6 bd 1b 3d
       0.022548959 -0.05662911 -0.028834939 0.038022958
000040 e0 69 b8 bc 97 01 39 3c 0d 66 9a 3d 31 d8 00 3e
       -0.022511423 0.011291883 0.07538996 0.1258247
000050 c3 82 87 3e 92 94 6e 3c c0 ee 60 bc 83 01 11 3e
       0.2646695 0.014561789 -0.013728797 0.14160733
000060 e2 ca 66 bd f5 5a 15 be 6b df ba be ee e5 0b 3d
       -0.056345828 -0.14585479 -0.3649858 0.034154825
000070 67 92 11 3e f2 36 71 bd 24 cb f6 3d 1a c6 54 3c
       0.14216004 -0.05889029 0.12050465 0.012986684
000080 88 72 fc 3c bb b8 82 3c 4f 0a a7 bc 6a d7 0a 3e
       0.030816332 0.015957227 -0.020390658 0.13558736
000090 12 27 69 bc 5e 5e 29 3b e8 2b ee 3d 03 e7 48 3c
       -0.0142305065 0.00258436 0.11629468 0.012262109
0000a0 5a f3 48 bc 68 50 1d bc 21 e7 bf bc 20 6f 83 be
       -0.012265051 -0.00960169 -0.02342564 -0.2567072
0000b0 30 97 4e 3d 38 cd 14 bd c2 a0 38 3e 80 41 c4 3c
       0.050437152 -0.036328524 0.18030074 0.023957014
0000c0 c4 85 47 bd 88 48 3f bc 30 cb d0 bb 11 90 8d bc
       -0.048711553 -0.011675008 -0.006371878 -0.01728061
0000d0 9c b9 2d 3f 14 fe 4c 3d 54 45 13 3e 40 38 19 3b
       0.6786134 0.050046995 0.14381915 0.0023379475
0000e0 a7 66 78 bc 3a 35 43 bd 6e 5a 0d bd 9e b7 a4 3d
       -0.015161193 -0.047658183 -0.03451007 0.08042835
0000f0 80 ce b8 ba 6e f7 7e 3d ae e0 76 bb bc d1 4a 3d
       -0.0014099628 0.062247686 -0.003767054 0.049516425
000100 b6 4f 76 3e 00 dd 68 3b 20 78 0b 3e 70 03 ae bc
       0.24053845 0.0035532117 0.13620043 -0.021241874
000110 00 05 df b9 df 83 46 be 66 c6 01 3e e6 b8 2d bd
       -0.000425376 -0.19386242 0.12673339 -0.04241266
000120 6c e8 51 3d 38 41 ab 3d a2 9a 10 bd 2b 3f d9 3c
       0.051247045 0.08362049 -0.03530372 0.026519379
000130 8a 47 b5 bb 54 7d 91 3c 1e 6a 7f bd 50 3a 8a 3c
       -0.0055322098 0.017759956 -0.06235706 0.016873509
000140 a8 70 1d bc 86 74 45 bc a2 b3 25 bd 19 79 55 3e
       -0.009609379 -0.012051707 -0.040454514 0.20846976
000150 8b 61 56 3c 58 9a 6c bd 7c d9 71 3d 00 40 d2 bc
       0.0130847795 -0.05776438 0.0590453 -0.025665283
000160 75 6f 0d 3e e3 1e ba bb 20 f2 dd 3c 03 87 05 3d
       0.13812049 -0.0056799515 0.027092993 0.03259946
000170 f0 96 50 3c a3 4a 10 3d e3 ce 28 bd 98 be 22 3e
       0.012731299 0.03522743 -0.041212928 0.15893018
000180 2e 43 9b 3c 13 f6 f1 3d 49 0f 23 3c 23 de a6 3d
       0.018952932 0.11814513 0.009952375 0.08147838
000190 0e b3 09 3e 2f 72 29 bd 1c 55 ef 3d 31 c2 a5 3e
       0.1344721 -0.04136866 0.11686155 0.3237472
0001a0 e0 e1 e1 3c c9 f7 f7 bb 14 76 3f bc 26 71 7c 3e
       0.027573526 -0.00756738 -0.011685867 0.24652538
0001b0 80 1c 24 3e bf 5d 05 3d e5 b7 b5 3c 4a 67 4b bd
       0.16026497 0.032560106 0.022182414 -0.04965905
0001c0 1e 26 7a bd 1c d3 09 3c 8b b5 b8 3d 66 a4 b8 3c
       -0.061071508 0.008412149 0.090190016 0.022539329
0001d0 99 13 8f 3d b8 fb 82 3c 06 41 4d bd ae cb 26 3d
       0.0698616 0.01598917 -0.05011084 0.040721588
0001e0 35 36 1f bd b8 1b ca 3c 17 41 54 3e 36 0d ac 3e
       -0.038870055 0.02467142 0.20727955 0.3360383
0001f0 ae 61 91 3d 6c 96 f0 3c a0 a0 30 bd 79 a2 c9 be
       0.07098709 0.029368602 -0.043121934 -0.3938177
000200 54 e2 a4 bb 71 59 7c 3d 1b 62 d4 3d 8a 88 f3 3d
       -0.005031863 0.061608735 0.10370275 0.11891277
000210 16 8f 06 3e cc 9d 04 3d cc bb 1f 3e 9f 9c 9a 3d
       0.1314052 0.03237705 0.15598983 0.07549404
000220 00 f1 82 3d 0b b8 82 3e be b1 07 bd 76 47 00 3d
       0.06393623 0.2553104 -0.033128493 0.03131815
000230 16 ec e2 3b 6c 37 cd 3c 3a f3 8b 3b 9a 69 7a 3d
       0.0069251163 0.025050841 0.004270938 0.061135866
000240 18 b4 bf bc 5f d2 dc 3b 82 ab 35 3c 99 e2 4a bc
       -0.023401305 0.0067389454 0.011088254 -0.012383127
000250 de 7a 77 3a ae a8 15 3e 0b 69 18 3e ed f4 88 3a
       0.0009440611 0.14615127 0.1488382 0.001044897
000260 aa 7e 7c be 00 0a 90 3c 25 7c e2 3c 14 54 0c 3e
       -0.24657694 0.017582893 0.027647087 0.13703948
000270 9c f3 60 bd 42 2e 02 bd 82 98 fe bc 3c e6 10 3d
       -0.054919824 -0.031782396 -0.03107858 0.03537582
000280 e0 88 08 3e da 0a 18 3d 98 8d 0b 3d a6 9a 9b 3d
       0.13333464 0.037119724 0.03407058 0.07597856
000290 ec cd 3a 3d 6e cd 57 3e ac 9d 00 be ed 75 c3 3d
       0.04560654 0.21074459 -0.12560147 0.09543977
0002a0 37 4d e9 bb d8 03 df 3d c1 f2 4f 3e 69 4f 38 bd
       -0.0071198004 0.10889405 0.20307447 -0.044997606
0002b0 e7 60 36 bd 95 84 a2 3e c1 ca 3d bd 87 5b 74 3b
       -0.044526007 0.31741777 -0.04633594 0.0037286
0002c0 c0 1a 10 3d 10 19 06 3e 4f 46 e1 3e 33 0b 1e 3d
       0.03518176 0.13095498 0.43998954 0.0385849
0002d0 18 40 1e 3e 66 ef 2c 3e f5 4e 46 be 30 e8 25 bd
       0.15454137 0.16888198 -0.19366057 -0.040504634
0002e0 85 95 02 3e db a9 c6 3d 94 e3 6b 3d 3b a1 8a be
       0.1275235 0.09700366 0.057590082 -0.27076134
0002f0 23 f7 25 3e 9a bf 2f 3e 40 67 e3 3a 0b 55 39 3c
       0.16207556 0.17162934 0.0017349496 0.01131178
000300 c4 00 5d bd 14 7d e2 bc cc 0b 77 3d 93 d8 ce 3d
       -0.05395581 -0.027647533 0.060313985 0.10099902
000310 bc a8 8c 3c c8 a1 1e 3d 1c f6 2d bc f7 f2 98 3b
       0.017170303 0.038728505 -0.010617759 0.0046676355
000320 98 6e 84 bc 1b bc ee 3d 2b 5c 94 bb ab 51 54 bd
       -0.016166016 0.11656972 -0.004527589 -0.051835697
000330 14 01 3a ba c5 8b 83 bc d7 f4 50 bc 2e 4b 13 be
       -0.00070954976 -0.016057858 -0.012753687 -0.14384148
000340 4a 18 2c 3e da 14 7c bd f8 9c 71 bc f1 75 ed 3d
       0.1680614 -0.061543323 -0.014746897 0.11594761
000350 90 95 1d 3e 8d 81 16 3e 68 6c e5 bc d8 1b 2f bd
       0.15389085 0.14697857 -0.028005794 -0.042751163
000360 9e 8f cb 3c 79 46 18 3b 8e 9d 09 bd dc 17 ba bc
       0.024848755 0.0023235364 -0.03359752 -0.022716455
000370 40 00 87 bb f0 88 34 bc 66 74 cf 3d 62 a8 16 3c
       -0.004119903 -0.011018977 0.10129623 0.009195419
000380 8e bc 35 bd 08 fa d9 bc 50 2e 65 3d 2a bd 3f be
       -0.044369273 -0.026608482 0.05595237 -0.18724504
000390 af 3f 33 3d 5f 60 2c 3c 9e d5 1a 3d 38 c5 25 3d
       0.043761905 0.0105210235 0.037801377 0.040471286
0003a0 f5 c7 fb 3d 42 54 05 3e bd 0d b8 bb 00 44 a5 ba
       0.12293998 0.13020423 -0.005616872 -0.0012608767
0003b0 d6 e5 aa 3c 82 85 5b 3d 92 16 14 bc 10 d0 e1 3b
       0.020861547 0.05359412 -0.009038584 0.006891258
0003c0 b4 e7 11 3e 05 24 2f 3e 45 db 7d 3c 04 6a 5c bd
       0.14248544 0.17103584 0.015494172 -0.053812042
0003d0 cc 42 b7 bc 0d 48 08 bc 50 23 29 bb 96 54 3e 3d
       -0.022370718 -0.0083179595 -0.0025808401 0.046467386
0003e0 a5 0b a9 3c 00 05 7c ba 8a 8e 2d 3d c3 b2 21 be
       0.020635435 -0.0009613782 0.042372264 -0.15790848
0003f0 64 8c 0e 3e 00 cc 39 39 2e 48 80 3a 20 85 4b 3c
       0.13920742 0.00017718971 0.0009787136 0.012421876

fc3.bias f4 [5]
000000 10 51 0d 3e d9 0e bb 3d ee 9a c1 3d ce a9 07 3e
       0.13800454 0.09133691 0.094533786 0.13248369
000010 24 73 f3 3d
       0.11887196
