model/dqn_team_b_ep30.pth (torch, 286773 bytes, 6 tensors)

fc1.weight f4 [256, 14]
000000 17 9b ae be 6b 5d b7 bd ba 27 9e bd 19 76 0d 3d
       -0.341027 -0.08953365 -0.07722421 0.034536455
000010 bb 5d 79 3e 42 a2 2e 3e 4e f1 e3 3c 90 73 78 bd
       0.24352162 0.17054084 0.027825024 -0.060657084
000020 3d 46 2b be fb bc 6c be 14 05 47 3d 46 16 ed 3d
       -0.16726013 -0.23118965 0.048588827 0.11576514
000030 88 46 10 be bb 98 15 3d fd 88 01 be 32 a5 13 3e
       -0.14089406 0.03652261 -0.12649913 0.14418486
000040 b4 5e ca bd 3b 01 08 be aa 3f 72 bd 10 70 57 be
       -0.098813444 -0.1328172 -0.059142746 -0.21038842
000050 0e 28 44 3e f8 15 76 be e7 71 24 be fe 50 6e 3d
       0.19155905 -0.24031818 -0.16059075 0.05818271
000060 f2 fe c5 3d 65 a2 52 3e 6d 12 bb bd 67 f9 5b 3e
       0.096677676 0.20569761 -0.09134374 0.21481858
000070 62 68 2b 3e 06 5b 9d be 8c 1e 65 be ab 34 52 3e
       0.16739038 -0.30733508 -0.22374934 0.20527904
000080 0a 8d bd 3c 1d 34 e6 be 76 12 1a 3e 21 b1 04 bf
       0.023138542 -0.44961634 0.15046105 -0.5183278
000090 7e d0 a0 be ca 1f 79 be db 35 fd be 54 9f 0f 3d
       -0.31409067 -0.24328533 -0.4945515 0.035064057
0000a0 3c 8b 3d 3e 4e 3f 58 3e d5 e8 0b 3e 85 10 40 3e
       0.18510145 0.21117899 0.13663037 0.18756302
0000b0 3a a9 3b 3d 22 93 40 be 27 8b bb 3d ab 4f 07 be
       0.045815684 -0.18806127 0.091574006 -0.13213985
0000c0 a5 d5 46 3e 49 c6 d8 3c a9 a5 b2 be f6 b3 a5 be
       0.19417436 0.026461737 -0.34892014 -0.32363862
0000d0 1d 58 0f 3d a6 3e 6d 3d a1 5c d3 3d 84 5f 67 bd
       0.03499614 0.057921074 0.10320402 -0.056487575
0000e0 bb 88 2c 3d c9 bc c3 bd d8 87 57 be 75 c7 46 3d
       0.042122584 -0.09557492 -0.21047914 0.04853006
0000f0 55 8e 3b be 7f 5e 05 be cd f4 1b 3e 9f 28 49 be
       -0.18316014 -0.13024329 0.15230103 -0.19644402
000100 fe b8 47 3e d1 67 da bc 4b f1 f8 bd 78 91 48 3e
       0.19504163 -0.026660832 -0.12155398 0.19586742
000110 c9 9b 90 bd 7e 96 11 be 8a 12 b5 bd da 6e 03 3c
       -0.07060964 -0.14217564 -0.08841427 0.008022035
000120 94 fa 5a 3d a3 11 ef bd 71 0e 39 3e a0 09 6e be
       0.053461626 -0.11673286 0.18071915 -0.23245859
000130 0d dd 01 3e 01 4e 6e 3e 47 72 7e bd 44 75 ce bd
       0.1268198 0.23271944 -0.062120702 -0.100809604
000140 f6 28 50 3e 53 4b 3a be 34 35 4d be cc 17 ff bd
       0.20328125 -0.18192796 -0.20039827 -0.12455711
000150 f5 46 24 be f0 89 a4 be 9f b2 a1 3c 83 7c 0c 3e
       -0.16042693 -0.32136488 0.019738493 0.13719372
000160 69 9c cb 3d 13 8f 4b 3e d9 72 e5 bd 1c 13 87 3b
       0.09941942 0.19878797 -0.11203546 0.004122151
000170 ee 65 32 bd c9 b7 2c 3c d3 c3 ab bd c3 bd 1d be
       -0.04355424 0.010541865 -0.0838696 -0.1540442
000180 99 20 1d 3d b7 d2 8c be 00 cf 9a bd 8b 4e 4a 3e
       0.038361166 -0.27504513 -0.07559013 0.19756524
000190 fe 1a 00 3e fd f5 4a 3e 3c 51 ce bb 5f 51 69 be
       0.12510297 0.198204 -0.006296305 -0.22784947
0001a0 02 47 41 be 4d ab 71 be c0 74 89 3c f6 80 61 be
       -0.18874744 -0.23600502 0.016779304 -0.22021851
0001b0 62 a8 52 be a7 90 09 3e d3 08 bc bd 73 1c 4b be
       -0.20572045 0.13434087 -0.091813706 -0.19835071
0001c0 31 8f 03 bd 55 3a 6a bc a3 03 f4 3d 4f 4a 42 3e
       -0.03211898 -0.014296134 0.11914756 0.18973659
0001d0 5e 42 07 3b a3 a6 c7 bd 20 f5 45 be 3f 6f 03 3e
       0.0020638923 -0.0974858 -0.19331789 0.12835406
0001e0 c4 d2 80 3c 7b 6e fc bd 7e 2a 46 bd 39 f6 a6 3d
       0.0157255 -0.1232576 -0.048380367 0.08152432
0001f0 89 1b 52 be 25 82 1a be 16 1c 11 3c 66 f6 11 3d
       -0.20518316 -0.15088709 0.008856794 0.035635374
000200 21 17 39 3d ef 05 f1 bb e6 32 98 bc 7c ec 1a 3d
       0.045188073 -0.0073554437 -0.018578958 0.037823185
000210 7d 66 fa bd 59 db 0a be 95 eb de 3d 99 1f fe 3d
       -0.12226579 -0.13560237 0.108847775 0.124083705
000220 90 11 89 3e 5b e7 8f 3d ae 90 95 bc ab 75 13 3e
       0.26771212 0.070265494 -0.018257465 0.14400356
000230 77 12 20 be 4c ab cc 3c ef bf da bd 9e c4 26 3e
       -0.15632044 0.024984024 -0.1068114 0.16285941
000240 a5 79 e6 3d 22 61 f5 3d a0 75 48 be a6 55 67 be
       0.112536706 0.11981417 -0.1957612 -0.22591266
000250 b6 4a 88 be fc 0a 88 3e 1a a9 b3 3d f6 a0 25 3e
       -0.266195 0.2657088 0.08772488 0.16174683
000260 42 1b 2e be ae 90 72 3c e8 d7 a8 bb 07 76 2d be
       -0.17002586 0.014805002 -0.005152691 -0.16939555
000270 ce ca 58 3e 71 90 2a be 38 6d 55 be 5a 99 a2 be
       0.21171114 -0.16656663 -0.20842445 -0.31757623
000280 26 1b 4e bc 93 f4 16 3e d5 9b 47 3e c7 2e 57 3d
       -0.012579715 0.14741735 0.19493039 0.052534845
000290 2f 93 bf 3e 14 64 0b be 47 89 56 3e 1d 29 93 3d
       0.3741698 -0.13612396 0.20950805 0.07185576
0002a0 cc b5 13 3e ba 31 54 be cb 1d 72 3e 1e 10 5c be
       0.14424819 -0.20722094 0.23644178 -0.21490523
0002b0 c3 ab 57 3e 1b bd 5b bd 36 cf 99 3e 16 c1 10 bc
       0.21061616 -0.053647142 0.30040902 -0.008835098
0002c0 bd a1 5a be b4 36 13 be 80 15 92 bd d2 4b b0 bd
       -0.21350761 -0.14376336 -0.07133007 -0.086082116
0002d0 a8 46 43 be 06 4a 49 3e 99 b7 25 3e 6d f5 2f 3e
       -0.19069922 0.19657144 0.16183318 0.17183466
0002e0 da e8 0a be b6 c4 84 be 9a 43 b4 bd 93 08 ad bd
       -0.13565388 -0.2593133 -0.088019565 -0.08448901
0002f0 17 6b 98 3c f2 48 2b be a3 7c c1 bc 27 a6 4a be
       0.018605752 -0.16727045 -0.023619002 -0.19789945
000300 57 11 87 bd c6 62 93 3d f0 5b 4c 3e e5 e3 3b 3d
       -0.06595104 0.07196574 0.19956946 0.045871634
000310 7f ea d8 be ab e1 4b be b7 e1 f4 bd 15 db 68 3c
       -0.42366406 -0.19910304 -0.11957114 0.0142123895
000320 51 59 e8 3d 20 d3 ff 3d d0 78 11 be d1 30 4e 3d
       0.11345161 0.12491441 -0.14206243 0.050339524
000330 3c fa da 3c aa c7 18 bd 04 2f 87 3c 21 8b 59 be
       0.02673065 -0.03729979 0.016501911 -0.2124448
000340 57 0c a2 bb a8 62 10 3e ed e6 c9 3d 25 df 88 be
       -0.0049453187 0.14100134 0.09858499 -0.26732746
000350 e6 d7 99 3e 92 ad 0e 3e 7a 33 98 be c4 bf 4e bd
       0.3004753 0.139334 -0.29726774 -0.05047585
000360 85 a6 82 be 36 85 11 3e b4 b8 48 3e 74 a0 d3 bc
       -0.2551767 0.14210972 0.19601709 -0.025833346
000370 87 34 80 3e 89 eb 08 be de 76 78 3e 98 2d 29 3c
       0.25040075 -0.133711 0.24264094 0.010325812
000380 aa 0d 56 be 75 51 4b bd c8 8c 89 3e 6d 52 b5 bd
       -0.2090365 -0.04963823 0.2686522 -0.08853612
000390 0c c5 c1 bd 43 fe 93 be a5 50 53 be 11 49 53 3e
       -0.09461412 -0.28904924 -0.20636232 0.20633341
0003a0 ef 79 1a 3e eb 30 44 bd bc 72 de 3d ce 4a 60 3c
       0.15085576 -0.047898214 0.108617276 0.01368971
0003b0 bd 88 99 3d 78 73 82 3e 7f 6b 8a 3e a0 06 06 be
       0.07496784 0.2547872 0.27035138 -0.13088465
0003c0 3f 93 e6 3d 92 e4 cb bd 56 09 4a 3e f7 7e 00 3f
       0.11258554 -0.09955706 0.19730124 0.5019373
0003d0 83 18 04 3c 45 e9 98 3e 96 a1 2b be f2 af 84 3d
       0.008062485 0.2986547 -0.16760859 0.064788714
0003e0 1d fa d6 be 84 43 46 bd 59 ba 3f be 00 5e 21 be
       -0.41987696 -0.04840423 -0.1872343 -0.15758514
0003f0 79 d5 dd bc 19 79 68 be 5d 93 65 be 30 67 75 3e
       -0.02707933 -0.22702445 -0.22419496 0.23965144

fc1.bias f4 [256]
000000 72 a9 89 be 9d c0 3c 3e 16 ea 2a 3e 23 12 5b be
       -0.2688709 0.18432851 0.16690859 -0.21393637
000010 d2 78 a9 3c f4 4c 52 be eb fb 4c be 66 05 1c 3e
       0.020687494 -0.20537168 -0.20017974 0.15236434
000020 b9 4e 85 3e e2 94 30 be 2e eb 85 be 22 c1 7a be
       0.26036623 -0.17244294 -0.2615599 -0.24487737
000030 c6 6b b1 bb 12 97 09 be 06 4b 05 be 84 53 02 be
       -0.005414459 -0.13436535 -0.130169 -0.12727171
000040 cd 61 dd bd cd 2c 26 bc 2e 5a 39 3e 45 5c 55 3e
       -0.1080967 -0.010142517 0.18100807 0.2083598
000050 12 5f 27 be 84 d8 12 3e 85 99 94 3e 10 ad 86 be
       -0.1634486 0.14340407 0.29023376 -0.2630391
000060 57 2a b5 b9 eb 7e 96 bc c4 12 09 be f3 60 ea 3d
       -0.00034554556 -0.018371066 -0.13386065 0.11444273
000070 5e d4 9b be 97 ef 3d be ad 60 e8 3c 55 f2 09 3e
       -0.3043546 -0.18548428 0.028366411 0.13471349
000080 a9 38 16 3e 0c 7c 3a 3e ed 97 b4 bd 69 bf 59 be
       0.14670052 0.18211383 -0.0881804 -0.21264423
000090 83 88 98 3e 4a a8 d1 bc 1b f9 07 be 69 4f 8d bd
       0.2979165 -0.025592942 -0.1327862 -0.06899912
0000a0 58 de 7e 3e 2c 9c de 3d f4 7b b6 3c d7 fd fd bc
       0.24889505 0.10869631 0.022275902 -0.03100483
0000b0 89 04 b8 bb 73 67 e5 3b 02 c0 36 3e 7f ae 4c be
       -0.005615775 0.0070008575 0.17846683 -0.1998844
0000c0 70 5c 30 bd 55 50 82 3d 58 e7 0b 3d 74 d1 3c 3d
       -0.043056905 0.06362978 0.034156173 0.046098188
0000d0 56 22 29 3e be a1 49 3e ca 04 c7 bd 3d 17 6e 3e
       0.16517004 0.19690606 -0.0971771 0.23251052
0000e0 f0 96 27 3e 60 3a 09 3e 31 93 49 be 76 23 88 3d
       0.16366172 0.13401175 -0.19685055 0.06647389
0000f0 c1 58 49 be 1a e7 71 bd 39 58 4a be 3a 21 33 3c
       -0.19662763 -0.059058286 -0.19760217 0.010933215
000100 e5 d8 25 be 95 28 6c 3d c4 ee e7 3d 1e c7 6c bd
       -0.1619602 0.05765589 0.11324838 -0.05780708
000110 9b 75 cc bd 7f 02 52 be 53 56 0b be be 9c 44 bd
       -0.09983369 -0.20508765 -0.13607149 -0.048001043
000120 1d af 3e 3e 7a f8 a0 3b 2c 0c 20 be 09 04 3a 3e
       0.18621488 0.004912433 -0.15629643 0.18165602
000130 fa 86 04 3e c5 e2 e3 bd fb b5 89 3d ec 2b 00 3e
       0.12942114 -0.11127237 0.06724163 0.12516755
000140 01 ae a4 bd 98 0b 50 bd 15 04 84 be 46 da 0c 3e
       -0.08041001 -0.050792307 -0.25784364 0.1375514
000150 2d 97 91 bd 67 6f 73 bb de db 74 3e f5 56 2b 3e
       -0.071089126 -0.0037145258 0.23911998 0.1673239
000160 8f 49 b9 3c fe 6c 2e 3e c5 3c 14 3e 2e 12 92 3d
       0.022618083 0.17033765 0.14476307 0.07132374
000170 90 04 2e be 0b 63 82 bd 4f 9e b3 3c 54 20 b8 3b
       -0.16993928 -0.06366547 0.021926073 0.005619088
000180 ef ce 6c 3e 5d ea 4f be 95 2d 02 3e 51 21 87 3e
       0.23125814 -0.20304246 0.127127 0.26392606
000190 a9 c7 ea 3d 42 e7 4d 3e 5a f7 68 be dd 01 db bd
       0.114638634 0.20107749 -0.22750607 -0.10693715
0001a0 84 b6 94 be 24 38 6a be 6f 76 88 be bb 76 56 be
       -0.29045498 -0.22872978 -0.26652858 -0.2094373
0001b0 dd 5a 30 be 1e d4 d8 bd 2f 98 18 bc 6a c9 00 be
       -0.17222162 -0.10587333 -0.009313627 -0.12576833
0001c0 cb c4 57 3e b7 a2 2a bd e4 06 7e be fe e9 08 3e
       0.21071164 -0.041659083 -0.24807316 0.13370511
0001d0 33 dc 4a be 50 cf 4a 3e e8 b8 32 bd c6 68 3e 3e
       -0.19810562 0.19805646 -0.04363337 0.18594655
0001e0 72 15 69 bd a5 d1 cd 3d a7 49 9f 3c f3 c9 ae 3d
       -0.056905217 0.10049752 0.0194443 0.085346125
0001f0 36 19 11 3e 7d 63 b0 3d 6b b4 82 be 0d d6 e1 3d
       0.14169773 0.08612726 -0.25528273 0.11027155
000200 b7 db b1 be 29 75 85 3e ed 15 4f be 0a f1 83 be
       -0.34737942 0.2606595 -0.20223208 -0.25769836
000210 f4 99 ad bd 50 7e 67 bd 91 a0 5b be b2 9e 83 be
       -0.0847663 -0.056516945 -0.2144797 -0.25707012
000220 bb bc 2b 3e 8b e3 40 3e 4d 7a 49 3d ee 46 49 3e
       0.16771214 0.18836801 0.0491889 0.19655964
000230 14 a8 c6 bd 60 af 27 3e c0 59 87 bc b2 4d ca bd
       -0.09700027 0.16375494 -0.016522288 -0.098781005
000240 27 b0 37 3d 7d 9d c8 3d 82 f8 0e be 3e ea 66 3d
       0.044845726 0.097956635 -0.13961986 0.056375735
000250 68 85 53 be eb 8d 68 be 06 7e 4e bd c6 2c a1 bd
       -0.20656359 -0.22710387 -0.050413154 -0.07869868
000260 1a be 9c bd 5d ed 9f bd 32 de 31 be 8b 27 6a 3d
       -0.076534465 -0.07808945 -0.17369917 0.057166617
000270 13 e4 aa bd ae 0f 2f 3b db 34 12 3c 4e 8b bf 3d
       -0.08344283 0.0026712227 0.008923735 0.09352742
000280 ef 26 f4 3d e2 30 2d bd b4 02 9f be 77 1c a4 bd
       0.119214885 -0.042282946 -0.3105675 -0.08013242
000290 37 c1 0d 3d b3 0a 6e be fd e3 62 be 00 bc 55 be
       0.034608092 -0.23246269 -0.22157283 -0.20872498
0002a0 6f c0 04 3e 8d 22 64 be 76 88 c4 3c 67 3d 2f 3e
       0.12964033 -0.22278805 0.02399085 0.17113267
0002b0 8d 12 ab 3d 24 a8 72 3d bd 9d 17 3e 64 33 eb bd
       0.08353148 0.059242383 0.14806266 -0.11484411
0002c0 43 7a f0 3d 6d 63 63 be b1 4f d1 3d d5 bf 44 be
       0.117420696 -0.22205897 0.10220278 -0.19213803
0002d0 50 fb 20 be cd b1 f6 3d 64 0d 11 bd 05 a9 6f 3e
       -0.15720868 0.120456316 -0.03541316 0.2340432
0002e0 38 ba 48 be ba b4 b4 3d 33 15 9a bd 42 55 48 be
       -0.19602287 0.08823533 -0.07523575 -0.19563773
0002f0 d4 3e 21 3d d0 9e b5 3d 3f 4c e2 3d 71 d7 8b 3c
       0.03936656 0.08868182 0.11049699 0.017070504
000300 34 eb ff 3d f2 e0 fd 3d ca 92 22 3d 98 76 70 3e
       0.12496033 0.123964205 0.03969077 0.2348274
000310 31 0a 33 be 23 dd ab be d8 3c 2f be 59 17 84 be
       -0.17484356 -0.3356715 -0.17113054 -0.25799063
000320 12 44 37 bd 57 f7 42 3d 5e 4f 50 be 92 07 c2 3b
       -0.04474265 0.047599163 -0.20342776 0.0059213126
000330 cd ef 3e be d7 93 5b be 6b 4a 25 3e 3f 5f cd 3d
       -0.18646164 -0.21443115 0.1614167 0.100279324
000340 c4 a1 08 be c0 ce 8a 3d 24 9e 93 be 72 c1 8f bd
       -0.13342959 0.06777716 -0.2883159 -0.07019319
000350 45 64 16 3e d3 ff ab bd ca 3a 00 3e ae 21 60 3e
       0.14686687 -0.08398404 0.12522426 0.21887848
000360 c5 69 62 3c 67 d9 cb bd 4d e7 fd 3c 6d ef 5e 3e
       0.013819163 -0.099535756 0.030994082 0.21771021
000370 77 10 34 3e 55 08 26 be b8 91 7a bb ea f0 33 3d
       0.17584406 -0.16214116 -0.0038233828 0.043930925
000380 af 7c 38 3e e7 39 33 3e 01 47 dc 3d b9 82 60 3e
       0.18016313 0.17502557 0.107557304 0.21924867
000390 c9 11 6d be 2b e6 57 3e dc 1a 90 be 8a d5 26 3e
       -0.23151316 0.21083896 -0.28145492 0.16292396
0003a0 33 6c 0a 3e 4c b9 f2 3d dc b9 34 bc df cd 4c 3e
       0.13517837 0.11851749 -0.01103064 0.20000409
0003b0 00 ab 07 be 39 73 60 be 90 3f 44 be 40 08 19 3c
       -0.13248825 -0.21918954 -0.19164872 0.009340346
0003c0 3c 6e 28 be 33 b2 4a be 76 1b 08 3e 16 5c 70 3e
       -0.16448301 -0.1979454 0.13291726 0.23472628
0003d0 b4 e8 32 be 3d 59 83 bd a4 de eb 3c 30 4d 80 be
       -0.17471582 -0.06413505 0.028792687 -0.2505889
0003e0 b1 f1 50 3e 94 13 5a 3e 9b d2 af bd c2 9a 85 3e
       0.20404698 0.21296531 -0.08585092 0.26094633
0003f0 61 b4 15 3c 4a a8 69 3e 4b 05 3c 3e 84 4e be bb
       0.009137244 0.22818103 0.18361394 -0.0058076996

fc2.weight f4 [256, 256]
000000 ec 54 76 3d 28 67 e2 3c 58 08 72 ba 3c 63 e9 3c
       0.06013958 0.02763708 -0.00092328107 0.028489701
000010 14 af 0a 3d e8 7a 61 bd 6a cf 04 3d 76 9d 69 bd
       0.033858374 -0.055048853 0.032424368 -0.057034932
000020 e0 38 48 bb 54 6b 89 bd 4e 38 26 3d 1c 89 fd bc
       -0.0030551478 -0.06709924 0.04058104 -0.030949168
000030 b2 87 cf bb e6 1f 02 3d 13 ab 4a bd e3 57 27 bd
       -0.006333315 0.031768702 -0.049479555 -0.0408553
000040 a3 e3 9d 3c 8a 45 2d 3d fe 3f 70 3d ee ea 14 bd
       0.019273585 0.042302646 0.058654778 -0.03635686
000050 9c 8f f5 bc d7 e6 1e 3c 14 b7 e3 3c a6 80 67 bd
       -0.029975705 0.009698591 0.02779726 -0.056519173
000060 46 46 2b 3d e5 3e bf bc 58 21 34 bd f0 e5 2d bd
       0.041815065 -0.02334542 -0.04397711 -0.042455614
000070 66 79 ff bc e8 13 c6 3c 8a 99 4d bd 8e 0b 29 3d
       -0.031185817 0.024179414 -0.050195254 0.041270785
000080 0c 48 99 bb fe b8 35 3d 64 ea d7 3b b4 90 9a 3c
       -0.004677778 0.044365875 0.006589221 0.018867828
000090 f2 4e 4c 3c 3c 4d f8 bc 02 f5 76 bd 86 88 4e 3d
       0.012469994 -0.030310266 -0.06029225 0.050423168
0000a0 d0 31 de 3b a7 fd 07 bd a6 cc 07 bd 81 bc 41 bc
       0.0067808405 -0.033200886 -0.033154152 -0.011824728
0000b0 6c 33 45 bd ea ed 40 3d 81 61 78 bd d7 19 91 3b
       -0.048144743 0.047101893 -0.060639862 0.004428129
0000c0 28 3a 4a 3d fa c7 03 3d d6 6e 1d bd 28 09 44 3c
       0.04937187 0.032173134 -0.03843578 0.011965074
0000d0 4e 81 22 bb 60 72 e9 bc 85 6a a0 bc 8d 1f 8d bd
       -0.002479631 -0.028496921 -0.019582042 -0.068907835
0000e0 c6 8b 38 bd 64 5b 92 3c d2 b9 21 bd 61 fc 56 3d
       -0.045055173 0.017865844 -0.039483853 0.05248678
0000f0 db 5b 15 bd ae 80 54 bd e0 28 30 3d 24 b2 9b 3c
       -0.036464553 -0.05188053 0.04300773 0.019005843
000100 90 e7 36 3d 58 ab ac 3c a4 79 c1 bc 3e 31 49 3d
       0.04465443 0.021077797 -0.023617573 0.049119227
000110 26 2f 17 bd ea 69 3a bd 3d 17 06 3d 76 88 60 bd
       -0.0369102 -0.045511164 0.032737006 -0.05481764
000120 ec 59 16 3d d4 3d 27 bd 96 a5 bb 3c 39 33 fa bc
       0.03670685 -0.04083045 0.022906106 -0.030542003
000130 a4 9b 9f bc 60 5d b5 3c 2a 93 4b 3d 23 13 8c 3c
       -0.019483395 0.022139251 0.049700893 0.017098969
000140 98 1a d0 bc 05 14 59 3d ae 72 6b bc 50 68 43 3c
       -0.025403306 0.052997608 -0.0143706035 0.0119267255
000150 0c 1a dd 3c 23 d4 48 3d 50 d3 fb bc 3e 4d 33 bd
       0.02698996 0.049030434 -0.03074041 -0.043774836
000160 6b 8f 80 bd 3b ff b2 3c 76 de bd 3d 54 5d 7f bd
       -0.06277355 0.021850219 0.09270947 -0.062344864
000170 c0 02 1e bc 16 f1 00 bd 45 df 7d 3c 9c 9c b4 bc
       -0.00964421 -0.031479917 0.015495126 -0.022047333
000180 5a 36 49 bd c2 3b 01 bd 00 a2 f2 3a 4c ce 58 3d
       -0.0491241 -0.03155113 0.0018511415 0.052931115
000190 b0 e6 e4 bc ea 56 53 bd 9d 90 1f bd f0 77 68 bd
       -0.027942032 -0.05159656 -0.038956273 -0.056755006
0001a0 86 e9 5d bd 38 ca bb bc a0 00 85 3c e6 5d 76 bd
       -0.054177783 -0.022923574 0.01623565 -0.060148142
0001b0 78 29 f4 3c a4 88 f6 bc 2b 87 04 bd ec e6 55 bd
       0.02980493 -0.030094452 -0.03235547 -0.052222177
0001c0 30 51 47 bd 08 a9 dc bc 40 ed c6 bb 00 59 9e 3b
       -0.04866141 -0.02693607 -0.006070763 0.004832387
0001d0 b0 1b 5e 3b 8a f0 48 bd 37 ab ae bc 74 2f 8d bc
       0.0033891015 -0.04905752 -0.021321876 -0.017234541
0001e0 10 bc fe 3c 17 d4 02 3d bc 1c 06 3d 7b 99 99 bc
       0.031095535 0.031940546 0.032742247 -0.018749943
0001f0 3b f1 8b bd 48 c6 b5 bc f8 b9 68 3d bb 60 11 bd
       -0.068331204 -0.022189274 0.05681798 -0.03549264
000200 f2 a3 89 bd 64 a3 d5 bc 80 7b 80 3b 3a ee 11 bd
       -0.06720723 -0.026078887 0.0039209723 -0.03562758
000210 fc 8e dc bc 96 3d 60 bd b4 6c a4 bc cc 3e aa bd
       -0.026923649 -0.054746233 -0.020071365 -0.08312759
000220 e0 40 5c bb 73 9b 9d bd df 84 72 bd 56 2f 1b 3d
       -0.0033608004 -0.07695665 -0.059208747 0.03788694
000230 e4 89 b7 bc 54 44 33 3d 00 59 0b 3a 72 94 6f 3d
       -0.022404619 0.043766335 0.0005315691 0.058491178
000240 3c 10 02 bd d3 30 bf bb a8 c6 50 3d b6 25 31 3d
       -0.031753764 -0.0058346777 0.050970703 0.043248855
000250 8e 72 87 bd 13 b3 64 bd ec ca 8e bd 40 15 63 3b
       -0.066136464 -0.05583484 -0.06972298 0.0034650117
000260 30 13 2c 3d 36 71 0e bd 38 7d 35 bd 51 c5 ba bc
       0.042010486 -0.034775935 -0.04430887 -0.022799166
000270 00 88 99 bc 0b ee 5a bd c8 71 37 3c 44 70 23 3d
       -0.018741608 -0.05344967 0.011196561 0.039901987
000280 b8 fd d1 3c ad 21 dc bc 48 ce ab bc 4c 00 24 3d
       0.025633678 -0.026871527 -0.020972386 0.040039346
000290 7b b7 b0 3b 92 e1 48 3d b6 d0 4f 3d 55 2e 99 3c
       0.0053929663 0.049043246 0.05073615 0.01869885
0002a0 66 b9 4f bd a0 14 39 bc c0 61 df 3a 68 ac 4b 3c
       -0.05071392 -0.011296421 0.0017042682 0.012431242
0002b0 d6 03 86 bd 37 9f 06 bd 24 e1 5a bd 8b 61 76 bd
       -0.065437004 -0.032866683 -0.053437367 -0.060151618
0002c0 b7 87 a6 3c 75 b9 ef bc 46 ba aa 3c 70 f9 8c bd
       0.020328386 -0.029263237 0.020840775 -0.06883514
0002d0 22 94 0b bd d8 3f 0a bc 80 31 25 3c 80 36 51 3d
       -0.034076817 -0.008438073 0.0100826025 0.051077366
0002e0 10 6c d1 bc e0 9f 71 3c 96 52 ac 3c f2 eb 2d bd
       -0.025564224 0.01474759 0.021035474 -0.042461343
0002f0 d6 4b 47 3d 23 f3 86 bc 3e c4 6a bd 00 d9 c9 ba
       0.048656307 -0.016473358 -0.057316057 -0.0015399754
000300 2a 37 57 3c f5 4b 2b 3d 00 de f3 39 e8 82 91 3c
       0.013135711 0.041820485 0.00046513975 0.017762616
000310 d4 2f e4 3c f8 e4 4b 3d 94 ad 67 bd 66 1c 63 bd
       0.027854837 0.04977891 -0.05656202 -0.055447005
000320 5c a6 e0 bc b5 7a 14 bd 04 48 b7 3c c8 78 61 bd
       -0.027423076 -0.036249835 0.022373207 -0.055046827
000330 94 b8 77 bd 8d bb 9c 3b 14 1d 0c 3d 0c ef 46 3d
       -0.06047876 0.0047831 0.03420742 0.048567817
000340 38 c7 60 3c 2e 93 be bb dd c0 b4 bb 4f 6a 8a bd
       0.013719372 -0.005815885 -0.005516155 -0.06758558
000350 c6 62 a3 bc 28 e1 0b 3c 10 57 8d 3c 0b a9 fc 3c
       -0.01994456 0.008537568 0.017253429 0.030842325
000360 91 7d 0a bd 01 7f 88 3c 3d 1f 86 bd 2c 47 ea 3c
       -0.033811156 0.016662123 -0.06548927 0.02859839
000370 fa 44 11 bd 9a 7f 3f bc fc 07 7b bd b2 e8 67 3d
       -0.03546617 -0.011688137 -0.06128691 0.0566184
000380 34 44 4f 3d df b3 32 3b 1e 6f 2e bd d8 dd 07 bd
       0.050602153 0.0027267856 -0.04258644 -0.03317055
000390 ac 24 2f 3d b2 91 29 bd 18 2a 26 bd b0 22 e3 bc
       0.042759582 -0.04139871 -0.040567487 -0.027726501
0003a0 c0 5f 3f bd 58 22 00 3d e0 c8 34 3c 7a 00 67 bd
       -0.046722174 0.031282753 0.01103422 -0.05639694
0003b0 df 8c ff bc 98 78 06 3c e3 6b b9 3c dc 36 d9 bc
       -0.031195102 0.008207463 0.022634452 -0.026515417
0003c0 48 58 22 bd 40 fb bc 3b ae 84 1c 3d bf bc 81 bc
       -0.039634973 0.005767256 0.03821247 -0.015837071
0003d0 92 65 bc 3c ce 83 4a bd 7b 0e 45 bd 90 a8 ca 3c
       0.022997651 -0.049442105 -0.048109513 0.02473858
0003e0 67 23 f5 bc 06 d8 35 bd 57 e9 8d bc c5 98 e0 3a
       -0.029924108 -0.04439547 -0.01732318 0.0017135373
0003f0 b4 73 54 bc 13 e3 a9 bd 7d d3 a7 bd e8 c0 d5 3c
       -0.012967039 -0.08295264 -0.08194635 0.026092961

fc2.bias f4 [256]
000000 4d ff f8 bb a8 a6 88 bd da 8b 44 bb bb 8f 1d bd
       -0.0075987936 -0.06672412 -0.0029990585 -0.03846715
000010 16 bd 0c 3d f8 82 db 3c 49 9b a8 3d a7 fe 02 3d
       0.034360014 0.02679585 0.08232743 0.031981137
000020 3b 00 0b 3d 87 14 19 bc 8e 4e 3a 3d 38 e9 1b bd
       0.033935767 -0.009343273 0.04548507 -0.03806421
000030 85 90 c6 3d e3 83 27 3d 65 62 ad 3b d8 a6 38 bd
       0.09695534 0.04089726 0.0052912706 -0.04508099
000040 c5 84 3d bd e0 11 83 3d 2c 78 d8 3b b5 89 73 bd
       -0.046269197 0.06399894 0.0066061225 -0.0594575
000050 88 5c c0 bc b9 23 c5 3c 36 5b 88 bd 24 89 ae bb
       -0.023481622 0.024064885 -0.06658022 -0.005326407
000060 1f 30 e0 3c 60 24 1c 3d 74 71 d5 bc 38 c3 27 bd
       0.027366696 0.038120627 -0.026055075 -0.04095766
000070 ce 11 80 bd ea 0c 09 3d c9 2d 61 bc ca 8d c1 bb
       -0.06253396 0.03345958 -0.013743826 -0.005906795
000080 00 58 fc bb 1e 0a d3 3d 7a b8 f9 bc b4 3b cb bc
       -0.00770092 0.10304664 -0.030483473 -0.024808742
000090 5b fe e1 3d 87 42 01 3d 88 6e 4f bc de cf 9f bd
       0.110348426 0.031557586 -0.01266063 -0.078033194
0000a0 b4 d8 e9 3c 10 5b 2e bb 72 b5 9b 3d 89 4b 06 3d
       0.028545715 -0.002660457 0.07602967 0.03278688
0000b0 5e e9 fd 3c 10 87 3d bd 38 51 35 3d 11 4e 0e bd
       0.030995067 -0.046271384 0.04426691 -0.03474242
0000c0 7a b9 d7 bc f5 34 53 bd 2c 67 26 bd bf 3c a5 3c
       -0.02633356 -0.051564176 -0.040625736 0.020170568
0000d0 c0 e5 86 ba ce dd c6 3b 50 9b 27 3c 80 38 6f bd
       -0.001029186 0.0060689216 0.0102299005 -0.058403492
0000e0 15 8d 6a bd 30 64 8d bb b3 a5 3b 3d 2a 18 1a bc
       -0.057263453 -0.004314922 0.04581232 -0.009405175
0000f0 f5 71 15 bd 97 15 5e bc 65 67 dd bc 18 dd 11 bd
       -0.03648563 -0.013554952 -0.027026841 -0.035611242
000100 c4 d9 95 bc 30 a8 58 3c a0 c1 9d bd 51 3e d0 3c
       -0.018292315 0.013223693 -0.07702947 0.02542034
000110 da c1 dc 3c 6f 65 5e bd 1a 9f fd 3b 36 be 7b bc
       0.026947904 -0.054295953 0.0077399136 -0.015365174
000120 50 3e 28 3d 46 d3 a7 3d e8 8b 7d bc 35 b0 75 bd
       0.04107505 0.08194594 -0.015475251 -0.059982497
000130 a1 0d 69 bd 97 69 ae 3d 23 e0 ae bc d3 64 da 3a
       -0.056897763 0.085162334 -0.021347111 0.0016662128
000140 43 30 94 bd 8b 05 6e 3d ef cc 90 3d 1a 06 a3 bd
       -0.07235768 0.058110755 0.07070338 -0.07960148
000150 e2 68 9e bc ce 5d 11 3d b8 9b 11 3c 6f 83 a9 bd
       -0.019337121 0.03548985 0.008887224 -0.08277022
000160 ea e7 1d bd bd 91 1e 3d 1c e6 fc 3d 11 b8 a4 bc
       -0.03855125 0.038713206 0.123485774 -0.020107301
000170 f4 c7 05 3d 33 34 c3 3c 6d c1 ab 3c fb c4 1e bd
       0.032661393 0.023828601 0.020966256 -0.038762074
000180 f2 90 41 bd 1a 4e df 3d 18 fe 1d bd df 5a 63 3c
       -0.04725737 0.109035686 -0.0385724 0.013876646
000190 66 39 8a bd d2 44 56 bd d0 b3 a2 bd d3 c0 2f ba
       -0.06749229 -0.052311726 -0.07944453 -0.0006704453
0001a0 cb 11 21 3d 42 a0 83 3c fc 0b a2 3d b8 41 a5 3c
       0.03932361 0.016067628 0.07912442 0.020172939
0001b0 9d 78 88 3d c8 a6 08 bd c8 a9 85 bd 85 f8 18 bd
       0.0666363 -0.03336218 -0.06526524 -0.03734638
0001c0 ee 54 17 3d 70 79 bb 3b e0 81 00 bc a3 e0 e0 bd
       0.03694623 0.0057212636 -0.007843465 -0.10980346
0001d0 a0 8a d2 bb 18 61 02 bd e6 24 21 bd 41 ec d4 bb
       -0.006425217 -0.031830877 -0.03934183 -0.00649789
0001e0 0c b0 7b bc eb 5c 20 bd 3b 64 33 bc 64 ce a0 bc
       -0.015361797 -0.039151113 -0.01094919 -0.019629665
0001f0 64 d2 08 3d db ce ba bd fd 07 d4 bc 08 fb 1f 3d
       0.03340377 -0.09121486 -0.025882715 0.03905776
000200 e4 94 09 3d 96 f0 40 3d 02 63 71 bd e3 a0 bc 3c
       0.03358926 0.04710444 -0.05893231 0.023025936
000210 28 5c 38 bc cb 1e 88 bd a7 a9 e5 bc f8 01 4c bc
       -0.0112524405 -0.06646498 -0.028034998 -0.012451641
000220 28 99 f3 3c 14 67 b5 bb 40 9e 62 bb 2c a9 a7 bc
       0.029736117 -0.0055359695 -0.0034579188 -0.02046641
000230 c0 6f a6 bb 4c 86 80 3c 9d e7 ed 3c b7 16 6d 3d
       -0.0050792396 0.015689038 0.029041106 0.05788299
000240 1b bf b6 bc 92 9f 32 bd 25 e3 6f 3c 40 81 15 bc
       -0.022307923 -0.04360921 0.014641558 -0.009125054
000250 a3 52 18 bd 7e e4 cd 3c 66 f2 2d 3c 28 db 70 bc
       -0.037188184 0.025133368 0.010616874 -0.014700688
000260 97 98 24 3c c1 07 37 3b ee f7 c5 3c 84 4b 31 3d
       0.010046146 0.0027928206 0.024166074 0.043284908
000270 07 df 98 bd a9 2b 54 3d 91 bc 00 3d 47 d5 81 bd
       -0.07464414 0.05179945 0.03142983 -0.063395076
000280 10 6d d1 bc d6 1e 0a 3c 7f 9d 62 bd 66 46 0d bd
       -0.0255647 0.008430203 -0.05532598 -0.034490965
000290 0a 04 2a 3d f8 80 50 bd 36 85 a5 3d 51 2a 85 3d
       0.04150776 -0.050904244 0.080820486 0.06502212
0002a0 45 c3 89 bc c3 c4 96 bc ad 0a b5 bc 2d 6c 21 3d
       -0.016816745 -0.01840437 -0.022099817 0.039409805
0002b0 b0 9c dd bb ed a5 83 bd 16 32 2b bc 25 82 ec bc
       -0.0067630634 -0.06428132 -0.010448953 -0.028870651
0002c0 b1 72 62 bd 90 0e 36 3b 43 65 8d 3d bd b4 f0 bc
       -0.05528516 0.0027779676 0.0690408 -0.029383058
0002d0 78 ab 85 3d 67 da 9d bd f0 90 57 bd 2a fa 55 bd
       0.06526846 -0.077076726 -0.052628458 -0.05224053
0002e0 69 3e 8e bd 06 fe 5d 3d b6 24 6a bd 63 aa da 3c
       -0.069454975 0.054197334 -0.057163917 0.026692575
0002f0 76 66 0d bd f9 f2 20 3d 5b 63 2a bd 9c ab 00 3d
       -0.034521542 0.039294217 -0.04159866 0.03141366
000300 cb 8f 4f 3b ee 97 65 bd 5f 0a 49 3b 50 0a 81 bb
       0.00316714 -0.056053095 0.0030676348 -0.003937997
000310 36 8e 19 3d 74 83 b2 3d 42 5e 03 3d 4b 0d b4 3c
       0.03748914 0.08716479 0.032072313 0.021978995
000320 1a c2 c6 bc 5c 81 02 bd 8c ae 7c bd 7f fb 97 3c
       -0.024262477 -0.031861648 -0.0616899 0.01855254
000330 82 9f b3 ba 9b 5e da bc c8 94 56 3d b0 ca 85 bb
       -0.0013704153 -0.02665644 0.052387983 -0.004083
000340 0d 23 07 3d 11 c5 45 bd 77 fa 4d 3d 89 7a 16 bd
       0.03299241 -0.04828364 0.05028769 -0.036737952
000350 6d 4f f8 bb e0 d1 25 bc f2 c8 0c 3d ec 43 2d 3d
       -0.0075778277 -0.010120839 0.034371324 0.042301103
000360 25 9d 20 bd dd 74 ec 3c 07 58 8d bd 7a 2b 3c bd
       -0.039212365 0.028864319 -0.069015555 -0.0459399
000370 94 51 c6 3c e9 c5 2d 3d 53 a1 6d bd 9d f4 9b bd
       0.024208821 0.04242507 -0.05801518 -0.07615016
000380 98 59 cf bc c1 85 9f bd 8a 59 86 bc 1a aa 71 3d
       -0.025311276 -0.077891834 -0.016400117 0.059000112
000390 e9 23 44 3d 9b 48 0c 3d 02 63 04 3d ee aa 92 39
       0.04788581 0.03424893 0.032320984 0.00027974643
0003a0 07 29 80 3d 5f a7 0b bc a4 08 c0 3a 41 17 71 bd
       0.06257825 -0.008523791 0.0014651013 -0.058860067
0003b0 d3 f0 83 bd a7 a4 ae 3c 60 72 19 bd 43 e5 1f 3d
       -0.06442418 0.021318747 -0.037462592 0.039037
0003c0 20 0b 66 3b aa f4 74 bd 56 d5 55 bd 16 72 55 3d
       0.0035101846 -0.059803642 -0.052205406 0.052110754
0003d0 e7 a2 80 3b ad cb ad bc 71 22 79 bc e0 64 9f 3c
       0.0039256695 -0.021215284 -0.015205965 0.01945728
0003e0 38 55 b2 3c c1 9d c1 bc 88 5e 81 bc 40 20 ca 3b
       0.021769151 -0.023634793 -0.015792146 0.0061683953
0003f0 b0 61 44 3d 85 3e 86 3d 81 38 55 3d 71 a9 70 3d
       0.047944725 0.065548934 0.05205584 0.058755342

fc3.weight f4 [5, 256]
000000 ce 8a 20 bc 4f 87 fe 3c c6 46 82 3d 2d e6 bb bc
       -0.009798719 0.03107038 0.06361155 -0.022936905
000010 96 af 3f 3d 40 39 21 3d 72 d3 f7 3d f6 77 da 3d
       0.04679831 0.03936124 0.12100877 0.10667412
000020 ca 08 d1 bc 34 13 89 3c 21 7e 45 3c c5 fa 5b bd
       -0.025516886 0.01673279 0.012053997 -0.05370595
000030 0d 29 27 3e e3 42 ab bc a6 1f 4c 3e e8 82 54 bd
       0.16324253 -0.020905918 0.19933948 -0.051882654
000040 0e 50 62 3d 1f de 8c 3f 0c 0f 62 3d 7e dd 2f bd
       0.055252127 1.1005286 0.05519013 -0.04293584
000050 6f 3c c5 bd f7 d6 83 3c 27 05 f6 ba 5d 34 13 bd
       -0.096306674 0.016093714 -0.0018769846 -0.03593861
000060 32 3d b3 bc 62 d5 7a 3d e2 f6 53 bd ab 19 51 3c
       -0.021879766 0.061238654 -0.051749118 0.012762467
000070 e1 dd 34 bd 98 51 75 3d 45 ae 04 bd 74 90 9f bb
       -0.044156913 0.059892267 -0.03239276 -0.004869515
000080 1c ac 41 bd 76 89 a6 3d 02 b4 4a 3d 48 79 64 3c
       -0.047283277 0.08131687 0.049488075 0.013944931
000090 d8 24 31 3d 80 b5 67 3b 94 dd de 3c 68 d4 0c 3d
       0.043248028 0.0035355985 0.027205266 0.034382254
0000a0 c6 ec 98 3d 77 30 4a 3d 53 b1 e6 3d 9f 87 e2 bc
       0.07467036 0.049362626 0.11264291 -0.02765256
0000b0 3a 66 9e 3e 38 0c 60 bc 5e 24 e0 3c e0 7d 0d 3b
       0.30937368 -0.013674788 0.027361091 0.002158992
0000c0 a7 8f 00 bc e0 66 14 3c 6f 3d 50 bd 83 c5 20 bc
       -0.007846749 0.00905773 -0.050839838 -0.009812715
0000d0 80 eb 5f 3b 3c d4 20 bf d2 74 64 bc 09 d7 c6 be
       0.0034167469 -0.62823844 -0.013943868 -0.38835934
0000e0 d6 12 6d bd 24 f7 21 bd 0f 5f 1a 3e 3f 4a c8 3d
       -0.05787929 -0.039542332 0.15075324 0.09779786
0000f0 bb 3f 25 3d 96 64 57 3e 39 9d c1 3c a1 7b d5 bc
       0.04034398 0.21034464 0.02363454 -0.026059927
000100 a6 e4 3d 3d 43 fc 72 3a f2 be cb bc 91 1d 66 3c
       0.046360634 0.00092691573 -0.024871323 0.014045135
000110 01 65 0a 3e 43 08 93 bd ad 1b c3 be 45 61 9a bc
       0.13515092 -0.0717931 -0.38107052 -0.01884521
000120 f7 3a 8d bc 4a 6e 1c 3e 00 98 82 39 11 b3 24 bc
       -0.01724003 0.15276447 0.0002490878 -0.010052458
000130 ec 0d f3 3c c6 c7 f1 3d 38 a8 4a bd fa 1d 0a 3c
       0.029669724 0.11805682 -0.049476832 0.0084299985
000140 d2 06 07 bd 4e d1 52 3d 95 74 0c bf bf cf b1 bd
       -0.03296549 0.05146914 -0.5486539 -0.086822025
000150 cc b8 74 3d 62 78 18 3e 4c 22 d4 bc b5 01 32 3e
       0.05974655 0.14889672 -0.02589526 0.17383464
000160 00 22 d2 b9 d0 84 ff 3c 5e af d7 3d cc b1 26 3e
       -0.00040079653 0.03119126 0.105314955 0.16278762
000170 2c fc a7 bc 3a df a8 be 3c 92 14 3d d6 cb 29 be
       -0.020505987 -0.32982808 0.036272272 -0.16581663
000180 08 14 81 3c 44 20 b8 3d 61 0a a0 3b 40 89 e1 bc
       0.015756622 0.08990529 0.0048840498 -0.027531266
000190 1e 85 b8 3c c0 55 29 bd 46 1c 35 bc bf c0 e0 3d
       0.022524413 -0.041341543 -0.011054104 0.109742634
0001a0 53 e1 32 3b cc 4b 99 3c 80 a7 db 3d c8 7a 03 3d
       0.0027294948 0.0187129 0.107253075 0.032099515
0001b0 59 51 d3 3d 7b 75 51 3c 16 87 42 bd 80 6f 12 3b
       0.1031825 0.012784357 -0.04749211 0.0022344291
0001c0 7c a8 d3 3c f9 10 41 bd 5a 94 02 3d 13 ee c1 3d
       0.025837176 -0.047135327 0.03187976 0.09469237
0001d0 aa 4e 3e bd 34 d4 45 3e 0c aa 3c 3c 3a b7 17 3f
       -0.04646174 0.1931923 0.011515152 0.59263957
0001e0 31 c4 c7 bc b6 50 d2 3c e4 b3 6c 3d 34 d2 e0 3c
       -0.024385544 0.025673252 0.057788745 0.027443983
0001f0 5d f7 93 3e 7c 32 82 3b 3f eb c4 bd 2e 30 6a bd
       0.2889966 0.0039733034 -0.09615182 -0.057174854
000200 ca 8c 09 3c 28 58 2a 3e 00 40 01 b9 70 93 f5 bc
       0.008395383 0.16635191 -0.0001232624 -0.02997753
000210 38 e6 5e bd 6a 3c 3e 3d 87 40 1f bd bc a0 f6 3c
       -0.054418772 0.046444334 -0.038879897 0.030105941
000220 70 ad 8b bc 06 bc ac be 10 f1 d2 bc 6c dd 57 bc
       -0.017050475 -0.337372 -0.025749713 -0.01317535
000230 a8 f7 73 bd 82 78 b2 3d ae 54 00 bd 03 aa 63 bc
       -0.059562355 0.08714391 -0.031330757 -0.013895514
000240 f0 a9 c4 3b cc 6f 4a 3d 04 2e 46 3c 24 61 6d bd
       0.0060017034 0.049423024 0.012095932 -0.05795397
000250 c4 b7 33 3d 76 e9 50 3d 0f 18 5e 3d 98 1d 05 3d
       0.043876424 0.051003896 0.054222163 0.032498926
000260 fe 1d 3f bd e5 16 eb 3c ce 29 8d bc 86 3a f3 bc
       -0.046659462 0.02869744 -0.017231848 -0.029690992
000270 3e ba 72 3b a9 26 64 3e f4 69 93 bb e9 4f e5 3a
       0.0037037279 0.22280373 -0.0044987146 0.0017495129
000280 67 c7 e3 3e 40 95 33 3e 13 72 5c 3d 58 4b d7 bc
       0.4448807 0.17537403 0.053819727 -0.026281044
000290 bc a9 11 3d 8a c8 1d 3d 51 87 50 3e ea 56 21 be
       0.035562262 0.038521327 0.20364119 -0.15755811
0002a0 f4 0c ac bc 26 00 f6 bc 0b 41 c7 3d f3 48 42 bd
       -0.02100227 -0.030029368 0.09729203 -0.04743285
0002b0 ca 13 2d bd ab 97 45 bc fe ba db 3d f8 c6 10 3c
       -0.0422552 -0.012060086 0.10729025 0.0088365
0002c0 00 00 76 bd 18 7e 5d 3c e2 a5 c7 3d 75 f0 2f bd
       -0.060058594 0.013518833 0.097484365 -0.042953927
0002d0 7a 77 c1 3d c4 08 e3 bc 02 8f 03 3d 48 a6 07 bd
       0.094466165 -0.02771414 0.032118805 -0.033117563
0002e0 92 56 af bb cc 5a 4f 3d ef 0a 72 bc 18 11 da 3c
       -0.005350896 0.0506237 -0.014773115 0.026619479
0002f0 1e 62 16 3c ee cd 16 bb be a7 6d bd f2 ce 29 bc
       0.009178666 -0.0023010927 -0.0580213 -0.010364281
000300 fc 0f 31 3e e8 46 cb bc 9c ae bb bb 2b f1 21 bc
       0.17291254 -0.024814084 -0.005727602 -0.009884159
000310 d4 16 f4 bc d7 e0 39 3e a8 0e 06 3c e8 1f 2a bc
       -0.029796042 0.18152176 0.008182205 -0.010383584
000320 c4 7b 3e 3c c6 63 3e 3d 38 dc ed 3c 03 04 1a 3e
       0.011626188 0.04648187 0.029035673 0.15040593
000330 dc 6e df bc 66 9c c3 3c 5d a7 e8 3d 94 88 41 bd
       -0.027274542 0.023878288 0.11360047 -0.04724939
000340 76 83 30 bd 45 64 9e bd 16 90 33 3d d4 a5 76 3c
       -0.04309412 -0.07733969 0.043838583 0.015054185
000350 8c 02 bd bc 24 e8 c0 3c 4e db 4e 3e 60 72 4a bc
       -0.023072504 0.023548193 0.20200846 -0.012356371
000360 7c f7 ad be dd 35 b7 3d 6b be bb 3b 82 0e 85 3c
       -0.33977878 0.089458205 0.0057294867 0.01624227
000370 82 e3 13 3d 48 7c ad 3d 78 d5 59 bd f1 c3 2b 3c
       0.03610564 0.084709704 -0.053182095 0.010483728
000380 70 8e 82 3b 49 07 8d 3d e8 65 56 3d 78 5f 50 bc
       0.003984265 0.06886155 0.05234328 -0.012718074
000390 81 99 27 3e 7c 53 ea bc 42 47 1f 3d d9 1e ab bd
       0.16367151 -0.028604262 0.038886316 -0.08355493
0003a0 aa d4 72 3d 4a 4e c0 bb e2 65 9b bc da 6a 2f bd
       0.059284844 -0.005868708 -0.01896948 -0.04282651
0003b0 4f 94 9f bc 8a f0 2f 3d 20 77 99 3b eb f1 15 bd
       -0.019479899 0.042954005 0.0046833903 -0.036607664
0003c0 ec a1 28 3d ae 99 27 3d 04 d5 e4 bc 00 81 d1 b9
       0.041170046 0.040918045 -0.027933605 -0.000399597
0003d0 55 fd 57 3e bd 2d e7 3d 8f a3 85 bd fe 9b 27 bd
       0.21092732 0.11288021 -0.06525337 -0.04092025
0003e0 eb a6 53 3c 98 71 d4 bc d8 18 cb bc be 54 16 bd
       0.012918214 -0.025933072 -0.02479212 -0.03670191
0003f0 33 5b cd 3d 86 05 a6 3d f0 08 f8 3d 5f 3b 0a 3e
       0.100271605 0.08106522 0.1211108 0.13499211

fc3.bias f4 [5]
000000 17 2d c7 3d 21 f2 93 3d 0d f5 b0 3d c0 7a b7 3d
       0.09725397 0.07223917 0.0864049 0.089589596
000010 64 9f 2d 3d
       0.042388335
