model/dqn_team_a_ep20.pth (torch, 286773 bytes, 6 tensors)

fc1.weight f4 [256, 14]
000000 dc 97 1d 3e 8b 4e 8d bc 66 88 81 be f6 4d 2b 3c
       0.15389961 -0.017249366 -0.25299376 0.010455599
000010 9b d6 d0 bd ed c8 1c 3d 4f 8b f5 3c ff 76 29 be
       -0.10197183 0.038277555 0.029973654 -0.165493
000020 d6 90 cb 3d ac 2d 02 3d 88 c4 13 3e 22 d8 1b 3e
       0.09939735 0.031781837 0.1443044 0.15219167
000030 4f e1 ac 3d 42 0b 84 be da a5 c7 3d fb 2a cb bd
       0.08441412 -0.2578984 0.097484306 -0.09920307
000040 30 6b bc be 34 f1 30 3e 51 a4 30 3e a5 2b 57 be
       -0.36800528 0.17279512 0.17250182 -0.21012743
000050 df 63 0f 3e f9 b3 11 bd ae 34 a7 be b9 a8 3a 3e
       0.14002942 -0.035572026 -0.3265738 0.18228425
000060 f4 8c 27 be 75 2e 31 be 79 76 e3 3d 1f bb 60 3e
       -0.16362363 -0.17302878 0.11106581 0.21946381
000070 b7 f5 b1 bd 0b 34 02 3e ae c9 07 be 5f e5 85 be
       -0.086894445 0.12715165 -0.13260528 -0.2615156
000080 07 58 90 be 3d 49 01 3e f5 40 41 b9 01 e3 e9 bb
       -0.2819216 0.12625594 -0.00018430113 -0.0071376567
000090 9c 91 46 be 0c 38 4b 3e a8 d3 1c be 7b 6c 9a bd
       -0.19391483 0.19845599 -0.15315115 -0.07540222
0000a0 04 33 32 3e fd 36 a4 3d a7 ac 82 be c4 ec 6f be
       0.17402273 0.08018301 -0.25522348 -0.23430163
0000b0 6d 3e da bc 63 0e 6f 3e 30 54 70 be c5 8b cf bd
       -0.026641095 0.23345332 -0.23469615 -0.10134081
0000c0 3e 1d 28 bd 7e b8 58 be a5 59 31 be 57 0c a8 bd
       -0.041043513 -0.21164128 -0.17319353 -0.08205479
0000d0 fd 48 0a 3d 47 d6 c7 bd ed fe a1 3d 43 93 5f 3d
       0.033761013 -0.09757667 0.07909951 0.0545838
0000e0 63 d7 63 3e 05 30 87 3d f1 98 21 3e f3 d2 f6 3c
       0.22250132 0.06600956 0.15780999 0.030129885
0000f0 26 1c 19 be 01 95 02 bf ee 8e bb 3d 15 fe 23 be
       -0.14952144 -0.5100861 0.09158121 -0.16014893
000100 7a 82 b6 bd 61 05 66 be 38 e3 be 3f d3 66 9c 3d
       -0.08911605 -0.2246299 1.4913092 0.076368
000110 50 6c 97 3d 17 93 bf 3d a4 64 84 3e 21 54 55 3d
       0.07393706 0.09354227 0.25858033 0.052082185
000120 aa 26 9c bc 6a b7 f7 bc a0 9d 8f bd 59 23 3c 3e
       -0.019061405 -0.030238826 -0.070124865 0.18372859
000130 a4 49 56 bc 50 2e 81 be 42 b2 cb bd db ab ec 3d
       -0.013079081 -0.25230646 -0.09946109 0.11556216
000140 6d b9 46 be 26 da 8b 3d f2 ee 4e be 31 28 30 bc
       -0.19406672 0.06828718 -0.20208338 -0.01075177
000150 3d ce 2a bd 81 20 b5 3d 73 e9 92 be 73 6d 2c 3e
       -0.04170059 0.0884409 -0.28693733 0.16838627
000160 b7 7c 18 3d 67 7f 20 3c 03 f9 8f 3c 5b 53 b3 3d
       0.037228312 0.009796 0.017574793 0.08756133
000170 cb 64 b6 be 8d af 3a be 1a a9 b0 bf 1a cd 6e 3d
       -0.35623774 -0.1823103 -1.3801606 0.05830107
000180 45 e6 84 3e 26 b7 ab bd f7 9b a4 bd 40 72 1d be
       0.25956932 -0.08384542 -0.080375604 -0.15375614
000190 50 e2 d0 3d 14 f2 1a bd e2 a7 5c 3e 41 b2 43 be
       0.10199416 -0.03782852 0.21548417 -0.19110967
0001a0 0e cc 93 bd 4f 16 44 be 1f 4a 4f be 65 1a 81 3c
       -0.07216655 -0.19149135 -0.20243119 0.015759656
0001b0 34 0f f6 bc 5c 38 1e 3e 3e ed ae bd 51 82 7f 3e
       -0.030036546 0.15451187 -0.08541344 0.24952056
0001c0 06 86 94 3e e5 78 fb 3d 70 13 62 3d f9 c6 21 3d
       0.29008502 0.12278918 0.05519432 0.039496396
0001d0 6a 91 96 be de 09 c5 be 5b f3 ac bd 07 eb 56 be
       -0.29407817 -0.3848409 -0.08444854 -0.20988093
0001e0 5f 88 05 3e 5a 0f 03 bd 87 00 09 3f b2 38 4e 3e
       0.13040303 -0.031997062 0.5351643 0.20138815
0001f0 1b 62 30 3e 36 3b 2b 3e 40 77 97 3d 9c 06 96 3e
       0.17224924 0.16721806 0.07395792 0.29301918
000200 b9 d3 4c be 5f d4 4a be c7 5b 19 3d 0e 16 ed 3d
       -0.20002641 -0.19807576 0.03744104 0.11576472
000210 2e c4 fb 3d 0a e1 84 3e 59 a2 bd be 3a b0 58 3e
       0.12293278 0.2595294 -0.37037924 0.21160975
000220 40 48 de be e7 bd 63 bd a1 01 16 be ba cf 0a bc
       -0.43414497 -0.055601027 -0.14649059 -0.008472377
000230 ac c1 a3 3e f9 19 d6 be b5 46 c1 3c be 82 0b 3e
       0.31983697 -0.4181669 0.023593286 0.13624093
000240 78 f3 72 be a5 1c bc be 42 c1 0c 3e 69 07 76 3d
       -0.23725688 -0.36740604 0.13745597 0.06006566
000250 ec 93 6a 3e f0 04 8a be 62 b1 82 3f f5 4c 4e be
       0.2290799 -0.26956892 1.0210383 -0.20146544
000260 e4 75 60 3b e7 39 53 3e 23 de 84 3d ba 01 7a bd
       0.0034249956 0.20627557 0.06487682 -0.061036803
000270 65 88 18 3e 4a 4c 68 be 02 53 b9 bd f9 7e 0b be
       0.1489578 -0.22685352 -0.090490356 -0.13622655
000280 0e fe 19 3e 74 ba 33 3d cc de 81 3e 15 bd e2 3d
       0.1503832 0.043878987 0.25365293 0.11071221
000290 08 e4 8f 3f af 62 3a 3c d6 3f 3a 3d 3c 71 90 be
       1.1241465 0.011376067 0.045471035 -0.2821139
0002a0 47 c2 54 be 2e 90 7d be 8f bd 10 3e a7 8b 8e ba
       -0.20777236 -0.24762031 0.14134811 -0.001087536
0002b0 42 01 27 bb 18 38 9e 3c d3 d4 53 bd b9 37 67 be
       -0.0025482927 0.019313857 -0.051716637 -0.2257985
0002c0 2d 59 d3 bd b1 c0 44 3e 81 ad 22 3e cd 50 39 3e
       -0.10319743 0.19214131 0.15886499 0.1809723
0002d0 59 1a 03 3e 2f db de bd 82 0e a7 3d a1 d1 85 be
       0.1280302 -0.1088165 0.08157064 -0.26136497
0002e0 ea ea 80 be b3 c3 81 be f6 a2 b5 3d 24 2e a5 bd
       -0.25179225 -0.2534462 0.08868973 -0.08065441
0002f0 a3 64 3f 3d 9b 47 51 be ea d7 92 bd aa 7e 75 3e
       0.046726834 -0.20437472 -0.071700886 0.239741
000300 d7 e4 34 be bf 5d 0e be 16 55 17 bd 5c 9e 1b bc
       -0.1766542 -0.13902949 -0.03694638 -0.009498205
000310 ad 5d f0 bd e6 12 6f be 4f 25 82 3e 1b 5d 72 be
       -0.11736617 -0.23347053 0.2541909 -0.2366833
000320 07 d1 5a be 97 cc 27 3e a8 de 71 be e8 aa 85 be
       -0.213688 0.16386639 -0.23620093 -0.26106954
000330 74 5c 77 3e 51 60 0a 3e f1 cf b3 3d a6 2f 04 3d
       0.24156362 0.13513304 0.08779896 0.032272004
000340 1f ce 91 bd 21 d1 00 3d 41 ad 51 3e e9 9e ad 3d
       -0.071193926 0.03144944 0.20476247 0.08477575
000350 41 34 e9 bd e6 4c f2 bd e0 a4 a0 3d 38 aa 9e bc
       -0.1138692 -0.118310735 0.078439474 -0.019368276
000360 ac 86 0c 3e 46 92 2b bd 3f 95 00 3e 9b bc d4 bd
       0.13723248 -0.041887544 0.12556933 -0.10387536
000370 88 d1 95 3f 12 2a 4d 3e 19 e4 02 be a4 53 06 3e
       1.1704569 0.2003558 -0.12782325 0.13117844
000380 21 a5 3e bd 1d 54 e6 bc 06 4c 30 3e 6c 93 21 3e
       -0.046544198 -0.02811628 0.172165 0.15778893
000390 d8 28 37 bd 90 82 fa 39 ba c1 8e bc 1b 37 76 3e
       -0.044716686 0.00047780992 -0.01742636 0.24044459
0003a0 b0 c5 44 bd e5 37 6e bd 02 92 cd bd 82 21 00 3d
       -0.048040092 -0.058158774 -0.100376144 0.031281956
0003b0 90 9a 45 be 3c fb 92 bd 61 fd a2 be 42 86 8c 3e
       -0.19297242 -0.071768254 -0.31833938 0.2744618
0003c0 19 bb 92 be dc 2d 72 bd cc 03 a3 3d 95 ee 82 bd
       -0.2865837 -0.059125766 0.079597086 -0.06393162
0003d0 11 6a 75 3c 30 4a 40 be 9c b3 a2 3d cf b4 20 be
       0.0149789015 -0.187783 0.07944414 -0.15693973
0003e0 72 07 c4 bf a4 07 14 3d 9e 6e 58 3e 49 05 89 3e
       -1.5314772 0.0361401 0.21135947 0.26761845
0003f0 f4 8e 0b be 75 be 1b 3e 2c b1 83 be b4 20 53 3e
       -0.13628751 0.15209372 -0.2572111 0.20617944

fc1.bias f4 [256]
000000 30 bd 30 3b f3 85 e1 bd a1 25 d8 bd a2 36 48 be
       0.0026968233 -0.11011877 -0.10554052 -0.19552091
000010 c8 c4 14 3e 3b 71 2b be 47 9e 82 be 8e 50 39 3e
       0.14528191 -0.16742413 -0.2551138 0.18097135
000020 a2 29 1c be f8 df bd 3d ff f0 04 3e 3d c2 ce 3c
       -0.15250257 0.09271234 0.12982558 0.025239104
000030 d7 03 5e 3e 63 5b 47 3e 57 b8 a2 3c 76 db 2f be
       0.21681152 0.19468455 0.01986329 -0.17173561
000040 bc 0e 22 3e 50 2e 22 3e cb f4 c8 bb 48 63 19 3e
       0.15825933 0.1583798 -0.006132697 0.14979279
000050 96 8f ac be cd 7a 81 3e 3b 51 b1 3d 90 7c 47 3e
       -0.33703297 0.25289002 0.086580716 0.1948111
000060 ba 87 99 bd 0b 14 df bc 6c 63 36 be fe 41 86 3e
       -0.07496591 -0.027231237 -0.17811364 0.26222223
000070 78 07 15 bd 58 79 16 3e 91 62 16 be 86 f0 37 3e
       -0.036384076 0.14694726 -0.14686038 0.17962846
000080 e7 e5 73 bd 77 e2 8b 3c a8 7d 9b bd a1 72 87 bd
       -0.059545424 0.01707576 -0.075923264 -0.066136606
000090 ce 9c 3d 3e 04 66 06 3e 46 1f 48 3d a2 4e 6a 3e
       0.18516847 0.13124853 0.04885795 0.22881559
0000a0 9a f2 c5 3d 1d 69 dc bd c9 9c 4d be 9b 44 7d 3e
       0.09665413 -0.10762236 -0.2007934 0.24733202
0000b0 98 f9 12 be fd 05 26 3e 6e 7b 71 be b8 e7 66 3e
       -0.14353025 0.16213222 -0.23582241 0.22549331
0000c0 76 d7 15 be 5f 8c 1e 3e 33 91 28 be c0 96 68 be
       -0.14632973 0.15483235 -0.16461639 -0.22713757
0000d0 67 7a f4 bd 8f 64 24 bb 49 de db bc f2 b9 1d 3e
       -0.11937409 -0.0025084352 -0.026839392 0.15402964
0000e0 01 68 7a 3e 77 7a 0a 3e bb d2 25 3d 37 bc 2e 3e
       0.24453737 0.13523279 0.04048417 0.17063986
0000f0 d9 39 a4 bd 58 7a 8b be c1 79 2d be 0c 6d 74 be
       -0.08018846 -0.27241778 -0.16940977 -0.23869723
000100 fd 91 66 bd c0 40 03 bc 71 50 56 3d ba 0a 43 3e
       -0.05629157 -0.008011043 0.05232281 0.1904706
000110 4c 83 b7 3d eb df 06 3e 24 d1 41 3b e0 39 71 be
       0.0896059 0.13171355 0.002957412 -0.23557234
000120 a2 37 82 3e f1 6c 66 bc 30 cc f6 3c 1d 11 10 3e
       0.2543307 -0.01406406 0.030126661 0.14069028
000130 63 e5 07 3e c2 fe b8 3d 7e fc 01 3e 2a bf f9 bc
       0.13271098 0.09032966 0.12693974 -0.030486662
000140 36 db 0c 3d 79 81 fa 3d 14 6e 52 3e b5 53 43 bc
       0.034388743 0.12231726 0.20549804 -0.011921813
000150 9e ab 30 3d a1 89 f8 bd ad 27 03 3e df 89 c0 3d
       0.043132417 -0.12135626 0.12808104 0.09401297
000160 d7 c5 4f 3e 1e f3 07 be fd 5e 69 bb de 82 8e 3d
       0.20290314 -0.13276336 -0.0035609596 0.06958555
000170 77 f9 18 be 73 e3 84 be 27 b9 85 be 24 72 3f be
       -0.14938913 -0.2595478 -0.26117823 -0.18695885
000180 20 c2 92 3e 9d 07 a2 bc 80 34 bb 3d 8d f5 03 3e
       0.2866373 -0.01977902 0.09140873 0.12886639
000190 b1 ce 06 3e 46 d7 98 3d 6e e3 6b be 09 7e 01 bc
       0.13164784 0.07462935 -0.23035976 -0.007903584
0001a0 d8 dc f4 3d 4c a5 48 be ea 14 3a 3e db f6 7b be
       0.11956185 -0.19594306 0.1817204 -0.24605887
0001b0 f3 f7 ee 3d c9 db 3d 3e ff f9 35 3e 05 bf 69 bd
       0.11668386 0.18540873 0.17771147 -0.057066936
0001c0 91 64 0f bd 73 ac 96 be f4 b0 9b 3d 73 21 4c 3e
       -0.035008017 -0.29428443 0.076021105 0.19934635
0001d0 ed fe 3b be 53 95 82 be 07 16 45 be 8c a4 46 be
       -0.18358965 -0.2550455 -0.19246684 -0.19398707
0001e0 ac d2 3c bd 8b e2 71 3e 7d 0c 0a bd 55 d9 46 be
       -0.04609935 0.23621576 -0.033703316 -0.19418843
0001f0 46 33 25 3e c8 ab 20 be 01 46 98 bd 56 fe 45 3e
       0.1613284 -0.1569053 -0.07435227 0.19335303
000200 a5 67 9a bd b8 56 59 bd 94 a8 a1 be 15 a4 7c be
       -0.075393 -0.053061217 -0.31573927 -0.24671967
000210 22 f3 64 be 93 db 4e 3e 09 82 4d be c3 64 f0 bd
       -0.22358373 0.20200948 -0.20069136 -0.11737969
000220 35 20 f0 bd bf 71 fd bc 5c 6b d9 bc 3c 09 30 be
       -0.11724893 -0.030938027 -0.02654045 -0.17191023
000230 00 24 ca bd d4 1c a1 bd c0 31 88 be 03 76 a9 bd
       -0.09870148 -0.07866827 -0.26600456 -0.08274462
000240 0d 35 7c be 65 c4 0c 3d 70 51 0f be df 5e 34 3e
       -0.24629612 0.034366984 -0.1399591 0.17614315
000250 1f 7e 1a 3e 6d 8c 16 3e a2 08 33 bd 22 5a 97 3c
       0.15087174 0.14702006 -0.043709405 0.018475596
000260 62 9f 7c be 84 2a 6b 3d 07 34 03 bd c8 c6 55 bd
       -0.24670175 0.057413593 -0.03203204 -0.052191526
000270 15 a1 86 3e 27 01 84 3e 88 ef 99 bd 9b ee 2b 3e
       0.2629477 0.2578213 -0.0751639 0.1679024
000280 cf 20 d3 3d 57 64 37 3d 7f 01 84 be 2b ee 9b 3d
       0.10308992 0.044773426 -0.2578239 0.07613786
000290 88 13 e2 3c b4 a6 1a be cf 0e d5 bd 0c 9e 1a be
       0.027597204 -0.15102655 -0.10403215 -0.15099353
0002a0 23 54 67 be 93 5a 37 3e f3 c8 f6 bc 4c f3 56 3d
       -0.2259069 0.17905645 -0.030125117 0.05247812
0002b0 b2 0f 1b be 9b 8b 97 be ea 33 6b 3d 0f ec 79 be
       -0.15142706 -0.29598698 0.057422556 -0.24406455
0002c0 8b 0d 59 be db e2 95 3e 5c 6f 36 3e 29 0a 84 3e
       -0.21196572 0.2927464 0.17815918 0.25789002
0002d0 f9 b9 e4 bd 3c 56 60 be 7e df 9b 3d cd 47 86 be
       -0.11168284 -0.21907896 0.07610987 -0.26226655
0002e0 37 c1 f2 bd 5e b3 74 ba 06 54 3c bd e6 5b e9 3d
       -0.11853259 -0.0009334589 -0.04597857 0.11394481
0002f0 5d 8d bb bd c2 d8 8c be 55 88 2b be aa f2 f2 3c
       -0.09157822 -0.27509123 -0.16751225 0.029656727
000300 8c fc be bd 26 08 28 be fe 39 eb bd 9e 26 5a be
       -0.09325513 -0.16409358 -0.114856705 -0.21303794
000310 05 17 62 be 4c c5 c4 3d 33 68 d8 3d e1 18 3d 3e
       -0.22079094 0.09607944 0.105667494 0.18466522
000320 8a 11 52 3d 76 54 fd 3d 81 44 1c be 9b 66 02 3e
       0.051286258 0.12369625 -0.15260507 0.12734453
000330 dd 55 80 bd ec 32 5f 3e ff 56 76 be 71 47 b6 3c
       -0.06266377 0.21796769 -0.24056624 0.022250863
000340 09 83 5f 3e d2 69 e4 3d 3d 78 79 be ed 60 1e be
       0.2182733 0.11152996 -0.24362274 -0.15466662
000350 f9 46 55 be 2a d0 d9 bd 58 83 1e 3e fe ef f8 bd
       -0.20827855 -0.10635407 0.15479791 -0.1215515
000360 26 18 5d be ab 24 40 be e9 37 a1 be 1d 01 88 3d
       -0.21591243 -0.18763988 -0.3148797 0.06640837
000370 1a 47 3a bd c8 16 71 bd 8f 9b 62 be b5 2c 6d 3d
       -0.045477964 -0.058859617 -0.22129653 0.057903964
000380 e6 9c 07 3e 4c 6b 4c 3e 7c de 01 bd 20 7d 11 bd
       0.13243446 0.19962806 -0.03170632 -0.03551972
000390 76 3e 4b be 6a 27 81 3e e9 47 24 3d a3 de 2a 3e
       -0.19848046 0.25225383 0.04010764 0.16686492
0003a0 76 f2 87 be 16 74 94 be 0e 0e 88 3c 4b a0 37 bd
       -0.2655217 -0.28994817 0.016608264 -0.0448306
0003b0 b1 57 7c 3e 86 6e 7a 3e f3 82 32 be e3 58 32 3e
       0.24642827 0.24456224 -0.17432766 0.1741672
0003c0 a9 4d 11 bd fb 50 70 be 01 7a 81 be 09 14 bb 3d
       -0.035474453 -0.23468392 -0.25288394 0.09134681
0003d0 95 8b d0 3c ec 41 d0 3c ab 5f 08 3d d3 37 e4 bc
       0.025457183 0.025422059 0.03329436 -0.02785865
0003e0 ac e8 01 be 09 a9 a6 3d da c7 69 be 2c 81 81 bd
       -0.12686414 0.0813771 -0.22830144 -0.06323466
0003f0 48 a4 11 be 7a 8c 29 be 53 52 4f 3e 93 be 75 be
       -0.14222825 -0.16557494 0.20246248 -0.2399848

fc2.weight f4 [256, 256]
000000 cc 06 aa bc ed 65 89 bc c0 43 f5 bb 00 63 73 3d
       -0.020755194 -0.016772235 -0.007484883 0.059420586
000010 c6 8b 08 3d dc 29 b2 bc f3 29 04 3d c0 69 01 bc
       0.033336423 -0.021748476 0.03226657 -0.007898748
000020 78 af cd bc 2b cc d4 3c 89 73 8a bc 27 8a 9d 3c
       -0.025108084 0.025976261 -0.016900795 0.019230915
000030 a8 2c 40 3c f4 6a be bc 70 50 ca 3b 4c 4b 83 bd
       0.011729397 -0.023244359 0.0061741397 -0.06410846
000040 40 6a 2d 3d bc b9 47 bd d9 74 08 3d 2c 88 c1 3c
       0.042337656 -0.048761114 0.03331456 0.023624502
000050 82 15 56 bd f0 4c 48 3d 5e 04 4c bd 4e b1 8a bc
       -0.052266605 0.0489015 -0.049808852 -0.016930249
000060 5c f9 a7 bc 53 b6 ab bc 80 c9 75 3c b0 22 50 bc
       -0.020504646 -0.020960962 0.015001655 -0.012703583
000070 dc b4 8b bd 80 b6 52 3a e8 08 33 3c 56 db b2 bb
       -0.068216056 0.0008038059 0.010927416 -0.005458276
000080 b0 18 79 3c 7e 68 4b bd e0 c0 1b bc 38 b2 45 bd
       0.01520364 -0.0496602 -0.009506434 -0.048265666
000090 55 10 82 bd 92 ef 3c 3d 4a e0 30 bd e6 f3 4b 3d
       -0.06350771 0.04612691 -0.04318265 0.049793147
0000a0 38 f2 35 3c 87 4b a0 3c f0 a5 d5 bb 4e 37 1d bd
       0.011105113 0.019567264 -0.0065200254 -0.03838282
0000b0 a6 6d 31 3d 24 0e 33 3d 30 4a de 3b 35 41 db bb
       0.04331746 0.043714657 0.006783746 -0.006691123
0000c0 60 b6 4e bc d8 05 34 3d 2f 53 ba 3c f8 ec 3f bd
       -0.012616724 0.043950886 0.022744743 -0.04685685
0000d0 b0 0c d3 3b a2 94 57 bd 00 9b 7b 3c e3 17 db bc
       0.0064407215 -0.05263198 0.015356779 -0.026744789
0000e0 5c ec 69 bd 28 bf cd 3c 19 cc b6 bb 9a 24 95 3b
       -0.057110175 0.025115564 -0.0055785296 0.0045514824
0000f0 ac 82 af bc 76 06 c0 bc b8 4f 41 bd 80 f5 70 bb
       -0.021424614 -0.02344058 -0.047195166 -0.0036767423
000100 4b 7f 0f 3d e0 06 95 3c d8 43 5f 3c 0d ab bb 3b
       0.035033505 0.018191755 0.013627015 0.005727178
000110 9c 93 6d 3d cc 00 64 bd 26 7a 0f bd 7c 3f a6 3c
       0.0580021 -0.055664822 -0.0350286 0.020293944
000120 40 27 18 bb 5c 57 59 bd cf 9d 63 bb 91 cc 90 bc
       -0.0023216754 -0.053061828 -0.0034731512 -0.01767567
000130 66 e2 49 3d c0 09 7b 3b f2 e8 9f bd f0 78 00 3c
       0.049288176 0.0038305372 -0.07808103 0.007841334
000140 80 be cf ba d2 92 79 bd 04 98 9f 3c c6 1a 67 bd
       -0.001584962 -0.060931034 0.019481666 -0.056422018
000150 4e 26 3a 3d f0 4c 51 bc ac 15 82 bc b0 ec 90 3b
       0.045446686 -0.012774691 -0.015879475 0.0044227466
000160 a0 1b 3d 3c 1c 97 9c bb b2 0f dd 3c 82 0e 18 bd
       0.011542231 -0.004778756 0.026985023 -0.03712321
000170 f0 e4 1b 3c 60 5b 45 bb 92 dc b2 bc 0a 56 7e 3d
       0.009515032 -0.0030114278 -0.021833692 0.062093772
000180 6c 80 3e 3d e8 3d 4e 3c 44 c0 56 3d 20 df c1 3b
       0.04650919 0.012588002 0.052429453 0.005916491
000190 20 65 65 3c 71 79 e1 3b 2a e6 93 bd a2 49 49 3d
       0.014001161 0.006880932 -0.07221635 0.049142487
0001a0 c9 44 fc bc de 72 14 3d c0 bb 58 3c 54 0c 9f bc
       -0.030794518 0.03624236 0.013228357 -0.019415058
0001b0 ff 12 02 bd 2e 39 aa bc be 5b 09 bd 70 84 fc 3c
       -0.031756397 -0.020779219 -0.033534758 0.03082487
0001c0 c0 3b 08 bd 73 f5 53 bd bc 35 db 3c ca bb 14 bd
       -0.033260107 -0.05174775 0.026759021 -0.036311902
0001d0 06 4d cf 3c 44 a5 ce 3c 8d 49 7d bd b0 dc c0 bb
       0.025305282 0.02522529 -0.06183772 -0.005885683
0001e0 b0 e3 c9 bc 9c d7 c3 bc c0 a7 f2 3a 10 f2 a4 3c
       -0.024644703 -0.023906521 0.0018513128 0.020134956
0001f0 7c 51 e5 bc c0 5b 41 3d a0 6e 15 bd 9a 73 69 3d
       -0.027992956 0.04720664 -0.036482453 0.056995012
000200 d6 5c 01 3c 44 ce 27 3d 4a f4 52 bd 80 03 2d bb
       0.007895669 0.040968195 -0.051502503 -0.0026399791
000210 e0 a2 f9 3b 90 6c da 3b 6c df be bc 47 a4 9f bd
       0.007618293 0.0066657737 -0.023299895 -0.07795005
000220 6a 3d 51 bd ba dc d0 bc 74 b5 f2 bc ca b7 62 3c
       -0.05108396 -0.025495876 -0.02962754 0.013837764
000230 50 6b fb bc c5 e5 e8 bc f8 07 15 3d 26 34 7e bd
       -0.030690819 -0.028429875 0.036384553 -0.06206145
000240 00 3a 75 3c d4 2e 0c 3d ce bc 31 bd 50 15 0e ba
       0.014967442 0.034224346 -0.04339295 -0.0005420046
000250 24 0e bf 3c 6b ca 38 3d db 6c de bb 88 c6 6f 3c
       0.023322172 0.045114916 -0.006787879 0.014634736
000260 3c 0d 2d bc 39 25 72 bd cb 08 4f bd 83 51 a0 bd
       -0.010562237 -0.05911753 -0.050545495 -0.07828047
000270 1a 1d 2e bd cc 8b 3f bd c6 43 c9 bc b8 a9 45 bd
       -0.042508222 -0.04676418 -0.02456845 -0.04825756
000280 d4 f1 4c bd 48 36 78 3c 7b 45 34 3d dd d9 2a bd
       -0.050035313 0.01514966 0.044011574 -0.041711677
000290 3d c8 30 bb 42 ca 5b bd 68 b7 a5 3c 08 4d a4 3b
       -0.002697482 -0.053659685 0.020229056 0.0050140657
0002a0 88 09 31 bd ca cf 84 bd 48 e3 56 bc 7c 95 c3 3c
       -0.04322198 -0.06484945 -0.0131157115 0.02387499
0002b0 c1 47 80 bd cb a2 93 bc a8 78 69 bc cd d4 2f 3d
       -0.06263686 -0.018021962 -0.014249958 0.042927552
0002c0 52 3c 63 3d fa 95 95 3c a6 2e 6f 3d d0 75 0e bd
       0.055477448 0.018259991 0.058394097 -0.034780324
0002d0 e8 c4 38 3d ba 12 52 bd 9b 08 8c bd b1 a3 a4 3c
       0.04510966 -0.05128739 -0.06837579 0.020097585
0002e0 22 d9 44 bd 89 3f e6 bb 20 1d 9e bb 50 ac 57 3c
       -0.048058636 -0.007026617 -0.0048252493 0.013163641
0002f0 ca 23 32 3d d8 be 07 3c a8 40 2d 3c 12 99 60 bd
       0.043491162 0.008285247 0.010574497 -0.05483348
000300 bc 66 00 bd 32 72 3c 3d df 9d ce bc 58 54 92 bd
       -0.031347975 0.046007343 -0.025221763 -0.071449935
000310 3c 75 dd 3c 70 1a fe 3b cc e7 98 bc 52 50 50 bd
       0.02703344 0.0077546164 -0.018665217 -0.05085785
000320 62 9d 0f bd 3c 00 b7 bc 8c be 0c bd 1c 3d 10 bd
       -0.0350622 -0.022338979 -0.034361407 -0.03521453
000330 84 e0 06 bd 62 03 1d bb 52 48 6f bd a3 1a d3 b7
       -0.03292896 -0.0023958315 -0.05841858 -2.5165564e-05
000340 86 0b 70 3d f6 93 47 bd ac 05 2c bd 88 28 55 bc
       0.05860474 -0.04872509 -0.041997597 -0.013010152
000350 f4 ca db bc 8f f6 c7 bc 60 4c 0d bd b0 e2 58 bc
       -0.026830174 -0.02440956 -0.034496665 -0.01323764
000360 86 8c 33 3d 96 2d 53 3d d3 41 ae 3c b1 99 67 bd
       0.043835185 0.051557146 0.021271622 -0.056543056
000370 12 d4 f1 ba 77 6d ad bc 70 4a e3 bb 96 8f 50 bd
       -0.0018450043 -0.021170361 -0.006936364 -0.050918184
000380 90 d3 81 3c 88 8d 55 3d ac a1 a7 3c 36 b6 41 3d
       0.015847951 0.052136928 0.020462833 0.04729291
000390 47 4a 00 3d 60 44 c8 bb 2c 7a 61 bd 14 e2 0c 3d
       0.031320836 -0.0061116666 -0.055048153 0.034395292
0003a0 31 99 c0 bc 6c bd 61 bd 70 51 34 3d 4c 2f 14 bd
       -0.023510547 -0.055112287 0.044022977 -0.03617792
0003b0 27 a9 f8 bc 60 f9 06 bc 00 8f 2c 3c ac 34 ce bc
       -0.030354096 -0.008238167 0.010532141 -0.0251716
0003c0 e6 f9 5c bd a8 1c 45 bc db 92 0a bc 76 f8 23 bd
       -0.05394926 -0.012030758 -0.008457865 -0.040031873
0003d0 e8 1f 13 bd d8 d1 69 bd 36 9f 68 3d 9c 06 43 3c
       -0.0359191 -0.05708489 0.05679246 0.011903431
0003e0 6a 3a 62 bd 72 21 0a bd d7 0b 86 bd 98 f9 16 3c
       -0.05523149 -0.033723302 -0.06545227 0.009214781
0003f0 57 05 a9 3c 70 a6 99 bb 10 59 fc 3c e8 fd 99 bc
       0.020632429 -0.0046890303 0.030804187 -0.01879783

fc2.bias f4 [256]
000000 4c 88 6c 3b 4b 22 82 bd b5 d0 31 3d 8d df c2 3d
       0.0036091981 -0.06354197 0.04341193 0.09515295
000010 aa 1c 7b bd 33 4d d8 3c 77 8b dc bc 2a a3 b8 3b
       -0.061306633 0.026403999 -0.02692197 0.005634685
000020 04 db 06 3e e9 58 cb 3c a2 6d c4 3c cf 10 25 3b
       0.13169485 0.02482267 0.023978058 0.002518702
000030 09 ac 40 bd f3 61 44 bc e1 7f 67 bd 88 b0 ce bb
       -0.047039066 -0.011986244 -0.05651844 -0.0063076653
000040 76 37 09 3d e2 18 80 bd ce ba ae 3d 7d e5 c3 bc
       0.033500157 -0.06254746 0.08531724 -0.02391314
000050 94 58 0f bd 08 3b a8 bc da 3a 91 bd 2c f3 14 3d
       -0.034996584 -0.02053596 -0.07091303 0.03636472
000060 0c ce 23 bc 80 7e 08 3d a4 16 f4 bb cb 1b d8 3d
       -0.009997856 0.033323765 -0.007448988 0.10552176
000070 bb e1 e3 3d 79 7b 0a bd 9f 0d 71 3c ee ca 5a bd
       0.11127039 -0.03380916 0.01471272 -0.053416185
000080 00 a6 11 3d e6 a2 dd 3d 54 65 37 3d 56 73 cf bb
       0.0355587 0.10822086 0.04477437 -0.006330888
000090 52 86 f5 bc 80 fd d1 bb 23 af 58 bd 6d ef 16 bd
       -0.029971275 -0.0064083934 -0.0529014 -0.036849428
0000a0 58 de b4 3c e4 05 af 3c 2c 7f 45 bd 0d 1b 19 3d
       0.022078678 0.021365114 -0.048216984 0.037379313
0000b0 9b b8 5f bd 0a 0a 88 3d 65 ab e2 bb e3 54 a5 bd
       -0.054619413 0.0664254 -0.0069174045 -0.080728315
0000c0 42 73 44 3d d6 8c 19 bd b3 d4 59 bb 34 b6 cc 3d
       0.04796148 -0.037487827 -0.003323835 0.0999569
0000d0 47 89 b8 bb 08 ed 2f 3d 83 6a 00 3e 0e 63 e2 bc
       -0.005631599 0.04295066 0.12540631 -0.027635124
0000e0 c4 57 d9 bc 85 91 5c 3d 4d c0 2e 3d 2c d1 e5 bc
       -0.026531108 0.053849716 0.04266386 -0.028053842
0000f0 ce ad 8e bd 57 ad 6a bd e1 eb 0f 3d fa 30 78 39
       -0.06966744 -0.057294216 0.03513706 0.00023669368
000100 6e 41 7b bd f8 ac 85 3c 6f b8 44 bd 64 8d 94 bd
       -0.061341695 0.01631783 -0.048027452 -0.072535306
000110 03 95 a4 bd 1e 20 50 bc d0 33 11 bd 50 9e 9e 3c
       -0.08036234 -0.01270297 -0.035449803 0.019362599
000120 47 c2 bb bc 80 f7 54 bd e8 00 87 3c 20 e1 56 3d
       -0.022919787 -0.051993847 0.016479924 0.05246079
000130 f5 a4 6a bc 76 41 98 bc cf 2e 0f 3d e4 67 91 bd
       -0.014321555 -0.018585902 0.03495675 -0.07099894
000140 00 29 9c bd b0 2c 4f 3d 5c 1f 24 bc 50 63 29 3d
       -0.07625008 0.050579727 -0.010017242 0.041354477
000150 a4 76 da bc 28 8c 29 3d e8 b9 85 bd 69 48 76 3d
       -0.0266679 0.04139343 -0.065295994 0.06012765
000160 24 49 29 3d 88 e5 59 bd 0b 8c 37 bc 5b ae f4 3c
       0.041329518 -0.053197414 -0.011202822 0.029868295
000170 6d 55 55 bd f0 5e 52 3d 9d fe d1 bb e9 f1 6a 3d
       -0.05208342 0.05136007 -0.006408526 0.05735961
000180 32 c7 94 bd 19 c4 2a bd 6a 38 a4 bd f8 4b 52 3d
       -0.07264556 -0.04169092 -0.08018573 0.05134198
000190 a4 bd 65 3d fe 23 8a bb d5 4a 1e 3d 9d a7 12 3c
       0.05608906 -0.0042157164 0.038645584 0.008951095
0001a0 24 0c 11 bd e4 4b b3 3b c2 f0 b4 bc 87 1d fe bb
       -0.03541197 0.0054716934 -0.022087459 -0.007754985
0001b0 ed b8 39 bd 32 59 7a 3c 5e 54 cb 39 c3 00 de 3c
       -0.045342375 0.015280055 0.00038782036 0.027099973
0001c0 0b b8 45 3c f7 70 13 3d d8 f8 f3 3c 11 c2 7e bd
       0.012067805 0.035996404 0.029781744 -0.062196795
0001d0 78 86 ab 3c ff 91 1c 3d d3 b4 1a bd 88 5a 9c bc
       0.020938143 0.03822517 -0.037770104 -0.019086137
0001e0 7e 16 17 3b 71 66 36 bc 92 64 f5 bc 8f 7e cb 3c
       0.0023054178 -0.011132822 -0.029955182 0.024840621
0001f0 2b 3d d4 3c 50 94 89 3b 73 54 3d 3d d4 45 04 bd
       0.025908073 0.0041985884 0.046223115 -0.032293156
000200 fe 49 bc 3d 82 b0 32 bd 2d 14 47 3d 92 eb 01 bd
       0.091938004 -0.043625362 0.048603225 -0.031718798
000210 c1 b5 98 bc d3 68 a7 3b 03 da a8 3c a0 cf 88 bc
       -0.018641355 0.0051089316 0.020611769 -0.016700566
000220 5e 62 70 bc 33 92 f4 3d 98 e0 04 bd 77 83 76 bd
       -0.01467189 0.11941948 -0.03244075 -0.06018397
000230 c3 83 3d 3d b1 6f c5 bc 60 94 4d 3d 9f 36 33 bd
       0.046268236 -0.02410111 0.05019033 -0.043753263
000240 94 f4 0a 3d 49 0c 24 bd 8b d0 c3 3c d4 4e 99 bd
       0.033924654 -0.04005078 0.023903152 -0.074857384
000250 ea c3 6f 3d a0 4d 9a bd 1d 2b 37 3d de d7 29 3d
       0.058536448 -0.07534337 0.04471885 0.041465633
000260 6a f4 06 bd 75 d3 8e bd 68 fc 09 3d d8 e0 14 3c
       -0.032947935 -0.06973926 0.03368798 0.00908681
000270 82 3a aa 3c 80 a2 45 bd ca 55 fc 3c 27 f8 c1 3c
       0.020779852 -0.048250675 0.030802626 0.023677899
000280 02 08 93 3b 90 4b d9 3d cd 56 42 3d 1f 94 25 3d
       0.0044870386 0.106101155 0.04744606 0.040424462
000290 4c b7 60 bc b2 13 14 ba c0 02 44 bb 18 db d7 bc
       -0.013715576 -0.0005648687 -0.0029908866 -0.02634959
0002a0 57 c7 62 bd 80 9d 84 3c 4a eb 86 3c 8c 99 26 3d
       -0.055365887 0.016188383 0.016469616 0.040673777
0002b0 b0 8a 99 bd 62 5b 36 bc a4 e4 47 bc a1 f4 2b bc
       -0.07497156 -0.011130186 -0.012200508 -0.010495336
0002c0 b9 ac 43 bc c0 e5 d7 bc 4e e1 6d bd 40 69 3b bd
       -0.011943036 -0.02635467 -0.058076195 -0.04575467
0002d0 48 03 79 bd 56 2b 83 bc e0 cf 9d bc d4 43 d2 3c
       -0.060794145 -0.016011875 -0.019264162 0.025667109
0002e0 b1 e8 3b 3c ec 0e 24 bc b3 54 d2 bc cf 61 35 bd
       0.011469052 -0.010013323 -0.025675153 -0.04428273
0002f0 e8 c1 89 bd 78 5d 31 3d 3f f0 1c bd c0 9f 93 3b
       -0.06726438 0.04330203 -0.038315054 0.0045051277
000300 13 84 b2 3d 69 74 8b bd 09 78 bd bc 60 66 14 3d
       0.087165974 -0.06809313 -0.023128526 0.036230445
000310 fe cb 00 bd 04 c7 ce bc a9 d1 0f 3d b4 0e 81 bc
       -0.031444542 -0.025241382 0.035112057 -0.015754081
000320 5d 86 f3 bc 65 cc ab bc 59 e4 88 bd aa 97 0c bd
       -0.029727155 -0.020971486 -0.06684179 -0.034324326
000330 de 20 d8 3c e8 86 c3 3b b5 0c 7d bd 12 29 cb 3c
       0.02638286 0.00596701 -0.061779696 0.024799857
000340 b5 4d 3d 3d 9e 2e 9f 3d 93 22 a9 3d 34 4f be 3c
       0.046216685 0.077725634 0.08258548 0.023231126
000350 da e8 1f bd 76 7a 52 3c 7d bb 2e bd a8 5d 26 bc
       -0.039040424 0.01284658 -0.04265927 -0.010154165
000360 e6 e6 50 3d 08 ef 89 bc cd d8 91 bd 06 37 02 3b
       0.051001452 -0.016837612 -0.071214296 0.0019869222
000370 ee f9 dc bc e7 ae 8c bd 04 4f 8c bc 73 f9 8f bc
       -0.026974645 -0.068692975 -0.017127521 -0.017575001
000380 ba a0 30 bb 87 96 0c 3d 32 ca 04 bd 55 11 5e 3b
       -0.002695127 0.03432324 -0.03241939 0.0033884842
000390 23 58 70 bc cf 09 a4 bd 84 56 51 3d 80 1a 26 3d
       -0.014669451 -0.08009683 0.0511079 0.040552616
0003a0 2c ca 11 bd 8e 96 15 3d a3 3e 9b bc 60 59 63 bd
       -0.035593197 0.036520533 -0.018950766 -0.055505157
0003b0 f8 af d5 3c 1c cb 03 3d 95 3a 08 bd 51 8e 04 3e
       0.026084885 0.032176122 -0.033258993 0.12944914
0003c0 9f 74 12 3b 42 ea 23 3d 5e db 6b 3c 67 17 c7 bd
       0.0022347344 0.040018328 0.014395563 -0.097212605
0003d0 c9 2c 9c 3a 7b 73 56 bc 0e d3 9a bc 4e a2 54 3c
       0.0011915202 -0.013089056 -0.018899467 0.01297815
0003e0 4e a0 94 bc c9 7d f6 bc 56 6a 01 bd 72 2a 12 3c
       -0.018142845 -0.030089276 -0.03159555 0.008921253
0003f0 a9 a6 82 bd 72 75 33 3d da 74 b7 bc fa 3c 74 bd
       -0.06379444 0.043813176 -0.022394586 -0.059628464

fc3.weight f4 [5, 256]
000000 8d 53 21 ba c9 8b 7f 3c 08 1d 5a 3d 29 3f 0f 3e
       -0.00061541126 0.015597292 0.053250343 0.13988937
000010 7a a4 ef 3e 1c ff 4e 3d 44 9b 5a 3d 00 81 c3 39
       0.46805173 0.05053626 0.05337073 0.0003728941
000020 53 dd 56 3e 03 c1 f3 3d 1a 9c 0f 3d 08 d4 24 bb
       0.20982866 0.119020484 0.03506098 -0.0025150795
000030 34 3e 03 3d 4f 79 59 3e 72 da 35 bd 13 2b b6 3e
       0.032041743 0.21237682 -0.04439778 0.35579738
000040 b3 9f d7 3e 0c b8 8b bc db 46 0f 3e 9c 02 08 3d
       0.42114028 -0.017055534 0.13991873 0.033205613
000050 c0 24 bd 3c 46 a7 2d bd 9a a6 6f bc e0 ec 1e 3d
       0.023088813 -0.042395853 -0.014627123 0.03880012
000060 87 a1 ce 3e 6a b5 1f bd 04 30 63 bd 9a 8f 00 3e
       0.4035761 -0.03899137 -0.055465713 0.1255478
000070 64 a5 03 3e f8 35 88 3c e6 18 67 bd 90 ac 30 3d
       0.1285606 0.016627297 -0.05642023 0.04313332
000080 27 5d d8 3b c8 ec 0c 3e 6d c3 ea 3e 9d 50 1c bd
       0.0066029015 0.137622 0.45852223 -0.038162816
000090 e3 b4 e6 3b a8 46 9b 3c d8 22 44 bd dc d2 42 3d
       0.0070406063 0.01895459 -0.047884792 0.047564372
0000a0 6a 54 f0 bc a0 8a 89 bc e0 e2 e1 bc b3 d5 ab 3e
       -0.029337127 -0.016789734 -0.027574003 0.33561477
0000b0 4d 7a 43 bb dc 24 1b 3e 55 09 0d bd b0 1b 39 3c
       -0.0029827536 0.1515078 -0.034432728 0.011298105
0000c0 8a 50 a7 be fc 99 c7 3c e8 b4 7b 3d 49 52 1f 3e
       -0.32678634 0.024365418 0.061451823 0.15558733
0000d0 2f 00 43 bb 99 f4 aa 3e 4b e9 99 3d e0 c3 fd 3e
       -0.0029754748 0.33389738 0.075152 0.49563503
0000e0 fc e3 c1 bc 44 9e 1e 3f 00 f5 a7 3c ae 41 37 bc
       -0.023668282 0.61960244 0.020502567 -0.011185093
0000f0 84 d1 e7 bc 60 2e 89 bb 62 ec ce 3e 51 87 89 3c
       -0.028298147 -0.0041864365 0.4041472 0.016788157
000100 fe fa 14 3c 78 6d 13 3d 90 60 7b bc c5 28 59 bd
       0.009093044 0.03599307 -0.0153428465 -0.053017396
000110 69 7a db be a4 c8 35 3d 11 2d 9f bc 20 a7 89 3b
       -0.4286683 0.0443808 -0.019430669 0.004200831
000120 7c d6 83 3c 61 9f 01 3d b8 cf a0 bc 20 22 b0 3b
       0.016093485 0.031646136 -0.019630298 0.0053751618
000130 88 60 b4 bb b0 15 d5 bb 2d 08 04 bc e9 c9 56 3d
       -0.0055046715 -0.0065028295 -0.00805859 0.05243865
000140 ec 19 b7 3c 00 79 6f 3d 36 4d 07 bd e4 ce 19 bc
       0.022351228 0.058465004 -0.03303262 -0.0093877055
000150 95 09 b6 bc 50 2f 02 3d a0 4a 55 bc e2 e1 c8 3d
       -0.022221366 0.031783402 -0.01301828 0.09808709
000160 c6 cb 45 3d ec 35 c6 bc 08 40 0e bd aa 15 6c bd
       0.048290037 -0.024195634 -0.034729034 -0.057637848
000170 3d 96 5d 3b 4b 08 fc 3d 13 35 2e bd 21 64 03 3e
       0.0033811473 0.12306269 -0.042531084 0.12831165
000180 8c 1c ef 3c e1 30 35 3c 9e 26 35 3c 57 93 d8 3e
       0.029188417 0.011059017 0.01105657 0.4229991
000190 68 f9 24 3c d5 5f b2 3e 54 2d 5f 3e 64 fc 3b bd
       0.010069229 0.3483874 0.21794635 -0.045894995
0001a0 74 96 b8 bc b5 62 a1 3b b1 e0 14 3d b0 f3 28 bd
       -0.02253268 0.004925097 0.036347095 -0.041248024
0001b0 f0 38 ab 3b bd ec e2 3c 25 97 e3 3e fa fc a3 3c
       0.0052252933 0.027700776 0.44451252 0.02001809
0001c0 3d ff 17 3e 29 4a 8d 3b a0 11 fa bc 00 2a 59 bb
       0.1484346 0.004311819 -0.030525982 -0.0033136606
0001d0 29 0e 48 bc a3 76 36 bc c4 9c 3d 3e 60 f8 29 3c
       -0.012210407 -0.011136684 0.18516833 0.010374159
0001e0 58 7d b1 3e 3a 2b c2 3c 9e 60 53 bd c8 86 f2 3c
       0.34665942 0.023702253 -0.051605813 0.029605284
0001f0 02 ac 09 3e b0 12 87 bb 61 88 2c bd ca e1 5d bc
       0.13444522 -0.004122101 -0.04212225 -0.013542602
000200 a3 57 bc 3d ac 34 cf 3c 48 df c9 3d ea 7f d3 bc
       0.09196403 0.02529367 0.09857041 -0.02581783
000210 e1 51 1b 3d f8 2d 4c 3e 96 6e 10 bd b0 9f 88 3b
       0.037919883 0.1993941 -0.035261713 0.004169427
000220 91 e6 04 bd 5c 68 b2 3d d4 ee 93 3c e4 75 4d bd
       -0.032446448 0.08711311 0.018058218 -0.050161257
000230 3f e9 e5 3c 8c 4c 6c bb b7 cc b5 bc 63 88 e8 3d
       0.028065322 -0.0036056368 -0.022192342 0.11354139
000240 63 f8 4f 3e 04 89 25 bd b5 39 d9 3c 05 b2 10 bd
       0.20309596 -0.04041387 0.026516775 -0.035326023
000250 09 d1 dd 3e 1f d3 d7 3c ad 3c 32 3e 98 6a 9d 3c
       0.43323544 0.026345788 0.17405958 0.019215867
000260 77 40 e5 bc 0b 52 71 bb c0 ee e9 3c 90 b8 5b bc
       -0.02798484 -0.0036822583 0.028556228 -0.013410702
000270 1a e6 14 3e 8d 6d 10 be 78 be 26 3c e5 92 86 bd
       0.14540902 -0.1410429 0.010177247 -0.06570987
000280 00 01 3b 3a 44 e7 14 3e 3e dc 28 3e 72 86 4f 3d
       0.0007133633 0.14541346 0.16490266 0.050665326
000290 ea 12 0d 3d 5f 06 30 3d 76 64 0a 3d 30 25 2b bd
       0.034441866 0.042974826 0.033787213 -0.04178351
0002a0 90 83 f7 3e 60 52 ea 3c 81 40 9c bd 93 bf b3 3c
       0.48342562 0.028603733 -0.07629491 0.021941936
0002b0 b8 75 71 3d b3 12 c6 bb 27 0e e2 bb 05 b0 0b 3d
       0.058950156 -0.0060447096 -0.0068986597 0.034103412
0002c0 2c 81 85 bd c8 83 73 3d 1d be ae 3c 7b 87 71 3c
       -0.06518778 0.05945185 0.021330887 0.014741774
0002d0 1e 72 5f bd b5 b5 13 bd fb 2a 44 bd b1 25 0c 3f
       -0.05455219 -0.03606196 -0.047892552 0.5474501
0002e0 c6 ab 3a bd 00 16 68 bc 51 63 17 3f 36 24 c3 ba
       -0.045573972 -0.014165401 0.5913592 -0.0014888111
0002f0 4c 91 85 3c da ea 13 3f 17 9d 1d 3d 70 5d 23 3c
       0.016304635 0.5778023 0.03847989 0.009971008
000300 d0 fb 14 3e d5 2c 27 bd 12 d9 3c bd 2b ac 02 bd
       0.14549184 -0.04081424 -0.046105452 -0.031902473
000310 a8 ed eb 3c 40 e9 77 3d 18 3c 15 3e fd 0d 62 bc
       0.028799847 0.06052518 0.14573705 -0.01379728
000320 29 fc 1a 3f 89 d6 fc 3a bc 14 1f 3d 38 71 cf 3c
       0.60541016 0.0019290011 0.038838133 0.025322542
000330 b8 68 b3 3c 8a 0c 8a bc 7a 51 cc bc 18 09 c0 bb
       0.02190052 -0.016851682 -0.024941195 -0.005860459
000340 c2 20 02 3e 7e 89 c6 3d 43 30 de 3e 8b e1 4d 3a
       0.12707809 0.09694193 0.43396196 0.0007853738
000350 e0 91 6c bd a9 8c 2d 3e 6d 4a 22 bd 38 a4 41 3d
       -0.057756305 0.16948189 -0.03962176 0.04727575
000360 ef 9d c5 3e c1 ae 23 3c de 22 aa 3b d8 90 58 bc
       0.38597056 0.009990395 0.005192145 -0.013218127
000370 37 9f 1a 3d a0 31 89 3c 78 bd f9 bc 9c 38 3d 3e
       0.037749495 0.016747296 -0.030485854 0.18478626
000380 11 d3 be bb e4 b7 f8 bc 62 11 0a 3d d9 50 27 3d
       -0.005823501 -0.030361123 0.033707984 0.040848587
000390 d3 c4 96 ba 59 4c 59 bd 47 dc c0 3e 51 39 a6 3e
       -0.001150275 -0.053051326 0.37668058 0.32465604
0003a0 af 85 1c 3d 40 f8 ef bc f6 c9 cf 3b 71 03 41 bd
       0.038213428 -0.02929318 0.0063412143 -0.047122423
0003b0 fc 81 45 bd d6 61 43 bd ca 23 bd 3d 1c f6 98 3d
       -0.048219666 -0.047700725 0.09235342 0.07468817
0003c0 ad 4f 93 3c dd 67 03 3f 78 c8 0e bd f4 a8 11 3e
       0.017982328 0.5133036 -0.03485915 0.14224607
0003d0 0b 49 24 bd 0b ec 15 3d 88 91 73 3b c2 15 24 3d
       -0.04010872 0.03660206 0.00371656 0.040059812
0003e0 ba 18 f9 3d cd 88 f2 3e 30 e8 b9 3b 7a 4f f7 bc
       0.12162919 0.47369996 0.005673431 -0.030189265
0003f0 3d 14 ba 39 1a fd 0e 3e 60 bb 65 bc d8 f7 93 bb
       0.00035491763 0.13963738 -0.014021724 -0.0045156293

fc3.bias f4 [5]
000000 b2 33 b7 3c 95 80 ab 3d 39 ec d1 3d a2 bc 43 3d
       0.022363517 0.083741345 0.10250134 0.047787316
000010 15 40 c2 3d
       0.09484879
