back_dqn_model.pt (torch, 38300 bytes, 6 tensors)

net.0.weight f4 [128, 2]
00000000: c728 aebd e008 a3bf ce6b ef3e b7c1 6e3d
00000010: b770 e03f 0c6b 52bd ecca c83f a5e4 30be
00000020: bd77 ff3e 4b42 25bd eb1d b73f f89b 5f3c
00000030: 588a 04be 1f53 143e 9a3f 0d3e cd17 84bf
00000040: a6bf 4a3d 438f 8d3f e11d 38bf 0dc4 1f3d
00000050: 2f56 90bd 8421 c43e b2aa 20bf 92b9 2f3f
00000060: 6de9 853f d623 bdbd 4ed2 0d40 a9b9 92bd
00000070: 1f6a 783d d5d1 d9bf f007 19be 8d10 73bc
00000080: b327 8b3f c719 1cbf 1aff d1be 4ec6 cf3c
00000090: 6c1f 10bf 02f7 78bf 16d4 debe f22e 533d
000000a0: 1db5 79bf 4699 74bf 9ff2 fbbe 6d22 92be
000000b0: 2869 fd3a 49aa 90bf 630d f6bf 29ae 5c3e
000000c0: cee3 013d e36d 95bf 8eda 4ebe 84d5 25be
000000d0: b04f b13f 6546 5c3f afcc b8be 9ee8 4bbf
000000e0: e351 0bc0 f634 5fbe dc30 bcbd 5d34 40be
000000f0: 7b54 023f 76bb 783d cdb7 40be 1f0c 50be
00000100: 849b 5fbb 3a20 b63d e68d 2e3e 4a59 b1bf
00000110: fcd8 89bf 4aac 813e 6e50 f43e a1de f33e
00000120: 1ad5 edbf 97cf 4ebe 994f ba3f 58ff adbd
00000130: 2bf7 87bd a37f 043f f1b1 29bc 3436 143e
00000140: 918b 713f 211e c43e 28bc d5be 5089 efbf
00000150: c731 203c 1b3a e5be 43d2 89bd 7163 d73f
00000160: a5d9 4fbe 3ce6 f3bc 803d 01bf 8d20 afbd
00000170: bcfd 0f3f 50b7 8f3f cfe9 3fbd dbac 253f
00000180: dfc0 383f c3b1 9d3d e3b1 bd3f 4a49 27be
00000190: 662b 02c0 e390 4cbe b872 5cbe 8df8 93bf
000001a0: 9104 023e 1672 e63d 5dda aa3d 946d 28bf
000001b0: d35f c13e d8c2 cb3e dfc3 ebbf b1cd bebd
000001c0: 0481 5abe 4722 ef3e dc46 523f 1b99 53bf
000001d0: 27ae 223d 7999 cabf a028 da3f d30b 2b3f
000001e0: b162 1e3f 16ff fc3c bfc0 d03e 89bc 4a3e
000001f0: 3db2 0cc0 d9f6 d9bd 89a9 273d 9bb2 f63f
00000200: d717 2bbe cd3c 863e 27b8 06be 6eb5 dd3f
00000210: e07a 35be fe76 81bd d3a9 ed3f 40dd 97bd
00000220: 0bb2 2b3e 69ec 503f c8d4 783e 6726 3fbd
00000230: 8ed6 bbbe 9814 ba3f 76c2 273e 1dbb e73d
00000240: 88d1 74bd d717 623e feaa 24be 2e56 9fbd
00000250: c0be b3bf 5802 83be 401a 5d3b 750f b43d
00000260: 6922 fb3d 0697 31be 15b3 d83e bd84 5abf
00000270: c3af 0ac0 271b 97bf e25a 603d 8414 f73e
00000280: 04cb 053b a141 d8bf 9d5f d23f dc5c 36be
00000290: fcac b93b 8eab b2bf 7286 74bf b5c2 00bd
000002a0: b375 313f 4780 21be 2ebf 1ac0 12bf 09bf
000002b0: e7e1 b93f ccc1 80be 43b9 733e 96d9 83bf
000002c0: b374 dcbf 0525 33be b3f3 133d 47d1 b6bf
000002d0: e28e 013b 7a65 763f 3497 81bf 0227 023f
000002e0: aacd 6d3e b421 753e 9a79 49bd 0afa cb3f
000002f0: dd9d 5a3d dd8a dcbf 88a6 693e 1a4c 84bf
00000300: f440 11c0 6ff7 833a 8d7b b9bd c3ba 833e
00000310: ada0 8e3f 0d43 13bf a4d1 09c0 5325 75be
00000320: 8ec5 66bf c356 98bd 626f 8b3f 1ffa ec3e
00000330: 8f33 c43e a5b8 6ebf 37f2 36be a049 a03e
00000340: c92f fbbc f09f adbf deb5 913d e59a 6c3f
00000350: 3d0d 9e3a f6a6 443f 1339 59be e36d f43c
00000360: e1de 8cba fab4 aebf 3b85 8b3c c199 0b3f
00000370: 884f da3d fd31 ac3d a934 6c3f 9ad1 453d
00000380: 33d1 0dbd f371 b1bf d060 d3bf d64d 53bf
00000390: c126 ab3e 6032 77bf d4c2 5c3c 3755 b23f
000003a0: 34d9 773f e9c6 7a3f 8540 983e 66a4 103e
000003b0: 3ace 953f 551d f0bc d337 14be 21a9 2fbe
000003c0: 8d3f bc3d ede6 8a3d edd9 aabe a6ba 083e
000003d0: 2c9e 903d f23a 96bf a388 953f bab3 b2be
000003e0: 6ec9 59be 64a3 033d 3a18 373e 40c9 d0bb
000003f0: 7b98 72be 75e9 33bc d4a1 9a3e 3d41 973e
-0.085038714 -1.2737083 0.46761936 0.05829021 1.7534398 -0.05137162 1.5686927 -0.17274721
0.4989604 -0.040346425 1.4306005 0.013648026 -0.12943399 0.14484833 0.13793793 -1.0319763
0.049499176 1.1059345 -0.7192059 0.039005328 -0.07047688 0.3830682 -0.6276046 0.6864253
1.0461861 -0.09235351 2.215961 -0.07164318 0.06064808 -1.7017161 -0.14944434 -0.014835489
1.087149 -0.60976833 -0.4101494 0.025363114 -0.56297946 -0.97251904 -0.43521184 0.051558442
-0.9754198 -0.95546377 -0.49208543 -0.2854189 0.0019333707 -1.1301967 -1.9222835 0.21550812
0.031711392 -1.167416 -0.2020056 -0.16194731 1.3852444 0.86044914 -0.3609366 -0.7965182
-2.176873 -0.21797547 -0.09189007 -0.18769975 0.50910157 0.06072565 -0.18820114 -0.20317124
-0.0034119794 0.088928655 0.17046317 -1.3855374 -1.0769343 0.2532676 0.47717613 0.4763079
-1.8580658 -0.20196377 1.4555541 -0.084959686 -0.066389404 0.5175726 -0.010357366 0.14473802
0.94353586 0.38304237 -0.41745114 -1.871378 0.009777493 -0.44770893 -0.06729557 1.6827222
-0.20297869 -0.02977287 -0.50484467 -0.085511304 0.5624654 1.1227818 -0.046853837 0.6471688
0.721693 0.07699921 1.4819912 -0.16336551 -2.0338988 -0.19977145 -0.21528137 -1.1560227
0.12697054 0.11252229 0.08342431 -0.657922 0.3776842 0.3979709 -1.841915 -0.09316576
-0.21338278 0.4670584 0.8213937 -0.82655495 0.039716866 -1.5828086 1.7043648 0.6681492
0.6186934 0.030883353 0.40772054 0.19798483 -2.1983788 -0.106427856 0.040933166 1.9273256
-0.16708313 0.26218262 -0.13156186 1.7320993 -0.17722654 -0.06321524 1.8567451 -0.07415247
0.16767137 0.81610733 0.2429992 -0.046667483 -0.3668713 1.4537535 0.16382775 0.11314986
-0.059770137 0.22079407 -0.16080853 -0.07780109 -1.4042587 -0.25587726 0.003373757 0.08792011
0.122624226 -0.17342767 0.4232413 -0.8535879 -2.1669776 -1.1805161 0.054774173 0.4825784
0.0020415196 -1.6895028 1.6435429 -0.1780886 0.0056663733 -1.3958604 -0.9551765 -0.031435687
0.6932022 -0.1577159 -2.4179187 -0.53807175 1.4522065 -0.25147855 0.2380114 -1.0300777
-1.7223114 -0.1749459 0.03612108 -1.4282616 0.0019769003 0.9624859 -1.0124269 0.5084077
0.23222986 0.23938638 -0.049188234 1.5935681 0.053373206 -1.7229878 0.22817433 -1.0335724
-2.2695894 0.0010068248 -0.090567686 0.25728425 1.1142784 -0.57524186 -2.1534204 -0.2394002
-0.90145195 -0.074384235 1.0893366 0.46284577 0.38320586 -0.93250495 -0.17865835 0.3130617
-0.030662434 -1.3564434 0.071147665 0.9242385 0.0012058389 0.7681726 -0.21213178 0.029837554
-0.0010747575 -1.364898 0.017031303 0.54531485 0.10659701 0.08407972 0.92267853 0.048295595
-0.034623336 -1.38629 -1.651392 -0.82540643 0.33428004 -0.9656124 0.013474185 1.3932256
0.968158 0.9795976 0.29736724 0.14125213 1.170356 -0.029310862 -0.1447442 -0.17154361
0.09191809 0.06782327 -0.3336939 0.1335245 0.07061419 -1.1736739 1.1682323 -0.34902745
-0.21268246 0.032138243 0.17880335 -0.006371647 -0.23690979 -0.010980953 0.3020159 0.2954196

net.0.bias f4 [128]
00000000: 29cb 38be 6ea6 f23f bb1a a1be a4c9 0bbf
00000010: 9bd5 bd3f 5fb0 c03f b2f3 0240 fa9f 6b3e
00000020: 535c 6dbf 8c91 8d3e 914e fe3f 8598 483f
00000030: 6651 59c0 20f2 dcbe 705d 2dbf e4fb c93f
00000040: 680d 013e 2df6 da3f 475d cf3f 5475 f63f
00000050: 9338 913f 950d f53f e2da acbd 4e10 e1bf
00000060: 7bcb 983f fdad dc3f ea07 c93c 42aa 763f
00000070: 1aa7 b1be f56c e33f 16df 1dc0 7362 1940
00000080: 76db dd3f a885 81bf fdc0 cf3f f7b7 0740
00000090: a876 23be 1648 01bf 4486 0a40 e476 b03f
000000a0: 49fd 0c40 1425 5fbf 45f5 1440 c402 783e
000000b0: 097c ca3f 7bb3 40c0 6cf3 49bf 37e5 ef3f
000000c0: e3c5 d73f 8363 04bf 3561 bbbe 27d2 a23f
000000d0: 39ca 0a40 3dfe 0b3e 1076 e33f 9dc1 e4be
000000e0: 3a90 0940 dd92 8dbf 00f7 26bf 9e5c d03e
000000f0: bc63 c23f 43bb 1040 7421 0abf 5e1a 563d
00000100: 61c8 0940 6fd3 0c3f f275 9d3f 42b1 a5bf
00000110: f716 22bf e935 e33f 14c9 e73e c1f5 1140
00000120: 995e 0f40 c8a5 d23f 9c27 483f 3c84 eb3f
00000130: a6e6 f13f 9ffc 1fbf 6e53 b5be c48c 0340
00000140: 5b41 53bd 1ddb 1ebf 645b ab3f 9d17 183f
00000150: d2e8 dc3f 25cf 253d 8348 c3be 0637 123e
00000160: a7af 1d3f 3c56 a5bf 0003 6dbf b223 3abf
00000170: 7e6d 0e40 10ab 983c fa00 19bf 03b2 79be
00000180: 2349 68be d9a1 ef3f 4d45 403f 7640 46be
00000190: 6892 f13f 7977 febe 70a3 67bf 6efd 9f3f
000001a0: 1227 9a3f 2716 043f 61c2 3ebf e3c7 e63f
000001b0: 6ed0 5bbd cb2c 9d3f add9 e03f 76b0 dd3f
000001c0: a8df b4bf 43bb c4be 35e3 fd3e dbae febc
000001d0: 127c 0abf 29d9 bbbf 0718 39be 206d d83f
000001e0: 73d5 b83f 0f5f ee3f 3a10 a03f 2974 c83d
000001f0: 970d 0140 b2b8 ec3f c117 d33f a5cf 0b40
-0.1804625 1.895704 -0.31465706 -0.54604554 1.4830812 1.5053824 2.046124 0.23010245
-0.92719 0.27650106 1.9867727 0.78357726 -3.3955932 -0.43153477 -0.677207 1.5779996
0.1260277 1.7106377 1.6200341 1.9254556 1.134539 1.914477 -0.08440186 -1.7583101
1.1937097 1.7240597 0.024539907 0.9635354 -0.346978 1.7767626 -2.466741 2.3966339
1.7332599 -1.0118914 1.623077 2.1206033 -0.15963233 -0.5050062 2.164445 1.3786283
2.2029593 -0.8716595 2.32747 0.24219805 1.5819103 -3.0109546 -0.7888706 1.8741826
1.6857265 -0.5171434 -0.365976 1.2720383 2.1685927 0.13671203 1.7770405 -0.44678965
2.149428 -1.1060444 -0.6522064 0.4069566 1.5186687 2.2614295 -0.53957295 0.05227124
2.1528552 0.5501012 1.2301619 -1.294472 -0.6331629 1.7750827 0.45270598 2.2806246
2.2401488 1.6456842 0.7818544 1.839973 1.8898513 -0.62494844 -0.35415214 2.0554667
-0.051576 -0.6205309 1.3387265 0.5941103 1.7258551 0.04048075 -0.3814126 0.14278802
0.6159615 -1.2916942 -0.925827 -0.72710717 2.2254329 0.018636256 -0.59767115 -0.24384312
-0.2268415 1.8721267 0.75105745 -0.19360527 1.8872805 -0.49700525 -0.9048376 1.2499216
1.2043173 0.515963 -0.7451535 1.802975 -0.05366557 1.2279295 1.7566429 1.7319477
-1.4130754 -0.3842412 0.49587408 -0.031089237 -0.54095566 -1.4675647 -0.18075572 1.6908302
1.444014 1.862276 1.2504952 0.09787781 2.0164545 1.8493865 1.6491624 2.1845486

net.2.weight f4 [64, 128]
00000000: c228 39be 95aa 4b3f 861f 57c0 5da2 8ec0
00000010: 3cfe 833e 3f36 5fc0 1c63 093f 894d bebf
00000020: 3c9c 16c0 1cf1 203f 8fc7 e63e f6a5 2e3f
00000030: 0845 4fbf 2ef8 5dc0 4a13 19bf abd8 043f
00000040: 8513 01c0 93bf 0d3f d558 6f3c 52c4 263f
00000050: 7cc1 8c3e d18c 993f 7e1d 48be 98f9 46bf
00000060: a3cd 26be 8a12 333f 1d00 05c0 bdb3 c4bc
00000070: 537f d2be 218c 293f 449a 39bf 07c3 6d3f
00000080: 91ff 1a3f 2198 533e eb92 453f ca8f a73e
00000090: 1352 fcbe aa0e 1bc0 a0c4 f13e 3a80 e93e
000000a0: fd0b 9cbe 33b9 30bf 6e5c 0a3f aa51 e93c
000000b0: 942a 123f 756b 803e 7f37 08c0 0c20 c83e
000000c0: 215d b43e c3e9 8dc0 cefc d0be 05f5 c13d
000000d0: 5e48 9a3e b3e8 0fbf 7f4d 3f3e e755 e0be
000000e0: b72d 193f ca54 723f 05ca 59bf 5155 25c0
000000f0: 0ac9 bf3e ded6 353e 36ea dbbe b42d a23e
00000100: 5f3e 0d3f 1b45 6d3e e5eb de3e e586 40bf
00000110: 2efe 8bbf 91b5 723f 59be 0c3f 4758 c33e
00000120: 61fb 0a3f 43af 2a3f b916 e23e aa14 f83e
00000130: 25dd 903f 348c 94bd 5a7a 4d3d 9ba5 d03e
00000140: ca7d c4be f841 8ac0 c11f c6be a4fa 5f3f
00000150: 37ed ea3e 448f 71be 080c 15c0 eaff 79be
00000160: 29e5 773e 4f6a 2340 8866 96bf ef10 94bf
00000170: e639 1e3e 492b 373f 2f54 0bbf 1414 dc3f
00000180: f1ef 29bf b779 a53e b815 f9bf e49d b7be
00000190: fb81 4a3f 2cd5 cfbf 37c8 a83f 8487 073f
000001a0: 76a2 63be e78e 2f3f 1324 96bf 6ca4 173f
000001b0: 9aac 38be ea5b be3e 2f18 c13e 65c0 5e3d
000001c0: 2bbc 6140 e235 90be ad08 ebbf f54e 3d3f
000001d0: c59f 0bc0 0a98 99bf 953b 6fc0 91d7 353f
000001e0: 4930 b13e e267 fd3e 691d 053e 2970 5ac0
000001f0: a04a 1c3f 9b13 4b3f 93c1 083f f534 ad3c
00000200: edbf 9bbd a74c 95bd 5674 35bd 4cd4 663d
00000210: 99e0 603c cf5c babd 0568 95bd 70f3 363d
00000220: 6194 80bd 5e2d 873d 6622 463d c28f a6bd
00000230: 4ef2 493d 6c45 a2bd 0235 6dbd 4501 87bd
00000240: 8a10 2bbd 9d7d 96bd ba3e 8fbb 6927 b2bd
00000250: d45e ccbd b12f 32bd cba7 bd3c 0063 8bbc
00000260: f105 34bc c867 de3c 422f 4b3d 22df 1bbd
00000270: b60c 3d3d f9c8 8a3d 3758 67bd d13d 35bb
00000280: e245 49bd cb7b 003d 4d46 ac3d edcd 1fbd
00000290: c0a8 16bb 2489 923d 7560 8c3c b219 5b3d
000002a0: e3ef e03b 64fc cabc f764 993c f6e0 57bd
000002b0: 484a 443d eb63 833d 9831 8e3d f18a 05bd
000002c0: 59b0 0abd 2b26 493d ff7e a33d 2005 2e3d
000002d0: 37b0 913d e24f d4bc 12d4 13bd d19e b4bd
000002e0: ed90 e73b e45b 8ebc fdd4 85bb 70ca b5bd
000002f0: a215 2b3c 7aa9 bcbd 9efe 233d 726f 783d
00000300: 74fc 443d b687 fdbc 6efa 3dbd 7eea 94bd
00000310: a2eb 333d 921d 133d d025 223c 8de9 6a3d
00000320: f6b8 e0bc 92ae 4d3d ae8d 0b3d ccf2 9dbd
00000330: ee19 00bc 3cbb 903d a711 8bbd 6fd7 a8bd
00000340: c918 84bd 862d 59bd cd67 1abd 15b6 4cbd
00000350: 91a9 bdbd 7523 a33d 3aa2 143d c496 613d
00000360: 6a00 b4bd e2a7 7c3d c0b4 dbbc 649a aa3c
00000370: 66c5 73ba e584 a8bd 5acb 53bd ca51 3fbd
00000380: dbb6 39bd dba0 a7bd 28a1 db3c 60fb 993b
00000390: beef 7ebd 982a a13a 92a3 2d3c a653 dabb
000003a0: 05a0 96bd 4861 06bc 2a6e 20bd 196f 13bc
000003b0: ce36 95bc 99e5 16bd 7f67 b4bd 5310 563d
000003c0: 0f2c 443d 0ef5 343d 4440 21bd 59b7 e83b
000003d0: 9a47 703b 0c0c 213d a47b 26bc 3c48 e53c
000003e0: 4ed2 3fbd 3349 943d 2bde 4b3c 420f ec3b
000003f0: e62c bfbd b5ea 7abd afc2 8d3c 91f6 11bc
-0.18081954 0.7955716 -3.361299 -4.4573197 0.25779903 -3.487686 0.53666854 -1.4867412
-2.3532858 0.62867904 0.45074126 0.68221986 -0.8096471 -3.4682727 -0.5979506 0.5189311
-2.0168164 0.55370444 0.014608582 0.6514331 0.27491367 1.1996099 -0.195425 -0.777246
-0.16289382 0.69950163 -2.078132 -0.024011487 -0.41112766 0.66229445 -0.72501016 0.92875713
0.60546213 0.20663501 0.77177304 0.3272689 -0.49281368 -2.42277 0.47220325 0.45605642
-0.30477896 -0.6903259 0.54047287 0.028481323 0.5709622 0.25081983 -2.1283872 0.3908695
0.35227302 -4.4347854 -0.40817875 0.09470562 0.30133337 -0.56214446 0.18681906 -0.43815538
0.5983538 0.9466063 -0.8507388 -2.5833323 0.37458068 0.17757747 -0.42952126 0.31675494
0.55173296 0.23170893 0.43539348 -0.7520583 -1.0936944 0.948083 0.5497795 0.38153288
0.54289824 0.6667368 0.4415796 0.48453265 1.1317488 -0.07253304 0.05016551 0.40751347
-0.3837722 -4.320553 -0.386961 0.8749182 0.45884106 -0.23589808 -2.3288593 -0.2441403
0.24208511 2.5533636 -1.175004 -1.1567668 0.15451774 0.7155042 -0.5442533 1.7193627
-0.66381747 0.32319424 -1.9459753 -0.35862648 0.79104584 -1.623693 1.3186101 0.52941155
-0.22229943 0.68577427 -1.1729759 0.5923526 -0.18034592 0.371795 0.37713763 0.0543827
3.5271099 -0.2816611 -1.8362023 0.73948604 -2.1816266 -1.1999524 -3.7380116 0.71032053
0.3460715 0.4949332 0.129995 -3.4130957 0.6105137 0.7932679 0.5342037 0.021143416
-0.07604966 -0.07290011 -0.0443004 0.056354806 0.013725423 -0.09099733 -0.07295231 0.044665754
-0.06278301 0.0660045 0.04837265 -0.081328884 0.049303345 -0.079233974 -0.05791188 -0.06592039
-0.04176382 -0.073481776 -0.0043714913 -0.08698923 -0.099790245 -0.043502513 0.023151299 -0.01701498
-0.010987745 0.027149096 0.049605615 -0.038054593 0.0461547 0.06776614 -0.056480613 -0.0027655254
-0.04913891 0.03136806 0.08411846 -0.039014746 -0.0022988766 0.07155064 0.017135838 0.0534913
0.006864534 -0.024778552 0.018724902 -0.052704774 0.047922403 0.06415542 0.06943053 -0.032603208
-0.033859584 0.049108665 0.07983207 0.042485356 0.071136884 -0.025916997 -0.036090918 -0.08819354
0.007066837 -0.017377801 -0.004084228 -0.088765025 0.010442169 -0.092120126 0.040037744 0.060653158
0.04809232 -0.030948501 -0.046381406 -0.07271288 0.04392589 0.035916872 0.0098967105 0.057351638
-0.027431946 0.05021531 0.034070663 -0.077123255 -0.007818682 0.07066962 -0.06790476 -0.08244216
-0.0645004 -0.05302193 -0.03769665 -0.049978334 -0.09260858 0.07965747 0.036287524 0.055075422
-0.087891415 0.061683543 -0.026819587 0.020825572 -0.0009299129 -0.082284726 -0.051707603 -0.04670886
-0.0453404 -0.081849776 0.026810244 0.0046991557 -0.062240355 0.0012296019 0.01059808 -0.0066628037
-0.0735474 -0.008201905 -0.03916756 -0.008998656 -0.01821461 -0.036840055 -0.08808803 0.05226166
0.04789358 0.044179015 -0.03936793 0.007101935 0.0036663772 0.03931813 -0.010161314 0.027988546
-0.04683142 0.07240524 0.012443106 0.0072039673 -0.093347356 -0.06125899 0.017304746 -0.008908884

net.2.bias f4 [64]
00000000: b812 0c3f aad2 0a3d f638 223e 29bc cf3f
00000010: fbee ea3e e8d0 03bf b392 5ebf 2e8b fd3e
00000020: 92a7 c4be bf73 c23e f99b 963f 0ff9 0dbf
00000030: 3407 7b3f 54fb 0d3f 1580 7cbd 4704 edbe
00000040: 7050 cb3e a360 04bd 3d30 803d 9c9a c93c
00000050: 3705 d7bd 10c1 8fbc 188c 0bbd 6d44 8d3d
00000060: 16ab 80bd 0a9a 993d a863 873f f0ad 18ba
00000070: e271 093f 1683 9f3c bf29 673f 5eba 38bf
00000080: 279e 4fbd fdd7 e2bd 7ea6 883c ac5e 853e
00000090: 5fc1 c0bc 049d b6bd ebb4 133f ecfa cf3e
000000a0: 4e9f 643f f769 2e3f cc45 803e da34 083f
000000b0: 9ede cb3e fffb 403f ab8b 4c3d d00b 963f
000000c0: c0c2 bf3e 4d4d 49bd 307a 0b3c dffe 6f3f
000000d0: c9ea 54be 8ae1 7e3d 2d62 13bc 9a7d 773f
000000e0: 98f7 b03f 896d 85bd 968c 883e 1e68 2fbf
000000f0: 9419 933e c461 903e 1ac7 413f 36af 9a3e
0.5471606 0.03389231 0.15842041 1.6229297 0.45885453 -0.5149064 -0.86942595 0.49520248
-0.38409096 0.37978932 1.1766349 -0.5545816 0.98057866 0.5546162 -0.061645586 -0.46292326
0.39709806 -0.032318722 0.06259201 0.024609856 -0.104990415 -0.017548114 -0.03406915 0.06897817
-0.06282632 0.07500084 1.0577288 -0.00058242586 0.53689396 0.019471686 0.90298074 -0.72159374
-0.050687935 -0.11076353 0.016680952 0.2604879 -0.023529707 -0.08916667 0.57697934 0.40621126
0.8930558 0.6813044 0.2505325 0.53205645 0.3981828 0.75384516 0.049937885 1.1722355
0.3745327 -0.049145985 0.0085130185 0.9374828 -0.20792688 0.06222681 -0.008995575 0.9667603
1.382556 -0.06515033 0.2666976 -0.68518245 0.28730452 0.2819959 0.7569443 0.302118

net.4.weight f4 [4, 64]
00000000: d0e2 453f c2c9 e13d f708 9cbe 3696 b63f
00000010: d29e 263f 4a11 823e e45b 4a3f 0f30 3c3f
00000020: e787 5d3f 4664 4d3f 1676 773f 65f5 acbf
00000030: 0486 713d 2ff7 cc3e 8ecf 653d 2e28 ebbf
00000040: 541b b73f d38f a93d be8a a2bb b57a d33d
00000050: 9d7b 373d 5025 8cbd 75e2 89bd dc91 00bd
00000060: 8bd4 8ebd d911 213f c0e8 7ebe bc00 413d
00000070: eba4 02bf 90db 8d3c 7740 8c3f 136e 4c3f
00000080: 7239 ec3c 9490 803f c357 123e 4ebd f23f
00000090: 5974 ae3d ccf3 8b3d e5bb 9a3f ec2d d63d
000000a0: 05f8 7c3f 5f12 8bbf 07b2 73bf 2d65 b83f
000000b0: f77b 02bf eac1 72be 361b 563d 83a5 a23f
000000c0: 1be9 46bf e4d2 fc3d 84d7 a13d 0c54 dc3f
000000d0: 9ad3 07bf 68f5 843c 8494 833c d278 a5be
000000e0: b178 203d 18ea 63bc dc4d a53e aacf b5bf
000000f0: 5667 613e 8aba 8fbd 959a 12be 1f3c bbbf
00000100: 58c4 043e 0429 85bc 0356 0b3e 1788 483f
00000110: abc8 69bf 34bc 28bf 14ca 743d 50c3 db3e
00000120: 1fca 26be 4f31 68bf 29e4 603f ecf8 e2bd
00000130: 9101 b0bf d7e8 6fbf 4343 553d a203 d13e
00000140: 89ca 273f f641 62bd fa4d d0bc 1ecf 553d
00000150: 5a1b 18bd f0e3 a8bc 9ddd 63bb 24e6 d63d
00000160: c6cd d83a 368d 9a3f 74d5 9f3f 0e95 22bd
00000170: 9924 d7bf 5478 ad3b 3248 223f 4baa 683f
00000180: 81b0 9cbc 56a0 8d3e b977 3ebe d51c 2d3f
00000190: ef6d bb3c 0ed3 7abc 87c8 b43f 61da b73f
000001a0: de9f d43e a0dc eabe 3075 623f ee65 3b3f
000001b0: 3ea6 3a3f bbea 543f 6c70 5d3d ef7a 433f
000001c0: 8a50 f5be 3467 95bd 184f 81bd 8a93 3b3f
000001d0: a3cf 2abe 4808 ed3d 5ee7 8a3b 6363 153f
000001e0: 92e8 853f 8396 cebd fd39 22bf 7a85 e33e
000001f0: 5c8f 1bbe 08df 223f 5fb3 d33f 731e 823d
00000200: 6450 18bf 66e8 a93c 0a89 7d3e 33d7 ac3f
00000210: 62f0 be3b 7517 833f abd3 783f a4ec d2be
00000220: 6482 41bf cc0c 543f 8ad0 503f ba50 40be
00000230: 6f71 8b3e 1115 063f af16 8c3c d683 94be
00000240: a409 cfbf d404 ac3d 3c18 293d 59cf 613c
00000250: 5fca 1f3d e622 f23d abcc ac3d 10c2 913d
00000260: 8812 bb3d 9a4d d5bf 538a 573f c4f2 423c
00000270: a0fa 203f 5036 b13c a26f f1be 7600 c4be
00000280: 96cf d43d c4b1 d43e d263 273f ee6f 8f3f
00000290: 1dc8 20bd bed3 b73d f488 d33e 4eae 873e
000002a0: 1710 f23f 6a88 2cbc bcbf 6a3e 48c6 913f
000002b0: 66a8 8a3f f2f6 593f f148 febd 38c1 353f
000002c0: 7ee5 033e 447a 08bd 2094 873d 19e2 fdbe
000002d0: 7a15 c33e 46fb d9bd d52b bebc 1b0d 823f
000002e0: 2d84 a23f a819 933d 13e1 553e 0c61 53bf
000002f0: 9603 4fbf 335a b03e c123 c13f 6614 fabf
00000300: 0777 3e3e a6fb 873c e7e1 f2be d70f c03f
00000310: 3b30 993e ec0a 7dbe 818a a63f 141a 003f
00000320: 9ee3 e8be e453 cfbe 160c 9c3f 4ad7 a8bd
00000330: 1632 f5bd 1c44 8c3f 4125 ac3b a3d4 3dbf
00000340: d43b c13e 5acc 053d 4ab8 c23d 3351 a13d
00000350: 9e2f debd 64f9 51bd b046 a9bc 2015 63bc
00000360: 0b46 473d bd61 12bf 4855 813f dcdc 4938
00000370: 4b46 8fbe 9f9e 453c cd78 ed3e 770f e43d
00000380: 8134 c33d 9b8d 3e3f de76 b03e 1eb9 23bf
00000390: cd01 25bd b8e2 e53c 6fa9 c83f ad29 8d3e
000003a0: 8040 6b3f 46f9 76bf b01e c3bf 4ffc dcbe
000003b0: 19a8 723e de56 ec3d 0c5c 303c d704 8c3f
000003c0: 4b62 02be 24fa f03d 702b 9d3d fdf1 ccbe
000003d0: 67fa 533d d8c8 be3c a5a0 d03d 312a 673f
000003e0: c390 c23f 5849 dd3c 1d95 afbf da02 f63d
000003f0: 527f 0540 fd00 6ebf f880 b83f a656 1a3f
0.77299213 0.110248104 -0.3047559 1.4264591 0.6508609 0.25403816 0.79046464 0.7351083
0.86535496 0.8023113 0.9666456 -1.3512388 0.058965698 0.40032336 0.056106143 -1.8371637
1.4305215 0.082793854 -0.004960387 0.10326139 0.04479562 -0.06843054 -0.067326464 -0.031389102
-0.06974133 0.6291786 -0.24893475 0.04711984 -0.51032895 0.01731661 1.0957173 0.7985546
0.028835986 1.0044122 0.14291291 1.8964021 0.08518285 0.0683361 1.2088591 0.10457978
0.9881595 -1.0864981 -0.95193523 1.4405876 -0.50970405 -0.23706785 0.052272044 1.270676
-0.7769944 0.12344912 0.079024345 1.7213149 -0.53057253 0.0162303 0.016062029 -0.3231874
0.0391776 -0.013910793 0.32285964 -1.4203999 0.22012076 -0.070180014 -0.14316781 -1.4627723
0.12965524 -0.01625491 0.1360703 0.78332657 -0.9132182 -0.65912175 0.05976303 0.4292245
-0.1628804 -0.9070024 0.87848145 -0.11082634 -1.3750478 -0.9371466 0.0520661 0.40823084
0.6554342 -0.055238687 -0.025427807 0.052199475 -0.03713546 -0.020616502 -0.0034769543 0.104931146
0.0016540817 1.2074344 1.2487016 -0.03969293 -1.6808044 0.0052938852 0.6339141 0.90884846
-0.019127132 0.2766139 -0.18600358 0.6762212 0.022879569 -0.015309108 1.4123696 1.4363519
0.4152822 -0.4587145 0.88460064 0.7320241 0.72909915 0.8317067 0.054062292 0.76359457
-0.4791301 -0.07295075 -0.06313914 0.73272 -0.1668077 0.11573845 0.004239007 0.5835478
1.04616 -0.100873016 -0.63369733 0.44437772 -0.15191406 0.6362157 1.6539115 0.06353464
-0.59497666 0.020740699 0.24759308 1.3503174 0.0058269957 1.0241534 0.9719798 -0.41196167
-0.75589585 0.82832026 0.81568205 -0.18780795 0.2723498 0.52375895 0.01710066 -0.29006833
-1.6174817 0.083993584 0.041282877 0.013782346 0.039011355 0.118230626 0.08437475 0.071170926
0.09134394 -1.6664307 0.8419544 0.0118987 0.62882423 0.021632344 -0.47155482 -0.38281602
0.103911564 0.41541874 0.6538669 1.1206033 -0.039253343 0.089759335 0.41315424 0.2650017
1.891116 -0.0105305705 0.22924703 1.1388636 1.0832641 0.85142434 -0.12416256 0.70997953
0.12880513 -0.033319727 0.066200495 -0.4958656 0.38102323 -0.1064363 -0.02321426 1.016025
1.2696587 0.07182628 0.2088664 -0.82569957 -0.80864847 0.34443817 1.5089036 -1.9537475
0.18600093 0.016599488 -0.47437975 1.5004834 0.2991961 -0.24711198 1.3011018 0.5003979
-0.45486158 -0.4049369 1.2191188 -0.08244188 -0.11972444 1.0958285 0.0052534644 -0.7415258
0.37740958 0.032665588 0.095078066 0.07876816 -0.10848926 -0.051263228 -0.02066359 -0.013860017
0.048650783 -0.57180387 1.0104151 4.8127826e-05 -0.27983317 0.012061744 0.46381226 0.11135762
0.09531499 0.7443482 0.34465688 -0.6395434 -0.04028492 0.02806221 1.5676707 0.2757086
0.91895294 -0.9647411 -1.524374 -0.43161246 0.23696937 0.11540006 0.010764133 1.0938977
-0.12732808 0.117664605 0.07674301 -0.40028372 0.051752474 0.02328913 0.101868905 0.90298754
1.5200428 0.027012512 -1.3717381 0.12012263 2.085896 -0.9297026 1.4414358 0.60288465

net.4.bias f4 [4]
00000000: 49b6 e53e 7773 ab3e ee7f 043f 0c46 223f
0.44865635 0.3348653 0.51757705 0.63388133
