other_model/dqn_team_b_ep170.pth (torch, 286849 bytes, 6 tensors)

fc1.weight f4 [256, 14]
0	0x3e3ed0a9	0.18634285
1	0xbf7a9048	-0.97876406
2	0x3e1858c1	0.14877607
3	0x3e640b5f	0.22269963
4	0x3ede11eb	0.43373045
5	0xbf741433	-0.9534332
6	0xbd9b668f	-0.07587921
7	0xbf72af97	-0.9479918
8	0x3f02719c	0.50954604
9	0xbe80d664	-0.25163567
10	0x4011da5f	2.2789533
11	0xc02c5349	-2.6925833
12	0x3e50eba7	0.20402394
13	0xbd72a075	-0.059235055
14	0xbe787d03	-0.24266438
15	0xbef589be	-0.4795665
16	0xbd9eb517	-0.07749384
17	0x3e213dea	0.15746275
18	0xbde98378	-0.11402029
19	0xbcb44366	-0.022004794
20	0xbd1d86d0	-0.038458645
21	0xbe8a7b74	-0.27047312
22	0x3ea652d4	0.32485068
23	0x3d3cbe2f	0.04607981
24	0xbea6fba6	-0.32613868
25	0x3dd28605	0.102794684
26	0xbe2834ac	-0.16426343
27	0xbdb0c9d4	-0.08632246
28	0xbed1f0c1	-0.41003993
29	0xbf77a41c	-0.96734786
30	0x3d44c097	0.04803523
31	0x3ce81d1c	0.028334193
32	0x3e5ff2c4	0.21869951
33	0x3e65c835	0.22439654
34	0xbd4b67b1	-0.049659435
35	0xbdacabd8	-0.08431214
36	0xbf170eab	-0.59006757
37	0x3f2049f7	0.6261286
38	0xbf2e7d19	-0.68159634
39	0x3f6a1126	0.91432416
40	0x3e9691fc	0.29408252
41	0xbddf97b0	-0.10917604
42	0xbe7828a4	-0.24234253
43	0x3dc6c1e5	0.09704951
44	0xbe72151d	-0.23640867
45	0x3ddb0ed7	0.1069619
46	0xbe4f98bf	-0.20273112
47	0xbe854ce8	-0.26035237
48	0x3d0f6b7b	0.03501461
49	0xbd5e418c	-0.05426173
50	0x3e1d9575	0.15389045
51	0xbdd53888	-0.10411173
52	0x3ceccab9	0.02890526
53	0x3e4ada61	0.19809867
54	0xbd80218e	-0.062564
55	0xbd78210c	-0.06057839
56	0xbe5565b9	-0.20839585
57	0x3dfdbd93	0.12389674
58	0xbc40c0f5	-0.011764755
59	0x3e4f82b7	0.20264708
60	0x3df97da0	0.12182164
61	0xbe52df9f	-0.20593117
62	0xbe4611e1	-0.19342758
63	0x3e111e5a	0.14171734
64	0xbde44bcf	-0.11147272
65	0x3e4ee3f0	0.20204139
66	0xbe0e6808	-0.13906872
67	0xbe58fb1c	-0.2118954
68	0xbe357b0e	-0.17722723
69	0xbe86bde1	-0.2631674
70	0xbf24c12c	-0.64357257
71	0xbe242aa8	-0.16031897
72	0xbf19a960	-0.6002407
73	0x3c77531a	0.015095497
74	0xbe6cc3f5	-0.23121627
75	0xbe16f701	-0.14742662
76	0x3c6da373	0.014504301
77	0xbed61170	-0.4181018
78	0xbeab1313	-0.3341299
79	0x3e92e77d	0.28692237
80	0x3eed8e63	0.46397695
81	0xbf94da1b	-1.162906
82	0x3e86388f	0.26215026
83	0xbe0e30e9	-0.13885845
84	0xbe57ede1	-0.21086837
85	0x3e665da3	0.22496657
86	0xbe67c039	-0.22631921
87	0xbc55b284	-0.01304305
88	0xbe77105f	-0.24127339
89	0xbe882909	-0.26593807
90	0x3e2f5522	0.1712232
91	0xbdbed2de	-0.093175635
92	0x3e110503	0.14162068
93	0xbe7381d9	-0.23780002
94	0xbce0c231	-0.027436348
95	0x3e05c14f	0.13062023
96	0xbd72d0d5	-0.05928119
97	0x3e13fd35	0.1445206
98	0x3e24b89b	0.16086046
99	0xbe323ec0	-0.1740675
100	0x3d3f9bc5	0.046779413
101	0xbef46c7e	-0.47739023
102	0x3db93a60	0.09044337
103	0xbe4b8330	-0.19874263
104	0x3eba6c04	0.36410534
105	0xbe6f4e84	-0.23369795
106	0xbea3da89	-0.32002667
107	0xbe6393c6	-0.2222434
108	0x3f0de44e	0.5542649
109	0xbed6665f	-0.41874978
110	0xbde5a5e2	-0.1121328
111	0xbe5d9e10	-0.21642327
112	0x3d135d69	0.035977755
113	0xbf42ea2a	-0.76138556
114	0x3df2563b	0.118328534
115	0xbeae1860	-0.34002972
116	0x3d2890eb	0.04115383
117	0xbe658876	-0.22415337
118	0xbe46fa94	-0.19431525
119	0x3e400cfa	0.1875495
120	0xbf9b39fa	-1.2127068
121	0xbe8e0925	-0.27741352
122	0xc08f1dce	-4.4723883
123	0x3ca2fe94	0.019896783
124	0x3e2e9304	0.1704827
125	0x3dc9c9d4	0.09852949
126	0xbe46d483	-0.19417004
127	0xbdd183d7	-0.102302246
128	0xbe017757	-0.12643181
129	0x3dd6c14a	0.10486086
130	0xbdc17dc3	-0.09447815
131	0x3d3366b5	0.04379912
132	0xbe52935c	-0.20564026
133	0x3db1f857	0.08689945
134	0xbe80b0ab	-0.25134787
135	0xbe3789e3	-0.17923693
136	0x3e5223a9	0.20521416
137	0xbc347cca	-0.01101608
138	0xbe21f767	-0.15817033
139	0xbe76e47e	-0.241106
140	0xbec078de	-0.37592214
141	0xbc38fa86	-0.011290198
142	0xbb012571	-0.0019706155
143	0x3d160765	0.036628146
144	0x3c929673	0.017894005
145	0xbeab5dd8	-0.33470035
146	0x3ea77feb	0.3271478
147	0xbdb862dd	-0.09003232
148	0x3f44784c	0.7674606
149	0x3f81c41d	1.0137974
150	0x401f0280	2.4845276
151	0x4053ed49	3.3113577
152	0x3df5f4e4	0.120096
153	0xbcc419a8	-0.023938015
154	0xbf332466	-0.69977415
155	0x3ee00d27	0.43760034
156	0xbf2d4c4a	-0.6769453
157	0x3e81fccf	0.2538819
158	0xbf5993ca	-0.84991133
159	0x3efcecab	0.49399313
160	0xbf6e58a6	-0.93104017
161	0xbd63a5b6	-0.055577956
162	0x3ead9e87	0.3391001
163	0xbe41c991	-0.18924548
164	0xbfe16d8f	-1.761156
165	0x3fb97958	1.4490156
166	0x3dcb15df	0.09916281
167	0x3d9e3707	0.077253394
168	0xbd088e1f	-0.033338662
169	0xbe80d670	-0.25163603
170	0xbdf63d95	-0.120234646
171	0xbe0ec0bb	-0.13940708
172	0xbe3d8d79	-0.18510999
173	0xbf5d53f0	-0.86456203
174	0xbe59b20d	-0.21259327
175	0x3e27bf63	0.16381602
176	0x3e9d17fb	0.30682358
177	0x3f3dc671	0.7413092
178	0x3f50b012	0.8151866
179	0x4088ada9	4.2711987
180	0x3e82ff2f	0.25585315
181	0x3c3fea7c	0.01171362
182	0xbd730505	-0.05933096
183	0x3d909426	0.07059507
184	0xbeac6337	-0.33669445
185	0xbe64384a	-0.22287098
186	0xbeb6d852	-0.35711914
187	0xbdd3108f	-0.10305893
188	0xbda71134	-0.08157578
189	0x3e8dfac0	0.2773037
190	0x3e85ede7	0.26158068
191	0x3ea2a7cd	0.31768647
192	0x3f1e2bf7	0.61785835
193	0x40602ef5	3.502866
194	0x3e127e6f	0.14306043
195	0x3e01c4bf	0.12672709
196	0xbf5453fb	-0.82940644
197	0xbe6b84df	-0.22999905
198	0xbf46357d	-0.77425367
199	0x3ebc2633	0.36747894
200	0xbe8a4c70	-0.27011442
201	0x3ebc8500	0.3682022
202	0xbed411e6	-0.41419905
203	0x3ea29a30	0.3175826
204	0x3e753dba	0.23949328
205	0xbdd858e4	-0.105638295
206	0x3e5b81bb	0.21436207
207	0xbefd6cd8	-0.49497104
208	0x3e7bc3bd	0.24586387
209	0x3e299075	0.16559012
210	0xbdbd6bbf	-0.092490666
211	0x3d50795a	0.05089698
212	0xbe867db9	-0.26267794
213	0x3dc2fc3b	0.095207654
214	0x3e4b81fd	0.19873805
215	0x3dd5ca5b	0.10438987
216	0xbe1dd7f8	-0.15414417
217	0xbe136614	-0.14394408
218	0x3d299098	0.04139766
219	0x3cf0b2ce	0.029382136
220	0xbe3d1936	-0.18466648
221	0xbe375c67	-0.17906342
222	0xbe7e03bb	-0.2480611
223	0x3df37920	0.11888337
224	0x3d07df34	0.033171847
225	0xbf11091e	-0.56654537
226	0xbe2e0611	-0.16994502
227	0xbefe2337	-0.49636242
228	0x3e51157a	0.20418349
229	0x3e643db0	0.22289157
230	0x3e928dfa	0.28623945
231	0x3edf9b91	0.43673375
232	0xbe987a7e	-0.29780954
233	0x3dcd041f	0.10010552
234	0x3f16eba4	0.5895331
235	0x3fc3aa0f	1.5286273
236	0xbe25888d	-0.16165371
237	0x3c2d3886	0.010572558
238	0x3e0b50bb	0.13605015
239	0x3e02d507	0.12776576
240	0xbe99ab0b	-0.30013308
241	0xbea27b4a	-0.31734687
242	0x3e2320a5	0.15930422
243	0xbede1e44	-0.43382466
244	0xbea378e0	-0.31928158
245	0xbe3f068f	-0.18654846
246	0x3ea62718	0.324517
247	0x3e264fc3	0.16241364
248	0x3b9e6616	0.004833947
249	0x3f0218b9	0.50818974
250	0xbc7c8455	-0.01541241
251	0xbeac685a	-0.33673364
252	0xbe43edd1	-0.19133689
253	0xbc8e8580	-0.017397642
254	0x3d10fd60	0.035397887
255	0xbda8dcc5	-0.082452334

fc1.bias f4 [256]
0	0x3b659f08	0.0035037417
1	0xbdd66a7e	-0.104695305
2	0x3e6017bd	0.21884055
3	0xbd8556fd	-0.06510732
4	0xbe647b50	-0.22312665
5	0x3e82648a	0.2546733
6	0xbe5f16cd	-0.21786042
7	0x3cace5e2	0.02110571
8	0x3e733a99	0.23752822
9	0x3e011c9d	0.12608571
10	0x3eaebbf6	0.34127778
11	0xbe5b1286	-0.21393785
12	0x3dd7b94c	0.105333894
13	0x3e713401	0.23554994
14	0x3e3ca028	0.1842047
15	0xbe0903eb	-0.13380401
16	0x3dffa17c	0.124819726
17	0xbe77d3cc	-0.24201888
18	0xbe42011b	-0.18945734
19	0xbe4f9075	-0.2026995
20	0x3c8139dd	0.015774662
21	0x3ebb7f22	0.36620432
22	0x3dbc987a	0.0920877
23	0x3d8d02dd	0.06885312
24	0xbd68278b	-0.056678336
25	0x3e218794	0.15774375
26	0x3dce24af	0.100655906
27	0xbde50b21	-0.11183763
28	0x3c761a6b	0.015020947
29	0x3eb442d4	0.35207236
30	0x3d4801fd	0.04883002
31	0x3e874513	0.26419887
32	0xbc14359c	-0.009045985
33	0xbccc2121	-0.02491814
34	0x3e44b20a	0.19208542
35	0x3e4aed80	0.19817162
36	0x3e891434	0.26773226
37	0xbe6cab5f	-0.23112248
38	0xbe51db6f	-0.20493864
39	0xbe295091	-0.1653464
40	0x3e5df9a3	0.2167726
41	0xbdd4d3f8	-0.10391992
42	0x3d58c582	0.052922733
43	0xbe13f539	-0.14449014
44	0x3d8de47e	0.06928347
45	0xbd7b68f3	-0.061379384
46	0x3bddc0f6	0.0067673875
47	0xbd9c4435	-0.07630197
48	0x3e564225	0.2092367
49	0xbe38bd72	-0.18041018
50	0x3c3b2c11	0.0114240805
51	0xbe98196a	-0.2970689
52	0x3d8c96d1	0.068647034
53	0xbdd79bba	-0.10527749
54	0x3e37d868	0.17953646
55	0x3d82a0d8	0.06378335
56	0xbd8cea67	-0.06880646
57	0xbeb2c797	-0.349179
58	0xbeb4c13c	-0.35303676
59	0xbba28f3f	-0.004960924
60	0xbe089e1f	-0.13341568
61	0xbe439ae7	-0.1910206
62	0x3e0b768d	0.13619442
63	0xbe3c2a14	-0.18375427
64	0x3e40d5e6	0.18831596
65	0x3ca98ad3	0.02069608
66	0xbd6bcb39	-0.057566855
67	0x3c87099f	0.01648408
68	0x3d9a43e6	0.07532482
69	0xbe9612b2	-0.29311138
70	0xbc3ad3ed	-0.011403066
71	0xbe4312cf	-0.19050144
72	0x3e2022e9	0.15638317
73	0xbe189964	-0.14902264
74	0x3d81e896	0.0634319
75	0x3dbe74ee	0.09299646
76	0xbe16aeac	-0.1471507
77	0xbe5730d7	-0.21014725
78	0x3dd3886d	0.103287555
79	0xbe6543d8	-0.22389162
80	0xbd4e89be	-0.05042433
81	0x3da00ccd	0.078149416
82	0x3e023a9e	0.12717673
83	0xbdf5f901	-0.12010384
84	0xbe98606e	-0.2976107
85	0xbd8ef7a4	-0.069808275
86	0x3dca726a	0.09885104
87	0x3e2a1ea3	0.1661325
88	0xbdfe604b	-0.1242071
89	0x3ea45ce8	0.32102132
90	0xbde82be2	-0.11336495
91	0x3cc0fdba	0.023558486
92	0xbb192265	-0.0023366448
93	0xbe7f276c	-0.24917382
94	0xbe8c96d2	-0.27458817
95	0x3dbc4d4b	0.0919443
96	0xbd0f7f22	-0.035033353
97	0xbc48e5be	-0.012261806
98	0x3cd5fdec	0.026122056
99	0x3e24faa7	0.16111241
100	0xbeac9f7b	-0.33715424
101	0xbf0324e0	-0.5122814
102	0xbe71e74f	-0.23623393
103	0x3e89ace1	0.2688971
104	0xbe8570c8	-0.26062608
105	0x3e966f9f	0.29382035
106	0x3caf0ac2	0.021367434
107	0x3d4f31c3	0.050584566
108	0xbdbf8c45	-0.09352926
109	0x3e9e24dc	0.30887496
110	0xbe04b923	-0.12961249
111	0x3cc1feac	0.023681007
112	0xbd9d94e0	-0.07694411
113	0xbe66a71b	-0.22524683
114	0xbe649201	-0.22321321
115	0xbde4a96b	-0.111651264
116	0xbe77543e	-0.2415323
117	0xbe3813aa	-0.17976251
118	0xbe20e87b	-0.15713684
119	0x3d7f621c	0.062349424
120	0x3d25aa9e	0.040445916
121	0x3e787a28	0.24265349
122	0x3d074e10	0.03303343
123	0xbe475b5c	-0.19468445
124	0x3e472f0f	0.19451545
125	0xbd60b4a8	-0.054859787
126	0x3db69edc	0.08917019
127	0x3d8fce2a	0.070217445
128	0xbc555466	-0.01302061
129	0xbdffe872	-0.12495507
130	0xbe21dadf	-0.15806149
131	0xbe45c5c3	-0.19313721
132	0xbe4ea73e	-0.20180985
133	0xbe215713	-0.15755872
134	0x3e3bee2a	0.18352571
135	0x3cac4c97	0.021032615
136	0x3d8ada33	0.067798994
137	0xbd85e401	-0.06537629
138	0xbe490c9e	-0.1963372
139	0xbd79d861	-0.06099737
140	0xbde38e73	-0.111111544
141	0xbbee4a61	-0.0072720503
142	0xbe5f2748	-0.21792328
143	0x3d77bdfe	0.060483925
144	0xbe437f3a	-0.19091502
145	0x3e7d2bcb	0.24723737
146	0x3e4e1444	0.20124918
147	0x3e879d34	0.26487124
148	0x3bbff78a	0.0058583664
149	0x3e30d176	0.17267403
150	0xbdc94550	-0.098276734
151	0xbcca8300	-0.024720669
152	0xbdd78b6c	-0.105246395
153	0x3e71f6e6	0.2362934
154	0x3d871b1b	0.06596967
155	0x3dad5920	0.08464265
156	0x3e0c29ac	0.13687772
157	0xbded9d94	-0.11602321
158	0x3dcfa493	0.10138812
159	0x3daa613c	0.08319327
160	0xbd0b8b26	-0.03406825
161	0xbe3b2046	-0.1827403
162	0x3dc8bc6c	0.098015636
163	0x3dbac988	0.0912047
164	0x3e2c4e80	0.1682682
165	0xbc65eb5b	-0.014033164
166	0x3db6ece0	0.08931899
167	0x3e1339e9	0.1437756
168	0x3e76bdac	0.24095792
169	0x3e73733c	0.23774427
170	0x3e80f94f	0.25190207
171	0xbdf21344	-0.11820081
172	0x3c96eed8	0.018424436
173	0x3eaa4fa2	0.3326388
174	0xbe0b3038	-0.13592613
175	0xbe67269b	-0.2257332
176	0x3d08a6ad	0.03336208
177	0xbe9a9d44	-0.3019811
178	0x3a630bf9	0.0008661147
179	0xbde58c6e	-0.112084255
180	0xbde83307	-0.11337858
181	0x3e5853b3	0.21125679
182	0x3ea5c2f7	0.3237531
183	0xbd052d72	-0.032514043
184	0x3ea464d3	0.32108173
185	0x3ce997e4	0.02851481
186	0xbe11819a	-0.14209595
187	0x3d2ef3d0	0.042712986
188	0xbe3d1a8c	-0.18467158
189	0x3e5d042e	0.21583626
190	0x3ed809a9	0.4219487
191	0xbd04c3bf	-0.03241324
192	0xbe77cd36	-0.24199376
193	0xbe87cc28	-0.26522946
194	0x3e99f179	0.30067042
195	0x3d2fa9bb	0.042886477
196	0xbd8fbee5	-0.07018832
197	0xbd6fc18f	-0.0585342
198	0xbcb95042	-0.022621278
199	0xbe94d336	-0.2906739
200	0x3bb2c213	0.0054552644
201	0x3c3bee08	0.011470325
202	0xbe176d4f	-0.14787792
203	0xbda2f23b	-0.07956358
204	0x3e24f309	0.16108336
205	0x3e0f5ae5	0.13999517
206	0x3e26c038	0.16284263
207	0x3e59febd	0.21288581
208	0x3e0e889a	0.13919297
209	0x3df1a1f8	0.11798471
210	0x3e13a492	0.14418247
211	0x3d63c568	0.055608183
212	0xbe2d6fa6	-0.16937122
213	0x3d696bf7	0.05698773
214	0xb9817442	-0.00024691416
215	0xbe9b244c	-0.3030113
216	0xbe4e12db	-0.2012438
217	0xbd2c0042	-0.041992433
218	0xbe831bde	-0.25607198
219	0xbe41f346	-0.18940458
220	0x3d168ab4	0.03675337
221	0x3e419b15	0.18906815
222	0x3dbdcd0e	0.09267627
223	0xbe8b6a86	-0.27229708
224	0xbe917d1e	-0.2841577
225	0xbe7c2a3b	-0.24625485
226	0x3e2628db	0.16226523
227	0x3e66998b	0.2251951
228	0xbe357b6d	-0.17722864
229	0xbda49d33	-0.08037796
230	0x3e8e8ed6	0.2784335
231	0x3deb4a27	0.11488753
232	0x3db1c241	0.08679629
233	0x3e773289	0.24140371
234	0x3e4e39a3	0.20139174
235	0x3c7d95e8	0.015477635
236	0xbd2418bb	-0.040062647
237	0xbdab0573	-0.08350649
238	0xbea63543	-0.3246251
239	0xbdcc8a25	-0.099872865
240	0xbea9b711	-0.3314748
241	0xbdf2becb	-0.11852797
242	0x3cf151a5	0.029457876
243	0xbe1ba9fd	-0.15201564
244	0x3e8c25a0	0.27372456
245	0x3d9fd8c5	0.078050174
246	0x3eb5f8fe	0.35541528
247	0x3e2550ac	0.16144055
248	0x3c83eada	0.016103197
249	0xbe3eb4e3	-0.1862369
250	0x3d479e27	0.04873481
251	0xbdcbdd2b	-0.09954294
252	0xbe659959	-0.22421779
253	0x3e6cfacb	0.23142545
254	0x3df54741	0.11976481
255	0xbe3fd807	-0.18734752

fc2.weight f4 [256, 256]
0	0xbfc6b11c	-1.55228
1	0xbeeba39d	-0.46023265
2	0x3f435304	0.76298547
3	0x3c976318	0.018479869
4	0xbc278cac	-0.01022641
5	0xbf8b917e	-1.0903776
6	0xbd412a78	-0.047159642
7	0xbf16ca3e	-0.5890235
8	0xbfa73180	-1.3061981
9	0x3cf95994	0.030438222
10	0x3c322dfb	0.01087522
11	0xbfdc4da7	-1.7211198
12	0x3f6348a0	0.8878269
13	0x3f29a068	0.66260386
14	0x3f04ea74	0.5192025
15	0x3c89be55	0.01681439
16	0x3e75d5e6	0.24007377
17	0xbf5ed58c	-0.87044597
18	0x3cdd0104	0.026978023
19	0x3f30a90f	0.6900796
20	0x3b2e16a0	0.0026563779
21	0xbef09ba7	-0.46993753
22	0x3a9ee9c0	0.0012124106
23	0xbebc3db9	-0.3676584
24	0xbddf669e	-0.109082446
25	0x3e46217d	0.19348712
26	0x4022586d	2.536647
27	0x3d7dc11e	0.06195175
28	0x3e229cb8	0.15880096
29	0xbe6da3c3	-0.23207001
30	0x3ca1f19b	0.019768527
31	0x3f23eb10	0.6403055
32	0xbcb5509c	-0.022133164
33	0x401ec71b	2.4809024
34	0xbc7e41e0	-0.0155186355
35	0xbce5fe85	-0.028075466
36	0xc01de54d	-2.4671204
37	0xbca60b4a	-0.020269055
38	0xbd57ba5e	-0.052667968
39	0xbf44e1c4	-0.7690699
40	0xbca53d04	-0.020170696
41	0x3e6ff9c4	0.23435122
42	0x3eee5459	0.46548727
43	0xbc65f870	-0.014036283
44	0xbd43da24	-0.047815457
45	0xbbf77310	-0.0075515583
46	0x3c2c6220	0.010521442
47	0xbd4d028f	-0.05005127
48	0xbfc60ecd	-1.5473267
49	0x3fae35e3	1.3610195
50	0x3ca44048	0.020050183
51	0x400c4918	2.1919613
52	0x3f199739	0.5999637
53	0x3c4cd67e	0.012502311
54	0x3fb47026	1.4096725
55	0xbc8b98f8	-0.017040715
56	0x3d158da6	0.03651204
57	0x3cdeb18c	0.02718427
58	0xbfdb89fd	-1.7151486
59	0x3d2987e2	0.041389354
60	0x3d7eb2c0	0.062182188
61	0xbf988efa	-1.1918633
62	0xb9870700	-0.00025754422
63	0xbd4b52b2	-0.04963941
64	0x3fed0856	1.8518169
65	0xbe01b01d	-0.12664838
66	0xbf588302	-0.845749
67	0x3edb2669	0.42802742
68	0xbeb38f10	-0.35070086
69	0xbf48d402	-0.784485
70	0xbd11a5c2	-0.03555847
71	0x3f46e23b	0.7768895
72	0x3d0d7c82	0.034542568
73	0x3bfce1e0	0.007717356
74	0x3d1eb07e	0.038742535
75	0x3c623dd0	0.013808683
76	0x3d05b2c8	0.032641202
77	0xbf4a3245	-0.78982955
78	0xc04d5988	-3.2085896
79	0x3bfabd49	0.007651959
80	0x3e98816e	0.29786247
81	0x3d3bbe8e	0.045836024
82	0x3f0dd3f4	0.5540154
83	0x3d80a540	0.06281519
84	0x3fe02dc5	1.7513968
85	0xbf021af1	-0.5082236
86	0x3edae618	0.42753673
87	0xbe5e8cd0	-0.21733403
88	0xbf39fe04	-0.7265322
89	0x3f07bdfa	0.53024256
90	0xbfe88c27	-1.8167771
91	0xbff4d326	-1.9126937
92	0x3e858b26	0.26082724
93	0xbd8432e8	-0.06455022
94	0xbe8f63e2	-0.28005892
95	0xbff2259f	-1.8917731
96	0xbd3b950f	-0.04579645
97	0xbe0527cd	-0.13003464
98	0xbfaef595	-1.3668696
99	0xbd367f26	-0.044554852
100	0xbf2da19b	-0.67824715
101	0xbfed73dd	-1.8550984
102	0xbcc7cb06	-0.024388801
103	0x3f5843bc	0.84478354
104	0x3c17ef8f	0.009273424
105	0xbf8c6be1	-1.0970422
106	0x3cc5b914	0.024136104
107	0xbf900c44	-1.1253743
108	0xbd1fde31	-0.039030258
109	0x3f45bd56	0.7724203
110	0x3edd7ada	0.4325779
111	0xbcb2b2f0	-0.02181384
112	0xbd256548	-0.040379792
113	0x3e58d213	0.21173887
114	0x3f152ddf	0.5827312
115	0xbd380b0e	-0.044932418
116	0x3d634d71	0.055493776
117	0xbfb931d0	-1.4468327
118	0xbd4a28e8	-0.049355417
119	0x3fad077b	1.3517908
120	0x3cda7bc0	0.026670337
121	0xbda5b129	-0.08090431
122	0xbfd58444	-1.6680989
123	0x3fd56239	1.66706
124	0x3d94561c	0.072429866
125	0xbe77907d	-0.24176212
126	0x400c2a93	2.1900985
127	0xbfbba06c	-1.4658332
128	0xbf765ad5	-0.9623235
129	0xbc6a046a	-0.014283279
130	0xc02ae350	-2.670124
131	0xc01e2226	-2.4708343
132	0xbf6313a6	-0.88701856
133	0x3ba99346	0.005175027
134	0xbd3a8c14	-0.045543745
135	0x3d65e842	0.0561297
136	0x3dd3cec9	0.103421755
137	0x3dfb859d	0.12281344
138	0x3c539e68	0.012916185
139	0x3f233569	0.6375337
140	0xbc18a9b0	-0.0093178
141	0xbd46c804	-0.048530594
142	0x3d12e62a	0.035864033
143	0x3ca76c04	0.020437248
144	0xbe0e8c76	-0.13920769
145	0x3f3cc0f6	0.73731935
146	0xbf2ac15d	-0.667013
147	0xba28b780	-0.0006436035
148	0x3f179ce3	0.59223765
149	0xbfc72bf2	-1.5560286
150	0xbcc0c3bc	-0.023530833
151	0x3d73ba6e	0.059503965
152	0xbd6a366a	-0.0571808
153	0x3e88b5e3	0.2670127
154	0xbfaf07fe	-1.3674314
155	0x3d0f604c	0.035003945
156	0x3f0e7a7e	0.5565566
157	0xbd1af6a8	-0.037832886
158	0xbbbce890	-0.0057650283
159	0x3f5b2137	0.85597557
160	0x3d583768	0.052787215
161	0xbe15a908	-0.14615262
162	0xbd8fdb70	-0.07024276
163	0x3d086173	0.03329606
164	0x3d563848	0.052299768
165	0xbdfce75d	-0.123488165
166	0xbf66986f	-0.90076345
167	0xbe6029c9	-0.2189094
168	0x3f4ffd44	0.8124583
169	0x3e4f7978	0.2026118
170	0xbdbfde1b	-0.09368535
171	0x3d39869e	0.045294397
172	0xbfdfcda7	-1.7484635
173	0x3ccd159c	0.025034718
174	0x3d442aa6	0.047892235
175	0xbd1ff050	-0.03904754
176	0xbd551f89	-0.052032027
177	0x3f8317de	1.0241659
178	0x3c66ac90	0.014079228
179	0xbf6a03f4	-0.9141228
180	0xbd5cede6	-0.053937815
181	0x3cdd2cfe	0.026998993
182	0xbf1bbcc5	-0.60834914
183	0x3cf89aec	0.03034731
184	0xc005b353	-2.08907
185	0xbfbae0f9	-1.4599906
186	0x3f82a4ad	1.0206505
187	0xbe28d734	-0.16488343
188	0xbc739a58	-0.014868341
189	0xbf3f54a9	-0.74738556
190	0xbf220167	-0.6328339
191	0xc020357a	-2.503264
192	0xbc9cf160	-0.019158065
193	0x3f1bb487	0.6082234
194	0x3f9b033b	1.2110361
195	0xbe6d05c8	-0.23146737
196	0x3d8c1f01	0.06841851
197	0x3eaa1987	0.332226
198	0x3cfcc525	0.030855725
199	0x3d66bbb9	0.05633137
200	0x3d4e9092	0.05043084
201	0xbf6e04f7	-0.92976326
202	0x3d1778c8	0.03698042
203	0x3de34283	0.110966705
204	0xc065aafe	-3.5885615
205	0x3b74d82c	0.0037360294
206	0x3e87d9b9	0.26533297
207	0xbe4b212a	-0.1983687
208	0xbd19412c	-0.03741567
209	0xbde0d9db	-0.10979053
210	0xbd11767c	-0.035513386
211	0x3c53ae20	0.012919933
212	0xbd060692	-0.03272111
213	0x3d5f76b4	0.054556563
214	0x3cf9bbea	0.030485112
215	0xbc636971	-0.01388012
216	0xbd472a0c	-0.048624083
217	0x3b885950	0.0041610375
218	0x3cad2723	0.021136826
219	0x3d32d5bb	0.04366086
220	0x3f27a36a	0.65483725
221	0x3ea94d6d	0.33066884
222	0xc04f3d75	-3.238126
223	0xbc8d7ae6	-0.017270517
224	0xbf13d113	-0.57740897
225	0x3d6fff57	0.05859312
226	0xbd193584	-0.037404552
227	0xbe705b2a	-0.23472276
228	0x3caef9b0	0.021359295
229	0xbd5037cc	-0.050834462
230	0xbec73ff8	-0.38915992
231	0x3c7322f0	0.014839873
232	0x3c3f3460	0.011670202
233	0xbcaeee88	-0.021353975
234	0x3fa457da	1.283931
235	0x3d43c023	0.047790658
236	0x3ecba7ea	0.39776546
237	0xbd2e933c	-0.042620882
238	0xbf845d64	-1.0341
239	0x3b337545	0.002738313
240	0x3ef0c3d1	0.47024396
241	0x3e990660	0.29887676
242	0x3f94f4f3	1.1637253
243	0x3ea0185f	0.31268594
244	0x3fe71cf5	1.8055712
245	0x3d695996	0.0569702
246	0x3fae4c27	1.361699
247	0x3ca9857a	0.02069353
248	0xbfb4301f	-1.4077185
249	0xbc073c72	-0.008254157
250	0x3d2c471e	0.04206001
251	0xbf4321eb	-0.7622363
252	0xbcc91039	-0.024543868
253	0xbffc4437	-1.9708318
254	0xc048c283	-3.136872
255	0xbc67bc66	-0.014144039

fc2.bias f4 [256]
0	0xbd907240	-0.070530415
1	0x3b022a7d	0.001986175
2	0xbd98361f	-0.07432198
3	0xbdbe5504	-0.09293559
4	0x3db0f0f5	0.08639709
5	0xbc998a10	-0.018742591
6	0x3d14361a	0.036184408
7	0xbe5b4f6c	-0.21417016
8	0x3caaaeb5	0.02083526
9	0xbb334ea0	-0.0027360097
10	0xbb74c7e8	-0.0037350599
11	0xbd72d3da	-0.05928407
12	0xbd1597df	-0.03652179
13	0x3d286aa0	0.04111731
14	0x3ce71082	0.028206114
15	0xbd4554f5	-0.048176724
16	0x3c56ac23	0.013102564
17	0xbc93049b	-0.017946532
18	0xbbe1b6ff	-0.00688827
19	0xbcb7e02b	-0.022445759
20	0xbe3b3ae8	-0.1828419
21	0x3cd51f5a	0.026015926
22	0xbd1214d1	-0.035664383
23	0xbc337980	-0.010954261
24	0x3eb611c1	0.3556042
25	0x3e60cbd6	0.21952757
26	0xbeb96191	-0.3620725
27	0xbdede95e	-0.11616777
28	0xbd65010e	-0.05590921
29	0x3c947ceb	0.018125972
30	0xbd2d674a	-0.042334832
31	0xbd7c392c	-0.06157796
32	0xbce70b9b	-0.028203776
33	0x3e86a965	0.26301113
34	0xbd257c28	-0.040401608
35	0xbcfba2b4	-0.030717231
36	0x3e29d3c1	0.16584684
37	0xbd026786	-0.03183701
38	0xbc3be112	-0.011467235
39	0xbde9c7d6	-0.11415069
40	0xbe0fed32	-0.14055327
41	0xbe57138e	-0.21003553
42	0x3d56b288	0.052416354
43	0x3e48ab7a	0.19596663
44	0x3b4c48b8	0.0031171273
45	0xbd9f643d	-0.07782791
46	0xbc3add26	-0.011405265
47	0x3d2da4d4	0.04239352
48	0xbdc45c3c	-0.09587905
49	0xbd2a0910	-0.04151255
50	0x3f04fa96	0.51944864
51	0xbd96e2c4	-0.07367471
52	0xbde40aaa	-0.111348465
53	0x3e2599a7	0.16171895
54	0x3de5c408	0.112190306
55	0xbe0540ef	-0.13013051
56	0xbe3e54f9	-0.18587102
57	0xbdc3427b	-0.095341645
58	0x3d140c16	0.03614434
59	0x3bc772c8	0.006086681
60	0xbe52d79f	-0.20590065
61	0xba67697d	-0.00088276697
62	0xbbc13fa3	-0.0058974787
63	0x3d1f3771	0.038871232
64	0xbc536f54	-0.012904961
65	0xbda75ac7	-0.08171611
66	0x3eb311b1	0.34974435
67	0x3dc71ad9	0.09721918
68	0x3c06bd50	0.008223847
69	0x3bc360f6	0.0059624864
70	0xbd38c778	-0.045112103
71	0xbd4267fa	-0.04746244
72	0xbd25f104	-0.040513054
73	0xbd79c93d	-0.06098293
74	0x3c949b10	0.018140346
75	0xbdc06cee	-0.09395777
76	0xbcdd2a9d	-0.026997859
77	0xbd374b31	-0.044749442
78	0x3bf3378a	0.0074223923
79	0xbd47878f	-0.048713263
80	0xbccdcdb2	-0.025122497
81	0xbd23d5f7	-0.039998975
82	0xbd2bed5d	-0.041974414
83	0x3a1d50f2	0.00060011365
84	0xbd59c2ed	-0.05316441
85	0xbd17fb5c	-0.03710495
86	0xbd2938d3	-0.041313957
87	0x3d9faf56	0.077971146
88	0x3edbb28b	0.42909655
89	0xbe5f83fc	-0.21827692
90	0x3a071814	0.0005153429
91	0x3bd3f943	0.0064689233
92	0xbdcc69d7	-0.09981125
93	0xbe172bcc	-0.14762801
94	0x3c89e0dc	0.016830854
95	0x3c708484	0.014680032
96	0xbb5e8ab4	-0.0033957185
97	0xbbe62e1d	-0.00702454
98	0x3d255c4f	0.040371235
99	0xbc702f2b	-0.014659683
100	0x3cd40673	0.025881981
101	0x3d976f88	0.0739432
102	0xbd404d48	-0.0469487
103	0xbe5de6de	-0.216701
104	0xbe66be36	-0.22533497
105	0xbd10fdd3	-0.035398316
106	0x3c253e1e	0.010085611
107	0xbd9d74f7	-0.07688325
108	0x3ce6a848	0.028156415
109	0xbce0a5de	-0.027422842
110	0xbccb4185	-0.024811516
111	0xbbba8857	-0.0056925225
112	0xbdcf5e95	-0.10125462
113	0xbc29680b	-0.010339747
114	0xbd6a2cc0	-0.057171583
115	0x3d30c9d3	0.043161225
116	0xbc5eef51	-0.013606862
117	0xbd346d3b	-0.044049483
118	0xbda0fd26	-0.07860784
119	0xbd7b992a	-0.061425366
120	0xbcccba13	-0.02499107
121	0x3c88094e	0.016606
122	0xbda1939a	-0.07889481
123	0x3eb7772e	0.35833114
124	0xbd062447	-0.03274944
125	0xbde9aafa	-0.11409564
126	0xbbe7509e	-0.007059171
127	0xbd63d54f	-0.05562335
128	0xbcaf331c	-0.021386676
129	0xbbae92ce	-0.005327559
130	0xbe7dae06	-0.24773416
131	0x3ce9e346	0.028550755
132	0xbb9a0d8e	-0.004701323
133	0xbd6d14e3	-0.057881247
134	0x3ec26e9d	0.37975016
135	0xbc7b10d3	-0.015323835
136	0xbbaf9b72	-0.0053591067
137	0xbd335840	-0.043785334
138	0x3d2895ba	0.041158415
139	0x3c67c25f	0.014145463
140	0xbd179e67	-0.0370163
141	0xbbea333a	-0.00714722
142	0xbd4c9602	-0.049947746
143	0xbd6441d2	-0.055726834
144	0xbe4de71f	-0.20107697
145	0x3c678560	0.01413092
146	0xbdc0a2b3	-0.094060324
147	0xbcea56ef	-0.028605906
148	0xbd903d4e	-0.07042943
149	0xbe7c67ed	-0.2464902
150	0xbc315b44	-0.010824982
151	0x3e2d36fd	0.16915508
152	0xbdbcffc8	-0.09228474
153	0xbda7e10d	-0.08197222
154	0xbd8a1eeb	-0.067441784
155	0xbdd3178d	-0.10307226
156	0xbcc8a921	-0.02449471
157	0x3ebb4257	0.3657405
158	0xbdaca20d	-0.08429346
159	0xbcbe982d	-0.023265922
160	0xbdceafb9	-0.1009211
161	0xbe49cd69	-0.19707264
162	0x3cb669c4	0.02226723
163	0x3d01397e	0.03154897
164	0x3d0415fa	0.03224752
165	0xbbe63195	-0.0070249536
166	0x3ce19aac	0.027539574
167	0x3d285d96	0.041104876
168	0x3d1d0f36	0.038344584
169	0xbd9c809f	-0.0764172
170	0xbd8d2c45	-0.06893209
171	0x3d4c6b96	0.04990729
172	0xbcca369d	-0.024684245
173	0x3b962073	0.004581505
174	0xbd9aaee1	-0.07552887
175	0xbd6cf680	-0.05785227
176	0xbd5cf1cf	-0.053941544
177	0x3d96637f	0.07343196
178	0xbdb118fa	-0.08647342
179	0x3ba8ede8	0.0051553138
180	0xbc346d80	-0.011012435
181	0x3cb1c532	0.021700475
182	0xbd263b2e	-0.040583782
183	0xbd6957c3	-0.05696846
184	0x3cf8912c	0.03034266
185	0x3ea17d57	0.3154094
186	0xbd843687	-0.06455713
187	0xbccca849	-0.024982588
188	0xbc8fdc1f	-0.017561017
189	0xbd9e9902	-0.07744028
190	0x3e85948e	0.260899
191	0x3c9be12a	0.019028265
192	0xbd8eae4b	-0.069668375
193	0xbc8abbd7	-0.016935272
194	0xbbc54cee	-0.0060211336
195	0xbd73ef02	-0.059554107
196	0x3dc81294	0.097691685
197	0x3ebddfd8	0.37084842
198	0xbd9c4ee3	-0.07632234
199	0xbd5a1d5d	-0.05325066
200	0xbd99a3a7	-0.07501917
201	0xbcc95101	-0.024574758
202	0xbcd80f33	-0.026374435
203	0xbe310973	-0.17288761
204	0xbd58e609	-0.052953754
205	0xbda627a3	-0.08113029
206	0xbd3f857a	-0.046758153
207	0x3e91038e	0.28323025
208	0xbcaa1513	-0.020762002
209	0x3c336791	0.010949985
210	0xbc833a36	-0.016018968
211	0x3bdd533c	0.006754307
212	0x3cbc3a45	0.022977004
213	0xbe17b42b	-0.14814822
214	0x3cbaa63f	0.02278435
215	0xbd4f1090	-0.050552905
216	0xbbcf198d	-0.0063201846
217	0xbcb9526d	-0.022622311
218	0x3cd82afd	0.026387686
219	0xbdbf40ab	-0.09338506
220	0xbdb354c1	-0.087564
221	0x3d926c1b	0.07149526
222	0x3d1bda69	0.03805009
223	0xbce85699	-0.028361605
224	0xbd12c212	-0.03582961
225	0xbd961ecb	-0.07330092
226	0x3ec35693	0.38151988
227	0x3c262e29	0.010142841
228	0xbc5f0438	-0.013611846
229	0xbe7dcd28	-0.24785292
230	0xbdbcd046	-0.092194125
231	0x3b9ba740	0.0047501624
232	0x3cbb9c11	0.022901567
233	0x3ec70da4	0.38877594
234	0x3e572015	0.21008332
235	0xbb1aaf3e	-0.0023602988
236	0xbd83d496	-0.06437032
237	0x3cab6ffd	0.020927424
238	0x3c80e214	0.015732802
239	0xbf1b133f	-0.6057624
240	0xbcacff7d	-0.02111792
241	0xbb1602db	-0.0022889886
242	0x3c4d8a9c	0.012545254
243	0x37b56752	2.1624994e-05
244	0xbe6fa7b9	-0.23403825
245	0xbd8a502e	-0.06753574
246	0xbd97698f	-0.073931806
247	0xba0eb089	-0.0005443176
248	0xbae0b539	-0.0017143852
249	0xbcf48797	-0.02984981
250	0x3e597a57	0.21238075
251	0x3e9edef9	0.3102949
252	0xbdea7524	-0.11448124
253	0xbe522cec	-0.20524949
254	0xbe156913	-0.14590864
255	0xbdb8d61a	-0.09025212

fc3.weight f4 [5, 256]
0	0x3f8bc651	1.0919896
1	0x3d20e632	0.03928203
2	0xbd0a25cf	-0.033727463
3	0x3d1811ce	0.037126355
4	0x3fae9c82	1.3641512
5	0xbf939ac8	-1.153161
6	0xbd685744	-0.056723848
7	0x3f69a3b6	0.9126543
8	0x3bcf0200	0.006317377
9	0xbcd40086	-0.025879156
10	0xbd727f42	-0.059203394
11	0x3be555d4	0.006998757
12	0xbd9b1ac4	-0.075734645
13	0x3cd768bc	0.026295058
14	0x3bdcb8a9	0.0067358804
15	0x3cfbcd9c	0.03073769
16	0xbd681744	-0.056662813
17	0x3d48022f	0.048830207
18	0xbd320214	-0.043459013
19	0xbcfdb800	-0.030971527
20	0x3f9aa79c	1.20824
21	0xbd37146c	-0.04469721
22	0x3c1cd680	0.009572625
23	0x3f98b7d5	1.1931101
24	0x3ed59d28	0.41721463
25	0xbe918158	-0.28418994
26	0xbf4ae677	-0.7925791
27	0xbdb02730	-0.086012244
28	0xbb6b73ad	-0.0035927102
29	0xbc34b207	-0.011028773
30	0xbfda2457	-1.704234
31	0x3d635fda	0.055511333
32	0xbcc6def8	-0.024276242
33	0xbfb16790	-1.385973
34	0x3f3dcaeb	0.74137753
35	0xbcc62756	-0.024188679
36	0x3fa5ebd2	1.2962592
37	0x3d4236e2	0.04741562
38	0x3d4cc2f4	0.04999061
39	0x3f9a9f18	1.2079802
40	0xbfef713c	-1.8706431
41	0x3fa518df	1.2898215
42	0xbf1d1471	-0.61359316
43	0x3f2beb99	0.6715637
44	0x3d98eee8	0.07467443
45	0x3fbe1430	1.4849911
46	0x3d309ca4	0.043118134
47	0x3d2c3630	0.042043865
48	0x3f59e20a	0.85110533
49	0xbcbf0734	-0.023318864
50	0x4004a3d9	2.0725005
51	0xbca754a8	-0.02042611
52	0x3f7965d9	0.9742103
53	0x3fcff64c	1.6247039
54	0xbf3bb893	-0.7332851
55	0x4041a4cc	3.0256834
56	0x3f99f171	1.2026807
57	0x3da92783	0.082594894
58	0x3bc96060	0.006145522
59	0x3b86e45c	0.004116578
60	0x3f528638	0.8223605
61	0xbd1274fc	-0.035756096
62	0xbc5030c3	-0.012706938
63	0xbd157057	-0.03648409
64	0xbc4ad4bb	-0.01237982
65	0xbb4ce3c0	-0.003126368
66	0xbef8ceba	-0.4859522
67	0xbdce9da9	-0.10088665
68	0x3d07167a	0.03298042
69	0xbd1e2e3a	-0.038618304
70	0x3bd6f014	0.0065593813
71	0x40b0bb5b	5.5228705
72	0x3d63aff0	0.05558771
73	0xbcffa30f	-0.031205682
74	0x3b5fa100	0.0034123063
75	0x3faa3daf	1.3300074
76	0xbd710797	-0.05884513
77	0x3c183814	0.009290714
78	0x3cec6280	0.028855562
79	0xbcbd7836	-0.02312861
80	0xbded512a	-0.115877464
81	0xbcbfd285	-0.023415813
82	0x39b7c10c	0.0003504831
83	0xbd250484	-0.04028751
84	0x3c9d7740	0.019221902
85	0x40591052	3.391621
86	0xbc648bae	-0.013949318
87	0x3e71f0ca	0.2362701
88	0xbfc5845e	-1.543102
89	0x3f7817b5	0.96911174
90	0xbc84d4e8	-0.016214803
91	0x3ca35a22	0.01994044
92	0xbd565ce4	-0.05233468
93	0x3f9bdbc2	1.217644
94	0xbd0e7385	-0.034778137
95	0xbd122f8c	-0.035689875
96	0xbeaa3c90	-0.3324933
97	0xbc094cbe	-0.008380113
98	0x3b1b54c2	0.0023701643
99	0x3fc14e94	1.5102105
100	0x3c136dc6	0.00899834
101	0xbf64f0ed	-0.89430124
102	0x3acd685c	0.001567136
103	0x3f7ba14b	0.9829299
104	0x403d7534	2.9602785
105	0x3d76a3f6	0.06021496
106	0x3cc5c171	0.024140092
107	0x3fd2c460	1.6466179
108	0xbbd686c0	-0.006546825
109	0x3b3a57c5	0.0028433662
110	0x3d6e18f2	0.05812926
111	0xbd0c64b5	-0.03427573
112	0x400ead5c	2.229331
113	0x3cf1f5ed	0.029536212
114	0xbd57ee96	-0.052717768
115	0x3cfaffe1	0.03063959
116	0x3f906761	1.1281549
117	0x3d0715f6	0.032979928
118	0xbd15b123	-0.036545884
119	0x3f47bd8d	0.78023607
120	0xbd5a5039	-0.053299163
121	0xbc3a94db	-0.011388029
122	0xbdb5d5ce	-0.08878671
123	0x401e3e7a	2.4725633
124	0x3c1a873d	0.009431657
125	0xbf159aba	-0.5843922
126	0xbcab88d6	-0.020939272
127	0xbc721252	-0.014774876
128	0x3d0755f8	0.03304097
129	0xbc93fae2	-0.018063966
130	0x3e5ac91c	0.2136578
131	0xbd397e8c	-0.0452867
132	0x3c9a0534	0.01880131
133	0x3d038a60	0.032114387
134	0x3eb51853	0.3537012
135	0x3ca32aac	0.019917808
136	0x3d0c2156	0.03421148
137	0x3ffd9fe3	1.9814419
138	0xbf3bfb95	-0.7343076
139	0xbd311504	-0.043232933
140	0x3fd40540	1.6564102
141	0x3d141034	0.036148265
142	0x3da32445	0.07965902
143	0xbd02efd9	-0.031967018
144	0xbef6dbfe	-0.48214716
145	0x3c5ae340	0.013359845
146	0xbc13f962	-0.009031625
147	0xbd247452	-0.040149994
148	0x3d398014	0.04528816
149	0x3f6ee633	0.93320006
150	0xbbad31c9	-0.005285476
151	0xbff3a03e	-1.9033277
152	0x3d50b206	0.050951026
153	0xbc1d8c2b	-0.009615938
154	0x3cb5aa6f	0.022175996
155	0x3eb8b64f	0.3607659
156	0x3b6c83d9	0.003608933
157	0x3fe893c7	1.8170098
158	0x3f7a23b1	0.9771071
159	0xbdaf4992	-0.08558954
160	0xbcff4754	-0.031161942
161	0x3f7b8702	0.9825288
162	0xbd787228	-0.060655743
163	0xba95d48e	-0.0011431144
164	0xbcadd00d	-0.02121737
165	0xbcb1283f	-0.021625636
166	0xbd17b852	-0.037041016
167	0x3c2368b2	0.009973692
168	0xbcbf6ec4	-0.023368247
169	0x3b95cf3f	0.004571825
170	0x3b375ca3	0.00279788
171	0xbe82f91b	-0.25580677
172	0xbcf87627	-0.030329777
173	0xbc5fd383	-0.013661268
174	0x3ca4ad4f	0.020102171
175	0x3d0c3c71	0.03423733
176	0x3cb5ab4e	0.022176411
177	0x3fa658e5	1.2995878
178	0x3f9ce55e	1.2257497
179	0xbba1bddb	-0.0049359626
180	0xbd3e432f	-0.04645079
181	0xbd6ba316	-0.057528578
182	0x3d297b09	0.0413771
183	0x40003096	2.0029655
184	0x3cc579cf	0.024105934
185	0xbfdb8aa5	-1.7151686
186	0xba55ef43	-0.0008160958
187	0xbd286c6d	-0.041119028
188	0x400b165a	2.1732392
189	0xbcf7de93	-0.030257499
190	0x401842a7	2.3790681
191	0xbd2c0771	-0.041999284
192	0xbba787f0	-0.0051126406
193	0x3c549928	0.012975968
194	0xbccdf6d4	-0.02514211
195	0x3cb81261	0.022469701
196	0x40772a57	3.8619592
197	0x404ad402	3.16919
198	0xbc5a0435	-0.013306667
199	0x3bfa43cb	0.007637476
200	0x3bd11f00	0.0063818693
201	0xbb1fc0f5	-0.0024376486
202	0x3d1c61fc	0.038179383
203	0x3f52f940	0.82411575
204	0x3fe2a657	1.7707013
205	0xbcfc097b	-0.03076624
206	0x3d6a93ce	0.057269864
207	0xbf3b09ac	-0.73061633
208	0xbcac96cb	-0.021067997
209	0x3c6f152c	0.01459245
210	0x3ca7fac7	0.020505322
211	0xbc075d97	-0.00826206
212	0x3d4b9aca	0.049708165
213	0x3f659b98	0.8969054
214	0xbc9c0c3e	-0.019048806
215	0xbbb96625	-0.0056579285
216	0x3f5f8508	0.87312365
217	0x3f74c812	0.95617783
218	0xbcc3f66c	-0.023921214
219	0x3f812cac	1.0091758
220	0xbc04ea72	-0.008112537
221	0x3f43a2db	0.7642037
222	0xbfbe351e	-1.485996
223	0xbbc0c180	-0.005882442
224	0xbd33693c	-0.04380153
225	0x3fb471f6	1.4097278
226	0x4033a511	2.8069499
227	0x3c889fd0	0.016677767
228	0xbe86cebc	-0.263296
229	0x3fa5f57a	1.2965539
230	0x3cf98f1c	0.030463748
231	0xbd4b639f	-0.049655553
232	0x3c3c42e2	0.0114905555
233	0x40793072	3.8935819
234	0x3fe7b42f	1.8101863
235	0xbd212b10	-0.03934771
236	0xbabe0e85	-0.0014500177
237	0x3d8eb332	0.069677725
238	0xbd360927	-0.044442322
239	0x4030d265	2.7628415
240	0x3f806bea	1.0032933
241	0x3fbf538b	1.494737
242	0xbb84a857	-0.004048388
243	0x3c391d49	0.011298486
244	0x3f92c412	1.1466086
245	0xbca6c8ed	-0.02035948
246	0x3f8a7734	1.0817628
247	0x3fd99267	1.6997803
248	0x3a2894b5	0.00064308505
249	0xbd3a8958	-0.045541137
250	0xc002460c	-2.0355253
251	0xbfbd97bb	-1.481193
252	0x3f9ad818	1.2097197
253	0x3f81232e	1.0088861
254	0xbfa70522	-1.3048441
255	0x3cb5f6f4	0.022212483

fc3.bias f4 [5]
0	0x3e95bff5	0.29248014
1	0xbeb7075b	-0.357478
2	0xbcd3a28f	-0.02583435
3	0x3e06ad07	0.13151942
4	0x3ea59c2b	0.3234571
