other_model/dqn_team_a_ep750.pth (torch, 286849 bytes, 6 tensors)

fc1.weight f4 [256, 14]
0	0x3edf899f	0.43659684
1	0xbf63e34b	-0.89018697
2	0x3ea46216	0.32106084
3	0xbede347e	-0.43399423
4	0x3e67c2c1	0.22632886
5	0xbea98ccd	-0.33115235
6	0x3efe7a96	0.497029
7	0xbea8f888	-0.33002114
8	0xc00022e6	-2.00213
9	0x3fb8c8be	1.4436262
10	0xc1a0514a	-20.039692
11	0x410bc1af	8.734786
12	0x3d92d76d	0.071699955
13	0x3ea24d66	0.31699675
14	0xbc4add45	-0.012381856
15	0x3e5207f1	0.20510842
16	0x3cc06682	0.02348638
17	0x3e2ee78b	0.17080514
18	0xbe8765d9	-0.2644489
19	0x3e2a8b30	0.16654658
20	0xbe1650c8	-0.14679253
21	0xbe42d093	-0.19024877
22	0xbe10fef2	-0.14159754
23	0x3d7fd5d6	0.06245979
24	0x3e476730	0.19472957
25	0xbe2ccb89	-0.16874518
26	0xbdb23aa3	-0.0870259
27	0xbdb7c4e9	-0.089731045
28	0xbdffe125	-0.12494115
29	0xbe7c354c	-0.24629706
30	0x3e4be767	0.19912492
31	0xbd0acea7	-0.033888485
32	0xbe4d4e1c	-0.20049328
33	0x3e400d27	0.18755017
34	0xbe0f98c6	-0.14023122
35	0xbe31158d	-0.17293377
36	0x3dd57f6d	0.10424695
37	0xbe1604b2	-0.14650229
38	0xbe6540c1	-0.22387983
39	0xbd4da6f5	-0.05020805
40	0xbb952f5d	-0.0045527653
41	0x3d2d4e56	0.042311035
42	0xbd31ebc3	-0.04343773
43	0xbe3bb326	-0.18330058
44	0xbe3cfb09	-0.18455137
45	0x3da37ba0	0.07982564
46	0xbdef9f1e	-0.11700271
47	0x3c581e48	0.013190813
48	0xbe7de745	-0.24795254
49	0x3e274ff2	0.1633909
50	0xbe4b957a	-0.1988124
51	0x3c317600	0.010831356
52	0xbe32cfba	-0.17462054
53	0x3e3e6f6a	0.18597189
54	0x3cd44a1a	0.02591424
55	0xbd11a5d9	-0.035558555
56	0xbfc065ad	-1.5031029
57	0xbe313038	-0.1730355
58	0xbfb0fe2d	-1.3827568
59	0xbf9b0a0a	-1.2112439
60	0x3f11bddc	0.5693033
61	0x3f6d4912	0.9268962
62	0x3f151bfa	0.58245814
63	0xbe5d006a	-0.21582189
64	0xbf4f66d5	-0.81016284
65	0x3faffed5	1.3749644
66	0xc09ae93f	-4.8409724
67	0x403b9f81	2.9316103
68	0x3e56f1ca	0.20990673
69	0x3e2f90b6	0.17145047
70	0xbe97072e	-0.29497665
71	0xbeec1274	-0.4610783
72	0x3e5224fd	0.20521922
73	0xbe7b04e3	-0.24513583
74	0x3e2d1942	0.16904166
75	0xbd4d5b42	-0.05013586
76	0x3d18e736	0.037329875
77	0xbe1e366c	-0.15450448
78	0xbe88a0f8	-0.2668531
79	0xbe6961b0	-0.22791171
80	0x3e935d38	0.28782058
81	0xbd3a7578	-0.045522183
82	0xbc8624d4	-0.016374983
83	0xbd29c151	-0.041444127
84	0xbe258eff	-0.1616783
85	0xbdc34ac1	-0.095357426
86	0x3e5fe501	0.21864702
87	0xbe84c9f7	-0.25935337
88	0xbe43085c	-0.19046158
89	0x3e749297	0.23884045
90	0x3dd234eb	0.102639996
91	0xbe5cd2ff	-0.21564864
92	0xbe301cd9	-0.17198505
93	0xbd816fbc	-0.0632014
94	0xbe730680	-0.23732948
95	0xbc8cd244	-0.017190106
96	0x3d6d509f	0.057938214
97	0xbdce090f	-0.100603215
98	0x3f268fa3	0.6506292
99	0xbf0ad987	-0.5423817
100	0x3eaf5796	0.3424651
101	0xbe584342	-0.21119407
102	0x3e6bd59c	0.23030704
103	0x3ebbb86b	0.36664137
104	0x3e42f0ad	0.19037123
105	0x3eee5535	0.46549383
106	0xbe9a0ecc	-0.30089414
107	0xbe930fa7	-0.2872288
108	0xbaff7842	-0.0019490796
109	0x3fd895b4	1.6920686
110	0xbe596303	-0.21229176
111	0xbcf235ac	-0.029566608
112	0xbe5d7bda	-0.21629277
113	0xbe8d1cf2	-0.27561146
114	0x3e089521	0.13338138
115	0x3e4e5e6c	0.20153207
116	0x3e067a26	0.13132533
117	0x3ce2cd4f	0.02768579
118	0x3e458cc1	0.19291975
119	0xbe68905e	-0.22711322
120	0xbe74159d	-0.2383637
121	0xbdbc9a71	-0.09209145
122	0xbc1de3d2	-0.009636836
123	0x3c066ebd	0.008205113
124	0xbe4360a0	-0.19079828
125	0xbe8b6cd4	-0.27231467
126	0x3eb3d8d7	0.35126373
127	0xbefa80d7	-0.48926422
128	0x3ede6ead	0.43443814
129	0xbd7fb042	-0.062423952
130	0xbedf205c	-0.43579376
131	0xbf0bd318	-0.5461898
132	0xbf1135a5	-0.5672248
133	0x3ef020e5	0.46900097
134	0x3f34c094	0.7060635
135	0xbf09cb65	-0.5382598
136	0x4006361b	2.0970523
137	0xbfdc8f72	-1.7231276
138	0x3eb300ca	0.3496154
139	0x3eac1ac8	0.33614182
140	0x3e41e4ee	0.18934986
141	0xbf819053	-1.0122169
142	0x3dbe5f56	0.09295528
143	0x3dabafe2	0.08383156
144	0x3e15d0bb	0.14630406
145	0xbeb04b98	-0.34432673
146	0x3d0054ab	0.031330746
147	0x3d9f0c79	0.07766051
148	0x3d2152b1	0.0393855
149	0x3d12e853	0.035866093
150	0x406a0c3b	3.6569965
151	0x3ef208f8	0.47272468
152	0x3e171928	0.1475569
153	0x3dd023b0	0.10163057
154	0xbdea6737	-0.11445468
155	0x3e54d8b4	0.2078579
156	0x3a9c4074	0.0011921064
157	0xbe6a2ebd	-0.22869392
158	0xbe1d98dd	-0.15390344
159	0xbde90b68	-0.11379129
160	0xbd023340	-0.031787157
161	0xbdcd1038	-0.10012859
162	0x3d96b2b5	0.073583044
163	0x3e058d43	0.13042168
164	0xbe4da1b8	-0.20081222
165	0x3d9c7fea	0.07641585
166	0xbe2adf28	-0.1668669
167	0x3e257e78	0.16161525
168	0x3f4329ee	0.76235855
169	0x3e6bdd05	0.23033531
170	0x3f66f6cb	0.90220326
171	0x3f03fc14	0.51556516
172	0xbc938956	-0.018009823
173	0xbf216b94	-0.63054776
174	0x3ea59700	0.32341766
175	0x3db8688d	0.090043165
176	0xc018354f	-2.3782537
177	0x3f160416	0.58599985
178	0xc15b0c21	-13.690461
179	0xbef6f2d3	-0.48232135
180	0x3ddca099	0.10772819
181	0xbd0cf73d	-0.034415472
182	0x3e4ece01	0.20195772
183	0x3e8b1c82	0.27170187
184	0x3e16ad3e	0.14714524
185	0x3e1172aa	0.14203897
186	0xbeae81fb	-0.34083542
187	0xbf37903c	-0.7170446
188	0xbf1f3617	-0.6219191
189	0xbf135f1c	-0.57567
190	0xba751419	-0.0009349003
191	0xbe21f826	-0.15817317
192	0xbf924503	-1.1427311
193	0x3f23f049	0.6403852
194	0xba064419	-0.00051218417
195	0x3b75c1d9	0.0037499575
196	0x3bfc8d5d	0.0077072815
197	0xbfc4651b	-1.5343355
198	0xbdc419f9	-0.095752664
199	0xbea3dd5d	-0.32004824
200	0x3e8649a2	0.26228052
201	0x3cc3b9c5	0.023892293
202	0xbd46fccd	-0.048580933
203	0x3eb96608	0.36210656
204	0x3e9c9987	0.30585882
205	0x3f2a1c43	0.66449374
206	0x40327511	2.7883952
207	0x404ac545	3.1682904
208	0x3d7d5121	0.06184495
209	0x3e181167	0.14850388
210	0x3e2b44b2	0.16725424
211	0x3f76fe6d	0.9648197
212	0x3ec98dbe	0.39365953
213	0x3e91792e	0.28412765
214	0x3eb7096e	0.35749382
215	0xbed96135	-0.42456976
216	0x3f0e0281	0.5547257
217	0xbec6972e	-0.38787216
218	0xbf2c412f	-0.6728696
219	0xbfebc8e8	-1.8420687
220	0xc0368178	-2.8516521
221	0xc1525ae7	-13.147193
222	0xbdb0131a	-0.08597393
223	0x3dcdd9e6	0.100513265
224	0x3e471072	0.19439867
225	0x3e733096	0.23749003
226	0x3f1fa347	0.62358516
227	0x3e063730	0.1310699
228	0xbfa9c7f0	-1.3264141
229	0x3e7ee8b3	0.24893455
230	0xc01208cc	-2.281787
231	0x3d9bcc6c	0.0760735
232	0x3de583bf	0.11206769
233	0xb8f3751e	-0.00011608958
234	0xbe8d0270	-0.27540922
235	0x3e316f3b	0.17327587
236	0x3e1848c6	0.14871511
237	0xbe2f5bc7	-0.17124854
238	0xbe18dd87	-0.14928256
239	0xbe39fbff	-0.18162535
240	0x3e121268	0.14264834
241	0xbe7e839e	-0.24854895
242	0xbdea3344	-0.114355594
243	0xbb1e164d	-0.002412218
244	0x3dfef9ee	0.12450014
245	0xbe58339d	-0.21113439
246	0x3c1f0eb8	0.009708099
247	0xbe71d22a	-0.23615327
248	0xbdc4e87a	-0.09614654
249	0x3b911b2d	0.0044282884
250	0xbe2e49bc	-0.17020315
251	0xbe368dab	-0.1782748
252	0xbe2a9ad6	-0.16660628
253	0xbe86df2c	-0.26342142
254	0xbd4eea2d	-0.050516296
255	0x3e0235e1	0.12715866

fc1.bias f4 [256]
0	0x3e2779c2	0.1635504
1	0x3de15c08	0.11003882
2	0xbe877029	-0.2645276
3	0xbd11ef47	-0.035628583
4	0x3e26f1a6	0.16303119
5	0xbeb9d553	-0.36295566
6	0xbe06047c	-0.13087648
7	0xbe0066ac	-0.12539166
8	0x3e158a37	0.14603506
9	0x3ef3a163	0.47584066
10	0x3db5bcf3	0.0887393
11	0x3d6c46d5	0.05768474
12	0x3ddc2197	0.10748594
13	0xbeb95814	-0.3620001
14	0x3e1d4487	0.15358172
15	0x3dff2f23	0.124601625
16	0xbba3f62c	-0.005003711
17	0xbd2abe69	-0.041685496
18	0xbe5bd206	-0.21466836
19	0x3e41d8bb	0.18930332
20	0x3dd2c897	0.10292166
21	0x3dd03633	0.10166588
22	0xbde203d4	-0.110358864
23	0x3d7302ed	0.059328962
24	0xbe6e4725	-0.23269327
25	0x3e0a8c91	0.13530184
26	0xbd5b5ea3	-0.05355705
27	0xbe632935	-0.22183688
28	0x3e484470	0.19557357
29	0x3ee234ac	0.4418081
30	0xbe815679	-0.25261286
31	0xbe72f813	-0.23727445
32	0xbc09080b	-0.008363734
33	0xbda0d60f	-0.078533284
34	0xbea408c1	-0.3203793
35	0x3d2bf026	0.04197707
36	0x3df34a13	0.11879363
37	0xbd7f77a3	-0.062369954
38	0xbe57e146	-0.21082029
39	0xbdbb4a28	-0.091450036
40	0xbe6184d0	-0.2202332
41	0x3ea0c607	0.31401083
42	0xbe9dc5d2	-0.30814987
43	0x3c26b856	0.010175785
44	0xbe76fcdd	-0.24119897
45	0xbe80a32b	-0.25124487
46	0xbe985748	-0.2975409
47	0x3f4da28e	0.80326164
48	0x3d54811f	0.051880952
49	0x3e179976	0.14804634
50	0xbe6e0b21	-0.23246433
51	0xbe4d398f	-0.20041488
52	0xbd315264	-0.043291464
53	0xbb541f97	-0.0032367462
54	0xbe8991d0	-0.2686906
55	0xbcd465c4	-0.025927432
56	0xbebb313f	-0.3656101
57	0x3e460fda	0.19341984
58	0x3c0fbb97	0.008772752
59	0x3ebec351	0.3725839
60	0x3e510a2b	0.20414035
61	0x3df5cad1	0.12001575
62	0x3d9d000f	0.07666027
63	0xbdf08734	-0.11744538
64	0x3e4e5808	0.20150769
65	0x3e3b9080	0.18316841
66	0x3c1ed685	0.0096947
67	0xbe48e7d5	-0.19619687
68	0x3d860209	0.06543357
69	0x3d7e103a	0.062027194
70	0x3ebc44e1	0.367713
71	0xbd2082c4	-0.039187208
72	0x3e86f8b3	0.26361617
73	0x3e79d835	0.24398883
74	0xbd3f44fd	-0.04669665
75	0x3d860989	0.065447874
76	0xbcb5f594	-0.022211827
77	0xbd97a84c	-0.07405147
78	0x3d435907	0.047692325
79	0x3dc1d06c	0.094635814
80	0xbe51f3e1	-0.20503189
81	0xbd90fa88	-0.07079035
82	0x3e292615	0.16518433
83	0x3eab1532	0.33414608
84	0xbe5234ca	-0.2052795
85	0x3dab4c52	0.08364166
86	0xbb5108e5	-0.003189617
87	0x3e3818e6	0.17978248
88	0x3eea7545	0.45792595
89	0xbf188068	-0.5957093
90	0xbdea0953	-0.1142756
91	0x3d00e5de	0.03146922
92	0xbdcef8a4	-0.10106018
93	0x3cbeb0de	0.023277696
94	0x3d9cdc38	0.07659191
95	0xbdd4dcab	-0.103936516
96	0xbd5ed832	-0.0544054
97	0x3df225f7	0.118236475
98	0xbea18eb4	-0.31554186
99	0x3e20c658	0.15700662
100	0xbd503c17	-0.050838556
101	0x3f0336bb	0.5125539
102	0xbd5097f6	-0.05092617
103	0xbacf6991	-0.0015824308
104	0x3d521941	0.051293615
105	0x3b7a39dc	0.003818146
106	0x3dc63343	0.09677746
107	0x3da36279	0.079777665
108	0xbde34c2c	-0.11098513
109	0xbd0e20ee	-0.034699373
110	0x3ec77251	0.38954404
111	0xbe80bc4f	-0.25143668
112	0x3e0d79c1	0.13815977
113	0xbe9dba70	-0.30806303
114	0xbe0c4b53	-0.13700609
115	0x3d299067	0.04139748
116	0x3cdacde2	0.0267095
117	0x3d695b39	0.056971762
118	0xbe9580f7	-0.29199955
119	0xbe9d0e2e	-0.3067488
120	0xbd22bd2f	-0.0397312
121	0x3d2ddc53	0.042446446
122	0xbe6b197f	-0.22958945
123	0x3e15623a	0.14588252
124	0x3e5b6750	0.2142613
125	0xbe594a59	-0.21219768
126	0x3d067e90	0.032835543
127	0xbe842739	-0.25811175
128	0x3f2834b1	0.657054
129	0xbe9953e9	-0.2994683
130	0x3ecf696a	0.40510112
131	0xbd8679ea	-0.06566222
132	0x3f0e6be7	0.55633396
133	0x3e81d0c1	0.2535458
134	0x3dc8b7df	0.09800696
135	0xbc824050	-0.015899807
136	0x3db9e7a8	0.09077388
137	0x3e5432e8	0.20722544
138	0xbdd1d16b	-0.102450214
139	0x3cf51bf0	0.029920548
140	0x3d7b40ed	0.061341215
141	0x3cb89374	0.022531249
142	0xbe458bb1	-0.1929157
143	0x3e5b539e	0.21418616
144	0x3d48bb39	0.049006674
145	0x3ee44458	0.44583392
146	0xbd8a06cc	-0.06739578
147	0x3e1545cc	0.14577407
148	0xbdfefaf0	-0.12450206
149	0xbe1e7e33	-0.15477829
150	0xbd2aa535	-0.04166146
151	0xbdc73f0d	-0.09728823
152	0x3d6de3bf	0.058078524
153	0x3d359aa6	0.044336937
154	0xbd7bcfe7	-0.061477568
155	0xbe747d1b	-0.23875849
156	0xbe276e7d	-0.16350742
157	0x3e8463f9	0.25857523
158	0xbd745036	-0.059646808
159	0x3e3d0de6	0.18462333
160	0xbe61b6fb	-0.22042458
161	0x3e22b7a6	0.15890369
162	0x3cdd89e0	0.027043283
163	0xbd7bd4f3	-0.06148238
164	0xbe291248	-0.1651088
165	0xbe9ae2dd	-0.30251208
166	0x3f305088	0.6887288
167	0x3dd1de71	0.102475055
168	0x3d5206bd	0.051275957
169	0xbe5e8dbb	-0.21733753
170	0xbe401088	-0.18756306
171	0xbddbefec	-0.10739121
172	0x3e9467cb	0.28985438
173	0xbe55b0b8	-0.20868194
174	0xbe3c631e	-0.18397185
175	0x3e42d3d9	0.19026126
176	0x3d061597	0.032735433
177	0x3e803b8c	0.2504543
178	0x3e2d3cf5	0.16917785
179	0xbccd4963	-0.025059408
180	0xbe1c1fb1	-0.15246464
181	0xbe9cc945	-0.30622306
182	0xbe6601cc	-0.22461623
183	0x3e87cead	0.2652487
184	0xbe56ff80	-0.20995903
185	0x3e00152c	0.12508076
186	0x3e4f720b	0.20258348
187	0x3e6bbefe	0.23022076
188	0xbed0f2c9	-0.4081023
189	0xbe3a2c2c	-0.18180913
190	0xbc9e0910	-0.01929143
191	0xbe5a50a4	-0.21319824
192	0xbdb43729	-0.087995835
193	0x3f1627a1	0.5865422
194	0xbea42ac3	-0.32063875
195	0xbe4d60cf	-0.20056461
196	0xbe664bca	-0.22489849
197	0xbd652233	-0.055940818
198	0xbe0832f4	-0.13300687
199	0x3e263eb5	0.16234858
200	0xbcf35e53	-0.029708063
201	0xbefa373c	-0.48870265
202	0x3e432772	0.19058016
203	0xbd3de970	-0.0463652
204	0x3d9dd720	0.077070475
205	0x3e9846fb	0.29741654
206	0x3da0851a	0.07837887
207	0xbd459274	-0.04823537
208	0xbe0d5dc1	-0.13805296
209	0xbeb70a7c	-0.35750186
210	0xbe37aa63	-0.17936091
211	0xbe8b6e0d	-0.272324
212	0xbcc57d4a	-0.024107594
213	0x3ddfed95	0.10933987
214	0xbe916a82	-0.28401572
215	0xbe9b8f3c	-0.30382717
216	0x3e0df924	0.13864571
217	0x3e4bcf4a	0.19903293
218	0xbdc4f406	-0.09616856
219	0x3dbed2a5	0.09317521
220	0x3e285a44	0.16440684
221	0xbeaebf86	-0.34130496
222	0xbd9000ff	-0.0703144
223	0xbd4381ea	-0.047731318
224	0xbeb00423	-0.34378156
225	0x3e12fb6a	0.1435372
226	0x3e1dff3b	0.15429394
227	0xbca3638f	-0.019944934
228	0x3e6b6b5b	0.22990172
229	0xbdd54ab0	-0.10414636
230	0xbe1be988	-0.15225804
231	0x3e07facf	0.1327927
232	0x3db11c2d	0.08647952
233	0x3dd04063	0.10168531
234	0x3eac9904	0.33710492
235	0xbe80eef2	-0.251823
236	0xbe817a22	-0.25288492
237	0xbe8e92df	-0.2784643
238	0x3e472fd5	0.1945184
239	0x3e626d35	0.22111972
240	0xbedc25cf	-0.42997596
241	0xbeb01aaa	-0.34395343
242	0x3dd8d226	0.10586958
243	0x3d743eb5	0.059630115
244	0xbe574822	-0.2102361
245	0x3e340c79	0.17582883
246	0xbe62fdb8	-0.22167099
247	0xbc8a069c	-0.016848855
248	0xbe331608	-0.17488873
249	0xbe63148f	-0.22175811
250	0xbb9f7efc	-0.0048674326
251	0xbe3bb6ce	-0.18331453
252	0xbe1f1b7e	-0.15537831
253	0x3d2c19e0	0.042016864
254	0xbea93ec6	-0.33055705
255	0xbeaaa251	-0.33326963

fc2.weight f4 [256, 256]
0	0xc000327c	-2.0030813
1	0xbc9defc0	-0.01927936
2	0x3c9d1a84	0.019177683
3	0x3d649b64	0.055812255
4	0xc0198f0b	-2.3993556
5	0x3df0691e	0.117387995
6	0xbd36819e	-0.044557206
7	0x3ecc96d5	0.39958826
8	0x3c8f3ca4	0.01748497
9	0x3fb95743	1.4479755
10	0x3f02c6e7	0.5108475
11	0x3ced0930	0.028935045
12	0xbf4a581b	-0.7904069
13	0x3f924f7f	1.143051
14	0x3f9c6885	1.2219397
15	0xc107c83c	-8.486385
16	0xbf224eb3	-0.63401335
17	0xbd01201a	-0.031524755
18	0x3cfe1dc8	0.03102006
19	0x402061c4	2.5059671
20	0xbf85da05	-1.0457159
21	0x3fdbd55f	1.7174491
22	0xbc9a6b0a	-0.018849868
23	0xbf720992	-0.94545853
24	0x3f0e9b89	0.5570608
25	0x40582fee	3.3779254
26	0xbc6b6080	-0.014366269
27	0xbcdb15f4	-0.026743867
28	0xbd1c734b	-0.03819589
29	0xc019f21a	-2.4054017
30	0x405ab90d	3.4175446
31	0xbf7fb77d	-0.99889356
32	0xbd18ec32	-0.03733463
33	0x3c36f88e	0.0111676585
34	0xbe9c6ea1	-0.30553153
35	0xbfde7618	-1.7379789
36	0x3c94ec3b	0.01817905
37	0x3c464261	0.012100787
38	0xbb9b8f80	-0.004747331
39	0x3fd7a8bb	1.6848367
40	0xbc2cd850	-0.01054962
41	0x3edd2bd9	0.43197516
42	0x3e7698ac	0.24081677
43	0xc074bc64	-3.8239985
44	0xbccda13a	-0.025101293
45	0x3a037280	0.0005014315
46	0xbd2e2d18	-0.042523474
47	0xc06958f9	-3.6460555
48	0x3d2d7a7d	0.042353142
49	0x3fab5649	1.3385707
50	0xbd824c16	-0.063621685
51	0xbba11236	-0.004915501
52	0x402418ce	2.564014
53	0x3cb14598	0.02163963
54	0xbd7c2745	-0.061560888
55	0xbcc2aca8	-0.02376397
56	0xbf0dafed	-0.55346566
57	0x3b27ec20	0.002562292
58	0xbd0badd8	-0.034101337
59	0xbf6b7a1d	-0.91983205
60	0x3cdb4d78	0.026770338
61	0xbd666f0a	-0.05625824
62	0x3f35b727	0.70982593
63	0xbcc3575c	-0.023845367
64	0x3d791c7a	0.060818173
65	0xbfe9e84c	-1.8274016
66	0x3d7964ee	0.06088727
67	0xbf8359b3	-1.0261749
68	0xbfe735fe	-1.8063352
69	0x3a356b00	0.00069205463
70	0xc0d9898d	-6.798041
71	0xc04af750	-3.1713448
72	0x3fd4b966	1.6619079
73	0xc06f960a	-3.7435327
74	0x402da19c	2.7129889
75	0x3d40038e	0.04687839
76	0x3d3ed823	0.046592843
77	0xc04bce7e	-3.1844783
78	0x3f8de2f2	1.1084883
79	0xbf64fc4a	-0.8944746
80	0x3e895d71	0.26829103
81	0x3d672486	0.056431316
82	0xbff89c38	-1.9422674
83	0xc0336b17	-2.8034112
84	0xbd7ac828	-0.06122604
85	0x3c08e656	0.008355698
86	0x40543637	3.315809
87	0xbb996960	-0.004681751
88	0xc013e661	-2.3109362
89	0xbf8dc4e1	-1.1075708
90	0xc02fa623	-2.7445152
91	0x3ccc1550	0.024912506
92	0x40126f29	2.2880347
93	0x3cea3a3c	0.028592221
94	0xbd2a2490	-0.041538775
95	0x40162a78	2.346342
96	0x3fc97f92	1.5742056
97	0x3cda9bd0	0.026685625
98	0xbcbd5484	-0.02311159
99	0xbf5d1054	-0.8635304
100	0xbeef6ce4	-0.46762764
101	0xc09604a2	-4.6880655
102	0xbeb91cbd	-0.36154738
103	0x3f9ae5ef	1.210142
104	0x3c811e5c	0.015761547
105	0x3c3d9cc0	0.011573017
106	0x3ce0fb30	0.027463526
107	0x3f7ab69c	0.9793489
108	0x3c0f4bb4	0.008746076
109	0xbd212958	-0.03934607
110	0xc0c4fe1d	-6.1560197
111	0x3d585942	0.052819498
112	0x3f8cb7f9	1.0993644
113	0x3ba88e28	0.0051438995
114	0xbd3991be	-0.045305006
115	0x3cf2c8c8	0.029636756
116	0xbfca4f0a	-1.5805371
117	0x3d12280f	0.035682734
118	0x3dc3d649	0.09562356
119	0x404ab3b0	3.1672173
120	0xbfa57efa	-1.2929375
121	0xbc17fb63	-0.009276244
122	0xc0156341	-2.334183
123	0xbd265bae	-0.040614776
124	0xbd6781b2	-0.05652017
125	0xbd9cac91	-0.07650102
126	0x3d58d5de	0.052938335
127	0x3b93746f	0.004499964
128	0xbebf7286	-0.37392062
129	0xbf2a4bc8	-0.66521883
130	0xbe82b7e1	-0.25530913
131	0x3d0165ce	0.03159123
132	0x3facd34f	1.3501986
133	0x407d9b64	3.9626093
134	0x3ff36d02	1.9017642
135	0x3ca9d4a8	0.020731285
136	0x3d3947f1	0.045234624
137	0x3f50fe2b	0.8163783
138	0xbffff83e	-1.9997633
139	0x3e9709b6	0.29499596
140	0xbc8e646c	-0.01738187
141	0xbe7018a0	-0.23446894
142	0xc02f5bc8	-2.739977
143	0x3e6bca45	0.23026378
144	0x3d853d34	0.06505814
145	0xc09d61f3	-4.9182067
146	0xbfa9fb57	-1.3279828
147	0xc0b358f4	-5.6046085
148	0x3c171169	0.0092204595
149	0xbf5e0aa8	-0.8673501
150	0xbe8d9d51	-0.27659085
151	0xbaa9c1ae	-0.0012951398
152	0x40828584	4.0787983
153	0x3d7ee853	0.06223328
154	0xbe370ea6	-0.17876682
155	0xbcd4aec4	-0.025962241
156	0xbdfda3b7	-0.12384742
157	0x3cae4994	0.02127532
158	0x3c10eb51	0.008845166
159	0xbc9ff0b5	-0.019523958
160	0x3d5190df	0.05116355
161	0x3c37665e	0.01119384
162	0x3d6bfef4	0.05761619
163	0x3fbf7567	1.4957703
164	0xc071687a	-3.7720017
165	0xbd3dce6c	-0.046339437
166	0xbf4f3fd3	-0.80956763
167	0x3ce1be08	0.027556434
168	0xc04abf6f	-3.1679342
169	0xbd180c4c	-0.037121102
170	0x3c8ab425	0.016931603
171	0x401d6306	2.459169
172	0x40431b6c	3.0485487
173	0x3d2fc5e2	0.042913325
174	0xbcbf3338	-0.023339853
175	0x402341c7	2.5508897
176	0xbe259c68	-0.16172945
177	0xbcc0e664	-0.023547359
178	0xbd32c491	-0.04364449
179	0xc0006e01	-2.006714
180	0xbe081106	-0.13287744
181	0x404d432d	3.207225
182	0x3ee1179d	0.43963328
183	0xbdf14e06	-0.1178246
184	0xbefbbf2e	-0.49169296
185	0x3fd14130	1.6348019
186	0x400df45b	2.2180393
187	0x3ca33eaf	0.01992735
188	0x400b69c4	2.1783304
189	0xbe40b696	-0.18819651
190	0xbf8d9963	-1.1062435
191	0xbd45d642	-0.048300035
192	0x403413f4	2.8137178
193	0x400f1569	2.2356818
194	0x3f05b251	0.52225214
195	0xbb814f60	-0.00394623
196	0x3d4c98b2	0.04995031
197	0x4009100e	2.141605
198	0xbf3838ad	-0.7196148
199	0xbd74118d	-0.05958705
200	0xc0613e1c	-3.5194159
201	0x403d8956	2.9615073
202	0xbd3a791a	-0.045525648
203	0x3f264ed5	0.6496404
204	0xbea8105b	-0.32824978
205	0xbffdb442	-1.9820635
206	0x3f933226	1.1499679
207	0x3c26e208	0.010185726
208	0xbd3397e7	-0.043846037
209	0xbd6df9e9	-0.05809966
210	0x3fbacc59	1.4593612
211	0x402927a8	2.6430454
212	0x3d077de8	0.033079058
213	0x3d34f74e	0.04418116
214	0x3ed2900e	0.4112553
215	0x406631c5	3.5967877
216	0x3d3f8a14	0.04676254
217	0x3ce0116c	0.027352057
218	0xbd628009	-0.055297885
219	0xbd09b6b0	-0.03362149
220	0xbeeb9c82	-0.46017843
221	0xbf020d0f	-0.50801176
222	0x3f92f246	1.1480186
223	0xbc4ab713	-0.01237275
224	0x4000ea25	2.014291
225	0xc0af6451	-5.4809957
226	0x3c6f52a0	0.014607102
227	0xbed1585a	-0.4088772
228	0x3f0d76be	0.5525931
229	0x3d3cefe1	0.046127204
230	0x401b5172	2.426846
231	0x409062c3	4.512056
232	0x3d24fc14	0.040279463
233	0x403c632e	2.9435534
234	0xbe8ccc82	-0.27499777
235	0x3d3c7c9e	0.04601728
236	0x405b2acd	3.4244874
237	0xbe7afc54	-0.24510318
238	0xbd535768	-0.05159703
239	0xbfe10909	-1.7580882
240	0xbd79ecd4	-0.061016873
241	0x3f70a377	0.9399943
242	0xbce88b98	-0.028386876
243	0x3d5c6762	0.05380953
244	0x3d66552a	0.056233563
245	0xbfa92328	-1.3213854
246	0x3d4a5506	0.04939749
247	0xbd70bea8	-0.058775574
248	0x4058beb4	3.3866396
249	0x3af33847	0.0018556201
250	0x4022caa0	2.5436172
251	0xbcbcf16e	-0.023064341
252	0x40b6b997	5.710155
253	0x3f53a0cc	0.8266723
254	0x3d8c3547	0.06846099
255	0xbdb02e04	-0.08602527

fc2.bias f4 [256]
0	0xbe141f09	-0.14464964
1	0x3c66d0c5	0.0140878605
2	0xbccbef93	-0.024894511
3	0xbd594eae	-0.05305355
4	0x3c104bd6	0.008807143
5	0xbe085558	-0.13313806
6	0x3e7598c6	0.2398406
7	0xbd450df3	-0.048109006
8	0xbd891fbe	-0.066955075
9	0xbe80c432	-0.25149685
10	0xbdee1cad	-0.11626563
11	0xbd9604fd	-0.0732517
12	0xbc01b7b8	-0.007917337
13	0x3fb287c4	1.3947682
14	0x3eaf3e16	0.34227055
15	0xbd6e5467	-0.05818596
16	0x3e57d663	0.21077876
17	0x3ef80b7b	0.4844626
18	0x3d6c20cc	0.057648465
19	0x3caf2a84	0.021382578
20	0xbd8465a1	-0.06464697
21	0xbd6182c8	-0.055056363
22	0xbdc3256b	-0.09528621
23	0xbda18b10	-0.07887852
24	0xbf540fcc	-0.82836604
25	0xbd73a693	-0.05948503
26	0x3e8695a2	0.26286036
27	0x3c83529c	0.016030602
28	0xbd9101a3	-0.0708039
29	0x3e647f0d	0.22314091
30	0xbe745e0f	-0.23864006
31	0xbd7c9487	-0.061665084
32	0xbd4e4994	-0.05036314
33	0xbc072ec5	-0.008250897
34	0x3c6d3d82	0.014479997
35	0xbda2ace0	-0.079431295
36	0xbd61d017	-0.05513009
37	0xbc6f44eb	-0.014603834
38	0xbc9b4b93	-0.018956935
39	0xbc43b881	-0.011945845
40	0xbd0e9377	-0.034808602
41	0xbec8920c	-0.39173925
42	0xbd961acf	-0.07329332
43	0xbab0d807	-0.0013492116
44	0xbce03875	-0.02737067
45	0xbee08fcb	-0.43859705
46	0xbc86d87d	-0.016460652
47	0xbec2834a	-0.3799079
48	0x3dd4278d	0.10359106
49	0xbe9d0a34	-0.30671847
50	0xbd14690c	-0.036232993
51	0xbc098839	-0.008394294
52	0xbd52d980	-0.051476955
53	0xbd6a44e7	-0.057194617
54	0xbe46be69	-0.19408573
55	0xbefcc61f	-0.49369904
56	0x3fac16de	1.3444479
57	0xbd4f1369	-0.05055562
58	0xbd6e68d1	-0.05820543
59	0xbdc5a850	-0.09651244
60	0xbd35b037	-0.044357505
61	0x3eac74f4	0.33682978
62	0xbcf91d5b	-0.030409506
63	0xbd84fae4	-0.06493166
64	0xbbd55926	-0.0065108715
65	0x3c3c029a	0.01147523
66	0x3f3039bd	0.688381
67	0xbd0e97f7	-0.034812894
68	0xbca4a9ce	-0.0201005
69	0x3c963c9f	0.018339453
70	0xbdc05e49	-0.093929835
71	0x3eaddf6f	0.3395953
72	0xbd824d11	-0.063623555
73	0xbc46bc36	-0.012129834
74	0xbdcb5434	-0.0992817
75	0xbb9cf521	-0.004789964
76	0xbdb5da51	-0.08879531
77	0x3c2b33b5	0.01044934
78	0xbd0623e3	-0.032749068
79	0xbd0bddb9	-0.034146998
80	0x3cc0a410	0.023515731
81	0xbd92a344	-0.07160047
82	0xbd337e57	-0.04382166
83	0xbeb4e6ab	-0.35332236
84	0xbec95811	-0.39325002
85	0x3f21ac91	0.6315394
86	0xbd616e12	-0.05503661
87	0x3d016394	0.031589106
88	0xb9ff1d3e	-0.00048659177
89	0xbd4387f9	-0.047737096
90	0x3e1ec208	0.15503705
91	0xbf0dc79d	-0.5538271
92	0xbd99f73f	-0.075178616
93	0x3ec5ffd8	0.38671756
94	0x3c6ace74	0.014331449
95	0xbd9fd9be	-0.07805203
96	0x3e6aa4b3	0.2291439
97	0xbd954b66	-0.07289772
98	0xbf12e88b	-0.5738608
99	0x3cedd8cf	0.029034046
100	0xbd7b11ff	-0.06129646
101	0x3e3beed8	0.1835283
102	0xbef4336e	-0.47695488
103	0xbd09749e	-0.03355848
104	0xbc2e894a	-0.010652849
105	0xbc344b36	-0.01100426
106	0xbd80d471	-0.0629052
107	0xbd791979	-0.06081531
108	0xbd2cd05f	-0.042190906
109	0xbd081cf3	-0.033230733
110	0x3f377e15	0.7167676
111	0x3db1b3d9	0.08676881
112	0xbce735c3	-0.028223878
113	0xbe1a8997	-0.15091549
114	0x3d9f84ea	0.07789023
115	0xbd8546af	-0.065076225
116	0xbdb51c4c	-0.08843288
117	0xbd961192	-0.0732757
118	0x3eec8198	0.46192622
119	0xbd91935f	-0.07108187
120	0xbebee592	-0.37284523
121	0xbe32a26c	-0.17444772
122	0xbf3a8503	-0.7285921
123	0xbd07bdcd	-0.033139993
124	0x3cd92c2d	0.026510322
125	0xbd42989f	-0.047508832
126	0xbef26e75	-0.47349897
127	0xbd533a9d	-0.05156957
128	0x3ebf8866	0.3740875
129	0xbe1f5127	-0.15558301
130	0xbd20540e	-0.03914266
131	0xbc9a1706	-0.018809807
132	0xbd93a041	-0.072083004
133	0xbd81d2fe	-0.06339072
134	0xbdc17b28	-0.09447318
135	0x3f31d499	0.69465023
136	0xbe00d8ea	-0.12582746
137	0xbd0853df	-0.03328311
138	0xbd6dded3	-0.05807383
139	0xbeea38b8	-0.45746398
140	0x3cd2f551	0.025751742
141	0xbf1334ea	-0.57502615
142	0x3e4ba685	0.19887741
143	0xbdd214b6	-0.102578565
144	0xbcc71e4e	-0.024306443
145	0xbe753511	-0.23946024
146	0x3c69368e	0.014234198
147	0x3e4bc217	0.19898258
148	0x3da8aa45	0.08235601
149	0xbd45dad7	-0.048304405
150	0xbd13c2e8	-0.03607455
151	0x3c462519	0.012093806
152	0xbe536192	-0.20642689
153	0x3f4c1624	0.79721284
154	0xbd81d23a	-0.06338926
155	0x3eb4a9b3	0.3528572
156	0xbd9d4355	-0.07678858
157	0xbcea8d60	-0.028631866
158	0xbd83f5e5	-0.06443385
159	0x3c8a3083	0.016868835
160	0x3bbada4f	0.005702294
161	0x3cfa147e	0.03052735
162	0x3b686a64	0.0035463804
163	0xbd70a227	-0.05874839
164	0xbe17ce87	-0.14824878
165	0x3da81ba6	0.082083985
166	0x3e5fa79f	0.21841286
167	0xbf07ffa3	-0.53124446
168	0xbc6c858e	-0.014436139
169	0xbe55a835	-0.20864947
170	0x3e3d07d1	0.18460013
171	0xbd5ff6e9	-0.05467883
172	0xbdb89022	-0.09011866
173	0xbd3cad73	-0.04606385
174	0xbf169d2d	-0.5883358
175	0xbd2bbbee	-0.04192727
176	0xbda2bfb3	-0.0794672
177	0xbb51604c	-0.0031948267
178	0xbcbed9b9	-0.023297178
179	0xbb759cca	-0.0037477487
180	0x3e8abbf3	0.2709652
181	0x3f0d217a	0.55129206
182	0xbceee912	-0.029163871
183	0x3ea927af	0.3303809
184	0xbdc33887	-0.09532266
185	0x3ee070f8	0.43836188
186	0xbe42f192	-0.19037464
187	0xbe4e7ae1	-0.20164062
188	0xbd01590c	-0.031579062
189	0xbdae13df	-0.08499884
190	0xbd25851b	-0.040410142
191	0xbde79067	-0.113068394
192	0xbb980f18	-0.004640471
193	0xbcf6b64c	-0.030116223
194	0xbd8053d1	-0.06265987
195	0x3db401c4	0.08789399
196	0x3e9f7928	0.31147122
197	0xbc8415f9	-0.016123759
198	0xbedd8547	-0.43265745
199	0xbcbb8a34	-0.022893049
200	0xbda39544	-0.079874545
201	0xbd0716a9	-0.032980595
202	0xbd184041	-0.037170652
203	0x3f028992	0.50991166
204	0x3c98df50	0.018661171
205	0x3df12b28	0.117758095
206	0xbd637d09	-0.055539165
207	0xbc23e8bf	-0.010004221
208	0x3e2c1f73	0.16808872
209	0x3f2d4c09	0.67694145
210	0xbf4fc97b	-0.8116681
211	0xbd927a08	-0.07152182
212	0x3ec1a4d9	0.3782108
213	0xbd4d3ee9	-0.050108824
214	0x3c87da66	0.016583633
215	0x3a6fb15f	0.0009143557
216	0x3cb8ba2b	0.02254971
217	0x3d943c8c	0.07238111
218	0xbc3ef066	-0.011653995
219	0xbbd46107	-0.006481293
220	0xbd154c5f	-0.036449786
221	0xbebc5d9a	-0.36790162
222	0x3cc8b575	0.024500588
223	0xbd9809ad	-0.074237205
224	0xbc980d4e	-0.018561032
225	0x3d01ca9b	0.03168736
226	0xbdfe5a46	-0.12419562
227	0x3c1eb6a8	0.009687103
228	0xbd45ca33	-0.048288535
229	0x3c0a6511	0.008446948
230	0xbdf538a9	-0.11973698
231	0x3c2210b6	0.0098916795
232	0x3ec44414	0.3833319
233	0x3e228cd2	0.15874031
234	0x3f8b9db9	1.0907508
235	0x3bf932db	0.0076049394
236	0xbd4c5c88	-0.049892932
237	0xbdb707b4	-0.08937016
238	0x3e1414bd	0.14461036
239	0x3e00f25b	0.12592451
240	0xbcdc9533	-0.026926612
241	0xbe144dcb	-0.144828
242	0x3da2d940	0.079515934
243	0xbc96751e	-0.018366393
244	0x3d42c017	0.047546472
245	0x3e18baa9	0.14914955
246	0xbdbef273	-0.09323587
247	0x3eecc607	0.46244833
248	0x3cd736f2	0.026271317
249	0x3c2b575a	0.010457838
250	0xbc7339a0	-0.014845282
251	0xbd3eeac9	-0.046610627
252	0x3c456f04	0.012050394
253	0x3ef27641	0.47355846
254	0x37b87540	2.1989108e-05
255	0xbb0740cb	-0.0020637985

fc3.weight f4 [5, 256]
0	0x4041b85d	3.0268776
1	0x3d0c9512	0.034321852
2	0x3cfb6f74	0.030692793
3	0xbc8a2c87	-0.016866935
4	0xbd312b17	-0.043253984
5	0x3fd93aa9	1.6971027
6	0x407914fe	3.8919063
7	0x3ba9fce4	0.0051876176
8	0x3c2d6922	0.010584148
9	0x3ff00a54	1.8753152
10	0xc03c5830	-2.9428825
11	0xbbc2dd0f	-0.0059467624
12	0x410889e6	8.533667
13	0x3edfdecf	0.43724677
14	0x40e05024	7.009783
15	0xbd2d36f2	-0.042288728
16	0x404daa93	3.213536
17	0x405e905e	3.4775615
18	0x401a741f	2.4133375
19	0x3c7814b8	0.0151416585
20	0xbbc6f69c	-0.0060718786
21	0xbc27c321	-0.010239393
22	0x40c7c6ef	6.243034
23	0x3d679b66	0.056544684
24	0x409cf81e	4.9052877
25	0x3bead995	0.007167051
26	0x4063fccb	3.5623043
27	0xbd23617a	-0.039887883
28	0x3c484f69	0.012225964
29	0x40574fca	3.364245
30	0xbf032f24	-0.51243806
31	0x3ef917d0	0.4865098
32	0xbcb2156d	-0.021738732
33	0xbc7940c2	-0.015213193
34	0xbb0656d6	-0.0020498536
35	0x3c42fec3	0.01190156
36	0xbc8c7613	-0.017146146
37	0x3d0a3364	0.033740416
38	0xbd25eea2	-0.04051078
39	0xbd9fe3c1	-0.078071125
40	0x3d0f783e	0.03502678
41	0x404ad795	3.169408
42	0x40901e4b	4.503698
43	0x3ffe9e45	1.989205
44	0x3baabc7d	0.005210458
45	0x40b44e12	5.63453
46	0x3cc7be4c	0.024382733
47	0xbfe9c307	-1.8262643
48	0xbf9401d0	-1.1563053
49	0x40a610f1	5.189568
50	0x3d0a0076	0.033691846
51	0x3d384626	0.044988774
52	0x3ada1aaa	0.0016640027
53	0x3c3859ec	0.011251908
54	0x40d341d3	6.601785
55	0xbf334321	-0.70024306
56	0xbfb56bcf	-1.4173526
57	0xbd11d37e	-0.035602085
58	0x405f8374	3.4923983
59	0x3c487280	0.01223433
60	0xbcecfd05	-0.028929243
61	0x40daf0e2	6.8419046
62	0x407cafc7	3.9482286
63	0x3d333a0a	0.043756522
64	0xbc3dda5b	-0.0115877045
65	0x3c2a9541	0.0104115615
66	0xbfbd9f03	-1.4814152
67	0x3c24d2bb	0.010060008
68	0xbbcf9c4f	-0.006335772
69	0x3c2a909e	0.010410456
70	0x3d6a6d66	0.057233237
71	0x40959e23	4.675554
72	0xbd1bd1d2	-0.038041897
73	0xbcc01f28	-0.023452356
74	0xbbc5e21b	-0.0060389168
75	0x3b313f60	0.002704583
76	0x3bf6b163	0.0075284704
77	0x3c874620	0.01651293
78	0x3ca1c211	0.019745858
79	0x3d49700b	0.049179118
80	0x3d0124d5	0.031529266
81	0xbd4cdd3d	-0.050015677
82	0xbc571d60	-0.013129562
83	0x4099d9bf	4.8078303
84	0x406b4408	3.6760273
85	0xbfbeabc9	-1.4896175
86	0x40bc53c6	5.8852262
87	0xbd1fa082	-0.03897143
88	0xbd0fdb9b	-0.03512154
89	0xbd5cefdd	-0.05393969
90	0x405b6f7b	3.4286792
91	0x4093f168	4.6232185
92	0x3d6d1ee9	0.057890806
93	0x3fb2d70d	1.3971878
94	0x3ba84e20	0.0051362664
95	0x3cfdfd08	0.031004444
96	0x3fff01f4	1.9922471
97	0xbd22217d	-0.03958272
98	0xbf484896	-0.7823576
99	0x40387b64	2.8825312
100	0xbc2a5a84	-0.010397557
101	0x3ffe80aa	1.9883015
102	0x3fb4fd0b	1.4139723
103	0xbd758a6a	-0.059946455
104	0xbbab0706	-0.005219343
105	0xbd31bc93	-0.04339273
106	0xbc2afb9c	-0.010435965
107	0xbc8451d6	-0.016152304
108	0xbc2f970a	-0.010717163
109	0xbd547852	-0.05187256
110	0x40880eda	4.251813
111	0x40a3a83b	5.114286
112	0xbcafc8a7	-0.021457983
113	0x40eae1f7	7.3400836
114	0x40bf1fe8	5.972645
115	0xbd05ef39	-0.032698844
116	0xbbef234f	-0.0072979103
117	0xbcf81381	-0.030282738
118	0x40ff14d8	7.9712944
119	0xbc8f1f7d	-0.01747107
120	0xbf493aba	-0.78605235
121	0x409734f1	4.7252126
122	0x4092c1c6	4.586154
123	0x3d5260a6	0.051361702
124	0xbb905370	-0.004404478
125	0xbcb8a9d9	-0.022541927
126	0x40ec58f5	7.385859
127	0xbbf02a80	-0.007329285
128	0x4059c8a0	3.4028702
129	0x4097466b	4.727346
130	0xbb9fba00	-0.004874468
131	0x40f2f849	7.5928082
132	0x3cb51183	0.022103077
133	0xbd1486e2	-0.036261447
134	0x3ce9960d	0.028513933
135	0xbeae2140	-0.34009743
136	0x4103ef44	8.245914
137	0xbd162faf	-0.03666657
138	0xbd167170	-0.036729276
139	0xc00d88dd	-2.2114785
140	0x3babe38b	0.005245631
141	0xbfd4b91c	-1.6618991
142	0x40c1730f	6.0452952
143	0x3d616994	0.055032328
144	0x3ccda136	0.025101285
145	0x3e503d77	0.20335947
146	0xbe0d96c7	-0.13827048
147	0x4004c3ed	2.0744584
148	0x3f128844	0.57239175
149	0x3cd85a04	0.02641011
150	0x3b9ba03d	0.0047493265
151	0x3bcb5828	0.0062055774
152	0xbf7cb799	-0.9871765
153	0x40e50249	7.156529
154	0x3d75480e	0.05988317
155	0x4010f05b	2.2646701
156	0x3c3cc57e	0.011521695
157	0xbd29e3b5	-0.041476924
158	0x3abf9f37	0.0014619593
159	0x3c385484	0.011250619
160	0xbcadf75c	-0.021236114
161	0xbcefd7f3	-0.029277777
162	0x3c18ab0c	0.0093181245
163	0xbca87998	-0.020565793
164	0x3c5e2c46	0.01356036
165	0x4093a157	4.613445
166	0x3cdf5f54	0.027267136
167	0xbeaae07a	-0.33374387
168	0xbca5b661	-0.020228567
169	0x40936677	4.606258
170	0x40ba9d64	5.8317127
171	0x3b4b52ec	0.0031024767
172	0xbcc15a57	-0.023602648
173	0xbb8b20b0	-0.00424584
174	0x40165695	2.3490345
175	0x3c826021	0.015914978
176	0x3c987778	0.018611655
177	0x3c00f3fa	0.007870669
178	0xbd018e39	-0.031629775
179	0x40783a9a	3.8785768
180	0x4063975a	3.5561128
181	0x412d21fc	10.820797
182	0x4006ea8e	2.108066
183	0x40c6588c	6.198309
184	0xbc3ccd20	-0.011523515
185	0x40a5e1f9	5.1838346
186	0x404b2744	3.1742716
187	0xc02a8b01	-2.6647341
188	0xbd051151	-0.032487217
189	0x3ae04d69	0.0017112914
190	0xbd3b9a26	-0.045801304
191	0x40332603	2.799195
192	0x3bd47f50	0.0064849034
193	0x40a3e13b	5.121244
194	0xbc1b755c	-0.00948843
195	0x40df1440	6.971222
196	0xbe4f6000	-0.20251465
197	0xbc85d01e	-0.01633459
198	0xbeabd66e	-0.33562034
199	0xbd35a2bc	-0.04434465
200	0xbb039815	-0.0020079662
201	0xbce94a34	-0.028477766
202	0x3bef2455	0.0072980323
203	0x408dda82	4.4329233
204	0xbd481934	-0.04885216
205	0x40b9cced	5.8062654
206	0xbc6c8d79	-0.014438027
207	0x3c022898	0.007944249
208	0x408f162e	4.4714575
209	0xbf668c5e	-0.90057933
210	0x400b7f96	2.1796622
211	0xbd6ce2ac	-0.05783336
212	0x4121e971	10.119493
213	0x3d069c30	0.032863796
214	0xbabc711d	-0.0014376972
215	0x3c3937e0	0.011304826
216	0xbd17962f	-0.03700846
217	0xc03de5a6	-2.9671416
218	0x3d3999d0	0.045312703
219	0xbb18b5d6	-0.0023301742
220	0xbca58c75	-0.020208577
221	0x41031db3	8.194751
222	0x40719bb8	3.7751293
223	0x3d466ae6	0.04844179
224	0x3d33c422	0.04388822
225	0x3c571a14	0.013128776
226	0x40ad4007	5.414066
227	0xbeec0b0a	-0.46102172
228	0x3c4a5b69	0.012350895
229	0x3c0dc4e8	0.008652903
230	0x408b2f6e	4.3495398
231	0xba824a0b	-0.0009940279
232	0xbe402ff0	-0.18768287
233	0x40e21a82	7.065736
234	0x3fb15ca0	1.3856392
235	0xbd89827b	-0.0671434
236	0x3d19b4f6	0.037526093
237	0x3bdfabe4	0.006825911
238	0x40aab31a	5.334363
239	0xbd93e0ae	-0.072205886
240	0xbd32433b	-0.043521147
241	0x401d4e7d	2.4579155
242	0x3f519d9d	0.81881124
243	0x3d3813cc	0.044940755
244	0x407e7205	3.9757092
245	0x40bd078a	5.9071703
246	0x3cb14990	0.021641523
247	0x406534ee	3.5813556
248	0x3d760a4c	0.060068414
249	0xbc9571b6	-0.018242698
250	0x3c7917d0	0.015203431
251	0x40a92e37	5.2868915
252	0x4096f7c5	4.7177453
253	0xbf38f138	-0.7224307
254	0xbcaab3ac	-0.020837627
255	0x4065f47e	3.5930476

fc3.bias f4 [5]
0	0xbf5c1121	-0.85963637
1	0xbf347e78	-0.70505476
2	0xbead17ff	-0.3380737
3	0xbf8ad57f	-1.0846404
4	0xbf484d44	-0.782429
