other_model/dqn_team_b_ep1000.pth (torch, 286861 bytes, 6 tensors)

fc1.weight f4 [256, 14]
-0.5228921 -0.50248766 -0.6364827 0.6626832 0.51625645 -2.6148431 -0.09086351 -1.3861133
1.4082825 0.3382718 9.047091 0.24221392 0.31900933 0.05574696 -0.24266438 -0.4795665
-0.07749384 0.15746275 -0.11402029 -0.022004794 -0.038458645 -0.27047312 0.32485068 0.04607981
-0.32613868 0.102794684 -0.16426343 -0.08632246 -0.38736978 -1.5174767 0.061664335 0.40650934
0.24620362 0.3697729 0.021741396 0.09714323 -1.4397267 -0.1453689 -10.414344 -0.092789955
0.6721821 0.2689333 -0.595691 -0.17033958 -0.52562314 0.002280306 -0.38375875 -0.544106
-0.1531103 -0.048777852 1.3053974 0.14859162 7.6545734 2.573918 0.22269987 0.22468539
-0.011235843 -0.42102346 0.19720426 0.19290443 0.15992548 -0.34933183 -0.10968386 0.093212955
-0.25855324 1.606502 -0.5799084 8.680999 -0.39394712 -0.47988698 -0.64357257 -0.16031897
-0.6002407 0.015095497 -0.23121627 -0.14742662 0.014504301 -0.4181018 -0.3341299 0.28692237
0.46397695 -1.162906 0.26215026 -0.13885845 -0.3750415 0.45400077 -0.42977527 -0.04735774
-0.15548511 -2.1046872 0.25973883 -1.0205488 0.04730321 -0.32132474 -0.48555484 -0.48951828
-0.11921252 0.08458881 0.123076536 -0.21367078 0.008995414 -0.51551473 0.052851498 -0.23527937
0.32651368 -0.2711872 -0.35818094 -0.25954318 0.59170145 -0.455515 -0.14975116 -0.25404143
0.5109687 -1.9018902 0.5899411 -0.3573738 0.42129067 0.0689737 0.1636028 0.36945918
-4.1337 0.111956544 -9.341628 1.1389164 0.5383092 0.46635896 -0.19417004 -0.102302246
-0.12643181 0.10486086 -0.09447815 0.04379912 -0.20564026 0.08689945 -0.25134787 -0.17923693
0.20521416 -0.01101608 -0.15817033 -0.241106 0.0741512 0.026457801 0.32557052 -0.11886205
-0.039785426 0.05365742 0.26227427 -0.3852947 0.58662343 2.6071606 4.5751514 11.9745035
-0.27573887 -0.41977337 -0.66391134 0.69298995 -0.64262927 0.33711064 -1.5694838 0.1436974
-1.6573396 -0.61838144 0.32944998 -0.19911513 -1.7854661 1.4247055 0.09103857 0.06912922
-0.079748034 -0.17445588 -0.15501669 -0.49403715 -0.30292878 -0.32688394 -0.27014065 0.38213956
0.23701802 1.2105236 0.7286218 7.5798454 0.08648775 -0.15766092 0.39776143 -0.618252
0.10833178 -0.9430435 -0.49679008 -0.74360937 -0.18443264 0.16201186 0.43703377 0.940775
1.0989146 8.141831 0.33526334 0.318932 -0.94805306 -1.2399349 -0.93915254 -0.04018291
0.032222457 0.17467067 -0.1436373 0.02260238 0.37157118 -0.89447796 2.0341015 -0.39807037
0.031426936 -0.04884607 -0.092490666 0.05089698 -0.26267794 0.095207654 0.19873805 0.10438987
-0.15414417 -0.14394408 0.04139766 0.029382136 -0.18466648 -0.17906342 -0.2480611 0.11888337
0.5774054 -0.8535458 0.39992765 -1.0480349 0.15234494 0.3803243 0.22533527 0.9330654
-0.19096717 0.49129704 -4.1484203 -0.8316404 -0.3075839 -0.13536215 0.12016726 0.11188284
-0.31601584 -0.33322963 0.14342137 -0.44970742 -0.33516434 -0.2024313 0.30863425 0.14653079
-0.011048964 0.4923071 -0.031295314 -0.3526164 -0.19133689 -0.017397642 0.035397887 -0.082452334
00000000: 42dc 05bf 08a3 00bf 88f0 22bf 9ba5 293f
00000010: 6229 043f 9759 27c0 a616 babd 296c b1bf
00000020: 9a42 b43f f631 ad3e e2c0 1041 ed06 783e
00000030: 3155 a33e ed56 643d 037d 78be be89 f5be
00000040: 17b5 9ebd ea3d 213e 7883 e9bd 6643 b4bc
00000050: d086 1dbd 747b 8abe d452 a63e 2fbe 3c3d
00000060: a6fb a6be 0586 d23d ac34 28be d4c9 b0bd
00000070: 5555 c6be ad3c c2bf be93 7c3d fe21 d03e
00000080: cd1c 7c3e e052 bd3e 031b b23c 08f3 c63d
00000090: f748 b8bf 96db 14be 27a1 26c1 a908 bebd
000000a0: 2014 2c3f a0b1 893e 357f 18bf 806d 2ebe
000000b0: 3d8f 06bf 3071 153b 077c c4be 884a 0bbf
000000c0: f2c8 1cbe 49cb 47bd 4317 a73f 6728 183e
000000d0: 44f2 f440 13bb 2440 6f0b 643e ed13 663e
000000e0: 8b16 38bc 6390 d7be eaef 493e bd88 453e
000000f0: 81c3 233e 9fdb b2be eea1 e0bd 6fe6 be3d
00000100: 1761 84be dca1 cd3f e074 14bf 5fe5 0a41
00000110: 70b3 c9be bfb3 f5be 2cc1 24bf a82a 24be
00000120: 60a9 19bf 1a53 773c f5c3 6cbe 01f7 16be
00000130: 73a3 6d3c 7011 d6be 1313 abbe 7de7 923e
00000140: 638e ed3e 1bda 94bf 8f38 863e e930 0ebe
00000150: 7105 c0be ca72 e83e 810b dcbe 31fa 41bd
00000160: 7d37 1fbe 32b3 06c0 7dfc 843e 58a1 82bf
00000170: 03c1 413d ad84 a4be a59a f8be 24a2 fabe
00000180: b225 f4bd e63c ad3d 8d0f fc3d 83cc 5abe
00000190: 8061 133c c6f8 03bf d07a 583d 13ed 70be
000001a0: cd2c a73e 0cd9 8abe 7e63 b7be d8e2 84be
000001b0: bf79 173f 4339 e9be 5e58 19be b811 82be
000001c0: d8ce 023f 2371 f3bf 6106 173f b3f9 b6be
000001d0: 69b3 d73e 1542 8d3d 7e87 273e c129 bd3e
000001e0: 4547 84c0 7949 e53d 4f77 15c1 03c8 913f
000001f0: a2ce 093f 9ac6 ee3e 83d4 46be d783 d1bd
00000200: 5777 01be 4ac1 d63d c37d c1bd b566 333d
00000210: 5c93 52be 57f8 b13d abb0 80be e389 37be
00000220: a923 523e ca7c 34bc 67f7 21be 7ee4 76be
00000230: 96dc 973d 08be d83c 2eb1 a63e f26d f3bd
00000240: 0bf6 22bd e2c7 5b3d d048 863e 5945 c5be
00000250: f42c 163f b8db 2640 a467 9240 9197 3f41
00000260: a52d 8dbe 89ec d6be 18f6 29bf ca67 313f
00000270: 5a83 24bf c499 ac3e d8e4 c8bf 6925 133e
00000280: b423 d4bf 3f4e 1ebf abad a83e d6e4 4bbe
00000290: 278a e4bf c05c b63f 6e72 ba3d 9f93 8d3d
000002a0: f052 a3bd 90a4 32be b2bc 1ebe 70f2 fcbe
000002b0: 7b19 9bbe 555d a7be e04f 8abe cca7 c33e
000002c0: dab4 723e 70f2 9a3f f586 3a3f 188e f240
000002d0: 7d20 b13d dd71 21be 63a7 cb3e c345 1ebf
000002e0: 0ddd dd3d 4c6b 71bf 455b febe 2f5d 3ebf
000002f0: e9db 3cbe 70e6 253e e4c2 df3e a1d6 703f
00000300: 3ca9 8c3f f144 0241 a3a7 ab3e 0e4b a33e
00000310: 9bb3 72bf 30b6 9ebf 4d6c 70bf d696 24bd
00000320: b2fb 033d dedc 323e a815 13be a028 b93c
00000330: 943e be3e 82fc 64bf b82e 0240 e1cf cbbe
00000340: 88b9 003d d112 48bd bf6b bdbd 5a79 503d
00000350: b97d 86be 3bfc c23d fd81 4b3e 5bca d53d
00000360: f8d7 1dbe 1466 13be 9890 293d ceb2 f03c
00000370: 3619 3dbe 675c 37be bb03 7ebe 2079 f33d
00000380: d7d0 133f fa81 5abf 51c3 cc3e 0226 86bf
00000390: 5000 1c3e deb9 c23e 4abe 663e 60dd 6e3f
000003a0: e68c 43be 498b fb3e dcbf 84c0 63e6 54bf
000003b0: a37b 9dbe 609c 0abe 411a f63d d522 e53d
000003c0: d4cc a1be 139d aabe 0ddd 123e 0d40 e6be
000003d0: a99a abbe 274a 4fbe 4f05 9e3e 2b0c 163e
000003e0: b706 35bc ad0f fc3e 842f 00bd 238a b4be
000003f0: d1ed 43be 8085 8ebc 60fd 103d c5dc a8bd

fc1.bias f4 [256]
0.11848956 -0.104695305 0.59694046 0.22015646 -0.4398498 0.2546733 -0.2777908 -0.016512668
0.60536504 0.12608571 -0.054558124 -0.22206153 -0.06403638 0.42775118 -0.030233145 -0.13380401
-0.021116745 -0.2579016 -0.18945734 -0.10571902 0.015774662 0.5309879 0.32440493 0.16008347
0.15939856 0.06498919 -0.004822023 -0.11183763 0.0059121354 0.23375009 0.03294712 0.15139256
0.39278424 0.08057506 0.12642837 0.19817162 0.13018748 -0.23112248 -0.22082148 -0.053667568
0.06065026 -0.21329065 0.14663179 -0.16705897 0.06928347 -0.061379384 0.0067673875 -0.07630197
0.177471 -0.2497146 0.0114240805 -0.051830795 0.14349273 -0.120644175 0.4751955 0.06378335
-0.10952565 -0.36506176 -0.27209422 -0.035044525 -0.14929853 -0.2602006 0.13619442 -0.18375427
0.20808677 0.024900591 0.3419162 0.11004217 -0.004133942 -0.5061183 0.056753844 -0.20638429
0.15638317 -0.14902264 0.0634319 0.07711354 -0.16303355 -0.21511774 0.3086707 -0.24423277
-0.07984602 0.078149416 -0.039103948 -0.12756874 -0.2954199 -0.0856912 -0.019323632 -0.024094319
-0.12105109 0.33870864 -0.18873131 0.38464603 0.33569732 -0.24917382 -0.27458817 0.40907073
-0.061389517 0.08913825 -0.067021534 0.16111241 -0.33715424 -0.59517115 -0.101422325 0.09510321
-0.25009823 0.6118389 0.021367434 0.38825652 -0.042460065 0.6072571 0.0700186 0.023681007
-0.07694411 -0.561051 -0.27464363 0.30369884 -0.2415323 -0.4893824 -0.15713684 0.47472998
0.024563009 0.050418004 -0.018626897 -0.35981646 0.17647907 -0.00684083 -0.021336533 0.05306444
-0.01302061 0.42328644 -0.11186886 -0.37967846 -0.2240695 -0.15755872 0.26769638 0.021032615
0.0021594642 -0.083575904 0.22290742 -0.21113464 -0.111111544 -0.023154957 -0.23380613 0.060483925
-0.19091502 0.5858206 0.04276342 0.26487124 -0.21341835 -0.12168519 -0.098276734 -0.024720669
-0.105246395 0.2852482 0.56718063 0.03500773 0.09998199 -0.15615909 0.10138812 0.06471399
-0.03406825 -0.19862315 0.098015636 0.060767744 0.1682682 -0.045798965 0.4053383 0.12505163
0.24251375 0.19565165 0.4654929 -0.11820081 -0.09295553 -0.012923192 -0.13592613 -0.23535666
0.03336208 -0.47776717 0.0008661147 -0.11457132 0.19385937 0.20195626 0.8125564 -0.032514043
0.7573542 0.11948631 0.020049894 0.012636989 -0.18467158 0.08426469 0.20229499 0.05443266
-0.2578765 -0.37459037 0.10903708 0.027087847 -0.10009382 0.10126988 -0.03850405 -0.07817478
0.0054552644 0.21091214 -0.18859111 -0.095446505 0.5283546 0.1160161 0.068066 0.58501357
0.13919297 0.11798471 0.14418247 0.055608183 -0.16937122 0.05698773 0.44992602 -0.3030113
-0.21712665 -0.041992433 -0.020634472 -0.2599389 0.14554447 0.09767904 0.08909841 -0.08543607
-0.30004045 -0.14137198 0.16226523 0.088536695 -0.17722864 -0.08037796 0.1474691 0.099004604
0.08679629 0.24140371 0.32597947 0.0063985875 0.15436724 -0.08350649 -0.27821895 -0.11575579
-0.12081651 -0.048453018 0.13647449 0.13132928 0.14865656 0.078050174 0.5214524 0.16144055
-0.10569832 -0.1862369 -0.00010490297 -0.15341559 -0.2401005 0.548866 -0.25581497 -0.10255945
00000000: a8aa f23d 7e6a d6bd 17d1 183f b270 613e
00000010: fe33 e1be 8a64 823e 993a 8ebe 9345 87bc
00000020: 34f9 1a3f 9d1c 013e 5778 5fbd 1964 63be
00000030: 8125 83bd 3402 db3e 80ab f7bc eb03 09be
00000040: 06fd acbc ae0b 84be 1b01 42be 3783 d8bd
00000050: dd39 813c d3ee 073f 6718 a63e ecec 233e
00000060: 6039 233e 0d19 853d 1002 9ebb 210b e5bd
00000070: 96ba c13b 2f5c 6f3e 8ff3 063d a706 1b3e
00000080: 041b c93e 8904 a53d 7076 013e 80ed 4a3e
00000090: de4f 053e 5fab 6cbe 071f 62be 86d2 5bbd
000000a0: 686c 783d dd68 5abe a526 163e 8211 2bbe
000000b0: 7ee4 8d3d f368 7bbd f6c0 dd3b 3544 9cbd
000000c0: f5ba 353e 2fb5 7fbe 112c 3b3c 874c 54bd
000000d0: c2ef 123e 4b14 f7bd d34c f33e d8a0 823d
000000e0: fc4e e0bd 60e9 babe ef4f 8bbe d98a 0fbd
000000f0: b7e1 18be 0339 85be 8d76 0b3e 142a 3cbe
00000100: b314 553e 53fc cb3c a40f af3e ca5d e13d
00000110: 0576 87bb f890 01bf b876 683d 6756 53be
00000120: e922 203e 6499 18be 96e8 813d b4ed 9d3d
00000130: 44f2 26be d347 5cbe 160a 9e3e 2818 7abe
00000140: 4f86 a3bd cd0c a03d 762b 20bd 61a1 02be
00000150: 4741 97be de7e afbd 984c 9ebc 7361 c5bc
00000160: a2e9 f7bd 386b ad3e c842 41be 53f0 c43e
00000170: 85e0 ab3e 6c27 7fbe d296 8cbe b871 d13e
00000180: 9373 7bbd 1d8e b63d 9642 89bd a7fa 243e
00000190: 7b9f acbe 235d 18bf 82b6 cfbd 79c5 c23d
000001a0: e00c 80be 79a1 1c3f c20a af3c 8fc9 c63e
000001b0: 9bea 2dbd 3475 1b3f e965 8f3d acfe c13c
000001c0: e094 9dbd 0aa1 0fbf 179e 8cbe 6a7e 9b3e
000001d0: 3e54 77be 5490 fabe 7be8 20be cf0f f33e
000001e0: 5d38 c93c 1c83 4e3d 6f97 98bc dd39 b8be
000001f0: eeb6 343e 0b29 e0bb f4c9 aebc 195a 593d
00000200: 6654 55bc 00b9 d83e 801b e5bd 3765 c2be
00000210: 7a72 65be 1357 21be 800f 893e 974c ac3c
00000220: cc85 0d3b d829 abbd d841 643e ae33 58be
00000230: 738e e3bd 77af bdbc e06a 6fbe febd 773d
00000240: 3a7f 43be 57f8 153f b228 2f3d 349d 873e
00000250: 578a 5abe 1636 f9bd 5045 c9bd 0083 cabc
00000260: 6c8b d7bd 0d0c 923e c032 113f 4464 0f3d
00000270: 5cc3 cc3d 2be8 1fbe 93a4 cf3d c588 843d
00000280: 268b 0bbd de63 4bbe 6cbc c83d 99e7 783d
00000290: 804e 2c3e b297 3bbd 8088 cf3e 890d 003e
000002a0: 8655 783e e858 483e 1655 ee3e 4413 f2bd
000002b0: 785f bebd ccbb 53bc 3830 0bbe 5601 71be
000002c0: ada6 083d e69d f4be f90b 633a 5ea4 eabd
000002d0: 1283 463e 9fcd 4e3e b203 503f 722d 05bd
000002e0: f7e1 413f 3db5 f43d ad3f a43c 600b 4f3c
000002f0: 8c1a 3dbe f792 ac3d 6b26 4f3e c8f4 5e3d
00000300: 6308 84be 4fca bfbe d54e df3d 55e7 dd3c
00000310: fdfd ccbd 9566 cf3d 6cb6 1dbd 191a a0bd
00000320: 13c2 b23b 5af9 573e 071e 41be 7579 c3bd
00000330: 3f42 073f d999 ed3d 3066 8b3d 73c3 153f
00000340: 9a88 0e3e f8a1 f13d 92a4 133e 68c5 633d
00000350: a66f 2dbe f76b 693d b45c e63e 4c24 9bbe
00000360: 7356 5ebe 4200 2cbd a009 a9bc b616 85be
00000370: 9c09 153e f30b c83d 3a79 b63d 1bf9 aebd
00000380: e79e 99be d1c3 10be db28 263e ba52 b53d
00000390: 6d7b 35be 339d a4bd 2402 173e edc2 ca3d
000003a0: 41c2 b13d 8932 773e c8e6 a63e 3eab d13b
000003b0: 7212 1e3e 7305 abbd b772 8ebe 5f11 edbd
000003c0: a56e f7bd ac76 46bd f8bf 0b3e 2f7b 063e
000003d0: 6d39 183e c5d8 9f3d e87d 053f ac50 253e
000003e0: 5c78 d8bd e3b4 3ebe 5aff dbb8 fa18 1dbe
000003f0: e8dc 75be 7b82 0c3f 2efa 82be b00a d2bd

fc2.weight f4 [256, 256]
-3.06795 -0.46023265 3.2221057 3.5798876 3.5553486 -1.0903776 -1.0057404 -0.57314086
-1.1953275 0.030438222 -0.21198282 -2.1777208 2.0193124 3.0730143 0.68284905 0.01681439
2.9280224 -0.87044597 0.026978023 1.5757631 0.0026563779 -1.340267 2.5744011 -4.8741736
-1.0939058 2.821343 4.6907115 0.06195175 1.831959 -0.46664274 0.035651427 0.74955624
-0.27047825 2.0031507 -1.9959253 -0.028075466 -4.698123 -0.020269055 -0.03678507 -4.741336
2.7867682 0.5598751 6.1903377 -0.029652715 -0.047815457 -0.0075515583 0.010521442 -0.05005127
-1.5473267 4.5180473 0.020050183 3.201872 1.0223069 0.01965749 1.0518783 -0.017040715
0.12445304 0.011301358 -2.6616962 0.057272248 0.062182188 -1.1757247 -0.00025754422 -0.04963941
2.4271748 0.010498241 -1.4965509 2.2657259 0.73985344 -1.1538709 -1.7590984 0.7768895
0.034542568 0.007717356 0.038742535 -0.0020742307 0.0167583 -0.78982955 -5.0176997 0.010256633
0.2819797 0.045836024 0.8769234 0.052453216 3.046014 -0.49234095 5.15432 -1.8561472
-1.4288977 0.29532832 -1.9971923 -6.345611 -2.9684656 -0.06455022 -0.28005892 -0.5747109
-0.066097386 1.2812852 -1.2815855 -0.044554852 -0.67824715 -1.7844651 3.2109892 0.41048917
-0.49210104 -4.464784 0.024136104 -2.1111484 -0.32280567 3.0091429 2.4158857 -0.02181384
-0.040379792 1.1619558 3.1622913 0.57304275 0.055493776 -0.0825543 -0.049355417 2.142774
0.026670337 2.6922238 -1.6370584 6.1924086 0.072429866 1.7837175 2.2596352 -2.3267853
-0.9623235 0.17843214 -11.070077 -7.077152 -0.8581603 0.005175027 -0.26211667 0.0561297
0.80313516 0.09104759 -0.123739846 1.9041517 -0.0093178 -0.048530594 0.035864033 0.020437248
-0.13920769 5.421288 -0.5866233 -0.0006436035 -1.0244852 -1.0356416 -0.023530833 0.059503965
-0.0571808 0.16879632 0.8010349 0.035003945 0.5565566 -0.02194998 -0.0057650283 -0.93165517
0.052787215 -0.13026977 -0.07024276 0.03329606 0.052299768 -0.10760524 -5.723152 -0.24150108
3.322852 1.2449375 3.9560099 0.045294397 -2.7436495 -1.5264173 0.047892235 -0.03904754
-0.052032027 2.227286 0.014079228 -1.2367313 -0.29092133 -2.0062983 -1.3745162 0.03034731
-1.2915132 -3.165592 1.5382282 -0.16488343 -0.014868341 -1.1318514 -2.5064943 -3.4501145
-0.019158065 0.9941129 1.9174976 -0.21558452 0.05476514 2.8212044 0.030855725 0.9365282
0.05043084 -2.030721 -0.21197209 0.110966705 -3.8938026 -0.44610575 1.4852053 -0.3011794
-0.03741567 -0.10979053 -0.035513386 0.012919933 -0.03272111 0.054556563 3.3237262 -0.01388012
-0.064506985 0.0041610375 -0.7171291 4.2432156 1.8637916 1.8491583 -5.534414 -0.4696405
-0.57740897 -0.01633063 -0.037404552 -0.4006862 0.021359295 -0.050834462 -2.2555017 -0.0010430422
0.011670202 -0.021353975 4.927914 0.04560005 -0.14503942 -0.042620882 -0.13222198 0.002738313
0.04750638 2.4866097 3.0273602 6.1525965 2.464201 0.0569702 2.912011 0.02069353
-1.576743 -0.008254157 -2.1938958 -0.7014293 -0.008661079 -6.091199 -3.3396795 1.6716616
00000000: 4b59 44c0 9da3 ebbe fb36 4e40 e11c 6540
00000010: d58a 6340 7e91 8bbf 1abc 80bf 5cb9 12bf
00000020: 7e00 99bf 9459 f93c 0612 59be c75f 0bc0
00000030: 6a3c 0140 44ac 4440 32cf 2e3f 55be 893c
00000040: b864 3b40 8cd5 5ebf 0401 dd3c 9bb2 c93f
00000050: a016 2e3b de8d abbf fdc2 2440 3bf9 9bc0
00000060: 1b05 8cbf e290 3440 4f1a 9640 1ec1 7d3d
00000070: a27d ea3f cceb eebe 3b07 123d ebe2 3f3f
00000080: 207c 8abe 9f33 0040 7b7a ffbf 85fe e5bc
00000090: 0657 96c0 4a0b a6bc f1ab 16bd 06b9 97c0
000000a0: 695a 3240 f953 0f3f 3f17 c640 40ea f2bc
000000b0: 24da 43bd 1073 f7bb 2062 2c3c 8f02 4dbd
000000c0: cd0e c6bf d893 9040 4840 a43c 79eb 4c40
000000d0: f4da 823f bf08 a13c f3a3 863f f898 8bbc
000000e0: 3ce1 fe3d 5529 393c 3b59 2ac0 4e96 6a3d
000000f0: c0b2 7e3d 267e 96bf 0007 87b9 b252 4bbd
00000100: d556 1b40 d000 2c3c fb8e bfbf a701 1140
00000110: 0967 3d3f 0bb2 93bf 232a e1bf 3be2 463f
00000120: 827c 0d3d e0e1 fc3b 7eb0 1e3d d1ef 07bb
00000130: b448 893c 4532 4abf ff90 a0c0 700b 283c
00000140: a55f 903e 8ebe 3b3d 0d7e 603f 2fd9 563d
00000150: e5f1 4240 1d14 fcbe 30f0 a440 3b96 edbf
00000160: 1fe6 b6bf 4635 973e ffa3 ffbf 3f0f cbc0
00000170: 57fb 3dc0 e832 84bd e263 8fbe 4120 13bf
00000180: 115e 87bd 2701 a43f fe0a a4bf 267f 36bd
00000190: 9ba1 2dbf 5a69 e4bf d980 4d40 a32b d23e
000001a0: abf4 fbbe 83df 8ec0 14b9 c53c 0e1d 07c0
000001b0: c946 a5be cc95 4040 df9d 1a40 f0b2 b2bc
000001c0: 4865 25bd f8ba 943f fb62 4a40 eeb2 123f
000001d0: 714d 633d 3b12 a9bd e828 4abd 3623 0940
000001e0: c07b da3c 654d 2c40 218b d1bf 3628 c640
000001f0: 1c56 943d db50 e43f dd9d 1040 0dea 14c0
00000200: d55a 76bf eab6 363e 091f 31c1 0778 e2c0
00000210: 65b0 5bbf 4693 a93b 2834 86be 42e8 653d
00000220: 449a 4d3f 2977 ba3d 516b fdbd 3ebb f33f
00000230: b0a9 18bc 04c8 46bd 2ae6 123d 046c a73c
00000240: 768c 0ebe 317b ad40 f22c 16bf 80b7 28ba
00000250: 5522 83bf e78f 84bf bcc3 c0bc 6eba 733d
00000260: 6a36 6abd f1d8 2c3e a010 4d3f 4c60 0f3d
00000270: 7e7a 0e3f 72d0 b3bc 90e8 bcbb f480 6ebf
00000280: 6837 583d 7065 05be 70db 8fbd 7361 083d
00000290: 4838 563d 2360 dcbd 1024 b7c0 0f4c 77be
000002a0: 9ba9 5440 1d5a 9f3f 442f 7d40 9e86 393d
000002b0: f497 2fc0 a461 c3bf a62a 443d 50f0 1fbd
000002c0: 891f 55bd db8b 0e40 90ac 663c 364d 9ebf
000002d0: a4f3 94be 3167 00c0 26f0 afbf ec9a f83c
000002e0: 4e50 a5bf 0f99 4ac0 a9e4 c43f 34d7 28be
000002f0: 589a 73bc 82e0 90bf 676a 20c0 adce 5cc0
00000300: 60f1 9cbc 2f7e 7e3f 9070 f53f 30c2 5cbe
00000310: 6951 603d 9d8e 3440 25c5 fc3c 50c0 6f3f
00000320: 9290 4e3d 55f7 01c0 360f 59be 8342 e33d
00000330: 1034 79c0 f967 e4be 351b be3f 3034 9abe
00000340: 2c41 19bd dbd9 e0bd 7c76 11bd 20ae 533c
00000350: 9206 06bd b476 5f3d eeb7 5440 7169 63bc
00000360: 3d1c 84bd 5059 883b c695 37bf 6cc8 8740
00000370: b990 ee3f 38b1 ec3f eb19 b1c0 b874 f0be
00000380: 13d1 13bf d0c7 85bc 8435 19bd be26 cdbe
00000390: b0f9 ae3c cc37 50bd 245a 10c0 b0b6 88ba
000003a0: 6034 3f3c 88ee aebc 79b1 9d40 1ec7 3a3d
000003b0: 3785 14be 3c93 2ebd 3365 07be 4575 333b
000003c0: 0d96 423d 9d24 1f40 45c0 4140 12e2 c440
000003d0: 78b5 1d40 9659 693d 635e 3a40 7a85 a93c
000003e0: b7d2 c9bf 723c 07bc ca68 0cc0 df90 33bf
000003f0: 33e7 0dbc 1aeb c2c0 4fbd 55c0 02f9 d53f

fc2.bias f4 [256]
-0.2677848 0.001986175 -0.07432198 -0.10881851 0.43079528 -0.60688 0.036184408 -0.37966165
0.02083526 -0.0027360097 -0.010491083 -0.075818814 -0.05240456 0.009351708 0.01232321 -0.048176724
0.013102564 -0.030889226 -0.022771113 -0.031690117 -0.4900691 0.011731022 -0.0674302 0.029345613
1.0176497 -0.45363024 0.37019858 -0.19174275 -0.05590921 0.018125972 -0.52810705 -0.06157796
0.18948565 0.8949713 -0.64661837 0.1564803 -0.12794882 -0.63076895 -0.027350137 -0.010833035
-0.8906595 -0.5242266 0.7077662 0.2429482 0.0031171273 -0.4781906 -0.011405265 0.025207091
0.09223856 -0.04151255 -0.025757214 -0.08955763 -0.17769577 -0.42949474 -0.6113148 -0.5075241
-0.3201225 -0.123297684 0.66670275 0.0013410082 -0.50514805 -0.01676564 -0.020093305 0.038871232
-0.040343497 -0.09420082 0.04642101 1.0613849 0.008223847 -0.011187126 -0.060993765 -0.21052669
-0.05639594 -0.06098293 -0.009433811 0.25621867 -0.026997859 -0.49141502 0.0074223923 -0.048713263
-0.5570664 -0.07260184 -0.4670492 -0.015056783 -0.08303881 0.009523109 -0.041313957 -0.12445469
-0.04913579 -0.34230646 -0.015367566 -0.009413965 -0.09981125 -0.27510953 0.0009479387 0.014680032
-0.042112064 -0.00702454 0.040371235 0.62515455 0.010737951 0.48552567 0.15994592 -0.34516045
-0.5732193 -0.043795276 0.010085611 -0.05994726 -0.003609406 -0.027422842 -0.024811516 -0.019719925
-0.33828998 -0.010339747 -0.057171583 0.014197107 0.084014885 -0.044049483 -0.13740604 -0.2930958
-0.02499107 0.0058236048 -0.0931167 0.29540083 -0.048632327 0.7233953 -0.022942066 0.09187209
-0.03889516 -0.005327559 -0.2065573 0.028550755 -0.020584183 -0.07376408 1.9668882 -0.027781049
-0.0053591067 -0.17679855 0.2609047 0.014145463 -0.07424006 -0.00714722 -0.049947746 -0.07160976
-0.2376153 0.01413092 0.32006377 -0.04448879 -0.07042943 -0.81024885 -0.010824982 0.49381384
-0.108167656 -0.08197222 -0.0833247 -0.3505314 -0.02449471 0.27200186 -0.30941102 -0.82651234
-0.116804026 -0.014183265 0.3078027 0.01566607 0.03224752 -0.0070249536 0.027539574 0.025221974
0.022461683 -0.0764172 -0.06893209 -0.24876583 -0.024684245 0.004581505 -0.07552887 -0.07373509
-0.06982446 -0.023873078 0.08726858 -0.026610477 0.75623745 0.021700475 -0.07084779 -0.15700783
0.009036297 -0.04430871 -0.551357 -0.024982588 -0.47415906 -0.07744028 -0.58306706 0.007891176
-0.069668375 -0.032818172 -0.0060211336 -0.09131995 -0.50154597 -0.0314387 -0.07632234 -0.05325066
-0.07501917 -0.024574758 -0.026374435 -0.54693645 -0.30357113 -0.08113029 -0.61314267 -0.103729725
-0.7589749 1.0791197 -0.03190186 -0.009128605 -0.0033405826 -0.10392706 0.006901453 -0.050552905
0.30470052 -0.6202756 0.39548442 -0.3659369 -0.087564 -0.54882574 0.28401813 -0.23688838
-0.03582961 -0.106667176 -0.07313641 -0.0057400614 -0.013611846 -0.5673885 -0.79859525 -0.011132745
0.022901567 0.11757621 0.25757235 -0.3590637 -0.08025324 0.020927424 -0.00015011085 -0.3995807
0.069934405 -0.2354875 0.012545254 -0.01586128 -0.07103272 -0.07820067 -0.09137649 -0.5284264
-0.015132364 0.38439044 0.1863785 0.0048321853 -0.909495 -0.40747437 -0.39461562 -0.09025212
00000000: 171b 89be 7d2a 023b 1f36 98bd 3ddc debd
00000010: 3391 dc3e 7d5c 1bbf 1a36 143d 0363 c2be
00000020: b5ae aa3c a04e 33bb cbe2 2bbc e546 9bbd
00000030: 2aa6 56bd e837 193c 4ae7 493c f554 45bd
00000040: 23ac 563c 670b fdbc 7c8a babc 7fcd 01bd
00000050: 56ea fabe 7933 403c d818 8abd 3666 f03c
00000060: 5842 823f 3942 e8be ab8a bd3e 3658 44be
00000070: 0e01 65bd eb7c 943c 0632 07bf 2c39 7cbd
00000080: 8708 423e d71c 653f c888 25bf 5f3c 203e
00000090: 0405 03be 137a 21bf 650d e0bc 0b7d 31bc
000000a0: 4302 64bf b733 06bf 2a30 353f 6ac7 783e
000000b0: b848 4c3b 66d5 f4be 26dd 3abc 1a7f ce3c
000000c0: 92e7 bc3d 1009 2abd cb00 d3bc fe69 b7bd
000000d0: e1f5 35be bce6 dbbe 207f 1cbf 19ed 01bf
000000e0: 19e7 a3be 7f83 fcbd 08ad 2a3f c5c4 af3a
000000f0: 6251 01bf 1858 89bc b79a a4bc 7137 1f3d
00000100: 393f 25bd 5cec c0bd f523 3e3d 76db 873f
00000110: 50bd 063c 354a 37bc 99d4 79bd 4f94 57be
00000120: 6eff 66bd 3dc9 79bd 4590 1abc 182f 833e
00000130: 9d2a ddbc c09a fbbe 8a37 f33b 8f87 47bd
00000140: e79b 0ebf 46b0 94bd 1321 efbe bab0 76bc
00000150: 4010 aabd d006 1c3c d338 29bd 1ae2 febd
00000160: 9c42 49bd cb42 afbe 3ec8 7bbc 083d 1abc
00000170: d769 ccbd 28db 8cbe 177f 783a 8484 703c
00000180: b37d 2cbd 1d2e e6bb 4f5c 253d 210a 203f
00000190: 3bee 2f3c d296 f83e ddc8 233e dfb8 b0be
000001a0: 80be 12bf ad62 33bd 1e3e 253c 428b 75bd
000001b0: c98b 6cbb dea5 e0bc 8541 cbbc ae8b a1bc
000001c0: 5834 adbe 0b68 29bc c02c 6abd fc9a 683c
000001d0: ff0f ac3d 3b6d 34bd 2bb4 0cbe a710 96be
000001e0: 13ba ccbc f0d3 be3b f8b3 bebd c73e 973e
000001f0: b132 47bd 6f30 393f 00f1 bbbc 6f27 bc3d
00000200: 8850 1fbd ce92 aebb c283 53be 46e3 e93c
00000210: 29a0 a8bc 9f11 97bd fec2 fb3f 1595 e3bc
00000220: 729b afbb ae0a 35be 4d95 853e 5fc2 673c
00000230: 2c0b 98bd 3a33 eabb 0296 4cbd 23a8 92bd
00000240: 6d51 73be 6085 673c 66df a33e e139 36bd
00000250: 4e3d 90bd 786c 4fbf 445b 31bc 2bd5 fc3e
00000260: 0187 ddbd 0de1 a7bd 24a6 aabd da78 b3be
00000270: 21a9 c8bc d443 8b3e 1f6b 9ebe 5096 53bf
00000280: f336 efbd ed60 68bc 5198 9d3e 2156 803c
00000290: fa15 043d 9531 e6bb ac9a e13c 509e ce3c
000002a0: 9001 b83c 9f80 9cbd 452c 8dbd 78bc 7ebe
000002b0: 9d36 cabc 7320 963b e1ae 9abd 6c02 97bd
000002c0: 2000 8fbd 7991 c3bc dfb9 b23d 37fe d9bc
000002d0: c798 413f 32c5 b13c a518 91bd a9c6 20be
000002e0: fa0c 143c 0d7d 35bd bb25 0dbf 49a8 ccbc
000002f0: fac4 f2be 0299 9ebd e243 15bf fe49 013c
00000300: 4bae 8ebd 596c 06bd ee4c c5bb f405 bbbd
00000310: 5165 00bf dec5 00bd e34e 9cbd 5d1d 5abd
00000320: a7a3 99bd 0151 c9bc 330f d8bc 0704 0cbf
00000330: ad6d 9bbe a327 a6bd ebf6 1cbf 4070 d4bd
00000340: 2e4c 42bf 9820 8a3f 86ab 02bd 2590 15bc
00000350: aded 5abb b6d7 d4bd 9525 e23b 9010 4fbd
00000360: b501 9c3e 62ca 1ebf ef7c ca3e 155c bbbe
00000370: c154 b3bd d87f 0cbf d36a 913e de92 72be
00000380: 12c2 12bd 5274 dabd 8bc8 95bd 2017 bcbb
00000390: 3804 5fbc 5f40 11bf bd70 4cbf 1e66 36bc
000003a0: 119c bb3c cccb f03d 86e0 833e 33d7 b7be
000003b0: d05b a4bd fd6f ab3c 1367 1db9 d795 ccbe
000003c0: c539 8f3d a323 71be 9c8a 4d3c 84ef 81bc
000003d0: 9a79 91bd ac27 a0bd 9923 bbbd f446 07bf
000003e0: bced 77bc d3ce c43e 01da 3e3e 4f57 9e3b
000003f0: aad4 68bf 7ba0 d0be 0f0b cabe 1ad6 b8bd

fc3.weight f4 [5, 256]
4.652618 0.03928203 -0.033727463 0.037126355 6.056759 1.5635462 -0.056723848 4.1543565
0.006317377 -0.025879156 -0.04497294 -0.025486551 -0.075734645 0.010412145 0.0067358804 0.03073769
-0.056662813 0.03294731 -0.043459013 -0.004463155 3.9029007 -0.04469721 0.009572625 4.9318404
-3.3310955 9.669274 7.7470436 -1.786282 -0.0035927102 -0.011028773 4.229326 0.055511333
-0.23650208 4.707955 1.0006906 -0.2959592 4.0783014 5.4079084 0.03410772 4.749441
-2.9859455 0.6531622 -2.0190496 4.877003 0.07467443 5.922096 0.043118134 0.042043865
7.2079115 -0.023318864 5.3240604 -0.0045431936 3.9487908 3.2599378 0.16998163 4.815291
-0.06935678 -0.39000276 1.7804946 0.025787942 3.5072489 -0.051638674 -0.030189095 -0.03648409
-0.012379814 0.01275654 1.0283357 -1.8791395 0.03298042 -0.01999631 0.0065593813 7.517666
0.039704807 -0.031205682 -0.012470605 4.000019 -0.05884513 2.165465 0.028855562 -0.02312861
4.691924 -0.023415813 -2.096387 -0.04028751 0.019221902 5.110332 -0.013949318 -0.7335817
-0.4594678 1.8873161 -0.016214803 0.01994044 -0.05233468 4.552134 -0.018895235 -0.035689875
-1.7057867 -0.008380113 0.0023701643 3.6663594 0.01971517 -3.4307675 -0.62362283 5.0887246
5.1258426 0.07970782 0.024140092 6.6913357 -0.006546825 0.0028433662 0.05812926 -0.03427573
7.268712 0.029536212 -0.052717768 0.013580435 5.80796 0.032979928 -0.73853016 4.4779587
-0.053299163 -0.011388029 -0.08878671 4.4955053 -0.0064512556 2.7880826 -0.005056356 3.1827364
0.024708992 -0.018063966 10.637237 -0.0452867 0.01880131 0.032114387 0.09564382 0.037863325
0.03421148 5.000269 3.9948683 -0.043232933 2.5219452 0.036148265 0.07965902 -0.01608411
-1.8902478 0.013359845 -2.6032674 -0.040149994 0.04528816 2.546604 -0.005285476 -3.6691425
0.050951026 -0.009615938 0.022175996 2.2995577 0.003608933 6.8967075 3.5684083 -0.19655932
-0.015279034 4.421691 -1.2323908 -0.0011431144 -0.02121737 -0.021625636 -0.037041016 0.009973692
-0.023368247 0.004571825 0.00279788 1.6888832 -0.030329777 -0.013661268 0.020102171 0.03423733
0.022176411 4.2567244 4.0701537 -0.0049359626 1.0603945 -0.057528578 0.0204656 3.64935
0.041013554 -3.180915 0.024866054 -0.041119028 4.2706733 -0.030257499 4.22353 -0.026116388
-0.0051126406 0.012975968 -0.02514211 0.022469701 5.265826 6.698299 -0.013306667 0.007637476
0.0063818693 -0.0024376486 0.038179383 6.0801706 -0.52838933 -0.03076624 0.8489902 -1.9341029
-1.181782 1.2550881 0.0046224077 -0.00826206 0.049708165 4.738918 -0.019048806 -0.0056579285
3.1309922 5.946674 -1.5517597 5.123523 -0.008112537 5.2665315 -0.9926071 -0.54397696
-0.04380153 5.323885 4.598078 0.016677767 -0.263296 6.9571533 7.7619953 -0.049655553
0.0114905555 9.493046 4.2336254 5.1542764 -0.0014500177 0.069677725 -0.044442322 6.940535
5.424415 5.4888377 -0.004048388 -0.0045844284 4.87245 -0.0044765654 2.3067122 6.274971
0.023726938 -0.18381906 -1.0340326 -0.7365238 4.0455136 4.532542 -2.6465352 0.022212483
00000000: 3fe2 9440 32e6 203d cf25 0abd ce11 183d
00000010: f8d0 c140 4822 c83f 4457 68bd 7df0 8440
00000020: 0002 cf3b 8600 d4bc 8c35 38bd 2cc9 d0bc
00000030: c41a 9bbd b497 2a3c a9b8 dc3b 9ccd fb3c
00000040: 4417 68bd c2f3 063d 1402 32bd a83f 92bb
00000050: 20c9 7940 6c14 37bd 80d6 1c3c a3d1 9d40
00000060: ab30 55c0 59b5 1a41 c8e7 f740 e3a4 e4bf
00000070: ad73 6bbb 07b2 34bc a356 8740 da5f 633d
00000080: 9a2d 72be 91a7 9640 a116 803f f787 97be
00000090: 7281 8240 960d ad40 89b4 0b3d 6cfb 9740
000000a0: bb19 3fc0 a335 273f 1c38 01c0 6910 9c40
000000b0: e8ee 983d cf81 bd40 a49c 303d 3036 2c3d
000000c0: 36a7 e640 3407 bfbc b45e aa40 12df 94bb
000000d0: fdb8 7c40 d2a2 5040 aa0f 2e3e dd16 9a40
000000e0: ed0a 8ebd 71ae c7be 3fe7 e33f 3c41 d33c
000000f0: c476 6040 1383 53bd 1f4f f7bc 5770 15bd
00000100: b4d4 4abc cf00 513c 81a0 833f a587 f0bf
00000110: 7a16 073d 4dcf a3bc 14f0 d63b b890 f040
00000120: 82a1 223d 0fa3 ffbc 8251 4cbc 2800 8040
00000130: 9707 71bd fb96 0a40 8062 ec3c 3678 bdbc
00000140: 3e24 9640 85d2 bfbc 342b 06c0 8404 25bd
00000150: 4077 9d3c d787 a340 ae8b 64bc 03cc 3bbf
00000160: 5d3f ebbe 9393 f13f e8d4 84bc 225a a33c
00000170: e45c 56bd 15ab 9140 2eca 9abc 8c2f 12bd
00000180: 3857 dabf be4c 09bc c254 1b3b a2a5 6a40
00000190: b581 a13c b291 5bc0 bfa5 1fbf d5d6 a240
000001a0: e706 a440 db3d a33d 71c1 c53c 6c1f d640
000001b0: c086 d6bb c557 3a3b f218 6e3d b564 0cbd
000001c0: 4a99 e840 edf5 f13c 96ee 57bd 7980 5e3c
000001d0: cfda b940 f615 073d 5010 3dbf 704b 8f40
000001e0: 3950 5abd db94 3abc ced5 b5bd 2edb 8f40
000001f0: 0e65 d3bb f26f 3240 caaf a5bb f4b1 4b40
00000200: 836a ca3c e2fa 93bc 1f32 2a41 8c7e 39bd
00000210: 3405 9a3c 608a 033d e8e0 c33d 9316 1b3d
00000220: 5621 0c3d 3402 a040 ecab 7f40 0415 31bd
00000230: 8d67 2140 3410 143d 4524 a33d d3c2 83bc
00000240: a4f3 f1bf 40e3 5a3c ef9b 26c0 5274 24bd
00000250: 1480 393d 8ffb 2240 c931 adbb 3bd3 6ac0
00000260: 06b2 503d 2b8c 1dbc 6faa b53c f42b 1340
00000270: d983 6c3b d4b1 dc40 cd60 6440 d946 49be
00000280: ea54 7abc 7e7e 8d40 fbbe 9dbf 8ed4 95ba
00000290: 0dd0 adbc 3f28 b1bc 52b8 17bd b268 233c
000002a0: c46e bfbc 3fcf 953b a35c 373b 532d d83f
000002b0: 2776 f8bc 83d3 5fbc 4fad a43c 713c 0c3d
000002c0: 4eab b53c 1637 8840 b33e 8240 dbbd a1bb
000002d0: 02bb 873f 16a3 6bbd 79a7 a73c f38e 6940
000002e0: d4fd 273d 1d94 4bc0 e5b3 cb3c 6d6c 28bd
000002f0: 5ba9 8840 93de f7bc 2827 8740 09f2 d5bc
00000300: f087 a7bb 2899 543c d4f6 cdbc 6112 b83c
00000310: a681 a840 7758 d640 3504 5abc cb43 fa3b
00000320: 001f d13b f5c0 1fbb fc61 1c3d c290 c240
00000330: 8644 07bf 7b09 fcbc 6c57 593f af90 f7bf
00000340: a244 97bf baa6 a03f 9177 973b 975d 07bc
00000350: ca9a 4b3d 37a5 9740 3e0c 9cbc 2566 b9bb
00000360: 2d62 4840 274b be40 10a0 c6bf e7f3 a340
00000370: 72ea 04bc 6d87 a840 801b 7ebf 1342 0bbf
00000380: 3c69 33bd 445d aa40 7423 9340 d09f 883c
00000390: bcce 86be 00a1 de40 4462 f840 9f63 4bbd
000003a0: e242 3c3c 84e3 1741 dc79 8740 d5ef a440
000003b0: 850e beba 32b3 8e3d 2709 36bd dd18 de40
000003c0: cf94 ad40 8fa4 af40 57a8 84bb f938 96bb
000003d0: 1ceb 9b40 27b0 92bb 2ca1 1340 90cc c840
000003e0: ff5e c23c 103b 3cbe 2e5b 84bf d38c 3cbf
000003f0: d974 8140 960a 9140 d560 29c0 f4f6 b53c

fc3.bias f4 [5]
-0.58711654 -1.1570066 -1.683659 -1.0987124 -0.58308566
00000000: 454d 16bf cb18 94bf 2382 d7bf 9ca2 8cbf
00000010: 1a45 15bf
