other_model/dqn_team_b_ep380.pth (torch, 286849 bytes, 6 tensors)

fc1.weight f4 [256, 14]
0.2762447 -0.6633128 0.23642503 0.40983456 0.34318414 -1.3142828 -0.16731991 -0.9323207
1.02343 -0.22799449 5.2129197 -0.66924864 0.26531944 0.0020595803 -0.24266438 -0.4795665
-0.07749384 0.15746275 -0.11402029 -0.022004794 -0.038458645 -0.27047312 0.32485068 0.04607981
-0.32613868 0.102794684 -0.16426343 -0.08632246 -0.23457198 -1.7917569 0.22349899 -0.083826
0.28978384 0.5362807 0.021425841 -0.096853495 -1.0375599 0.06908727 -1.0326343 0.8430023
0.15308116 -0.25018016 -0.32526025 -0.024514329 -0.32164532 0.041776672 -0.31766206 -0.42156768
-0.07758911 0.09420643 0.50926316 0.7025368 2.6874082 -1.4457506 -0.07628185 -0.07429606
-0.03517647 0.30124876 0.16132513 0.32013607 0.27009407 -0.5264781 -0.045696117 -0.03890867
-0.16343965 0.8278079 -0.6647542 3.6751235 -0.27628723 -0.36223102 -0.64357257 -0.16031897
-0.6002407 0.015095497 -0.23121627 -0.14742662 0.014504301 -0.4181018 -0.3341299 0.28692237
0.46397695 -1.162906 0.26215026 -0.13885845 -0.35427904 0.47495037 -0.4090128 -0.028148802
-0.13809763 -2.0702727 0.27712575 -0.9830186 0.064993985 -0.3036345 -0.48555484 -0.48951828
-0.10152174 0.10227959 0.14016633 -0.195462 0.026085187 -0.49833477 0.06986052 -0.21824388
0.3435225 -0.25398502 -0.33952743 -0.24332216 0.57420516 -0.4396991 -0.13271566 -0.2370061
-0.012154071 -0.80239993 0.070196696 -0.38744462 -0.0067040655 -0.2716292 -0.24217308 0.13934523
-1.2547272 -0.32083362 -4.424151 -0.029442543 0.12199446 0.050041076 -0.19417004 -0.102302246
-0.12643181 0.10486086 -0.09447815 0.04379912 -0.20564026 0.08689945 -0.25134787 -0.17923693
0.20521416 -0.01101608 -0.15817033 -0.241106 -0.114419736 0.14712393 0.29372695 -0.008248009
-0.030560778 -0.22771986 0.29444295 -0.34128246 0.8919838 1.3617294 2.7813792 3.7861276
0.036631055 -0.10740331 -0.6491037 0.5747471 -0.6266656 0.2439063 -0.995169 0.41646686
-1.0821189 -0.11762537 0.2974385 -0.23090747 -1.761156 1.4490156 0.05750131 0.035591807
0.2304696 -0.29078814 0.08111171 -0.14767416 -0.07205967 -0.8669993 -0.11799266 0.061240338
0.094331175 0.8274379 0.7210607 5.943627 0.15795492 -0.08618942 0.18753326 -0.031995963
-0.14738871 -0.121224 -0.4470608 -0.3449093 -0.17868876 0.33171445 0.18178485 0.4628757
0.5361459 6.424657 0.109927244 0.09359448 -0.7853891 -0.6350658 -0.78389066 0.32652846
0.060332246 0.5885965 -0.112898625 0.37642252 0.31412965 -0.4907337 1.6345923 -2.8953395
0.18061991 0.100344524 -0.092490666 0.05089698 -0.26267794 0.095207654 0.19873805 0.10438987
-0.15414417 -0.14394408 0.04139766 0.029382136 -0.18466648 -0.17906342 -0.2480611 0.11888337
0.3240105 -0.6322755 0.11682835 -0.45852587 0.226036 0.5659272 0.31041637 0.8071367
-0.38300583 0.32604536 -1.7901007 -0.6654739 -0.2967279 -0.12450808 0.13605015 0.12776576
-0.30013308 -0.31734687 0.15930422 -0.43382466 -0.31928158 -0.18654846 0.324517 0.16241364
0.004833947 0.50818974 -0.01541241 -0.33673364 -0.19133689 -0.017397642 0.035397887 -0.082452334
00000000: f26f 8d3e dece 29bf 6719 723e d6d5 d13e
00000010: d5b5 af3e 6b3a a8bf e955 2bbe 92ac 6ebf
00000020: c1ff 823f 6377 69be 3dd0 a640 e153 2bbf
00000030: f3d7 873e 06fa 063b 037d 78be be89 f5be
00000040: 17b5 9ebd ea3d 213e 7883 e9bd 6643 b4bc
00000050: d086 1dbd 747b 8abe d452 a63e 2fbe 3c3d
00000060: a6fb a6be 0586 d23d ac34 28be d4c9 b0bd
00000070: a333 70be 4a58 e5bf ebdc 643e f7ac abbd
00000080: 8c5e 943e b149 093f 3f85 af3c 205b c6bd
00000090: c3ce 84bf a07d 8d3d 5c2d 84bf 00cf 573f
000000a0: 4fc1 1c3e 9d17 80be 8388 a6be 46d2 c8bc
000000b0: b2ae a4be 041e 2b3d 9aa4 a2be b8d7 d7be
000000c0: 0ae7 9ebd 4def c03d 125f 023f 74d9 333f
000000d0: 7ffe 2b40 5b0e b9bf a939 9cbd 8828 98bd
000000e0: 3415 10bd 473d 9a3e 6a32 253e e0e8 a33e
000000f0: c549 8a3e 45c7 06bf da2b 3bbd b35e 1fbd
00000100: b95c 27be 38eb 533f 552d 2abf 3935 6b40
00000110: 8575 8dbe 5876 b9be 2cc1 24bf a82a 24be
00000120: 60a9 19bf 1a53 773c f5c3 6cbe 01f7 16be
00000130: 73a3 6d3c 7011 d6be 1313 abbe 7de7 923e
00000140: 638e ed3e 1bda 94bf 8f38 863e e930 0ebe
00000150: 1064 b5be b22c f33e 206a d1be 5198 e6bc
00000160: 7769 0dbe 597f 04c0 6de3 8d3e 1ba7 7bbf
00000170: 911b 853d fb75 9bbe a59a f8be 24a2 fabe
00000180: a1ea cfbd f677 d13d c387 0f3e 3127 48be
00000190: 9ab0 d53c bc25 ffbe 0813 8f3d 537b 5fbe
000001a0: 2ee2 af3e 530a 82be 8ad6 adbe 7229 79be
000001b0: 1cff 123f 3e20 e1be 9de6 07be bab1 72be
000001c0: de21 47bc 156a 4dbf 49c3 8f3d 245f c6be
000001d0: c7ad dbbb fc12 8bbe 38fc 77be 84b0 0e3e
000001e0: e79a a0bf 4e44 a4be a592 8dc0 7d31 f1bc
000001f0: 3bd8 f93d dff7 4c3d 83d4 46be d783 d1bd
00000200: 5777 01be 4ac1 d63d c37d c1bd b566 333d
00000210: 5c93 52be 57f8 b13d abb0 80be e389 37be
00000220: a923 523e ca7c 34bc 67f7 21be 7ee4 76be
00000230: e554 eabd a8a7 163e 6163 963e a822 07bc
00000240: 995a fabc 652f 69be 3ac1 963e 93bc aebe
00000250: 0d59 643f 264d ae3f 1e02 3240 ea4f 7240
00000260: 720a 163d 44f6 dbbd a92b 26bf a022 133f
00000270: 286d 20bf 93c2 793e 65c3 7ebf 253b d53e
00000280: df82 8abf 92e5 f0bd dc49 983e 0273 6cbe
00000290: 8f6d e1bf 5879 b93f 7e86 6b3d b7c8 113d
000002a0: 3900 6c3e 2fe2 94be e51d a63d e537 17be
000002b0: 0594 93bd abf3 5dbf 23a6 f1bd 26d7 7a3d
000002c0: b430 c13d f8d2 533f 6f97 383f 3132 be40
000002d0: efbe 213e 1484 b0bd b808 403e 330e 03bd
000002e0: 11ed 16be 4a44 f8bd 27e5 e4be f497 b0be
000002f0: 30fa 36be 7ad6 a93e cf25 3a3e 0bfe ec3e
00000300: dc40 093f ca96 cd40 8921 e13d 76ae bf3d
00000310: 430f 49bf ac93 22bf 0fad 48bf bd2e a73e
00000320: f21e 773d 43ae 163f 6537 e7bd 74ba c03e
00000330: 9ad5 a03e 7341 fbbe 523a d13f 3e4d 39c0
00000340: 6df4 383e 6e81 cd3d bf6b bdbd 5a79 503d
00000350: b97d 86be 3bfc c23d fd81 4b3e 5bca d53d
00000360: f8d7 1dbe 1466 13be 9890 293d ceb2 f03c
00000370: 3619 3dbe 675c 37be bb03 7ebe 2079 f33d
00000380: b4e4 a53e cfdc 21bf b443 ef3d e7c3 eabe
00000390: fb75 673e 9be0 103f e5ee 9e3e 83a0 4e3f
000003a0: 5719 c4be 6bef a63e 0522 e5bf 7f5c 2abf
000003b0: b8ec 97be 18fe febd bb50 0b3e 07d5 023e
000003c0: 0bab 99be 4a7b a2be a520 233e 441e debe
000003d0: e078 a3be 8f06 3fbe 1827 a63e c34f 263e
000003e0: 1666 9e3b b918 023f 5584 7cbc 5a68 acbe
000003f0: d1ed 43be 8085 8ebc 60fd 103d c5dc a8bd

fc1.bias f4 [256]
0.06479957 -0.104695305 0.077837415 -0.078825325 -0.32218924 0.2546733 -0.26010063 0.00052282185
0.18903989 0.12608571 0.25781083 -0.25559962 0.0074317497 0.20241685 0.11895812 -0.13380401
-0.010261658 -0.24201888 -0.18945734 -0.20586467 0.015774662 0.30741462 0.0920877 0.202985
-0.056678336 0.14289881 0.0048301606 -0.11183763 0.07544029 0.42084724 0.04883002 0.1732849
-0.009045985 0.05480678 0.19208542 0.19817162 0.1540996 -0.23112248 -0.22082148 -0.24234152
0.2167726 -0.20731224 0.009772423 -0.14449014 0.06928347 -0.061379384 0.0067673875 -0.07630197
0.177471 -0.18479644 0.0114240805 -0.27298042 0.052764136 -0.10527749 0.23574688 0.06378335
-0.012211095 -0.349179 -0.24555768 -0.004960924 -0.13341568 -0.23825397 0.13619442 -0.18375427
0.20474957 0.07016793 -0.0035566601 -0.116509326 0.011748971 -0.29311138 -0.011403066 -0.19050144
0.15638317 -0.14902264 0.0634319 0.09299646 -0.1471507 -0.21511774 0.030718457 -0.22593074
-0.06630725 0.078149416 0.096736655 -0.12010384 -0.31959292 -0.069808275 0.08855266 0.14056075
-0.08940357 0.40952894 -0.08003605 0.41189027 0.04211625 -0.24917382 -0.27458817 0.36767966
-0.061389517 -0.012261806 -0.043268524 0.16111241 -0.33715424 -0.54867405 -0.23623393 0.21083133
-0.26062608 0.5258501 0.021367434 0.1017851 -0.09352926 0.32130405 -0.17950837 0.023681007
-0.07694411 -0.40260938 -0.21357535 0.018837739 -0.2415323 -0.33493096 -0.15713684 0.40197217
0.040445916 0.02132021 0.007986576 -0.31635252 0.19451545 0.005488409 -0.0022106292 0.11065886
-0.01302061 -0.12495507 -0.016387263 -0.060436722 -0.2240695 -0.15755872 0.18352571 0.021032615
0.019550052 -0.08125921 -0.1963372 -0.13289125 -0.111111544 -0.0072720503 -0.23380613 0.060483925
-0.19091502 0.3686518 0.13880566 0.26487124 -0.0396106 -0.06477222 -0.098276734 -0.024720669
-0.105246395 0.17752537 0.18436907 0.068759724 0.120994814 -0.14027624 0.10138812 0.15101881
-0.03406825 -0.19862315 0.098015636 0.0912047 0.1682682 -0.029916067 0.15472126 0.1437756
0.2974742 0.239193 0.3174545 -0.11820081 0.09968864 0.3022861 -0.13592613 -0.23535666
0.03336208 -0.3781072 0.0008661147 -0.07596548 -0.0052327644 0.24889562 0.45462555 -0.032514043
0.5909972 0.033485234 -0.24268137 0.012636989 -0.18467158 0.23408034 0.20595257 -0.06634111
-0.24199376 -0.30019525 0.24236628 0.042886477 -0.07018832 -0.07441712 -0.03850405 -0.2906739
0.0054552644 0.051329963 -0.14787792 -0.07956358 0.36943138 0.12314923 0.1004583 0.28372645
0.13919297 0.11798471 0.14418247 0.055608183 -0.16937122 0.05698773 -0.00024691416 -0.3030113
-0.2012438 -0.041992433 -0.29593876 -0.10741297 0.13309205 0.12686135 -0.059764903 -0.27229708
-0.2841577 -0.26193 0.16226523 0.21589722 -0.17722864 -0.08037796 0.2784335 0.099004604
0.08679629 0.24140371 0.19102173 0.0063985875 -0.022886556 -0.08350649 -0.3246251 -0.099872865
-0.34737247 -0.20611161 -0.070366085 0.021143435 0.18119249 0.078050174 0.44007576 0.16144055
-0.008130304 -0.1862369 0.04873481 -0.11542586 -0.2401005 0.24643818 0.077463694 -0.18734752
00000000: a3b5 843d 7e6a d6bd 3969 9f3d 2c6f a1bd
00000010: fdf5 a4be 8a64 823e e92b 85be fb0d 093a
00000020: ac93 413e 9d1c 013e c8ff 833e f4dd 82be
00000030: 0986 f33b 5d46 4f3e 51a0 f33d eb03 09be
00000040: 8320 28bc ccd3 77be 1b01 42be 30ce 52be
00000050: dd39 813c 7365 9d3e 7a98 bc3d 4ddb 4f3e
00000060: 8b27 68bd 1154 123e 5346 9e3b 210b e5bd
00000070: 7080 9a3d 4a79 d73e fd01 483d 9971 313e
00000080: 9c35 14bc 137d 603d 0ab2 443e 80ed 4a3e
00000090: 49cc 1d3e 5fab 6cbe 071f 62be 6028 78be
000000a0: a3f9 5d3e a949 54be 831c 203c 39f5 13be
000000b0: 7ee4 8d3d f368 7bbd f6c0 dd3b 3544 9cbd
000000c0: f5ba 353e 473b 3dbe 112c 3b3c 17c4 8bbe
000000d0: 351f 583d ba9b d7bd a167 713e d8a0 823d
000000e0: 0b11 48bc 97c7 b2be 7973 7bbe 3f8f a2bb
000000f0: 1f9e 08be d9f8 73be 8d76 0b3e 142a 3cbe
00000100: dfa9 513e 34b4 8f3d db16 69bb 719c eebd
00000110: c27e 403c b212 96be edd3 3abc cf12 43be
00000120: e922 203e 6499 18be 96e8 813d ee74 be3d
00000130: acae 16be d347 5cbe 46a5 fb3c 635a 67be
00000140: 18cc 87bd cd0c a03d de1d c63d 01f9 f5bd
00000150: afa1 a3be a4f7 8ebd 195b b53d 28ef 0f3e
00000160: 3819 b7bd c7ad d13e f1e9 a3bd 48e3 d23e
00000170: 1782 2c3d 6c27 7fbe d296 8cbe 8240 bc3e
00000180: 9373 7bbd bee5 48bc 563a 31bd a7fa 243e
00000190: 7b9f acbe e775 0cbf 4fe7 71be 2be4 573e
000001a0: c870 85be 1d9e 063f c20a af3c b574 d03d
000001b0: 458c bfbd f781 a43e 0bd1 37be acfe c13c
000001c0: e094 9dbd d122 cebe 7fb3 5abe 9a51 9a3c
000001d0: 3e54 77be 127c abbe 7be8 20be 4ccf cd3e
000001e0: 9eaa 253d b9a7 ae3c 21da 023c f5f8 a1be
000001f0: 0f2f 473e 1dd8 b33b 34e0 10bb 1da1 e23d
00000200: 6654 55bc 72e8 ffbd 953e 86bc 7f8c 77bd
00000210: 7a72 65be 1357 21be 2aee 3b3e 974c ac3c
00000220: 6e27 a03c 3b6b a6bd 9e0c 49be a514 08be
00000230: 738e e3bd 614a eebb e06a 6fbe febd 773d
00000240: 3a7f 43be eebf bc3e 1223 0e3e 349d 873e
00000250: b93e 22bd 4ca7 84bd 5045 c9bd 0083 cabc
00000260: 6c8b d7bd 36c9 353e 3fcb 3c3e e6d1 8c3d
00000270: 21cc f73d 93a4 0fbe 93a4 cf3d ada4 1a3e
00000280: 268b 0bbd de63 4bbe 6cbc c83d 88c9 ba3d
00000290: 804e 2c3e 8a12 f5bc 406f 1e3e e939 133e
000002a0: 8a4e 983e 03ef 743e 6589 a23e 4413 f2bd
000002b0: 8f29 cc3d 3ec5 9a3e 3830 0bbe 5601 71be
000002c0: ada6 083d 4497 c1be f90b 633a ca93 9bbd
000002d0: 9c77 abbb 7ede 7e3e aec4 e83e 722d 05bd
000002e0: 984b 173f d027 093d 7781 78be 600b 4f3c
000002f0: 8c1a 3dbe c2b2 6f3e 3be5 523e d9dd 87bd
00000300: 36cd 77be 31b3 99be de2e 783e bba9 2f3d
00000310: e5be 8fbd 0168 98bd 6cb6 1dbd 36d3 94be
00000320: 13c2 b23b 5e3f 523d 4f6d 17be 3bf2 a2bd
00000330: 1c26 bd3e aa35 fc3d 15bd cd3d 9844 913e
00000340: 9a88 0e3e f8a1 f13d 92a4 133e 68c5 633d
00000350: a66f 2dbe f76b 693d 4274 81b9 4c24 9bbe
00000360: db12 4ebe 4200 2cbd 4985 97be 55fb dbbd
00000370: 4849 083e f1e7 013e 0bcc 74bd 866a 8bbe
00000380: 1e7d 91be b01b 86be db28 263e 2914 5d3e
00000390: 6d7b 35be 339d a4bd d68e 8e3e edc2 ca3d
000003a0: 41c2 b13d 8932 773e 339b 433e 3eab d13b
000003b0: 967c bbbc 7305 abbd 4335 a6be 258a ccbd
000003c0: ceda b1be ec0e 53be 181c 90bd ff34 ad3c
000003d0: 868a 393e c5d8 9f3d 9c51 e13e ac50 253e
000003e0: f734 05bc e3b4 3ebe 279e 473d 6564 ecbd
000003f0: e8dc 75be 4a5a 7c3e 49a5 9e3d 07d8 3fbe

fc2.weight f4 [256, 256]
-1.9670874 -0.46023265 1.0543784 1.4833523 1.2574023 -1.0903776 -1.0354749 -0.5890235
-1.3061981 0.030438222 0.2301851 -2.1646616 1.0266978 1.3806359 1.4909892 0.01681439
0.20170188 -0.87044597 0.026978023 0.6734724 0.0026563779 -1.8537511 0.0012124106 -1.2253872
-0.109082446 1.3767793 4.541162 0.06195175 1.0375506 -1.091795 0.019768527 0.74955624
-0.022133164 2.2413762 -0.0155186355 -0.028075466 -5.1289253 -0.020269055 -0.03678507 -2.58815
-0.020170696 -0.45747894 0.84659964 -0.014036283 -0.047815457 -0.0075515583 0.010521442 -0.05005127
-1.5473267 4.226385 0.020050183 2.6663327 0.5840811 0.012502311 1.4574801 -0.017040715
0.1090057 0.02718427 -3.300957 0.041389354 0.062182188 -1.1757247 -0.00025754422 -0.04963941
3.0900924 0.010498241 -0.51788497 0.73824793 0.73985344 -0.784485 -0.03555847 0.7768895
0.034542568 0.007717356 0.038742535 0.013808683 0.032641202 -0.78982955 -3.716167 -0.0012297288
0.2819797 0.045836024 1.3515443 0.06281519 1.860809 -0.5082236 1.8867799 -1.4743832
-1.4288977 0.91762006 -1.9547777 -3.0197794 0.17072897 -0.06455022 -0.28005892 -2.3973835
-0.066097386 -0.13003464 -1.2960901 -0.044554852 -0.67824715 -1.800348 -0.024388801 0.4276919
0.009273424 -3.701046 0.024136104 -1.0259985 -0.039030258 2.6425889 1.7166212 -0.02181384
-0.040379792 0.87351495 1.9942011 0.52735615 0.055493776 -1.4051722 -0.049355417 1.9711894
0.026670337 1.0889482 -1.6370584 1.1873783 0.072429866 1.0097667 1.5626228 -2.350738
-0.9623235 -0.014283279 -8.076876 -6.2308326 -0.8581603 0.005175027 -0.045543745 0.0561297
0.81901777 0.10693052 0.012916185 0.47996572 -0.0093178 -0.048530594 0.035864033 0.020437248
-0.13920769 0.7059141 -0.6308459 -0.0006436035 0.4217816 -1.0990921 -0.023530833 0.059503965
-0.0571808 0.44479015 -1.1679466 0.050886847 0.5565566 -0.02194998 -0.0057650283 0.60365486
0.052787215 -0.13026977 -0.07024276 0.03329606 0.052299768 -0.10760524 -1.7173332 -0.2189094
2.0057375 0.81854004 1.3194995 0.045294397 -2.9925919 -0.4498987 0.047892235 -0.03904754
-0.052032027 1.9432026 0.014079228 -1.195087 -0.16594794 -0.04812542 -3.1809516 0.03034731
-2.1021187 -3.2223732 1.1335833 -0.16488343 -0.014868341 -1.0209877 -0.9119766 -2.4758563
-0.019158065 1.0261455 2.2599802 -0.23146737 0.06841851 0.332226 0.030855725 0.05633137
0.05043084 -2.2196949 0.03698042 0.110966705 -4.90529 0.0028624488 1.4967641 -0.071663424
-0.03741567 -0.10979053 -0.035513386 0.012919933 -0.03272111 0.054556563 0.030485112 -0.01388012
-0.048624083 0.0041610375 -0.5364068 1.5829036 2.4226801 1.8555522 -2.986247 -0.017270517
-0.57740897 0.3555088 -0.037404552 -0.11861923 0.021359295 -0.050834462 -0.38915992 -0.0010430422
0.011670202 -0.021353975 0.18442068 0.04560005 0.64549965 -0.042620882 -1.0341 0.002738313
0.4609865 2.1525733 1.496873 2.3586109 2.4948826 0.0569702 3.7302258 0.02069353
-1.592626 -0.008254157 0.04206001 -0.7463537 -0.008661079 -3.4560323 -2.879839 -0.014144039
00000000: 85c9 fbbf 9da3 ebbe dff5 863f 7dde bd3f
00000010: 8ff2 a03f 7e91 8bbf 718a 84bf 3eca 16bf
00000020: 8031 a7bf 9459 f93c a5b5 6b3e d189 0ac0
00000030: d56a 833f adb8 b03f bcd8 be3f 55be 893c
00000040: f08a 4e3e 8cd5 5ebf 0401 dd3c b068 2c3f
00000050: a016 2e3b b747 edbf c0e9 9e3a 7dd9 9cbf
00000060: 9e66 dfbd 4e3a b03f 3351 9140 1ec1 7d3d
00000070: 75ce 843f f0bf 8bbf 9bf1 a13c ebe2 3f3f
00000080: 9c50 b5bc b572 0f40 e041 7ebc 85fe e5bc
00000090: 2820 a4c0 4a0b a6bc f1ab 16bd 40a4 25c0
000000a0: 043d a5bc ae3a eabe c1ba 583f 70f8 65bc
000000b0: 24da 43bd 1073 f7bb 2062 2c3c 8f02 4dbd
000000c0: cd0e c6bf 8c3e 8740 4840 a43c 32a5 2a40
000000d0: 5786 153f 7ed6 4c3c b58e ba3f f898 8bbc
000000e0: 613e df3d 8cb1 de3c e142 53c0 e287 293d
000000f0: c0b2 7e3d 267e 96bf 0007 87b9 b252 4bbd
00000100: 13c4 4540 d000 2c3c 1c94 04bf d1fd 3c3f
00000110: 0967 3d3f 02d4 48bf c2a5 11bd 3be2 463f
00000120: 827c 0d3d e0e1 fc3b 7eb0 1e3d d03d 623c
00000130: c8b2 053d 4532 4abf aed5 6dc0 da2e a1ba
00000140: a55f 903e 8ebe 3b3d 67ff ac3f 40a5 803d
00000150: fd2e ee3f f11a 02bf 0182 f13f 97b8 bcbf
00000160: 1fe6 b6bf 26e9 6a3f 2836 fabf 1144 41c0
00000170: 93d3 2e3e e832 84bd e263 8fbe bb6e 19c0
00000180: 115e 87bd cd27 05be 48e6 a5bf 267f 36bd
00000190: 9ba1 2dbf ce71 e6bf 06cb c7bc 6ffa da3e
000001a0: 8fef 173c f0dd 6cc0 14b9 c53c eb53 83bf
000001b0: 31de 1fbd 2d20 2940 3eba db3f f0b2 b2bc
000001c0: 4865 25bd ad9e 5f3f fb41 ff3f d000 073f
000001d0: 714d 633d afdc b3bf e828 4abd ef4f fc3f
000001e0: c07b da3c a862 8b3f 218b d1bf 03fc 973f
000001f0: 1c56 943d 0940 813f 0604 c83f 7e72 16c0
00000200: d55a 76bf 6a04 6abc e23a 01c1 fb62 c7c0
00000210: 65b0 5bbf 4693 a93b 148c 3abd 42e8 653d
00000220: 26ab 513f 63fe da3d 689e 533c 11be f53e
00000230: b0a9 18bc 04c8 46bd 2ae6 123d 046c a73c
00000240: 768c 0ebe c9b6 343f 1e7f 21bf 80b7 28ba
00000250: c2f3 d73e 0daf 8cbf bcc3 c0bc 6eba 733d
00000260: 6a36 6abd 89bb e33e 467f 95bf ba6e 503d
00000270: 7e7a 0e3f 72d0 b3bc 90e8 bcbb 2089 1a3f
00000280: 6837 583d 7065 05be 70db 8fbd 7361 083d
00000290: 4838 563d 2360 dcbd 93d1 dbbf c929 60be
000002a0: 015e 0040 d78b 513f 5ce5 a83f 9e86 393d
000002b0: a086 3fc0 1f59 e6be a62a 443d 50f0 1fbd
000002c0: 891f 55bd ddba f83f 90ac 663c 9cf8 98bf
000002d0: 42ee 29be 291f 45bd b694 4bc0 ec9a f83c
000002e0: 1d89 06c0 5d3b 4ec0 4219 913f 34d7 28be
000002f0: 589a 73bc baaf 82bf 4c77 69bf 6e74 1ec0
00000300: 60f1 9cbc bc58 833f 84a3 1040 c805 6dbe
00000310: 011f 8c3d 8719 aa3e 25c5 fc3c b9bb 663d
00000320: 9290 4e3d 7b0f 0ec0 c878 173d 8342 e33d
00000330: 23f8 9cc0 ec97 3b3b f795 bf3f 46c4 92bd
00000340: 2c41 19bd dbd9 e0bd 7c76 11bd 20ae 533c
00000350: 9206 06bd b476 5f3d eabb f93c 7169 63bc
00000360: 0c2a 47bd 5059 883b f551 09bf 969c ca3f
00000370: 310d 1b40 bc82 ed3f ac1e 3fc0 e67a 8dbc
00000380: 13d1 13bf 4005 b63e 8435 19bd a4ee f2bd
00000390: b0f9 ae3c cc37 50bd f83f c7be b0b6 88ba
000003a0: 6034 3f3c 88ee aebc c6d8 3c3e 1ec7 3a3d
000003b0: 773f 253f 3c93 2ebd 645d 84bf 4575 333b
000003c0: 6c06 ec3e c3c3 0940 8999 bf3f 7bf3 1640
000003d0: 28ac 1f40 9659 693d 05bc 6e40 7a85 a93c
000003e0: 2bdb cbbf 723c 07bc 1e47 2c3d 0911 3fbf
000003f0: 33e7 0dbc a22f 5dc0 484f 38c0 66bc 67bc

fc2.bias f4 [256]
0.055113744 0.001986175 -0.07432198 -0.09293559 -0.14797543 -0.48465258 0.036184408 -0.35147566
0.02083526 -0.0027360097 -0.010491083 -0.05928407 -0.05240456 0.025234615 0.028206114 -0.048176724
0.013102564 -0.030889226 -0.00688827 -0.022445759 -0.29863462 0.011731022 -0.05154728 -0.069467366
0.93881005 -0.02292458 -0.5683008 -0.551575 -0.05590921 0.018125972 -0.7777771 -0.06157796
-0.044086665 0.6224233 -0.2809599 -0.030717231 0.08086471 -0.03183701 -0.011467235 -0.2802583
-0.8906595 -0.50675803 0.24776153 0.18181282 0.0031171273 -0.44935423 -0.011405265 0.025207091
-0.054200888 -0.04151255 0.3415027 -0.07367471 -0.31691566 -0.19874933 -0.59137124 -0.26878825
-0.08090792 0.027815543 0.25338018 0.0013410082 -0.2948152 -0.01676564 -0.020093305 0.038871232
-0.024460603 -0.09420082 0.37061357 0.08459553 0.008223847 0.0059624864 -0.060993765 -0.06308709
-0.05639594 -0.06098293 0.006448976 -0.2512656 -0.026997859 0.19353428 0.0074223923 -0.048713263
-0.25851133 -0.056718927 -0.041974414 0.00060011365 -0.067155965 -0.0326035 -0.041313957 0.056834012
0.7146299 -0.45090613 0.0005153429 0.0064689233 -0.09981125 -0.3274603 0.016830854 0.014680032
-0.42745584 -0.00702454 0.040371235 -0.19956532 0.010737951 0.14469825 -0.0469487 -0.50145096
-0.39833546 -0.043795276 0.010085611 -0.17364895 0.012273506 -0.027422842 -0.024811516 -0.019719925
-0.12725279 -0.010339747 -0.057171583 0.02727835 -0.14566916 -0.044049483 0.28401875 -0.37762764
-0.02499107 0.016606 -0.0931167 0.2009647 -0.048632327 0.22727586 -0.022942066 -0.05562335
-0.021386676 -0.005327559 -0.3212537 0.028550755 -0.004701323 -0.057881247 0.93610704 -0.015323835
-0.0053591067 -0.2001992 0.03076216 0.014145463 0.12147719 -0.00714722 -0.049947746 -0.055726834
0.043327123 0.01413092 0.22314501 -0.04448879 -0.07042943 -0.4165808 -0.010824982 0.67927235
-0.09228474 -0.08197222 -0.067441784 -0.31963968 -0.02449471 0.26817805 -0.19207393 -0.21861297
-0.1009211 -0.15317275 0.011905535 0.01566607 0.03224752 -0.0070249536 0.027539574 0.025221974
0.022461683 -0.0764172 -0.06893209 -0.10800987 -0.024684245 0.004581505 -0.07552887 -0.05785227
-0.06982446 -0.039161775 -0.23103453 -0.010727577 -0.011012435 0.021700475 -0.054964885 -0.28083026
0.024919197 0.011136277 -0.07473283 -0.024982588 0.00031766205 -0.07744028 0.4086412 0.019028265
-0.069668375 -0.016935272 -0.0060211336 -0.075437024 -0.112206854 0.18358076 -0.07632234 -0.05325066
-0.07501917 -0.024574758 -0.026374435 -0.3445187 -0.23672123 -0.08113029 0.2678024 0.18483716
-0.3589495 0.010949985 -0.03190186 0.006754307 0.022977004 -0.1867253 0.02278435 -0.050552905
-0.2286908 -0.50862855 0.28207263 -0.30041 -0.087564 0.0019002424 0.23030733 -0.028361605
-0.03582961 -0.19240409 0.1917767 -0.0057400614 -0.013611846 -0.35290617 -0.092194125 -0.011132745
0.022901567 0.1806121 0.16585346 -0.22173408 -0.08025324 0.020927424 0.015732802 -0.63998795
-0.24614947 -0.32998553 0.012545254 2.1624994e-05 -0.3160943 -0.07820067 -0.12265579 -0.12831925
-0.0017143852 0.08848066 0.43091553 0.30788478 -0.2688846 -0.19287468 -0.27826577 -0.09025212
00000000: f3be 613d 7d2a 023b 1f36 98bd 0455 bebd
00000010: df86 17be 6224 f8be 1a36 143d 9ef4 b3be
00000020: b5ae aa3c a04e 33bb cbe2 2bbc dad3 72bd
00000030: 2aa6 56bd d3b8 ce3c 8210 e73c f554 45bd
00000040: 23ac 563c 670b fdbc ffb6 e1bb 2be0 b7bc
00000050: a3e6 98be 7933 403c 3e23 53bd e844 8ebd
00000060: db55 703f 54cc bbbc 297c 11bf 0534 0dbf
00000070: 0e01 65bd eb7c 943c 661c 47bf 2c39 7cbd
00000080: 3894 34bd 2257 1f3f fad9 8fbe b4a2 fbbc
00000090: 669c a53d 8667 02bd 12e1 3bbc 047e 8fbe
000000a0: 4302 64bf e5ba 01bf 33b5 7d3e 242d 3a3e
000000b0: b848 4c3b c211 e6be 26dd 3abc 1a7f ce3c
000000c0: c001 5ebd 1009 2abd 71d9 ae3e c4e2 96bd
000000d0: c542 a2be f284 4bbe 1b64 17bf 9d9e 89be
000000e0: 0db3 a5bd 6cdd e33c 0cbb 813e c5c4 af3a
000000f0: 05f2 96be 1858 89bc b79a a4bc 7137 1f3d
00000100: 9a61 c8bc 5cec c0bd 10c1 bd3e 6c40 ad3d
00000110: 50bd 063c f660 c33b 99d4 79bd ce33 81bd
00000120: 6eff 66bd 3dc9 79bd ef51 d33b e2a5 80be
00000130: 9d2a ddbc da2d 463e 8a37 f33b 8f87 47bd
00000140: 995b 84be 1b52 68bd 5ded 2bbd f250 1d3a
00000150: 1189 89bd 3f8b 05bd d338 29bd c8ca 683d
00000160: fcf1 363f 2bdd e6be 1418 073a 43f9 d33b
00000170: d769 ccbd e0a8 a7be dce0 893c 8484 703c
00000180: 7edb dabe 1d2e e6bb 4f5c 253d da5a 4cbe
00000190: 3bee 2f3c c72b 143e 484d 40bd 175f 00bf
000001a0: a0f2 cbbe ad62 33bd 1e3e 253c 08d1 31be
000001b0: d116 493c dea5 e0bc 8541 cbbc ae8b a1bc
000001c0: 8e4e 02be 0b68 29bc c02c 6abd d976 df3c
000001d0: 4c2a 15be 3b6d 34bd e86a 913e 6958 c1be
000001e0: 13ba ccbc 4e09 883c f8b3 bebd b1c9 4d3e
000001f0: b132 47bd 01bb 683e 00f1 bbbc 4fd5 63bd
00000200: 1c33 afbc ce92 aebb 5d7b a4be 46e3 e93c
00000210: 8e0d 9abb e314 6dbd b6a4 6f3f d310 7bbc
00000220: 729b afbb 0501 4dbe ed00 fc3c 5fc2 673c
00000230: 08c9 f83d 3a33 eabb 0296 4cbd d241 64bd
00000240: c877 313d 6085 673c 2080 643e e139 36bd
00000250: 4e3d 90bd 144a d5be 445b 31bc cbe4 2d3f
00000260: c8ff bcbd 0de1 a7bd eb1e 8abd d0a7 a3be
00000270: 21a9 c8bc a24e 893e 07af 44be 14dc 5fbe
00000280: b9af cebd 51d9 1cbe 6f0f 433c 2156 803c
00000290: fa15 043d 9531 e6bb ac9a e13c 509e ce3c
000002a0: 9001 b83c 9f80 9cbd 452c 8dbd 4734 ddbd
000002b0: 9d36 cabc 7320 963b e1ae 9abd 80f6 6cbd
000002c0: 2000 8fbd 1968 20bd 5194 6cbe b8c2 2fbc
000002d0: 806d 34bc 32c5 b13c dc22 61bd fcc8 8fbe
000002e0: 5823 cc3c ee74 363c 870d 99bd 49a8 ccbc
000002f0: e18b a639 0299 9ebd 6b39 d13e 2ae1 9b3c
00000300: 4bae 8ebd d7bb 8abc ee4c c5bb ba7e 9abd
00000310: b5cc e5bd 98fc 3b3e e34e 9cbd 5d1d 5abd
00000320: a7a3 99bd 0151 c9bc 330f d8bc c164 b0be
00000330: 0d67 72be a327 a6bd 651d 893e f445 3d3e
00000340: 3bc8 b7be 9167 333c 86ab 02bd 3c53 dd3b
00000350: 453a bc3c eb34 3fbe 3fa6 ba3c 9010 4fbd
00000360: ec2d 6abe 7b35 02bf d36b 903e 57cf 99be
00000370: c154 b3bd 8e11 f93a afd5 6b3e 9956 e8bc
00000380: 12c2 12bd 9405 45be 1c61 443e 2017 bcbb
00000390: 3804 5fbc 1eb0 b4be 46d0 bcbd 1e66 36bc
000003a0: 119c bb3c 61f2 383e 7dd5 293e 420e 63be
000003b0: d05b a4bd fd6f ab3c 14e2 803c 40d6 23bf
000003c0: 9b0e 7cbe ddf3 a8be 9c8a 4d3c 5267 b537
000003d0: 1dd7 a1be ac27 a0bd f532 fbbd 1f66 03be
000003e0: 39b5 e0ba 5935 b53d f6a0 dc3e 13a3 9d3e
000003f0: 3eab 89be f180 45be da78 8ebe 1ad6 b8bd

fc3.weight f4 [5, 256]
2.1267114 0.03928203 -0.033727463 0.037126355 3.0766287 -1.3393875 -0.056723848 1.7025177
0.006317377 -0.025879156 -0.04497294 0.006998757 -0.075734645 0.026295058 0.0067358804 0.03073769
-0.056662813 0.03294731 -0.043459013 -0.030971527 2.753121 -0.04469721 0.009572625 1.1483201
0.24448241 0.83829916 -1.0141401 -1.251944 -0.0035927102 -0.011028773 -2.0489883 0.055511333
-0.024276242 -2.7113502 0.87157327 -0.024188679 2.7113063 0.04741562 0.04999061 2.0195372
-2.9859455 1.5849795 -0.73797196 0.75084186 0.07467443 3.8991568 0.043118134 0.042043865
3.1022487 -0.023318864 3.4312565 -0.02042611 2.2531857 2.8459744 -2.5840406 3.812303
1.420128 -0.30657044 1.3196993 0.025787942 1.4931246 -0.051638674 -0.030189095 -0.03648409
-0.028262725 0.01275654 -0.29982817 -0.69394755 0.03298042 -0.038618304 0.0065593813 6.1657524
0.039704807 -0.031205682 0.0034123063 2.4311314 -0.05884513 1.4824597 0.028855562 -0.02312861
1.1032101 -0.023415813 0.0003504831 -0.04028751 0.019221902 3.902558 -0.013949318 0.045273338
-2.338072 1.7290651 -0.016214803 0.01994044 -0.05233468 2.7590554 -0.034778137 -0.035689875
-1.5125495 -0.008380113 0.0023701643 2.8179739 0.01971517 -0.92724186 0.001567136 1.8276461
3.925117 0.07970782 0.024140092 3.0255089 -0.006546825 0.0028433662 0.05812926 -0.03427573
2.886573 0.029536212 -0.052717768 0.03063959 2.641436 0.032979928 -1.3727454 1.043816
-0.053299163 -0.011388029 -0.08878671 3.6681912 -0.0064512556 -0.9171967 -0.005056356 -0.014774876
0.03304097 -0.018063966 3.8964138 -0.0452867 0.01880131 0.032114387 0.7554002 0.019917808
0.03421148 3.6040606 -0.07282521 -0.043232933 1.8656726 0.036148265 0.07965902 -0.031967018
-1.1365817 0.013359845 -0.37617248 -0.040149994 0.04528816 2.781094 -0.005285476 -2.117667
0.050951026 -0.009615938 0.022175996 0.34529132 0.003608933 3.0127928 1.872437 -0.02093516
-0.031161942 2.2527926 -0.04539561 -0.0011431144 -0.02121737 -0.021625636 -0.037041016 0.009973692
-0.023368247 0.004571825 0.00279788 0.036351316 -0.030329777 -0.013661268 0.020102171 0.03423733
0.022176411 2.04133 2.554019 -0.0049359626 -0.04645079 -0.057528578 0.0204656 4.150593
0.041013554 -3.1967971 -0.54270166 -0.041119028 3.5727816 -0.030257499 3.5873928 -0.041999284
-0.0051126406 0.012975968 -0.02514211 0.022469701 4.6860514 4.1660824 -0.013306667 0.007637476
0.0063818693 -0.0024376486 0.038179383 1.7339512 2.1461852 -0.03076624 0.44334608 -1.2216195
-1.1593802 0.01459245 0.0046224077 -0.00826206 0.049708165 1.8828475 -0.019048806 -0.0056579285
2.504722 4.921811 -1.0402203 1.7050619 -0.008112537 1.4340004 -1.6975957 -0.005882442
-0.04380153 3.0143363 3.4594133 0.016677767 -0.263296 2.5438845 0.030463748 -0.049655553
0.0114905555 5.1737466 4.0082626 3.8753743 -0.0014500177 0.069677725 -0.044442322 4.3049583
1.9324436 2.6739116 -0.004048388 0.011298486 3.3683906 -0.0044765654 2.154073 2.819143
0.00064308505 -0.85784894 -1.9291798 -1.8340834 2.4528491 3.660537 -1.2775868 0.022212483
00000000: 0a1c 0840 32e6 203d cf25 0abd ce11 183d
00000010: 7ce7 4440 0d71 abbf 4457 68bd 1aec d93f
00000020: 0002 cf3b 8600 d4bc 8c35 38bd d455 e53b
00000030: c41a 9bbd bc68 d73c a9b8 dc3b 9ccd fb3c
00000040: 4417 68bd c2f3 063d 1402 32bd 00b8 fdbc
00000050: 2233 3040 6c14 37bd 80d6 1c3c 27fc 923f
00000060: 9959 7a3e c69a 563f 58cf 81bf b33f a0bf
00000070: ad73 6bbb 07b2 34bc a022 03c0 da5f 633d
00000080: f8de c6bc c386 2dc0 6d1f 5f3f 5627 c6bc
00000090: 0b86 2d40 e236 423d f4c2 4c3d 1940 0140
000000a0: bb19 3fc0 9ce0 ca3f bbeb 3cbf 2c37 403f
000000b0: e8ee 983d c98b 7940 a49c 303d 3036 2c3d
000000c0: 3e8b 4640 3407 bfbc b599 5b40 a854 a7bc
000000d0: 3234 1040 7224 3640 ec60 25c0 c6fc 7340
000000e0: c1c6 b53f cdf6 9cbe e8eb a83f 3c41 d33c
000000f0: b51e bf3f 1383 53bd 1f4f f7bc 5770 15bd
00000100: 3b87 e7bc cf00 513c 1483 99be 8ca6 31bf
00000110: 7a16 073d 3a2e 1ebd 14f0 d63b d84d c540
00000120: 82a1 223d 0fa3 ffbc 00a1 5f3b a897 1b40
00000130: 9707 71bd 3dc1 bd3f 8062 ec3c 3678 bdbc
00000140: fd35 8d3f 85d2 bfbc 0cc1 b739 8404 25bd
00000150: 4077 9d3c 83c3 7940 ae8b 64bc 8970 393d
00000160: f9a2 15c0 0152 dd3f e8d4 84bc 225a a33c
00000170: e45c 56bd 5d94 3040 8573 0ebd 8c2f 12bd
00000180: 399b c1bf be4c 09bc c254 1b3b af59 3440
00000190: b581 a13c b95f 6dbf 5c68 cd3a 4ff0 e93f
000001a0: 1e35 7b40 db3d a33d 71c1 c53c f0a1 4140
000001b0: c086 d6bb c557 3a3b f218 6e3d b564 0cbd
000001c0: 9dbd 3840 edf5 f13c 96ee 57bd e1ff fa3c
000001d0: 4a0d 2940 f615 073d 1fb6 afbf c39b 853f
000001e0: 3950 5abd db94 3abc ced5 b5bd a5c3 6a40
000001f0: 0e65 d3bb 67cd 6abf caaf a5bb 5212 72bc
00000200: f855 073d e2fa 93bc d85e 7940 8c7e 39bd
00000210: 3405 9a3c 608a 033d e861 413f ac2a a33c
00000220: 5621 0c3d eea8 6640 6225 95bd 0415 31bd
00000230: 5cce ee3f 3410 143d 4524 a33d d9ef 02bd
00000240: 827b 91bf 40e3 5a3c ae99 c0be 5274 24bd
00000250: 1480 393d 72fd 3140 c931 adbb db87 07c0
00000260: 06b2 503d 2b8c 1dbc 6faa b53c 06ca b03e
00000270: d983 6c3b 99d1 4040 04ac ef3f 3680 abbc
00000280: 5447 ffbc c12d 1040 bff0 39bd 8ed4 95ba
00000290: 0dd0 adbc 3f28 b1bc 52b8 17bd b268 233c
000002a0: c46e bfbc 3fcf 953b a35c 373b 1ee5 143d
000002b0: 2776 f8bc 83d3 5fbc 4fad a43c 713c 0c3d
000002c0: 4eab b53c 27a5 0240 0c75 2340 dbbd a1bb
000002d0: 2f43 3ebd 16a3 6bbd 79a7 a73c a8d1 8440
000002e0: d4fd 273d 5398 4cc0 7fee 0abf 6d6c 28bd
000002f0: 74a8 6440 93de f7bc d897 6540 7107 2cbd
00000300: f087 a7bb 2899 543c d4f6 cdbc 6112 b83c
00000310: 22f4 9540 8c50 8540 3504 5abc cb43 fa3b
00000320: 001f d13b f5c0 1fbb fc61 1c3d 1df2 dd3f
00000330: 195b 0940 7b09 fcbc 42fe e23e 075e 9cbf
00000340: 9266 94bf 2c15 6f3c 9177 973b 975d 07bc
00000350: ca9a 4b3d 2601 f13f 3e0c 9cbc 2566 b9bb
00000360: 5e4d 2040 7a7f 9d40 f025 85bf 783f da3f
00000370: 72ea 04bc 538d b73f d14a d9bf 80c1 c0bb
00000380: 3c69 33bd e3ea 4040 0767 5d40 d09f 883c
00000390: bcce 86be 01cf 2240 1c8f f93c 9f63 4bbd
000003a0: e242 3c3c 558f a540 b043 8040 2206 7840
000003b0: 850e beba 32b3 8e3d 2709 36bd 38c2 8940
000003c0: 505a f73f 5e21 2b40 57a8 84bb 491d 393c
000003d0: b693 5740 27b0 92bb 55dc 0940 d76c 3440
000003e0: b594 283a fd9b 5bbf 5def f6bf 3fc3 eabf
000003f0: 7bfb 1c40 3d46 6a40 f787 a3bf f4f6 b53c

fc3.bias f4 [5]
0.23383708 -0.50691885 -0.44911748 -0.14588106 0.18553917
00000000: fd72 6f3e 6fc5 01bf baf2 e5be d861 15be
00000010: fbfd 3d3e
