other_model/dqn_team_b_ep750.pth (torch, 286849 bytes, 6 tensors)

fc1.weight f4 [256, 14]
0	0xbb7a41df	-0.0038186235
1	0xbf2f6591	-0.68514353
2	0xbdc496d4	-0.09599081
3	0x3ec2fe6b	0.3808473
4	0x3ed56736	0.41680306
5	0xc0144773	-2.316861
6	0xbddeedde	-0.10885213
7	0xbfb49ac9	-1.4109737
8	0x3f8d3e5d	1.1034657
9	0x3cef3af1	0.02920291
10	0x410e34bc	8.887875
11	0xbd876da2	-0.06612708
12	0x3ea85722	0.32878977
13	0x3d8634a3	0.065530084
14	0xbe787d03	-0.24266438
15	0xbef589be	-0.4795665
16	0xbd9eb517	-0.07749384
17	0x3e213dea	0.15746275
18	0xbde98378	-0.11402029
19	0xbcb44366	-0.022004794
20	0xbd1d86d0	-0.038458645
21	0xbe8a7b74	-0.27047312
22	0x3ea652d4	0.32485068
23	0x3d3cbe2f	0.04607981
24	0xbea6fba6	-0.32613868
25	0x3dd28605	0.102794684
26	0xbe2834ac	-0.16426343
27	0xbdb0c9d4	-0.08632246
28	0xbeafa07a	-0.3430212
29	0xbfff6d3a	-1.9955208
30	0x3dd09c46	0.10186057
31	0x3dc25a4c	0.09489879
32	0x3dd0e587	0.10200029
33	0x3e6ebfef	0.23315404
34	0xbe30326b	-0.17206733
35	0xbd869301	-0.065710075
36	0xbf5e01a4	-0.86721253
37	0xbef31f17	-0.47484657
38	0xc08c4d76	-4.3844557
39	0x3fcfa738	1.6222906
40	0x3f169aec	0.5883014
41	0x3e3d7d33	0.18504791
42	0xbf1811fc	-0.5940244
43	0xbe0d78d5	-0.13815625
44	0xbf1616f6	-0.58628786
45	0x3ccee21e	0.025254305
46	0xbe564a0e	-0.20926687
47	0xbf87ffd5	-1.0624949
48	0x3cc9efdc	0.024650507
49	0xbde41fe3	-0.111388944
50	0x3f90a559	1.130046
51	0x3e1ea2fb	0.1549186
52	0x409ca275	4.894831
53	0x3fc59a16	1.5437648
54	0x3e0755e3	0.13216357
55	0x3e095e7b	0.13414948
56	0x3e5eab30	0.2174499
57	0xbc9954d0	-0.0187172
58	0x3ee62892	0.44952828
59	0x3e315f61	0.1732154
60	0x3e0ec984	0.1394406
61	0xbe51865f	-0.20461415
62	0xbe408ec9	-0.18804468
63	0x3d96dd2c	0.07366404
64	0xbe9c4afb	-0.30525956
65	0x3fb84dc2	1.439873
66	0xbfedaa4a	-1.8567593
67	0x40c46151	6.1368794
68	0xbed67aeb	-0.41890654
69	0xbf013d50	-0.5048418
70	0xbf24c12c	-0.64357257
71	0xbe242aa8	-0.16031897
72	0xbf19a960	-0.6002407
73	0x3c77531a	0.015095497
74	0xbe6cc3f5	-0.23121627
75	0xbe16f701	-0.14742662
76	0x3c6da373	0.014504301
77	0xbed61170	-0.4181018
78	0xbeab1313	-0.3341299
79	0x3e92e77d	0.28692237
80	0x3eed8e63	0.46397695
81	0xbf94da1b	-1.162906
82	0x3e86388f	0.26215026
83	0xbe0e30e9	-0.13885845
84	0xbec00571	-0.3750415
85	0x3ee872ca	0.45400077
86	0xbedc0b81	-0.42977527
87	0xbd41fa31	-0.04735774
88	0xbe1f377d	-0.15548511
89	0xc006b332	-2.1046872
90	0x3e84fc7d	0.25973883
91	0xbf82a158	-1.0205488
92	0x3d41c103	0.04730321
93	0xbea484ad	-0.32132474
94	0xbef89aa5	-0.48555484
95	0xbefaa224	-0.48951828
96	0xbdf425b2	-0.11921252
97	0x3dad3ce6	0.08458881
98	0x3dfc0f8d	0.123076536
99	0xbe5acc83	-0.21367078
100	0x3c136180	0.008995414
101	0xbf03f8c6	-0.51551473
102	0x3d587ad0	0.052851498
103	0xbe70ed13	-0.23527937
104	0x3ea72ccd	0.32651368
105	0xbe8ad90c	-0.2711872
106	0xbeb7637e	-0.35818094
107	0xbe84e2d8	-0.25954318
108	0x3f1779bf	0.59170145
109	0xbee93943	-0.455515
110	0xbe19585e	-0.14975116
111	0xbe8211b8	-0.25404143
112	0xbd77e3d0	-0.060519993
113	0xbf525d9a	-0.82174075
114	0x3cab14f6	0.020884018
115	0xbdfe2ace	-0.12410508
116	0x3e26b95a	0.16281644
117	0x3dedffe7	0.11621075
118	0xbd954662	-0.07288815
119	0x3ed31f95	0.41235033
120	0xc0066efb	-2.1005237
121	0xbef4782a	-0.47747928
122	0xc0a05755	-5.0106606
123	0xbf20d471	-0.6282416
124	0x3e7bdfc4	0.24597079
125	0x3e3231a7	0.17401753
126	0xbe46d483	-0.19417004
127	0xbdd183d7	-0.102302246
128	0xbe017757	-0.12643181
129	0x3dd6c14a	0.10486086
130	0xbdc17dc3	-0.09447815
131	0x3d3366b5	0.04379912
132	0xbe52935c	-0.20564026
133	0x3db1f857	0.08689945
134	0xbe80b0ab	-0.25134787
135	0xbe3789e3	-0.17923693
136	0x3e5223a9	0.20521416
137	0xbc347cca	-0.01101608
138	0xbe21f767	-0.15817033
139	0xbe76e47e	-0.241106
140	0xbec71cd8	-0.38889194
141	0xbdf614c3	-0.12015679
142	0xbdd36da7	-0.10323649
143	0xbeee77bf	-0.46575734
144	0xbd35bddf	-0.04437053
145	0x3e8072d8	0.2508762
146	0x3e90ad52	0.28257233
147	0xbecf55db	-0.4049519
148	0x3f0c2ae7	0.54752964
149	0x4010aca4	2.2605371
150	0x40b9a37c	5.8012066
151	0x410b290f	8.697524
152	0xbe987965	-0.29780117
153	0xbee23820	-0.44183445
154	0xbf2c3992	-0.67275345
155	0x3f0c5ab0	0.5482588
156	0xbf267b11	-0.65031534
157	0x3e5ea4b4	0.21742517
158	0xbf83219d	-1.0244633
159	0x3ec7f054	0.39050543
160	0xbf8e42c8	-1.111413
161	0xbe1340c8	-0.14380181
162	0x3e8abde4	0.27098
163	0xbe83c568	-0.25736547
164	0xbfe16d8f	-1.761156
165	0x3fb97958	1.4490156
166	0x3cfe4d00	0.031042576
167	0x3c15a2bc	0.009133037
168	0xbbfe1915	-0.007754455
169	0xbd6d97c8	-0.058006078
170	0xbe104d0a	-0.14091888
171	0xbe187a09	-0.14890303
172	0xbeb7f8af	-0.35931918
173	0xbe8b1f1a	-0.27172166
174	0xbecb4dc2	-0.39707762
175	0x3ec9f76e	0.39446586
176	0x3e822b41	0.25423625
177	0x3f8ff7eb	1.1247534
178	0x3fc87f72	1.5663893
179	0x41000e36	8.003469
180	0x3dceb16a	0.10092433
181	0xbe12a8e8	-0.14322245
182	0x3ec7dcbc	0.39035594
183	0xbe9607a8	-0.29302716
184	0x3d77f8e5	0.0605401
185	0xbf183550	-0.5945635
186	0xbed7606d	-0.42065755
187	0xbf34c129	-0.7060724
188	0xbe316023	-0.1732183
189	0x3e2695e6	0.16268119
190	0x3e843f11	0.25829366
191	0x3f5a2124	0.8520682
192	0x3df647ec	0.12025437
193	0x410974a1	8.590974
194	0x3e5dcb51	0.2165959
195	0x3e4d11c3	0.20026307
196	0xbf72b39b	-0.94805306
197	0xbf9eb630	-1.2399349
198	0xbf706c4d	-0.93915254
199	0xbd2496d6	-0.04018291
200	0x3d03fbb2	0.032222457
201	0x3e32dcde	0.17467067
202	0xbe1315a8	-0.1436373
203	0x3cb928a0	0.02260238
204	0x3ebe3e94	0.37157118
205	0xbf64fc82	-0.89447796
206	0x40022eb8	2.0341015
207	0xbecbcfe1	-0.39807037
208	0x3d00b988	0.031426936
209	0xbd4812d1	-0.04884607
210	0xbdbd6bbf	-0.092490666
211	0x3d50795a	0.05089698
212	0xbe867db9	-0.26267794
213	0x3dc2fc3b	0.095207654
214	0x3e4b81fd	0.19873805
215	0x3dd5ca5b	0.10438987
216	0xbe1dd7f8	-0.15414417
217	0xbe136614	-0.14394408
218	0x3d299098	0.04139766
219	0x3cf0b2ce	0.029382136
220	0xbe3d1936	-0.18466648
221	0xbe375c67	-0.17906342
222	0xbe7e03bb	-0.2480611
223	0x3df37920	0.11888337
224	0x3f1ff712	0.62486374
225	0xbf8a16f5	-1.0788256
226	0x3ee6cc68	0.45077825
227	0xbf7d32db	-0.98905724
228	0x3e83d50b	0.25748476
229	0x3e950435	0.29104772
230	0x3ea50030	0.32226706
231	0x3f3eae09	0.74484307
232	0xbe624fd7	-0.22100769
233	0x3eca77a9	0.39544418
234	0xbfbdddf4	-1.483336
235	0xbde7c197	-0.11316221
236	0xbed17469	-0.40909126
237	0xbe728fa3	-0.23687606
238	0x3df61a41	0.12016726
239	0x3de522d5	0.11188284
240	0xbea1ccd4	-0.31601584
241	0xbeaa9d13	-0.33322963
242	0x3e12dd0d	0.14342137
243	0xbee6400d	-0.44970742
244	0xbeab9aa9	-0.33516434
245	0xbe4f4a27	-0.2024313
246	0x3e9e054f	0.30863425
247	0x3e160c2b	0.14653079
248	0xbc3506b7	-0.011048964
249	0x3efc0fad	0.4923071
250	0xbd002f84	-0.031295314
251	0xbeb48a23	-0.3526164
252	0xbe43edd1	-0.19133689
253	0xbc8e8580	-0.017397642
254	0x3d10fd60	0.035397887
255	0xbda8dcc5	-0.082452334

fc1.bias f4 [256]
0	0x3e035958	0.1282705
1	0xbdd66a7e	-0.104695305
2	0x3f0357f0	0.51306057
3	0x3e04bb17	0.12961994
4	0xbeedfb68	-0.4648087
5	0x3e82648a	0.2546733
6	0xbe8e3a99	-0.2777908
7	0xbc874593	-0.016512668
8	0x3ea043ca	0.3130172
9	0x3e011c9d	0.12608571
10	0xbd9cea9d	-0.076619364
11	0xbe9069ea	-0.28205806
12	0xbd4b290d	-0.049599696
13	0x3e9e401c	0.30908287
14	0xbcf7ab80	-0.030233145
15	0xbe0903eb	-0.13380401
16	0xbdfb2604	-0.1226311
17	0xbe840bae	-0.2579016
18	0xbe42011b	-0.18945734
19	0xbe3e372e	-0.18575737
20	0x3c8139dd	0.015774662
21	0x3f18a983	0.59633654
22	0x3eaa4b99	0.332608
23	0x3ea833c8	0.32852006
24	0x3bd28956	0.006425063
25	0x3de76efd	0.11300466
26	0xbd6c5a6f	-0.05770343
27	0xbde50b21	-0.11183763
28	0x3cb31ee5	0.021865318
29	0x3e8d0872	0.27545506
30	0x3d06f38f	0.03294712
31	0x3e1b06a7	0.15139256
32	0x3e26a63a	0.16274348
33	0x3e07ec49	0.1327373
34	0x3e63e935	0.2225693
35	0x3e4aed80	0.19817162
36	0x3e9167eb	0.28399596
37	0xbe6cab5f	-0.23112248
38	0xbe621f07	-0.22082148
39	0xbea8daa1	-0.329793
40	0x3e3338a0	0.1750207
41	0xbe3c817b	-0.18408768
42	0x3cacbf6d	0.021087373
43	0xbe1acdea	-0.15117612
44	0x3d8de47e	0.06928347
45	0xbd7b68f3	-0.061379384
46	0x3bddc0f6	0.0067673875
47	0xbd9c4435	-0.07630197
48	0x3e35baf5	0.177471
49	0xbe7fb52f	-0.2497146
50	0x3c3b2c11	0.0114240805
51	0xbe92d85c	-0.28680694
52	0x3d581f35	0.052764136
53	0xbdf7144b	-0.120644175
54	0x3ed7add0	0.42124796
55	0x3d82a0d8	0.06378335
56	0xbde04efc	-0.10952565
57	0xbebae960	-0.36506176
58	0xbeaad795	-0.333676
59	0xbba28f3f	-0.004960924
60	0xbe089e1f	-0.13341568
61	0xbe73f8d9	-0.23825397
62	0x3e0b768d	0.13619442
63	0xbe3c2a14	-0.18375427
64	0x3e9986a5	0.29985538
65	0x3ccbfc53	0.024900591
66	0xbd57540f	-0.0525704
67	0xbe5572d5	-0.20844586
68	0xbb877605	-0.004133942
69	0xbef5a4f9	-0.47977427
70	0x3d6fa437	0.058506217
71	0xbe4312cf	-0.19050144
72	0x3e2022e9	0.15638317
73	0xbe189964	-0.14902264
74	0x3d81e896	0.0634319
75	0x3d9dedb4	0.07711354
76	0xbe26f244	-0.16303355
77	0xbe5c47d3	-0.21511774
78	0x3e07763c	0.13228697
79	0xbe7a1828	-0.24423277
80	0xbd87cc18	-0.06630725
81	0x3da00ccd	0.078149416
82	0xbd202b76	-0.039103948
83	0xbdf5f901	-0.12010384
84	0xbecf61fc	-0.40504444
85	0xbdaf7ede	-0.0856912
86	0x3cf556ae	0.029948559
87	0xbde3d716	-0.11125009
88	0xbdf7e9a2	-0.12105109
89	0x3eb95361	0.36196426
90	0xbe4142c8	-0.18873131
91	0x3f0df136	0.55446184
92	0x3e13355c	0.14375824
93	0xbe7f276c	-0.24917382
94	0xbe8c96d2	-0.27458817
95	0x3ef8e78e	0.48614162
96	0xbd7b7393	-0.061389517
97	0xbd83bcc8	-0.064324915
98	0xbd5176bb	-0.05113862
99	0x3e24faa7	0.16111241
100	0xbeac9f7b	-0.33715424
101	0xbf185d23	-0.59517115
102	0xbeaa8cdb	-0.3331059
103	0x3e10c905	0.14139183
104	0xbe6c91cc	-0.23102492
105	0x3f127991	0.57216746
106	0x3caf0ac2	0.021367434
107	0x3ed0b3d3	0.40762195
108	0x3e0831a1	0.13300182
109	0x3e775ef2	0.24157313
110	0x3d8c5c21	0.0685351
111	0x3cc1feac	0.023681007
112	0xbd9d94e0	-0.07694411
113	0xbea39051	-0.31946042
114	0xbe8765b0	-0.2644477
115	0x3e190607	0.14943705
116	0xbe77543e	-0.2415323
117	0xbe2c7797	-0.16842495
118	0xbe20e87b	-0.15713684
119	0x3ed3d3af	0.4137244
120	0x3d25aa9e	0.040445916
121	0xb8a97198	-8.0797065e-05
122	0xbc98976f	-0.018626897
123	0xbec3c645	-0.38237205
124	0x3e472f0f	0.19451545
125	0xbe137f2c	-0.14403981
126	0x3e255d12	0.16148785
127	0x3de2a11d	0.11065886
128	0xbc555466	-0.01302061
129	0x3e2c4fad	0.16827269
130	0xbd830ff9	-0.06399531
131	0xbe482865	-0.1954666
132	0xbe65727a	-0.2240695
133	0xbe215713	-0.15755872
134	0x3e2baa92	0.16764286
135	0x3cac4c97	0.021032615
136	0x3b0d85cc	0.0021594642
137	0xbda66b3b	-0.08125921
138	0xb9c82fe2	-0.00038182648
139	0xbe77ac0a	-0.24186721
140	0xbde38e73	-0.111111544
141	0xbcbdaf77	-0.023154957
142	0xbe6f6ae0	-0.23380613
143	0x3d77bdfe	0.060483925
144	0xbe437f3a	-0.19091502
145	0x3ee94d8f	0.45566985
146	0x3ddefe91	0.108883984
147	0x3e879d34	0.26487124
148	0xbe04e4c3	-0.1297789
149	0xbdf93616	-0.12168519
150	0xbdc94550	-0.098276734
151	0xbcca8300	-0.024720669
152	0xbdd78b6c	-0.105246395
153	0x3e50279a	0.20327607
154	0x3e846f11	0.25865987
155	0x3d8cd1e6	0.068759724
156	0x3dccc35c	0.09998199
157	0xbe1fe82b	-0.15615909
158	0x3dcfa493	0.10138812
159	0xbdaa83d3	-0.08325925
160	0xbd0b8b26	-0.03406825
161	0xbe4b63de	-0.19862315
162	0x3dc8bc6c	0.098015636
163	0x3d78e799	0.060767744
164	0x3e2c4e80	0.1682682
165	0xbd3b97b2	-0.045798965
166	0x3e7bfb11	0.24607493
167	0x3e000d89	0.12505163
168	0x3e9d85ca	0.30766135
169	0x3e09e21c	0.1346516
170	0x3eb90621	0.36137488
171	0xbdf21344	-0.11820081
172	0xbd881deb	-0.066463314
173	0x3d7f30c6	0.062302373
174	0xbe0b3038	-0.13592613
175	0xbe710156	-0.23535666
176	0x3d08a6ad	0.03336208
177	0xbf07c18d	-0.5302971
178	0x3a630bf9	0.0008661147
179	0xbd9f33a4	-0.077735215
180	0x3dbd1878	0.09233183
181	0x3dae1e10	0.08501828
182	0x3f1410f6	0.5783838
183	0xbd052d72	-0.032514043
184	0x3f28d3f5	0.6594842
185	0x3d99417f	0.074831955
186	0xbe03bb5a	-0.12864438
187	0x3c4f0b60	0.012636989
188	0xbe3d1a8c	-0.18467158
189	0x3d666ecf	0.05625802
190	0x3e863102	0.26209265
191	0xbd87ddd9	-0.06634111
192	0xbe77cd36	-0.24199376
193	0xbeba5d58	-0.3639934
194	0x3e02bc77	0.12767206
195	0x3d2fa9bb	0.042886477
196	0xbdccfdfd	-0.10009382
197	0xbd42b317	-0.047534075
198	0xbd1db66c	-0.03850405
199	0xbe8e9a45	-0.27852073
200	0x3bb2c213	0.0054552644
201	0x3e57a6a9	0.2105967
202	0xbe2f7cdb	-0.17137472
203	0xbda2f23b	-0.07956358
204	0x3ea822f9	0.32839182
205	0x3dfc35aa	0.12314923
206	0x3daf85f8	0.085704744
207	0x3f190ee6	0.5978836
208	0x3e0e889a	0.13919297
209	0x3df1a1f8	0.11798471
210	0x3e13a492	0.14418247
211	0x3d63c568	0.055608183
212	0xbe2d6fa6	-0.16937122
213	0x3d696bf7	0.05698773
214	0x3e8d8468	0.2764008
215	0xbe9b244c	-0.3030113
216	0xbe4e12db	-0.2012438
217	0xbd2c0042	-0.041992433
218	0x3b948798	0.0045327656
219	0xbe073f6e	-0.1320779
220	0x3d2c6a6a	0.04209367
221	0x3dc80bf3	0.09767904
222	0x3dd4b8a7	0.10386782
223	0x3d8da8d9	0.06916971
224	0xbe917d1e	-0.2841577
225	0xbe6e23f1	-0.23255898
226	0x3e2628db	0.16226523
227	0x3e3b2ff5	0.18280013
228	0xbe357b6d	-0.17722864
229	0xbda49d33	-0.08037796
230	0x3ebe8317	0.3720939
231	0x3dcac2ed	0.099004604
232	0x3db1c241	0.08679629
233	0x3e773289	0.24140371
234	0x3e640f1b	0.22271387
235	0x3bd1ab3e	0.0063985875
236	0x3c974613	0.018466031
237	0xbdab0573	-0.08350649
238	0xbe2fd954	-0.17172748
239	0xbded115f	-0.11575579
240	0xbe24b05b	-0.160829
241	0xbe316962	-0.17325357
242	0x3ddb56ae	0.10709892
243	0x3e022f5f	0.12713383
244	0x3e18396d	0.14865656
245	0x3d9fd8c5	0.078050174
246	0x3ef9b706	0.48772448
247	0x3e2550ac	0.16144055
248	0xbd5dea1e	-0.05417835
249	0xbe3eb4e3	-0.1862369
250	0x3d8cd7ca	0.06877096
251	0xbe1d18fa	-0.15341559
252	0xbe75dce8	-0.2401005
253	0x3ed2cc2f	0.41171405
254	0xbde30140	-0.11084223
255	0xbe3fd807	-0.18734752

fc2.weight f4 [256, 256]
0	0xc03307fb	-2.797362
1	0xbeeba39d	-0.46023265
2	0x4015df96	2.3417716
3	0x404570f6	3.0850196
4	0x401ddb68	2.4665165
5	0xbf8b917e	-1.0903776
6	0xbf80bc1a	-1.0057404
7	0xbf12b95c	-0.57314086
8	0xbfa939f4	-1.3220811
9	0x3cf95994	0.030438222
10	0xbe466ddb	-0.19377844
11	0xc006d30d	-2.1066315
12	0x40082c29	2.1276953
13	0x4005462d	2.0824082
14	0x3f2ecf32	0.68284905
15	0x3c89be55	0.01681439
16	0x3ff141dd	1.8848225
17	0xbf5ed58c	-0.87044597
18	0x3cdd0104	0.026978023
19	0x3ff844f1	1.9396039
20	0x3b2e16a0	0.0026563779
21	0xbf906051	-1.1279393
22	0x4007052b	2.1096904
23	0xc0843ed5	-4.13267
24	0xbdcb13ba	-0.09915872
25	0x4054b1c4	3.32335
26	0x4090cf19	4.5252805
27	0x3d7dc11e	0.06195175
28	0x3f6d1ce3	0.926222
29	0xbea93c43	-0.3305379
30	0x3d12073b	0.035651427
31	0x3f3fe2eb	0.74955624
32	0xbda49704	-0.080366164
33	0x401c1ece	2.4393802
34	0xbe164d0d	-0.1467783
35	0xbce5fe85	-0.028075466
36	0xc09dae7f	-4.927551
37	0xbca60b4a	-0.020269055
38	0xbd16abf1	-0.03678507
39	0xc056e096	-3.3574576
40	0x3fdc8eb9	1.7231055
41	0x3fa0a251	1.2549535
42	0x40233df3	2.550656
43	0xbc619ac7	-0.013769812
44	0xbd43da24	-0.047815457
45	0xbbf77310	-0.0075515583
46	0x3c2c6220	0.010521442
47	0xbd4d028f	-0.05005127
48	0xbfc60ecd	-1.5473267
49	0x409093d8	4.5180473
50	0x3ca44048	0.020050183
51	0x401a838f	2.4142797
52	0x3f158657	0.5840811
53	0x3ca108bf	0.01965749
54	0x3e857a08	0.26069665
55	0xbc8b98f8	-0.017040715
56	0x3dfee13c	0.12445304
57	0x3c392955	0.011301358
58	0xc035f621	-2.8431475
59	0x3d2987e2	0.041389354
60	0x3d7eb2c0	0.062182188
61	0xbf967e26	-1.1757247
62	0xb9870700	-0.00025754422
63	0xbd4b52b2	-0.04963941
64	0x3fc1c396	1.5137813
65	0x3c2c00d0	0.010498241
66	0xbeb0397b	-0.34418854
67	0x3f4609cc	0.773587
68	0x3f3d6709	0.73985344
69	0xc0279c94	-2.6189318
70	0xbeea7637	-0.45793316
71	0x3f46e23b	0.7768895
72	0x3d0d7c82	0.034542568
73	0x3bfce1e0	0.007717356
74	0x3d1eb07e	0.038742535
75	0xbb07efd1	-0.0020742307
76	0x3c8948b4	0.0167583
77	0xbf4a3245	-0.78982955
78	0xc094bb00	-4.647827
79	0x3c280b70	0.010256633
80	0x3e905fa5	0.2819797
81	0x3d3bbe8e	0.045836024
82	0x3f607e0d	0.8769234
83	0x3d80a540	0.06281519
84	0x3fe456b6	1.7838962
85	0xbefc141d	-0.49234095
86	0x4093539c	4.603956
87	0xbfff4be5	-1.9945036
88	0xbfb6e61f	-1.4288977
89	0xbeefe7e2	-0.468566
90	0xbfffa3ff	-1.9971923
91	0xc0b0c98b	-5.5246024
92	0xc02639da	-2.597281
93	0xbd8432e8	-0.06455022
94	0xbe8f63e2	-0.28005892
95	0xbfaee064	-1.3662229
96	0xbd875e11	-0.066097386
97	0xbdb4d2d8	-0.08829278
98	0xbfa40afe	-1.2815855
99	0xbd367f26	-0.044554852
100	0xbf2da19b	-0.67824715
101	0xbfe4695a	-1.7844651
102	0x3d89b89d	0.06724665
103	0x3ee91c2b	0.45529303
104	0xbf005678	-0.5013194
105	0xc07c217d	-3.939544
106	0x3cc5b914	0.024136104
107	0xbfba9062	-1.4575312
108	0xbe94fae3	-0.2909766
109	0x3fbad754	1.4596963
110	0x3fc0d0ea	1.5063756
111	0xbcb2b2f0	-0.02181384
112	0xbd256548	-0.040379792
113	0x3ead32b6	0.33827752
114	0x4045469c	3.0824347
115	0x3f2ccaa6	0.67496717
116	0x3d634d71	0.055493776
117	0xbf8b9e9a	-1.0907776
118	0xbd4a28e8	-0.049355417
119	0x4019ebaf	2.40501
120	0x3cda7bc0	0.026670337
121	0x400049fd	2.004516
122	0xbfd18b21	-1.6370584
123	0x407a86e1	3.9144824
124	0x3d94561c	0.072429866
125	0x3ff2bd62	1.8964045
126	0x3f84ca4a	1.0374234
127	0xc016727e	-2.350738
128	0xbf765ad5	-0.9623235
129	0x3ec1db72	0.37862736
130	0xc12ead93	-10.9173765
131	0xc0d19ac6	-6.5501432
132	0xbf5bb065	-0.8581603
133	0x3ba99346	0.005175027
134	0xbd3a8c14	-0.045543745
135	0x3d65e842	0.0561297
136	0x3f4d9a44	0.80313516
137	0x3ddafe63	0.10693052
138	0xbae6aa2e	-0.0017598325
139	0x3ff7843b	1.9337229
140	0xbc18a9b0	-0.0093178
141	0xbd46c804	-0.048530594
142	0x3d12e62a	0.035864033
143	0x3ca76c04	0.020437248
144	0xbe0e8c76	-0.13920769
145	0x4096359f	4.6940455
146	0xbf1e9ab0	-0.61954784
147	0xba28b780	-0.0006436035
148	0xbf5ca993	-0.8619625
149	0xbf848fe7	-1.0356416
150	0xbcc0c3bc	-0.023530833
151	0x3d73ba6e	0.059503965
152	0xbd6a366a	-0.0571808
153	0x3ed444cc	0.41458738
154	0xbf7cb9c8	-0.9872098
155	0x3d506eba	0.050886847
156	0x3f0e7a7e	0.5565566
157	0xbcb3d072	-0.02194998
158	0xbbbce890	-0.0057650283
159	0xbf336327	-0.7007317
160	0x3d583768	0.052787215
161	0xbe056570	-0.13026977
162	0xbd8fdb70	-0.07024276
163	0x3d086173	0.03329606
164	0x3d563848	0.052299768
165	0xbddc6023	-0.10760524
166	0xc071e256	-3.7794394
167	0xbe774c0f	-0.24150108
168	0x401d611b	2.4590518
169	0x4000f016	2.0146537
170	0x402dd7e8	2.7163029
171	0x3d39869e	0.045294397
172	0xc02f97f4	-2.7436495
173	0xbfbf5168	-1.4946718
174	0x3d442aa6	0.047892235
175	0xbd1ff050	-0.03904754
176	0xbd551f89	-0.052032027
177	0x3fd2ed31	1.6478635
178	0x3c66ac90	0.014079228
179	0xbf9a4fc9	-1.2055598
180	0xbe5a4002	-0.2131348
181	0x3c575eb1	0.013145135
182	0xc056f01a	-3.3584046
183	0x3cf89aec	0.03034731
184	0xc033e844	-2.8110514
185	0xc0717bc4	-3.773179
186	0x3fb44618	1.4083891
187	0xbe28d734	-0.16488343
188	0xbc739a58	-0.014868341
189	0xbf8f1edf	-1.1181296
190	0xbfe86cba	-1.8158181
191	0xc01e746e	-2.4758563
192	0xbc9cf160	-0.019158065
193	0x3f6e7415	0.9314588
194	0x3ffd11f9	1.977111
195	0xbe6d05c8	-0.23146737
196	0x3d605169	0.05476514
197	0x3f4d4aeb	0.8019244
198	0x3cfcc525	0.030855725
199	0x3e7ea078	0.24865901
200	0x3d4e9092	0.05043084
201	0xc01096c2	-2.2592015
202	0x3e2660ec	0.1624791
203	0x3de34283	0.110966705
204	0xc06fed17	-3.7488458
205	0x3b3b97ec	0.0028624488
206	0x3fbf95f7	1.4967641
207	0xbe4e035f	-0.20118473
208	0xbd19412c	-0.03741567
209	0xbde0d9db	-0.10979053
210	0xbd11767c	-0.035513386
211	0x3c53ae20	0.012919933
212	0xbd060692	-0.03272111
213	0x3d5f76b4	0.054556563
214	0x40044fc8	2.0673695
215	0xbc636971	-0.01388012
216	0xbd472a0c	-0.048624083
217	0x3b885950	0.0041610375
218	0xbf26454d	-0.64949495
219	0x4086ba9d	4.21028
220	0x4026c5a9	2.6058142
221	0x3fecb138	1.8491583
222	0xc0a290cb	-5.080175
223	0x3e816582	0.25272757
224	0xbf13d113	-0.57740897
225	0x3e812655	0.25224558
226	0xbd193584	-0.037404552
227	0xbe3f1408	-0.18659985
228	0x3caef9b0	0.021359295
229	0xbd5037cc	-0.050834462
230	0xbf97fc2b	-1.187383
231	0xba88b6b0	-0.0010430422
232	0x3c3f3460	0.011670202
233	0xbcaeee88	-0.021353975
234	0x407816d7	3.876394
235	0x3d3ac71e	0.04560005
236	0x3c29eeb9	0.010371857
237	0xbd2e933c	-0.042620882
238	0xbf96ea0c	-1.1790175
239	0x3b337545	0.002738313
240	0x3e24727a	0.16059294
241	0x3fd818fc	1.6882625
242	0x404ca061	3.1972888
243	0x40764932	3.8482175
244	0x401db578	2.464201
245	0x3d695996	0.0569702
246	0x403d604a	2.959002
247	0x3ca9857a	0.02069353
248	0xbfc9d2b7	-1.576743
249	0xbc073c72	-0.008254157
250	0xbedbddab	-0.42942557
251	0xbf3390df	-0.7014293
252	0xbc0de733	-0.008661079
253	0xc0551987	-3.329683
254	0xc06bfa28	-3.6871433
255	0xbc67bc66	-0.014144039

fc2.bias f4 [256]
0	0xbe203a84	-0.15647322
1	0x3b022a7d	0.001986175
2	0xbd98361f	-0.07432198
3	0xbddedc3d	-0.10881851
4	0x3e99712f	0.29969165
5	0xbf346a45	-0.70474654
6	0x3d14361a	0.036184408
7	0xbf0e63c4	-0.5562098
8	0x3caaaeb5	0.02083526
9	0xbb334ea0	-0.0027360097
10	0xbc2be2cb	-0.010491083
11	0xbd9b46e5	-0.075818814
12	0xbd56a62a	-0.05240456
13	0x3c1937e8	0.009351708
14	0x3c49e74a	0.01232321
15	0xbd4554f5	-0.048176724
16	0x3c56ac23	0.013102564
17	0xbcfd0b67	-0.030889226
18	0xbcba8a7c	-0.022771113
19	0xbcb7e02b	-0.022445759
20	0xbefaea56	-0.4900691
21	0x3c403379	0.011731022
22	0xbd8a18d8	-0.0674302
23	0x3c9bc624	0.01901538
24	0x3f9fc1c2	1.2481005
25	0xbea4c248	-0.32179475
26	0x3ecf2c89	0.40463665
27	0xbf09a764	-0.5377104
28	0xbd65010e	-0.05590921
29	0x3c947ceb	0.018125972
30	0xbf82b680	-1.0211945
31	0xbd7c392c	-0.06157796
32	0xbd349438	-0.044086665
33	0x3f46ac11	0.776063
34	0xbf1c0f41	-0.60960776
35	0xbcfba2b4	-0.030717231
36	0xbe181026	-0.1484991
37	0xbe8f8120	-0.28028202
38	0xbce00d65	-0.027350137
39	0xbd398945	-0.045296926
40	0xbf640243	-0.8906595
41	0xbf2ff19f	-0.6872806
42	0x3eae9100	0.34095
43	0x3ee62f3b	0.4495791
44	0x3b4c48b8	0.0031171273
45	0xbdc66d17	-0.09688776
46	0xbc3add26	-0.011405265
47	0x3cce7f1a	0.025207091
48	0x3dc16722	0.09443499
49	0xbd2a0910	-0.04151255
50	0x3e5967d0	0.21231008
51	0xbdb769fe	-0.08955763
52	0xbd501fb8	-0.0508115
53	0xbec9195f	-0.3927717
54	0xbf86e484	-1.0538487
55	0xbf1f8c50	-0.62323475
56	0xbf1bde3a	-0.60885966
57	0xbe451716	-0.19247088
58	0x3e980ec3	0.29698762
59	0x3aafc4c5	0.0013410082
60	0xbe7b7ecb	-0.24560086
61	0xbc895818	-0.01676564
62	0xbca49ab7	-0.020093305
63	0x3d1f3771	0.038871232
64	0xbd253f39	-0.040343497
65	0xbdc0ec5c	-0.09420082
66	0xbe977af6	-0.29586
67	0x3f2551e7	0.645781
68	0x3c06bd50	0.008223847
69	0xbc374a35	-0.011187126
70	0xbd79d499	-0.060993765
71	0xbe65809b	-0.2241234
72	0xbd66ff6e	-0.05639594
73	0xbd79c93d	-0.06098293
74	0xbc1a9045	-0.009433811
75	0x3e5808b6	0.21097073
76	0xbcdd2a9d	-0.026997859
77	0x3e6d41c4	0.23169619
78	0x3bf3378a	0.0074223923
79	0xbd47878f	-0.048713263
80	0xbecfaf29	-0.40563324
81	0xbd68521b	-0.056718927
82	0xbd6ff47c	-0.058582768
83	0xbc76b0ba	-0.015056783
84	0xbd898911	-0.067155965
85	0xbde02c7e	-0.10945986
86	0xbd2938d3	-0.041313957
87	0xbeab6e98	-0.33482814
88	0xbcb691b1	-0.022286268
89	0xbed2df6b	-0.4118608
90	0xbc7bc83e	-0.015367566
91	0x3bd3f943	0.0064689233
92	0xbdcc69d7	-0.09981125
93	0xbe0f5533	-0.13997345
94	0x3a787f17	0.0009479387
95	0x3c708484	0.014680032
96	0xbe88ba1a	-0.26704484
97	0xbbe62e1d	-0.00702454
98	0x3d255c4f	0.040371235
99	0x3f0aa9e4	0.5416548
100	0x3c2fee3b	0.010737951
101	0x3f16e6cb	0.5894591
102	0x3eae32e6	0.34023207
103	0xbe90ad26	-0.28257102
104	0xbf0c1402	-0.5471803
105	0xbd3362ad	-0.043795276
106	0x3c253e1e	0.010085611
107	0xbeb432c0	-0.3519497
108	0x3c4916d1	0.012273506
109	0xbce0a5de	-0.027422842
110	0xbccb4185	-0.024811516
111	0xbca18bae	-0.019719925
112	0xbeb3b16e	-0.35096306
113	0xbc29680b	-0.010339747
114	0xbd6a2cc0	-0.057171583
115	0x3c689afc	0.014197107
116	0xbdcfb634	-0.10142174
117	0xbd346d3b	-0.044049483
118	0x3e19fc2b	0.150376
119	0xbec4ead0	-0.38460398
120	0xbcccba13	-0.02499107
121	0x3bbed3f0	0.0058236048
122	0xbdbeb3f8	-0.0931167
123	0x3d5d6367	0.054049876
124	0xbd4732b1	-0.048632327
125	0x3f16d378	0.58916426
126	0xbcbbf100	-0.022942066
127	0x3ecb4832	0.39703518
128	0xbcc36cbf	-0.023855565
129	0xbbae92ce	-0.005327559
130	0xbeb6f3cd	-0.3573288
131	0x3ce9e346	0.028550755
132	0xbb9a0d8e	-0.004701323
133	0xbd97119f	-0.07376408
134	0x3fd43c76	1.6580951
135	0xbce39515	-0.027781049
136	0xbbaf9b72	-0.0053591067
137	0xbf027a5a	-0.50967944
138	0xbe0be307	-0.13660823
139	0x3c67c25f	0.014145463
140	0xbe138c5c	-0.14409012
141	0xbbea333a	-0.00714722
142	0xbd4c9602	-0.049947746
143	0xbd6441d2	-0.055726834
144	0xbee47960	-0.44623852
145	0x3c678560	0.01413092
146	0x3f1bdb02	0.60881054
147	0xbd3639e1	-0.04448879
148	0xbd903d4e	-0.07042943
149	0xbf20c66c	-0.6280277
150	0xbc315b44	-0.010824982
151	0x3f1fe022	0.62451375
152	0xbddd8701	-0.108167656
153	0xbda7e10d	-0.08197222
154	0xbdaaa624	-0.0833247
155	0xbe9e76e0	-0.3095007
156	0xbcc8a921	-0.02449471
157	0xbdd4a0ed	-0.10382257
158	0xbe356c59	-0.17717113
159	0xbf324a8c	-0.69645
160	0xbdef36f3	-0.116804026
161	0xbd7ba0fb	-0.06143282
162	0x3c430f6f	0.011905535
163	0x3c805621	0.01566607
164	0x3d0415fa	0.03224752
165	0xbbe63195	-0.0070249536
166	0x3ce19aac	0.027539574
167	0x3cce9e50	0.025221974
168	0x3cb80190	0.022461683
169	0xbd9c809f	-0.0764172
170	0xbd8d2c45	-0.06893209
171	0xbe7ebc78	-0.24876583
172	0xbcca369d	-0.024684245
173	0x3b962073	0.004581505
174	0xbd9aaee1	-0.07552887
175	0xbd97026c	-0.07373509
176	0xbd8f0020	-0.06982446
177	0xbe7800ca	-0.24219051
178	0x3e0d36ab	0.13790385
179	0xbcd9fe37	-0.026610477
180	0x3eb52346	0.35378474
181	0x3cb1c532	0.021700475
182	0xbd6122dc	-0.054964885
183	0xbdd4bdee	-0.10387789
184	0x3ccc2358	0.024919197
185	0xbd357d0d	-0.04430871
186	0xbe16f19f	-0.14740609
187	0xbccca849	-0.024982588
188	0xbe6f24d2	-0.2335389
189	0xbd9e9902	-0.07744028
190	0xbec5ab4c	-0.38607252
191	0x3c9be12a	0.019028265
192	0xbd8eae4b	-0.069668375
193	0xbc8abbd7	-0.016935272
194	0xbbc54cee	-0.0060211336
195	0xbd9a7eba	-0.075437024
196	0xbec9b72c	-0.39397562
197	0xbcc255c6	-0.02372254
198	0xbd9c4ee3	-0.07632234
199	0xbd5a1d5d	-0.05325066
200	0xbd99a3a7	-0.07501917
201	0xbcc95101	-0.024574758
202	0xbcd80f33	-0.026374435
203	0xbeb93f69	-0.3618119
204	0xbec4aded	-0.38413945
205	0xbda627a3	-0.08113029
206	0xbceb206f	-0.028701989
207	0x3e30377c	0.17208666
208	0xbf424c2e	-0.7589749
209	0x3f5f82c8	0.8730893
210	0xbd02ab86	-0.03190186
211	0x3bdd533c	0.006754307
212	0x3c4d7e52	0.012542324
213	0xbdd2351b	-0.10264035
214	0x3be22595	0.006901453
215	0xbd4f1090	-0.050552905
216	0xbdc8edd4	-0.09810987
217	0xbf1e5961	-0.6185513
218	0x3f125876	0.5716623
219	0xbece2225	-0.40260425
220	0xbdb354c1	-0.087564
221	0xbd8dd0f3	-0.069246195
222	0x3ea5f7f6	0.32415742
223	0xbf3282da	-0.69730914
224	0xbd12c212	-0.03582961
225	0xbe4015c2	-0.187583
226	0x3c1f78d4	0.0097333975
227	0xbbbc1720	-0.0057400614
228	0xbc5f0438	-0.013611846
229	0xbee4d25e	-0.44691747
230	0xbf381755	-0.719106
231	0xbc36661e	-0.011132745
232	0x3cbb9c11	0.022901567
233	0xbe488634	-0.19582444
234	0x3e69fc56	0.22850165
235	0xbeb0f53b	-0.34562096
236	0xbda45bd0	-0.08025324
237	0x3cab6ffd	0.020927424
238	0x3c80e214	0.015732802
239	0xbf11ef96	-0.57006204
240	0xbe086a60	-0.13321829
241	0xbdd846b8	-0.105603635
242	0x3c4d8a9c	0.012545254
243	0xbc81ef84	-0.01586128
244	0x3dbc048c	0.09180555
245	0xbda027ac	-0.07820067
246	0xbd42a18e	-0.04751735
247	0xbeecee2f	-0.4627547
248	0xbae0b539	-0.0017143852
249	0x3c19aedb	0.009380068
250	0x3e7e587b	0.2483844
251	0x3ebfc582	0.37455374
252	0xbf1542b5	-0.5830491
253	0xbe84ef8c	-0.2596401
254	0xbebb5fbe	-0.36596483
255	0xbdb8d61a	-0.09025212

fc3.weight f4 [5, 256]
0	0x401e175a	2.4701753
1	0x3d20e632	0.03928203
2	0xbd0a25cf	-0.033727463
3	0x3d1811ce	0.037126355
4	0x406417f1	3.5639613
5	0x3f7831b6	0.9695085
6	0xbd685744	-0.056723848
7	0x40270ecd	2.6102784
8	0x3bcf0200	0.006317377
9	0xbcd40086	-0.025879156
10	0xbd38358c	-0.04497294
11	0xbcd0c92c	-0.025486551
12	0xbd9b1ac4	-0.075734645
13	0x3c2a97b4	0.010412145
14	0x3bdcb8a9	0.0067358804
15	0x3cfbcd9c	0.03073769
16	0xbd681744	-0.056662813
17	0x3d06f3c2	0.03294731
18	0xbd320214	-0.043459013
19	0xbcfdb800	-0.030971527
20	0x4079c920	3.9029007
21	0xbd37146c	-0.04469721
22	0x3c1cd680	0.009572625
23	0x409273e5	4.5766473
24	0xbfcf16ba	-1.6178811
25	0x40fc6f05	7.888552
26	0x40ed4ee2	7.4158792
27	0xbfc2beb7	-1.5214452
28	0xbb6b73ad	-0.0035927102
29	0xbc34b207	-0.011028773
30	0x3f73db79	0.95256764
31	0x3d635fda	0.055511333
32	0xbcc6def8	-0.024276242
33	0x4044613a	3.0684342
34	0x3ef6871b	0.48149952
35	0xbcc62756	-0.024188679
36	0x401d3a7c	2.4566946
37	0x407f9f70	3.9941063
38	0x3d0bb489	0.03410772
39	0x40da0931	6.813622
40	0xc03f19bb	-2.9859455
41	0x3f314768	0.6924958
42	0xbfea0215	-1.8281885
43	0x4074da18	3.8258114
44	0x3d98eee8	0.07467443
45	0x409f5817	4.979503
46	0x3d309ca4	0.043118134
47	0x3d2c3630	0.042043865
48	0x40827644	4.0769367
49	0xbcbf0734	-0.023318864
50	0x40a3b53f	5.115875
51	0xbb94df12	-0.0045431936
52	0x40523010	3.2841835
53	0x4039af7a	2.9013352
54	0xc01e12fb	-2.4699085
55	0x4095993c	4.6749554
56	0x3f045100	0.51686096
57	0xbf8b93f8	-1.0904531
58	0x3fdbe997	1.7180661
59	0x3cd3413c	0.025787942
60	0x40494b36	3.1452155
61	0xbd538313	-0.051638674
62	0xbcf74f1f	-0.030189095
63	0xbd157057	-0.03648409
64	0xbc4ad4b4	-0.012379814
65	0x3c5100cf	0.01275654
66	0x3e81bad1	0.25337842
67	0xbfac5656	-1.3463848
68	0x3d07167a	0.03298042
69	0xbca3cf4d	-0.01999631
70	0x3bd6f014	0.0065593813
71	0x40cc1dbb	6.378629
72	0x3d22a182	0.039704807
73	0xbcffa30f	-0.031205682
74	0xbc4c5182	-0.012470605
75	0x403b7175	2.9287999
76	0xbd710797	-0.05884513
77	0x3ff5345e	1.9156606
78	0x3cec6280	0.028855562
79	0xbcbd7836	-0.02312861
80	0x407faf2d	3.995067
81	0xbcbfd285	-0.023415813
82	0xbfa33c18	-1.2752714
83	0xbd250484	-0.04028751
84	0x3c9d7740	0.019221902
85	0x4057b813	3.37061
86	0xbc648bae	-0.013949318
87	0xbf02d404	-0.5110476
88	0xbec5134c	-0.38491285
89	0x3f9f82c9	1.2461787
90	0xbc84d4e8	-0.016214803
91	0x3ca35a22	0.01994044
92	0xbd565ce4	-0.05233468
93	0x405eaef0	3.4794273
94	0xbc9aca2e	-0.018895235
95	0xbd122f8c	-0.035689875
96	0xbfc71231	-1.5552427
97	0xbc094cbe	-0.008380113
98	0x3b1b54c2	0.0023701643
99	0x406b5c17	3.6774957
100	0x3ca181b5	0.01971517
101	0xbfee5c65	-1.8621947
102	0xbf11a81d	-0.56897146
103	0x40038f66	2.0556273
104	0x40697681	3.647858
105	0x3da33ddb	0.07970782
106	0x3cc5c171	0.024140092
107	0x40ad8b11	5.423226
108	0xbbd686c0	-0.006546825
109	0x3b3a57c5	0.0028433662
110	0x3d6e18f2	0.05812926
111	0xbd0c64b5	-0.03427573
112	0x40bfccd7	5.993755
113	0x3cf1f5ed	0.029536212
114	0xbd57ee96	-0.052717768
115	0x3c5e8079	0.013580435
116	0x4085e72b	4.1844687
117	0x3d0715f6	0.032979928
118	0xbf7aea23	-0.98013514
119	0x405ca518	3.4475765
120	0xbd5a5039	-0.053299163
121	0xbc3a94db	-0.011388029
122	0xbdb5d5ce	-0.08878671
123	0x408080ea	4.0157366
124	0xbbd3650e	-0.0064512556
125	0x402564ff	2.5842893
126	0xbba5afca	-0.005056356
127	0x401eda71	2.4820826
128	0x3d539ffb	0.05166624
129	0xbc93fae2	-0.018063966
130	0x40f4a8ef	7.645622
131	0xbd397e8c	-0.0452867
132	0x3c9a0534	0.01880131
133	0x3d038a60	0.032114387
134	0x3f034db7	0.5129046
135	0x3d1b1693	0.037863325
136	0x3d0c2156	0.03421148
137	0x400ecdc6	2.2313094
138	0x405c7668	3.444727
139	0xbd311504	-0.043232933
140	0x3fe34008	1.7753916
141	0x3d141034	0.036148265
142	0x3da32445	0.07965902
143	0xbd02efd9	-0.031967018
144	0xbfea3fb1	-1.8300687
145	0x3c5ae340	0.013359845
146	0xc0083168	-2.1280155
147	0xbd247452	-0.040149994
148	0x3d398014	0.04528816
149	0x402ea909	2.729067
150	0xbbad31c9	-0.005285476
151	0xc0053504	-2.0813608
152	0x3d50b206	0.050951026
153	0xbc1d8c2b	-0.009615938
154	0x3cb5aa6f	0.022175996
155	0x3ff3f772	1.9059889
156	0x3b6c83d9	0.003608933
157	0x40a4eb6c	5.153738
158	0x4029005d	2.6406472
159	0xbe32ab37	-0.17448126
160	0xbc7a54ea	-0.015279034
161	0x406f1654	3.7357378
162	0xbd39f0bf	-0.04539561
163	0xba95d48e	-0.0011431144
164	0xbcadd00d	-0.02121737
165	0xbcb1283f	-0.021625636
166	0xbd17b852	-0.037041016
167	0x3c2368b2	0.009973692
168	0xbcbf6ec4	-0.023368247
169	0x3b95cf3f	0.004571825
170	0x3b375ca3	0.00279788
171	0x3fd82d53	1.6888832
172	0xbcf87627	-0.030329777
173	0xbc5fd383	-0.013661268
174	0x3ca4ad4f	0.020102171
175	0x3d0c3c71	0.03423733
176	0x3cb5ab4e	0.022176411
177	0x4022eb5e	2.5456157
178	0x40613ae8	3.5192204
179	0xbba1bddb	-0.0049359626
180	0xbf65ff92	-0.89843094
181	0xbd6ba316	-0.057528578
182	0x3ca7a779	0.0204656
183	0x4076cb8d	3.8561738
184	0x3d27fdd4	0.041013554
185	0xc04b941d	-3.180915
186	0xbfb1bef7	-1.3886403
187	0xbd286c6d	-0.041119028
188	0x408ffcf7	4.4996295
189	0xbcf7de93	-0.030257499
190	0x409c430a	4.8831835
191	0xbd2c0771	-0.041999284
192	0xbba787f0	-0.0051126406
193	0x3c549928	0.012975968
194	0xbccdf6d4	-0.02514211
195	0x3cb81261	0.022469701
196	0x408903af	4.2816997
197	0x40a4d373	5.1508117
198	0xbc5a0435	-0.013306667
199	0x3bfa43cb	0.007637476
200	0x3bd11f00	0.0063818693
201	0xbb1fc0f5	-0.0024376486
202	0x3d1c61fc	0.038179383
203	0x404bf99f	3.1871107
204	0xbf76851a	-0.96296847
205	0xbcfc097b	-0.03076624
206	0x3ec3bcd7	0.3823001
207	0xc0031126	-2.0479217
208	0xbf9744a2	-1.181782
209	0x3fb45bd5	1.4090525
210	0x3b977791	0.0046224077
211	0xbc075d97	-0.00826206
212	0x3d4b9aca	0.049708165
213	0x4031acd1	2.7761729
214	0xbc9c0c3e	-0.019048806
215	0xbbb96625	-0.0056579285
216	0x405d7000	3.459961
217	0x40bd5219	5.9162717
218	0xc0117dd4	-2.273305
219	0x4076d760	3.8568954
220	0xbc04ea72	-0.008112537
221	0x40985e16	4.761485
222	0xc0104c4e	-2.2546573
223	0xbfca220b	-1.5791639
224	0xbd33693c	-0.04380153
225	0x405f9a25	3.4937832
226	0x40921f58	4.566326
227	0x3c889fd0	0.016677767
228	0xbe86cebc	-0.263296
229	0x40853d06	4.163699
230	0x40ae3584	5.4440327
231	0xbd4b639f	-0.049655553
232	0x3c3c42e2	0.0114905555
233	0x40cd0ac5	6.4075646
234	0x406bef16	3.6864676
235	0x40853751	4.1630025
236	0xbabe0e85	-0.0014500177
237	0x3d8eb332	0.069677725
238	0xbd360927	-0.044442322
239	0x40c87621	6.26442
240	0x4096ca1d	4.712172
241	0x40a30517	5.0943713
242	0xbb84a857	-0.004048388
243	0xbb9638f9	-0.0045844284
244	0x40a149e3	5.0402694
245	0xbb92b027	-0.0044765654
246	0x401d7512	2.4602704
247	0x40c8ce6f	6.2751994
248	0x3a2894b5	0.00064308505
249	0xbf37054e	-0.7149247
250	0xbf845b2e	-1.0340326
251	0xbfa8536b	-1.3150457
252	0x40661abc	3.5953817
253	0x406e36c5	3.7220929
254	0xc02754c2	-2.6145482
255	0x3cb5f6f4	0.022212483

fc3.bias f4 [5]
0	0xbe484609	-0.19557966
1	0xbf8eca91	-1.1155568
2	0xbf8b6b05	-1.0892035
3	0xbf51f126	-0.8200859
4	0xbe6d26d7	-0.23159347
