other_model/dqn_team_a_ep160.pth (torch, 286849 bytes, 6 tensors)

fc1.weight f4 [256, 14]
-0.029924577 -1.3144374 -0.16190466 -0.56160045 0.062064636 -0.31908017 0.39308888 -0.01690285
-1.8222381 0.79477197 -7.0954213 0.59441966 0.21270192 0.45799682 -0.012381856 0.20510842
0.02348638 0.17080514 -0.2644489 0.16654658 -0.14679253 -0.19024877 -0.14159754 0.06245979
0.19472957 -0.16874518 -0.0870259 -0.089731045 -0.12494115 -0.24629706 0.19912492 -0.033888485
-0.20049328 0.18755017 -0.14023122 -0.17293377 0.10424695 -0.14650229 -0.22387983 -0.05020805
-0.0045527653 0.042311035 -0.04343773 -0.18330058 -0.18455137 0.07982564 -0.11700271 0.013190813
-0.24795254 0.1633909 -0.1988124 0.010831356 -0.17462054 0.18597189 0.02591424 -0.035558555
-1.0026966 -1.0676773 -0.87942827 -1.5661311 0.38311568 0.9186591 0.397361 -0.048401985
-0.7553486 0.52348834 -4.420596 -2.7288785 0.049114678 0.010655129 -0.28075862 -0.44689497
0.21943736 -0.23094563 0.18324427 -0.035188366 0.051532507 -0.1402539 -0.25307325 -0.21340254
0.27371675 -0.031074315 -0.0021846471 -0.027253829 -0.1616783 -0.095357426 0.21864702 -0.25935337
-0.19046158 0.23884045 0.102639996 -0.21564864 -0.17198505 -0.0632014 -0.23732948 -0.017190106
0.057938214 -0.100603215 0.5718086 -0.45253065 0.2759013 -0.27430272 0.17708522 0.44987923
0.14287278 0.36586004 -0.16730225 -0.31315994 1.8277066 1.7506373 -0.15992466 0.02280214
-0.20700607 -0.26624444 0.14266808 0.21083568 0.14057392 0.03697249 0.20216833 -0.21798179
-0.23027223 -0.08262379 -0.018766388 0.017331498 -0.18151158 -0.26302794 0.24345665 0.14123754
0.25633344 0.12159307 -0.12845936 -0.3775646 -0.23470934 -0.18971616 -0.014484769 -0.36236945
0.2435193 1.0581346 -0.024187924 -0.037661072 0.05189159 -1.0014898 -0.033577595 0.05314623
0.018156879 -0.0035922737 -0.087234266 0.097484544 0.15910965 0.018400554 2.7922196 2.2793326
0.1831885 0.13726395 -0.11445468 0.2078579 0.0011921064 -0.22869392 -0.15390344 -0.11379129
-0.031787157 -0.10012859 0.073583044 0.13042168 -0.20081222 0.07641585 -0.1668669 0.16161525
0.26673993 -0.11658451 0.3922708 0.5042833 0.033691358 -0.118684985 0.3831828 0.3254346
-2.5618489 0.61476594 -1.3347806 -0.17269595 0.033117823 -0.109029114 0.011494119 0.080359064
-0.026956826 0.06757696 0.010438368 0.037626896 -0.28247797 -0.23320656 -0.0023841343 0.0130357975
0.15213795 -0.043639127 0.0119814025 0.016243504 -0.21145366 -1.3511107 -0.29327053 -0.29777837
0.15714565 -0.5999752 -0.19141418 -0.15491602 0.3594356 0.44166335 2.0336342 3.5411515
0.14117827 0.22783636 0.13574217 0.4747033 0.47002763 0.08955316 -0.011447469 0.29518944
0.16735728 -0.006732164 0.14134541 -1.9359697 -0.2727546 -4.4939218 -0.022562603 0.16392769
0.01895484 0.24776553 0.44814265 0.13644359 -0.51123846 0.33212012 -1.4666094 0.09622271
0.060423445 -0.05176026 -0.27540922 0.17327587 0.097070165 -0.2228934 -0.14928256 -0.18162535
0.14264834 -0.24854895 -0.114355594 -0.002412218 0.12450014 -0.21113439 0.009708099 -0.23615327
-0.09614654 0.0044282884 -0.17020315 -0.1782748 -0.16660628 -0.26342142 -0.050516296 0.12715866
00000000: 6324 f5bc 7c3f a8bf 56ca 25be 0cc5 0fbf
00000010: 7d37 7e3d 7a5e a3be f242 c93e d877 8abc
00000020: 193f e9bf 2d76 4b3f b10d e3c0 e32b 183f
00000030: 88ce 593e 8f7e ea3e 45dd 4abc f107 523e
00000040: 8266 c03c 8be7 2e3e d965 87be 308b 2a3e
00000050: c850 16be 93d0 42be f2fe 10be d6d5 7f3d
00000060: 3067 473e 89cb 2cbe a33a b2bd e9c4 b7bd
00000070: 25e1 ffbd 4c35 7cbe 67e7 4b3e a7ce 0abd
00000080: 1c4e 4dbe 270d 403e c698 0fbe 8d15 31be
00000090: 6d7f d53d b204 16be c140 65be f5a6 4dbd
000000a0: 5d2f 95bb 564e 2d3d c3eb 31bd 26b3 3bbe
000000b0: 09fb 3cbe a07b a33d 1e9f efbd 481e 583c
000000c0: 45e7 7dbe f24f 273e 7a95 4bbe 0076 313c
000000d0: bacf 32be 6a6f 3e3e 1a4a d43c d9a5 11bd
000000e0: 5d58 80bf a6a9 88bf 3622 61bf fc76 c8bf
000000f0: bd27 c43e 3e2d 6b3f e772 cb3e 2941 46bd
00000100: 875e 41bf 5503 063f 8675 8dc0 f2a5 2ec0
00000110: 792c 493d da92 2e3c 98bf 8fbe 6bcf e4be
00000120: 30b4 603e 037d 6cbe 63a4 3b3e ad21 10bd
00000130: c013 533d b89e 0fbe d192 81be 3286 5abe
00000140: 9a24 8c3e 908f febc 4c2c 0fbb 6c43 dfbc
00000150: ff8e 25be c14a c3bd 01e5 5f3e f7c9 84be
00000160: 5c08 43be 9792 743e eb34 d23d ffd2 5cbe
00000170: d91c 30be bc6f 81bd 8006 73be 44d2 8cbc
00000180: 9f50 6d3d 0f09 cebd 0c62 123f 19b2 e7be
00000190: ef42 8d3e 6871 8cbe d455 353e 9256 e63e
000001a0: 3e4d 123e 0252 bb3e 4851 2bbe 8056 a0be
000001b0: 4af2 e93f e214 e03f 4ac3 23be 8ecb ba3c
000001c0: 66f9 53be 3151 88be 9517 123e 4fe5 573e
000001d0: 9cf2 0f3e 7770 173d 3705 4f3e 9e36 5fbe
000001e0: 7ccc 6bbe a936 a9bd f8bb 99bc c9fa 8d3c
000001f0: 2cde 39be 99ab 86be b34c 793e 93a0 103e
00000200: 233e 833e ca05 f93d da8a 03be 2650 c1be
00000210: a557 70be f444 42be 8651 6dbc 7d88 b9be
00000220: 205d 793e f470 873f c125 c6bc 7f42 1abd
00000230: 478c 543d d130 80bf a988 09bd dcaf 593d
00000240: bcbd 943c 5a6c 6bbb e1a7 b2bd faa5 c73d
00000250: a4ed 223e c2bc 963c bab3 3240 96e0 1140
00000260: c495 3b3e ec8e 0c3e 3767 eabd b4d8 543e
00000270: 7440 9c3a bd2e 6abe dd98 1dbe 680b e9bd
00000280: 4033 02bd 3810 cdbd b5b2 963d 438d 053e
00000290: b8a1 4dbe ea7f 9c3d 28df 2abe 787e 253e
000002a0: 2392 883e dcc3 eebd b8d7 c83e b618 013f
000002b0: f3ff 093d 1d11 f3bd 8930 c43e 5d9f a63e
000002c0: 55f5 23c0 4d61 1d3f 17da aabf 35d7 30be
000002d0: 8ea6 073d a84a dfbd d451 3c3c 4b93 a43d
000002e0: 90d4 dcbc ca65 8a3d b005 2b3c a91e 1a3d
000002f0: f4a0 90be b3cd 6ebe 233f 1cbb 1994 553c
00000300: 0dca 1b3e f1be 32bd a54d 443c 1911 853c
00000310: 4f87 58be 32f1 acbf 8e27 96be 6876 98be
00000320: caea 203e fa97 19bf 1402 44be 4ea2 1ebe
00000330: f107 b83e b321 e23e 1027 0240 3aa2 6240
00000340: 0991 103e ef4d 693e ffff 0a3e 500c f33e
00000350: 76a7 f03e a667 b73d 2a8e 3bbc 1223 973e
00000360: b55f 2b3e 7c99 dcbb dabc 103e dbcd f7bf
00000370: 7ea6 8bbe 35ce 8fc0 35d5 b8bc a9dc 273e
00000380: 2e47 9b3c 3fb6 7d3e f472 e53e deb7 0b3e
00000390: 86e0 02bf a60b aa3e dbb9 bbbf 6a10 c53d
000003a0: 937e 773d 9102 54bd 7002 8dbe 3b6f 313e
000003b0: b9cc c63d 2b3e 64be 87dd 18be fffb 39be
000003c0: 6812 123e 9e83 7ebe 4433 eabd 4d16 1ebb
000003d0: eef9 fe3d 9d33 58be b80e 1f3c 2ad2 71be
000003e0: 7ae8 c4bd 2d1b 913b bc49 2ebe ab8d 36be
000003f0: d69a 2abe 2cdf 86be 2dea 4ebd e135 023e

fc1.bias f4 [256]
0.30455542 0.11003882 -0.2645276 -0.035628583 0.0022342962 -0.3487655 -0.13087648 -0.07302404
0.15532176 0.102042355 0.124374576 0.05768474 0.03287656 -0.3495085 0.23291366 0.18801638
-0.056647856 -0.041685496 -0.21466836 -0.16136123 -0.14142601 0.15442175 -0.110358864 -0.00033753112
-0.23269327 0.006340396 -0.05355705 -0.22183688 0.17105839 0.23164171 -0.16570048 -0.23090826
-0.008363734 -0.06265036 -0.32119063 0.074314386 0.13467653 -0.046487063 -0.21082029 0.036240768
-0.2202332 0.18319434 -0.19659683 -0.117335096 -0.22531612 -0.25124487 -0.2975409 0.16643432
0.051880952 0.1025681 -0.23246433 -0.20041488 0.0066009336 0.012646167 -0.2686906 -0.025927432
-0.34972733 0.2093027 0.008772752 0.10284645 0.20414035 0.12001575 -0.055623684 -0.11744538
0.20150769 0.14490917 0.0096947 -0.17212613 0.11714682 0.062027194 0.023192292 -0.16466483
0.35562116 -0.10597837 -0.12682484 0.065447874 -0.022211827 0.022240374 0.10725325 0.050222225
-0.18914904 -0.07079035 0.049488496 0.11867399 -0.1624014 0.08364166 -0.014855114 0.17978248
0.22855453 -0.076469384 -0.22909336 0.047352117 -0.1937169 0.023277696 0.07659191 -0.08930102
-0.0039854143 0.118236475 -0.31554186 0.14798148 -0.034955654 0.21205279 -0.05092617 0.040250678
0.051293615 0.019701058 0.09677746 0.22853912 -0.07921928 -0.018816467 0.18043713 -0.25143668
0.030541372 -0.30806303 -0.13700609 0.04139748 -0.07581525 0.056971762 -0.29199955 -0.22142519
0.18706366 0.042446446 -0.07850217 0.14588252 0.2142613 -0.18934764 0.032835543 -0.25811175
0.0869544 -0.2994683 0.08526544 -0.033896416 0.12988216 0.1198841 0.019947978 -0.015899807
0.09077388 0.1636942 -0.0020983345 0.029920548 0.061341215 0.022531249 -0.1756398 0.15991452
0.049006674 0.2844837 -0.039943706 -0.011312335 -0.10861914 -0.1987761 -0.04166146 -0.09728823
0.05082018 0.06021984 -0.061477568 -0.23875849 -0.039711203 0.26401815 -0.043763913 0.21638903
-0.22042458 0.17478654 0.04292619 -0.23629019 -0.40435424 -0.26663175 0.27550876 0.102475055
0.26250222 -0.21733753 -0.17722963 -0.08781318 0.095453605 -0.20868194 -0.16924635 0.030744635
0.04529417 0.2504543 0.16917785 0.22615549 -0.1365818 -0.14579259 -0.20873338 0.20621862
-0.15029947 0.17182939 -0.050823763 0.23022076 -0.45180684 -0.18180913 0.03797359 -0.21319824
0.024401383 0.3176424 -0.32063875 -0.20056461 -0.22489849 0.0053293384 0.1264875 0.19238052
0.023434544 -0.35010788 0.19058016 -0.081026316 -0.11125649 -0.076175995 -0.12070383 -0.04823537
-0.13805296 -0.32573634 -0.06852233 -0.18348075 -0.024107594 0.10933987 -0.28401572 -0.23309146
0.15452856 0.19903293 -0.09616856 0.09317521 0.0036736554 -0.14847225 -0.14841114 -0.031848416
-0.041208994 -0.10984026 0.15429394 -0.06888344 0.042749483 -0.09035974 -0.13514042 0.05697273
0.10236245 0.15812393 -0.13045594 -0.23594032 -0.23454489 -0.26258153 0.1945184 0.2874777
-0.22176276 -0.32807067 0.1217525 0.077962734 -0.2102361 0.20205165 -0.22167099 -0.016848855
-0.39749026 -0.20965275 -0.18240513 -0.16743168 -0.3828679 -0.23465472 -0.33055705 -0.31738687
00000000: b0ee 9b3e 085c e13d 2970 87be 47ef 11bd
00000010: 456d 123b 6491 b2be 7c04 06be a18d 95bd
00000020: ab0c 1f3e 95fb d03d 19b8 fe3d d546 6c3d
00000030: 92a9 063d c7f2 b2be eb80 6e3e 5e87 403e
00000040: 9507 68bd 69be 2abd 06d2 5bbe e13b 25be
00000050: fbd1 10be bc20 1e3e d403 e2bd a9f6 b0b9
00000060: 2547 6ebe 19c3 cf3b a35e 5bbd 3529 63be
00000070: ee29 2f3e 7c33 6d3e 63ad 29be 3773 6cbe
00000080: 0b08 09bc d54e 80bd 1973 a4be 2432 983d
00000090: a5e8 093e 3869 3ebd 46e1 57be 3371 143d
000000a0: d084 61be 4c97 3b3e ae50 49be 624d f0bd
000000b0: 45b9 66be 2ba3 80be 4857 98be c26d 2a3e
000000c0: 1f81 543d 390f d23d 210b 6ebe 8f39 4dbe
000000d0: a54c d83b de31 4f3c d091 89be c465 d4bc
000000e0: 760f b3be 7253 563e 97bb 0f3c 29a1 d23d
000000f0: 2b0a 513e d1ca f53d a9d5 63bd 3487 f0bd
00000100: 0858 4e3e 1263 143e 85d6 1e3c d541 30be
00000110: acea ef3d 3a10 7e3d c3fd bd3c e69d 28be
00000120: fa13 b63e 300b d9bd 5fde 01be 8909 863d
00000130: 94f5 b5bc 7231 b63c 98a7 db3d d2b5 4d3d
00000140: 49b0 41be 88fa 90bd 73b4 4a3d 590b f33d
00000150: 8d4c 26be 524c ab3d dd62 73bc e618 383e
00000160: 330a 6a3e fb9b 9cbd 7397 6abe 4bf4 413d
00000170: b95d 46be deb0 be3c 38dc 9c3d 74e3 b6bd
00000180: 1498 82bb f725 f23d b48e a1be 7588 173e
00000190: a92d 0fbd 5e24 593e f697 50bd e5dd 243d
000001a0: 4119 523d 1d64 a13c 4333 c63d 2906 6a3e
000001b0: b83d a2bd fe24 9abc 83c4 383e 4fbc 80be
000001c0: e631 fa3c 70ba 9dbe 534b 0cbe 6790 293d
000001d0: 0745 9bbd 395b 693d f780 95be 49bd 62be
000001e0: 9e8d 3f3e 53dc 2d3d bfc5 a0bd 3a62 153e
000001f0: 5067 5b3e 59e4 41be 907e 063d 3927 84be
00000200: 2615 b23d e953 99be a69f ae3d f8d6 0abd
00000210: d4ff 043e cc85 f53d f169 a33c 5040 82bc
00000220: a8e7 b93d 749f 273e 3684 09bb f01b f53c
00000230: ed40 7b3d 7493 b83c ebda 33be a2c0 233e
00000240: 39bb 483d d9a7 913e 039c 23bd 5f57 39bc
00000250: b673 debd f68b 4bbe 35a5 2abd 0d3f c7bd
00000260: d228 503d 14a9 763d e7cf 7bbd 1b7d 74be
00000270: 37a8 22bd 632d 873e ca41 33bd 1695 5d3e
00000280: fbb6 61be 3efb 323e 5fd3 2f3d 0ef6 71be
00000290: 8507 cfbe f583 88be 7c0f 8d3e 71de d13d
000002a0: b166 863e bb8d 5ebe af7b 35be 66d7 b3bd
000002b0: 2e7d c33d b8b0 55be ea4e 2dbe 2cdc fb3c
000002c0: 6186 393d 8c3b 803e f53c 2d3e 4e95 673e
000002d0: 19dc 0bbe a74a 15be 34be 55be f92a 533e
000002e0: 1be8 19be 0bf4 2f3e 942c 50bd febe 6b3e
000002f0: 3a53 e7be 2c2c 3abe 328a 1b3d a450 5abe
00000300: 69e5 c73c 06a2 a23e c32a a4be cf60 4dbe
00000310: ca4b 66be bba1 ae3b f085 013e 66ff 443e
00000320: cdf9 bf3c 5741 b3be 7227 433e 20f1 a5bd
00000330: 71da e3bd 2902 9cbd 9233 f7bd 7492 45bd
00000340: c15d 0dbe eac6 a6be 6f55 8cbd 61e2 3bbe
00000350: 4a7d c5bc 95ed df3d 826a 91be 87af 6ebe
00000360: bc3c 1e3e 4acf 4b3e 06f4 c4bd a5d2 be3d
00000370: b6c1 703b 1c09 18be 17f9 17be 7c73 02bd
00000380: c3ca 28bd eef3 e0bd 3bff 1d3e c312 8dbd
00000390: 151a 2f3d 870e b9bd 4062 0abe 3d5c 693d
000003a0: 67a3 d13d 3deb 213e 3e96 05be 579a 71be
000003b0: 892c 70be 1671 86be d52f 473e 4730 933e
000003c0: c715 63be e1f8 a7be 6059 f93d edaa 9f3d
000003d0: 2248 57be a1e6 4e3e b8fd 62be 9c06 8abc
000003e0: d883 cbbe 36af 56be 69c8 3abe 3673 2bbe
000003f0: 4307 c4be 5449 70be c63e a9be 8880 a2be

fc2.weight f4 [256, 256]
-0.5753811 -0.01927936 0.019177683 0.055812255 -2.8848608 0.117387995 -0.044557206 0.569274
0.01748497 0.26839808 0.9367052 0.028935045 -0.42163977 0.013789688 2.5201874 -2.293173
-0.43007532 -0.031524755 0.03102006 -0.035099287 -0.14713882 0.9402833 -0.018849868 -0.1196833
0.5570608 1.4186264 -0.014366269 -0.026743867 0.36016962 -1.6280494 0.064206764 -0.5021517
-0.03733463 -0.004715251 0.06782221 -0.04783664 0.0022961434 -0.0037821243 -0.004747331 0.6480965
-0.01054962 0.13144423 -0.03750882 -1.6677847 -0.025101293 0.0005014315 -0.042523474 -1.002973
0.042353142 1.0252264 -0.063621685 -0.004915501 0.18704836 0.02163963 -0.061560888 -0.02376397
-0.5693483 0.002562292 -0.034101337 0.009679735 0.026770338 -0.05625824 0.7688602 -0.023845367
0.060818173 -0.6139343 0.06088727 -1.0261749 -0.91261756 0.00069205463 -1.7963505 -0.013944103
1.4310197 -0.07167367 1.3693774 0.04687839 0.046592843 -0.99090064 1.131201 -0.5958221
0.25240827 0.056431316 -0.62260276 -2.3251967 -0.03485974 0.008355698 1.5616692 -0.004681751
-0.63407195 -0.17393558 -0.19731799 0.024912506 0.32706442 0.028592221 -0.041538775 0.97165805
1.3144715 0.026685625 -0.02311159 -0.019558748 -0.46762764 -0.3572027 -0.36154738 0.29717076
0.015761547 0.011573017 0.027463526 0.5631923 0.008746076 -0.023463175 -1.5596735 0.052819498
0.0200545 0.0051438995 -0.045305006 0.029636756 -0.0040479153 0.035682734 0.09562356 1.8662966
-0.089982815 -0.009276244 -1.7634401 -0.040614776 -0.05652017 -0.07650102 0.052938335 0.004499964
-0.010388215 -0.66521883 -0.20013708 0.03159123 1.1912142 1.4997835 0.21374203 0.020731285
0.045234624 0.65894866 -2.0156455 0.29499596 -0.01738187 -0.23446894 -0.021928646 0.7383512
0.06505814 -1.5568192 0.060548343 -1.4749527 -0.0066624526 -0.91258574 -0.27659085 -0.0012951398
2.2230377 0.04635039 -0.17876682 -0.025962241 0.54750276 0.02127532 -0.007037744 0.012241857
0.05116355 -0.00468907 0.041733287 0.49906108 -0.7318665 0.037920527 0.5474413 0.027556434
-1.455728 -0.037121102 0.016931603 2.985788 0.19494845 0.042913325 -0.021697959 -0.05419012
-0.16172945 -0.023547359 -0.04364449 -1.8251809 -0.11699458 2.0512123 0.43963328 -0.022117537
0.07671404 0.32821482 1.5670182 0.01992735 1.1686045 -0.18819651 -1.1756246 -0.048300035
0.23039782 1.332433 0.52225214 -0.00394623 0.04995031 2.1829379 -0.16704696 0.1420592
-2.0235147 1.1559072 -0.045525648 2.3041594 -0.5706534 -0.3278298 1.0564618 0.010185726
-0.043846037 -0.08986549 0.67797565 0.92473227 0.033079058 0.04418116 0.4112553 1.046081
0.03087964 0.027352057 -0.055297885 -0.03362149 -0.032081116 0.024434615 0.41381773 -0.01237275
-0.033853028 -1.7293309 0.014607102 -0.022625364 0.18606387 0.027432537 0.86303765 0.4044786
0.040279463 2.4703312 -1.2780869 0.04601728 0.7803677 -0.24510318 -0.05159703 -0.99625224
0.017793389 0.9558769 -0.028386876 0.08050051 0.056233563 -1.3213854 0.04939749 -0.058775574
1.5078015 0.0018556201 0.06088391 -0.023064341 0.061599724 0.034638107 0.06846099 -0.08602527
00000000: 2d4c 13bf c0ef 9dbc 841a 9d3c 649b 643d
00000010: 8fa1 38c0 1e69 f03d 9e81 36bd f1bb 113f
00000020: a43c 8f3c 796b 893e e9cb 6f3f 3009 ed3c
00000030: 2be1 d7be 25ee 613c c04a 2140 59c3 12c0
00000040: d532 dcbe 1a20 01bd c81d fe3c 45c4 0fbd
00000050: 8fab 16be 68b6 703f 0a6b 9abc 851c f5bd
00000060: 899b 0e3f 8d95 b53f 8060 6bbc f415 dbbc
00000070: 2768 b83e ec63 d0bf d67e 833d 048d 00bf
00000080: 32ec 18bd 6482 9abb 5fe6 8a3d 5af0 43bd
00000090: e57a 163b 84dd 77bb 808f 9bbb a7e9 253f
000000a0: 50d8 2cbc 5199 063e d9a2 19bd f879 d5bf
000000b0: 3aa1 cdbc 8072 033a 182d 2ebd 6b61 80bf
000000c0: 7d7a 2d3d 9e3a 833f 164c 82bd 3612 a1bb
000000d0: 9b89 3f3e 9845 b13c 4527 7cbd a8ac c2bc
000000e0: cfc0 11bf 20ec 273b d8ad 0bbd c097 1e3c
000000f0: 784d db3c 0a6f 66bd 06d4 443f 5c57 c3bc
00000100: 7a1c 793d cc2a 1dbf ee64 793d b359 83bf
00000110: 4ea1 69bf 006b 353a d0ee e5bf cf75 64bc
00000120: a72b b73f a5c9 92bd c247 af3f 8e03 403d
00000130: 23d8 3e3d aaab 7dbf 32cb 903f cc87 18bf
00000140: a83b 813e 8624 673d e562 1fbf 06d0 14c0
00000150: 16c9 0ebd 56e6 083c c7e4 c73f 6069 99bb
00000160: 8a52 22bf 2b1c 32be ba0d 4abe 5015 cc3c
00000170: fd74 a73e 3c3a ea3c 9024 2abd 95be 783f
00000180: 9a40 a83f d09b da3c 8454 bdbc ab39 a0bc
00000190: e46c efbe 46e3 b6be bd1c b9be c426 983e
000001a0: 5c1e 813c c09c 3d3c 30fb e03c 5f2d 103f
000001b0: b44b 0f3c d835 c0bc 62a3 c7bf 4259 583d
000001c0: 5649 a43c 288e a83b be91 39bd c8c8 f23c
000001d0: 60a4 84bb 0f28 123d 49d6 c33d cfe2 ee3f
000001e0: e948 b8bd 63fb 17bc 68b8 e1bf ae5b 26bd
000001f0: b281 67bd 91ac 9cbd ded5 583d 6f74 933b
00000200: 5533 2abc c84b 2abf bcf0 4cbe ce65 013d
00000210: b579 983f e8f8 bf3f 31df 5a3e a8d4 a93c
00000220: f147 393d dcb0 283f 5600 01c0 b609 973e
00000230: 6c64 8ebc a018 70be b4a3 b3bc 9604 3d3f
00000240: 343d 853d da45 c7bf 8a01 783d 40cb bcbf
00000250: b450 dabb 389f 69bf 519d 8dbe aec1 a9ba
00000260: 4046 0e40 e8d9 3d3d a60e 37be c4ae d4bc
00000270: 2429 0c3f 9449 ae3c e09c e6bb 1292 483c
00000280: df90 513d c5a6 99bb 86f0 2a3d ef84 ff3e
00000290: 9a5b 3bbf 8e52 1b3d 1d25 0c3f 08be e13c
000002a0: 4c55 babf 4c0c 18bd 25b4 8a3c 2717 3f40
000002b0: 91a0 473e e2c5 2f3d ebbf b1bc 76f6 5dbd
000002c0: 689c 25be 64e6 c0bc 91c4 32bd 879f e9bf
000002d0: db9a efbd 1047 0340 9d17 e13e d62f b5bc
000002e0: 401c 9d3d c60b a83e 0d94 c83f af3e a33c
000002f0: d594 953f 96b6 40be de7a 96bf 42d6 45bd
00000300: 68ed 6b3e 2a8d aa3f 51b2 053f 604f 81bb
00000310: b298 4c3d 41b5 0b40 5c0e 2bbe f877 113e
00000320: 4481 01c0 c4f4 933f 1a79 3abd 5977 1340
00000330: 5716 12bf 4fd9 a7be 243a 873f 08e2 263c
00000340: e797 33bd 660b b8bd d08f 2d3f 41bb 6c3f
00000350: e87d 073d 4ef7 343d 0e90 d23e fbe5 853f
00000360: 4cf7 fc3c 6c11 e03c 0980 62bd b0b6 09bd
00000370: 7d67 03bd 1a2b c83c ebdf d33e 13b7 4abc
00000380: 79a9 0abd b75a ddbf a052 6f3c d458 b9bc
00000390: 8787 3e3e 33ba e03c 09f0 5c3f d217 cf3e
000003a0: 14fc 243d e819 1e40 5a98 a3bf 9e7c 3c3d
000003b0: 2dc6 473f 54fc 7abe 6857 53bd 630a 7fbf
000003c0: 71c3 913c 59b4 743f 988b e8bc 74dd a43d
000003d0: 2a55 663d 2823 a9bf 0655 4a3d a8be 70bd
000003e0: a4ff c03f 4738 f33a 6861 793d 6ef1 bcbc
000003f0: fe4f 7c3d b0e0 0d3d 4735 8c3d 042e b0bd

fc2.bias f4 [256]
-0.010210005 0.029970447 -0.024894511 -0.039670736 0.024690049 -0.055913154 0.1663451 -0.032226108
-0.035189316 -0.040153123 0.013606865 -0.062112667 0.17436469 0.33834794 -0.072287366 -0.042307083
0.013212662 -0.18885705 0.018489685 0.021382578 -0.048764072 -0.039173476 -0.14146204 -0.062995605
-0.062596165 -0.05948503 -0.088047564 0.0319135 -0.0708039 0.00839209 -0.04131416 -0.09848492
-0.05036314 -0.008250897 0.030362904 -0.047665473 -0.05513009 0.01716195 -0.0030740309 -0.0012619429
-0.034808602 -0.07570486 -0.035713337 -0.040690046 -0.02737067 -0.072684675 -0.016460652 0.10642657
0.04387096 -0.13492252 -0.00755868 0.007488589 -0.03559407 -0.04131175 0.13271004 -0.060214426
0.33100194 -0.05055562 -0.04628471 -0.050879255 -0.028474607 -0.20277493 0.02430707 -0.06493166
0.007763719 0.03442041 -0.07038973 -0.018929994 -0.004217593 0.024167366 -0.093929835 -0.035295434
-0.063623555 -0.012129834 -0.083398774 0.011092942 -0.07291239 0.01044934 -0.008511079 -0.021417668
0.039398614 -0.07160047 -0.02589248 0.1924992 0.24510445 -0.06386356 -0.10462523 0.031589106
-0.00048659177 0.010170178 0.070712365 -0.042748254 -0.052554205 0.11868127 0.030214356 -0.07805203
-0.15693793 -0.057014793 0.0036933238 -0.020432176 -0.04541356 -0.025682162 -0.047194045 -0.03355848
0.010114548 -0.01100426 -0.047022298 -0.06081531 -0.042190906 -0.033230733 0.3302023 0.08467497
-0.012340975 0.15520771 -0.08124982 -0.065076225 -0.07359816 -0.041509897 0.37306008 -0.07108187
-0.055236995 -0.11309705 -0.021276766 -0.033139993 0.04239322 -0.025010528 0.04375996 -0.05156957
0.01890684 0.029308906 -0.03914266 0.12830451 -0.072083004 -0.047507815 -0.07859027 0.14326304
0.20153838 -0.03328311 -0.0333282 -0.026080688 0.043004934 -0.25361475 -0.08162366 -0.077539206
-0.024306443 -0.080831334 0.4075438 0.021946266 0.0011554211 -0.03242151 -0.023954818 0.012093806
0.0077879955 -0.07694527 -0.06338926 0.23741469 -0.06090566 0.003133935 -0.06443385 0.032751735
0.021585211 0.044318195 0.019429263 -0.027350683 0.2644138 0.04675002 -0.19726796 0.16218553
0.0014467654 -0.20461066 -0.22832875 -0.05467883 -0.074235864 -0.03018096 -0.07951575 -0.04192727
-0.0794672 0.012688073 -0.023297178 0.20238483 0.09175095 0.011507713 -0.11431363 -0.0122507205
-0.06487629 -0.27323908 0.15885834 0.012175093 -0.01569616 -0.069115914 -0.024527246 -0.074929036
0.011242436 0.033860926 -0.06265987 -0.17882864 -0.02477626 -0.00024085642 -0.010442357 -0.022893049
-0.07013952 -0.017097695 -0.037170652 -0.019663239 0.018661171 0.02948996 -0.039656274 -0.0028343915
0.019730423 -0.04122022 -0.09163427 -0.07152182 0.09077757 -0.025666758 0.032466535 0.010851533
0.02254971 -0.08147382 -0.011653995 0.009401622 -0.020566884 0.11900637 0.057830933 -0.06538948
-0.018561032 0.04757025 -0.09658599 0.29333934 -0.03240566 0.040212754 0.040953785 0.03568822
0.1812709 -0.035677493 -0.032830425 0.023487853 -0.01812718 -0.07348724 0.0271944 0.010718871
-0.011043736 -0.08530172 -0.07714 -0.00676798 0.07889275 0.013862535 -0.07735297 0.15891826
0.05803708 0.027476422 0.0010376273 -0.06546845 -0.021088272 -0.05176104 0.011350244 0.26698825
00000000: dd47 27bc 9584 f53c 93ef cbbc c87d 22bd
00000010: c942 ca3c 3105 65bd 5f56 2a3e 86ff 03bd
00000020: ac22 10bd 9a77 24bd 54ef 5e3c da69 7ebd
00000030: a88c 323e f13b ad3e 660b 94bd 314a 2dbd
00000040: ec79 583c be63 41be ae77 973c 842a af3c
00000050: d6bc 47bd 5e74 20bd 6ddb 10be d703 81bd
00000060: 6b32 80bd 93a6 73bd 4852 b4bd bbb7 023d
00000070: a301 91bd fa7e 093c 0939 29bd 76b2 c9bd
00000080: 9449 4ebd c52e 07bc a0bb f83c df3c 43bd
00000090: 17d0 61bd 3897 8c3c ae75 49bb c767 a5ba
000000a0: 7793 0ebd 260b 9bbd 2648 12bd 9baa 26bd
000000b0: 7538 e0bc b4db 94bd 7dd8 86bc 2cf6 d93d
000000c0: 09b2 333d 2129 0abe ceae f7bb d662 f53b
000000d0: 16cb 11bd 8236 29bd 24e5 073e 67a3 76bd
000000e0: 1679 a93e 6913 4fbd 0995 3dbd c466 50bd
000000f0: 9443 e9bc 3ba4 4fbe 9f1f c73c e4fa 84bd
00000100: cc66 fe3b 6afc 0c3d 7e28 90bd 1313 9bbc
00000110: bc33 8abb a4fa c53c 495e c0bd f291 10bd
00000120: 114d 82bd 36bc 46bc facc aabd 2cbf 353c
00000130: 1753 95bd b533 2b3c 0d72 0bbc 1b74 afbc
00000140: 7160 213d 44a3 92bd 771c d4bc 831e 453e
00000150: a9fc 7a3e e6ca 82bd c145 d6bd 9463 013d
00000160: 3e1d ffb9 d1a0 263c a5d1 903d cb18 2fbd
00000170: 1443 57bd 2a0f f33d 1984 f73c bed9 9fbd
00000180: 56b4 20be 5888 69bd b10b 723b 6161 a7bc
00000190: 9203 3abd 6663 d2bc 8b4e 41bd 9e74 09bd
000001a0: 7db7 253c 364b 34bc 749a 40bd 7919 79bd
000001b0: 5fd0 2cbd f31c 08bd 4710 a93e 126a ad3d
000001c0: cd31 4abc c5ee 1e3e 4e66 a6bd af46 85bd
000001d0: a2ba 96bd 4806 2abd bb01 bf3e 5f93 91bd
000001e0: 3040 62bd 6d9f e7bd 9d4c aebc cdbd 07bd
000001f0: 83a4 2d3d e1e2 ccbc a53d 333d 9d3a 53bd
00000200: 84e2 9a3c 3b19 f03c 0e54 20bd 4262 033e
00000210: 41a0 93bd 8e97 42bd eff3 a0bd 8cb3 123e
00000220: 1460 4e3e df53 08bd 2783 08bd 2ba7 d5bc
00000230: f125 303d cbd9 81be 4e2a a7bd e0cc 9ebd
00000240: 4e1e c7bc e68a a5bd 95a9 d03e a8c8 b33c
00000250: 8071 973a 6bcc 04bd e53c c4bc 1925 463c
00000260: 7132 ff3b 7b95 9dbd 3ad2 81bd d61c 733e
00000270: 3778 79bd b462 4d3b e5f5 83bd af26 063d
00000280: 78d3 b03c ff86 353d 1e2a 9f3c 8a0e e0bc
00000290: 3f61 873e f37c 3f3d 9d00 4abe f713 263e
000002a0: 64a1 bd3a 7585 51be 03cf 69be e9f6 5fbd
000002b0: f908 98bd 103e f7bc 27d9 a2bd eebb 2bbd
000002c0: b3bf a2bd a3e1 4f3c b9d9 bebc f83d 4f3e
000002d0: ece7 bb3d d98a 3c3c 441d eabd 3fb7 48bc
000002e0: dcdd 84bd fee5 8bbe c3ab 223e 0b7a 473c
000002f0: 3c95 80bc a58c 8dbd 5ded c8bc 6574 99bd
00000300: 3232 383c c1b1 0a3d d153 80bd db1e 37be
00000310: 95f7 cabc 678e 7cb9 6b16 2bbc 348a bbbc
00000320: 4fa5 8fbd 7710 8cbc 4140 18bd cd14 a1bc
00000330: 50df 983c ee94 f13c 9e6e 22bd 33c1 39bb
00000340: b2a1 a13c 89d6 28bd c0aa bbbd 087a 92bd
00000350: 97e9 b93d 1843 d2bc a1fb 043d a1ca 313c
00000360: 2bba b83c bfdb a6bd 66f0 3ebc 4309 1a3c
00000370: e27b a8bc 9db9 f33d 21e0 6c3d ebea 85bd
00000380: 4e0d 98bc 06d9 423d e0ce c5bd 9330 963e
00000390: ccbb 04bd 21b6 243d 28bf 273d d02d 123d
000003a0: 149f 393e 9022 12bd 3279 06bd 9969 c03c
000003b0: 747f 94bc 7a80 96bd cac6 de3c 349e 2f3c
000003c0: c9f0 34bc abb2 aebd 94fb 9dbd eec5 ddbb
000003d0: 8692 a13d b01f 633c 3c6b 9ebd 78bb 223e
000003e0: 4ab8 6d3d 3c16 e13c ff00 883a 5314 86bd
000003f0: 50c1 acbc 6203 54bd 60f6 393c afb2 883e

fc3.weight f4 [5, 256]
0.99121594 0.034321852 0.030692793 -0.0009840308 -0.043253984 1.6625587 1.8196237 0.0051876176
0.026467057 0.0067554866 -0.012875122 -0.021829678 1.6002365 0.52156466 1.8273623 -0.042288728
1.0622913 1.5030408 2.2221563 0.0151416585 -0.0060718786 -0.010239393 1.6863698 0.056544684
1.7078457 0.007167051 1.9676207 -0.039887883 0.012225964 2.2699127 -0.055608533 1.9803287
-0.021738732 -0.015213193 -0.0020498536 0.01190156 -0.017146146 0.049623303 -0.04051078 -0.078071125
0.03502678 -0.02310696 2.193537 -0.018964596 0.005210458 2.161199 0.024382733 0.2575403
-0.00038819967 1.0954379 0.017808938 0.044988774 -0.0142189115 0.02713482 2.4515305 -0.0063540097
0.10104924 -0.035602085 0.9796175 0.01223433 -0.028929243 3.8256972 1.8520708 0.043756522
-0.025887288 0.0020022988 -0.056691796 0.010060008 -0.006335772 -0.012831402 0.057233237 2.4128754
-0.038041897 -0.023452356 -0.0060389168 0.002704583 -0.008354448 0.01651293 0.003862956 0.050047092
0.031529266 -0.050015677 0.01197827 1.4082093 2.0138366 0.058328018 1.7736776 -0.03897143
-0.03512154 -0.05393969 1.5124782 2.8304207 0.0018426894 -0.5338334 0.0051362664 0.031004444
0.77100897 -0.055465616 -0.0056871027 2.4326146 -0.026280468 1.0118141 0.05795879 -0.059946455
-0.017600171 -0.04339273 0.0054469462 -0.016152304 -0.010717163 -0.05187256 1.7444569 2.140921
-0.037340894 3.9247153 2.1840122 -0.032698844 -0.02757754 -0.030282738 3.103158 -0.01747107
-0.018593987 2.6531136 0.89045197 0.051361702 -0.004404478 0.0012527849 1.905488 -0.007329285
2.270917 1.8882048 -0.004874468 1.9634542 0.022103077 -0.036261447 0.028513933 0.22579387
2.1738482 -0.03666657 -0.052612174 -0.004433766 0.018060341 -0.62317723 1.5261489 0.050493434
0.025101285 -0.006162992 -0.32308248 1.7865027 -0.010508044 0.02641011 -0.013528595 0.0062055774
0.003881727 0.0441304 0.05988317 1.8247983 0.027404606 -0.041476924 0.0014619593 0.011250619
-0.037119016 -0.04536234 0.0093181245 0.017265698 0.5156002 2.6504703 0.5472975 -0.29200825
-0.036111474 0.1129782 2.362881 0.0031024767 -0.023602648 -0.020128755 1.8690968 0.015914978
0.018611655 0.007870669 -0.031629775 1.8128316 2.9152887 2.5692818 0.8500746 1.9238913
-0.049811564 1.8290454 2.6081579 -1.576464 -0.032487217 0.017594205 -0.045801304 0.03944827
0.0064849034 2.3797612 -0.00948843 1.1294132 -0.039212395 -0.01633459 -0.01850827 -0.04434465
0.014589223 -0.028477766 0.0072980323 0.0013587882 -0.04885216 3.1519685 -0.014438027 0.007944249
1.0929409 -0.024277933 0.6805347 -0.05783336 1.9439924 0.027435258 -0.0014376972 0.011304826
-0.03700846 -0.03525339 0.045312703 -0.0023301742 -0.020208577 3.4497402 1.0757865 0.06235011
0.04388822 0.013128776 0.95314 0.4251466 0.012350895 0.008652903 2.046839 0.030771794
1.0083764 2.387208 0.04666312 -0.0671434 0.037526093 0.006825911 1.2397838 -0.033560462
-0.043521147 -0.03066404 0.01946719 0.060823653 0.60580915 2.8454041 0.021641523 0.24311827
0.060068414 -0.03743692 0.015203431 1.6969804 2.5917006 0.010249411 -0.048152983 1.8949127
00000000: 54c0 7d3f 1295 0c3d 746f fb3c 98fa 80ba
00000010: 172b 31bd b9ce d43f 6ee9 e83f e4fc a93b
00000020: 71d1 d83c 215d dd3b 2df2 52bc 27d4 b2bc
00000030: 8dd4 cc3f 4385 053f 02e7 e93f f236 2dbd
00000040: 29f9 873f a463 c03f cf37 0e40 b814 783c
00000050: 9cf6 c6bb 21c3 27bc f7da d73f 669b 673d
00000060: b09a da3f 95d9 ea3b ffda fb3f 7a61 23bd
00000070: 694f 483c 4046 1140 c6c5 63bd 697b fd3f
00000080: 6d15 b2bc c240 79bc d656 06bb c3fe 423c
00000090: 1376 8cbc ce41 4b3d a2ee 25bd c1e3 9fbd
000000a0: 3e78 0f3d cf4a bdbc e962 0c40 a45b 9bbc
000000b0: 7dbc aa3b 1651 0a40 4cbe c73c 52dc 833e
000000c0: 4787 cbb9 4f37 8c3f 0de4 913c 2646 383d
000000d0: 70f6 68bc d849 de3c e0e5 1c40 4c35 d0bb
000000e0: e7f2 ce3d 7ed3 11bd 36c8 7a3f 8072 483c
000000f0: 05fd ecbc 39d8 7440 a810 ed3f 0a3a 333d
00000100: 9411 d4bc 0039 033b a835 68bd bbd2 243c
00000110: 4f9c cfbb cd3a 52bc 666d 6a3d 8d6c 1a40
00000120: d2d1 1bbd 281f c0bc 1be2 c5bb 603f 313b
00000130: 18e1 08bc 2046 873c a629 7d3b 2efe 4c3d
00000140: d524 013d 3ddd 4cbd 8140 443c 3440 b43f
00000150: b3e2 0040 5ce9 6e3d de07 e33f 82a0 1fbd
00000160: 9bdb 0fbd ddef 5cbd e398 c13f 9d25 3540
00000170: 6586 f13a 4ea9 08bf 204e a83b 08fd fd3c
00000180: d860 453f ea2f 63bd e05a babb f5af 1b40
00000190: 234a d7bc 2083 813f 3266 6d3d 6a8a 75bd
000001a0: 3c2e 90bc 93bc 31bd 4c7c b23b d651 84bc
000001b0: 0a97 2fbc 5278 54bd 5d4a df3f da04 0940
000001c0: c4f2 18bd 892e 7b40 dbc6 0b40 39ef 05bd
000001d0: 4bea e1bc 8113 f8bc 249a 4640 7d1f 8fbc
000001e0: 6b52 98bc 9dcc 2940 a9f4 633f a660 523d
000001f0: 7053 90bb 7c34 a43a 08e7 f33f 802a f0bb
00000200: b456 1140 b2b0 f13f 00ba 9fbb 7852 fb3f
00000210: 8311 b53c e286 14bd 0d96 e93c 8236 673e
00000220: 5420 0b40 af2f 16bd dd7f 57bd 2049 91bb
00000230: 48f3 933c 8b88 1fbf d958 c33f 34d2 4e3d
00000240: 36a1 cd3c edf2 c9bb 116b a5be 1fac e43f
00000250: ee29 2cbc 045a d83c 0aa7 5dbc 2858 cb3b
00000260: 9364 7e3b 14c2 343d 0e48 753d fe92 e93f
00000270: a07f e03c b5e3 29bd 379f bf3a 8454 383c
00000280: 1c0a 18bd dccd 39bd 0cab 183c cb70 8d3c
00000290: 60fe 033f 4ea1 2940 b01b 0c3f 1b82 95be
000002a0: a0e9 13bd 1d61 e73d 7139 1740 ec52 4b3b
000002b0: 575a c1bc 0fe5 a4bc 903e ef3f 2160 823c
000002c0: 7877 983c faf3 003c 398e 01bd de0a e83f
000002d0: 1794 3a40 1d6f 2440 7d9e 593f 1242 f63f
000002e0: 3607 4cbd 291e ea3f 0fec 2640 93c9 c9bf
000002f0: 5111 05bd b921 903c 269a 3bbd 8294 213d
00000300: 507f d43b 024e 1840 5c75 1bbc 9d90 903f
00000310: 2d9d 20bd 1ed0 85bc a89e 97bc bca2 35bd
00000320: a307 6f3c 344a e9bc 5524 ef3b 5e19 b23a
00000330: 3419 48bd dab9 4940 798d 6cbc 9828 023c
00000340: 7de5 8b3f 84e2 c6bc 8637 2e3f ace2 6cbd
00000350: bed4 f83f e8bf e03c 1d71 bcba e037 393c
00000360: 2f96 17bd dc65 10bd d099 393d d6b5 18bb
00000370: 758c a5bc 8bc8 5c40 5fb3 893f d462 7f3d
00000380: 22c4 333d 141a 573c fc00 743f d1ac d93e
00000390: 695b 4a3c e8c4 0d3c 69ff 0240 2115 fc3c
000003a0: 7a12 813f 04c8 1840 d421 3f3d 7b82 89bd
000003b0: f6b4 193d e4ab df3b 3cb1 9e3f b276 09bd
000003c0: 3b43 32bd 2733 fbbc a879 9f3c 3922 793d
000003d0: 4f16 1b3f 1a1b 3640 9049 b13c fff3 783e
000003e0: 4c0a 763d 7557 19bd d017 793c a736 d93f
000003f0: 6cde 2540 25ed 273c 103c 45bd 808c f23f

fc3.bias f4 [5]
0.2270799 0.11168518 0.36629483 0.007354273 0.23668954
00000000: a287 683e 33bb e43d ff8a bb3e 1dfc f03b
00000010: be5e 723e
