other_model/dqn_team_b_ep70.pth (torch, 286773 bytes, 6 tensors)

fc1.weight f4 [256, 14]
00000000: 6644 b33e 22a4 88be 8e8d 9f3e eed6 9c3e
00000010: 2754 903e 9e6f 5fbf 36ea 68be 685a 0bbf
00000020: d53c ba3e ec7f bdbe ced8 f73f 3ec4 a3bf
00000030: caa3 cb3d a0c1 27be 037d 78be be89 f5be
00000040: 17b5 9ebd ea3d 213e 7883 e9bd 6643 b4bc
00000050: d086 1dbd 747b 8abe d452 a63e 2fbe 3c3d
00000060: a6fb a6be 0586 d23d ac34 28be d4c9 b0bd
00000070: 9240 a3be 5ba2 1ebf dd6b 0a3e d40c 063e
00000080: ecb5 183e 26a6 5dbd 65a7 f9bd 4094 86be
00000090: eb3c dcbe f282 973e 1171 b23d 0fe1 b23f
000000a0: 292c 943e cd30 e9bd a428 78be e5c1 c63d
000000b0: 1d15 72be d70e db3d bf98 4fbe e84c 85be
000000c0: 7b6b 0f3d 8c41 5ebd 7595 1d3e 8838 d5bd
000000d0: b9ca ec3c 61da 4a3e 8e21 80bd 0c21 78bd
000000e0: ba63 4bbe 5260 063e ee83 02bb 5d68 573e
000000f0: fad1 043e bb0c 4dbe b5fe 3dbe 8e7a 183e
00000100: 683c d4bd 4070 563e a0ab 1ebe b43e 69be
00000110: 9581 2dbe 25c1 82be 209f a1be 979b 1dbe
00000120: cb7f 8dbe d02c b73d a4d6 18be 367f d4ba
00000130: 999d dc3d b6bd 89be 9b8c 80be 57b9 c93e
00000140: aab9 413e 56e6 bcbe a96c 963e b290 dbbd
00000150: e1ed 57be a35d 663e 39c0 67be 84b2 55bc
00000160: 5f10 77be 0929 88be 2255 2f3e ded2 bebd
00000170: 0305 113e d981 73be 31c2 e0bc 4fc1 053e
00000180: d5d0 72bd 35fd 133e c5bd 593e 745f c4bd
00000190: 63d8 c93d 4126 d8be 25c0 0f3e 9186 15be
000001a0: 81fd d33e b828 38be 02c1 91be 26f7 00bb
000001b0: c486 fd3e 1925 06bf c62b 6dbd 0a16 26be
000001c0: fee9 1e3e c111 5cbe 5284 733e 8eed 09be
000001d0: 721a 463e 327d ef3d 5703 2cbd 7595 9b3e
000001e0: d8b8 99bf c3f0 803d d945 61c0 c3e1 953e
000001f0: 7e15 343e 68cd d43d 83d4 46be d783 d1bd
00000200: 5777 01be 4ac1 d63d c37d c1bd b566 333d
00000210: 5c93 52be 57f8 b13d abb0 80be e389 37be
00000220: a923 523e ca7c 34bc 67f7 21be 7ee4 76be
00000230: 547b 99be bb65 92bc cabe 763c 4678 313d
00000240: 8f4d f9bd e02b 0c3d ac09 213e 0601 dfbc
00000250: f62f f63e 1d43 fe3e 4f71 853f c6f1 0440
00000260: 6e57 acbd 4ea9 69be f3ea 87bc fe1c 1e3f
00000270: 4749 113c 9fdd 8f3e 335b adbe ce68 ab3e
00000280: 6534 dbbe 5d26 48bd 83cf c63e ee10 6fbe
00000290: df30 81bf 3c46 1a40 0ff4 f63d 3115 ca3d
000002a0: 5aa9 d3be 1ad1 90be 3867 f7be aa9d 583b
000002b0: 5815 66be 3b5c 23bf a88a 84be 0d06 dfbd
000002c0: 83c3 a03e b085 d33e 1d07 9b3f 41b0 1740
000002d0: 2c6c 973e 3f5f 533d 3e25 e03d 9998 c6bc
000002e0: 9c2f 0fbe d54f 18be e4c3 cbbe a3ac 58bb
000002f0: 0f04 f5bd 4756 6c3e df49 643e e48d 6d3e
00000300: 4be5 92bd 0bb4 3140 1b3e 1d3e ba84 0c3e
00000310: f616 8cbe 5c69 7fbb 19f7 5bbe 9850 123e
00000320: f1dd 82be 4e59 7f3e bcb0 cfbe cc6d 813e
00000330: ef6f 433e 0922 76be 2529 9abe a08d 52bd
00000340: a333 b43d 9bdf fc3b bf6b bdbd 5a79 503d
00000350: b97d 86be 3bfc c23d fd81 4b3e 5bca d53d
00000360: f8d7 1dbe 1466 13be 9890 293d ceb2 f03c
00000370: 3619 3dbe 675c 37be bb03 7ebe 2079 f33d
00000380: a746 7f3c d55d 11be 478f 3ebe c618 c5be
00000390: 2cf4 4a3e a1c5 cf3e dfe8 8c3e 42b6 be3e
000003a0: 3a60 92be 46aa c33d 26e6 21bf 7ebd 9c3f
000003b0: 6f67 09be 2dd3 1b3d bb50 0b3e 07d5 023e
000003c0: 0bab 99be 4a7b a2be a520 233e 441e debe
000003d0: e078 a3be 8f06 3fbe 1827 a63e c34f 263e
000003e0: 1666 9e3b b918 023f 5584 7cbc 5a68 acbe
000003f0: d1ed 43be 8085 8ebc 60fd 103d c5dc a8bd
0.3501312 -0.26687723 0.31162685 0.30632728 0.28189203 -0.8727969 -0.22745594 -0.54434824
0.36374536 -0.3701166 1.9363039 -1.2794263 0.0994335 -0.16382456 -0.24266438 -0.4795665
-0.07749384 0.15746275 -0.11402029 -0.022004794 -0.038458645 -0.27047312 0.32485068 0.04607981
-0.32613868 0.102794684 -0.16426343 -0.08632246 -0.318852 -0.61966485 0.13517709 0.13090831
0.14913148 -0.05411353 -0.12190131 -0.2628498 -0.43015227 0.2959209 0.08712972 1.3974932
0.28939942 -0.11386261 -0.24234253 0.09704951 -0.23640867 0.1069619 -0.20273112 -0.26035237
0.03501461 -0.05426173 0.15389045 -0.10411173 0.02890526 0.19809867 -0.062564 -0.06057839
-0.19862261 0.13122681 -0.0019915062 0.21035905 0.12970725 -0.20024388 -0.18554194 0.14890501
-0.10363084 0.20941257 -0.15495157 -0.22777826 -0.16943963 -0.25537983 -0.31566715 -0.15391384
-0.2763656 0.08944094 -0.14925629 -0.0016212228 0.10772247 -0.2690255 -0.25107273 0.39399216
0.18918481 -0.36894482 0.29379776 -0.10720958 -0.21086837 0.22496657 -0.22631921 -0.01304305
-0.24127339 -0.26593807 0.1712232 -0.093175635 0.14162068 -0.23780002 -0.027436348 0.13062023
-0.05928119 0.1445206 0.21263798 -0.09588519 0.098557256 -0.42216685 0.14038141 -0.14602114
0.41404346 -0.17984283 -0.28467566 -0.0019678562 0.4951688 -0.52400357 -0.057903074 -0.16219345
0.15518948 -0.21491148 0.23780945 -0.13469526 0.19346026 0.11693801 -0.041995373 0.30387464
-1.2009535 0.06295922 -3.5198882 0.29273805 0.17586324 0.10390741 -0.19417004 -0.102302246
-0.12643181 0.10486086 -0.09447815 0.04379912 -0.20564026 0.08689945 -0.25134787 -0.17923693
0.20521416 -0.01101608 -0.15817033 -0.241106 -0.29976904 -0.017870774 0.015060136 0.043327592
-0.12172996 0.03422153 0.15726346 -0.027222168 0.48083466 0.49660578 1.0425204 2.0772567
-0.084151134 -0.22818491 -0.016591525 0.6176299 0.008867568 0.2809877 -0.33858642 0.33478397
-0.4281341 -0.04886471 0.38830194 -0.23346302 -1.0093039 2.4105368 0.12058269 0.09867323
-0.41340142 -0.28284532 -0.48320937 0.003305296 -0.2246908 -0.6381261 -0.25887036 -0.10889826
0.31399164 0.41312933 1.2111546 2.3701327 0.29574716 0.051604506 0.109446034 -0.024242686
-0.13983005 -0.14874204 -0.3979789 -0.0033061884 -0.11963665 0.23079787 0.22293805 0.23198658
-0.071726404 2.776614 0.15355723 0.13722506 -0.27361268 -0.0038972711 -0.21480979 0.14288557
-0.25559953 0.24936411 -0.40564525 0.2527908 0.19085668 -0.24036421 -0.30109516 -0.051404595
0.087989114 0.0077170855 -0.092490666 0.05089698 -0.26267794 0.095207654 0.19873805 0.10438987
-0.15414417 -0.14394408 0.04139766 0.029382136 -0.18466648 -0.17906342 -0.2480611 0.11888337
0.01558081 -0.1419595 -0.18609343 -0.38495463 0.19819707 0.40580466 0.27521417 0.37248427
-0.2858904 0.095539615 -0.63241804 1.2245328 -0.13418363 0.03804319 0.13605015 0.12776576
-0.30013308 -0.31734687 0.15930422 -0.43382466 -0.31928158 -0.18654846 0.324517 0.16241364
0.004833947 0.50818974 -0.01541241 -0.33673364 -0.19133689 -0.017397642 0.035397887 -0.082452334

fc1.bias f4 [256]
00000000: 5d05 cfbd 7e6a d6bd f24a 5b3e fd56 85bd
00000010: d781 5cbe a398 923e cd16 5fbe 7049 9a3d
00000020: 0dbd 783e 9d1c 013e b351 0c3e 3023 45be
00000030: 87b5 143e bdf3 7b3e beb5 d73c eb03 09be
00000040: 63f2 1b3e ccd3 77be 1b01 42be 9bda 1cbe
00000050: dd39 813c 0430 653e 7a98 bc3d d4ad 3cbc
00000060: 2819 27bd bd58 b53e 0344 2c3e 210b e5bd
00000070: 10f9 86bd 0e51 cb3e fd01 483d 0c5e a23e
00000080: 9c35 14bc 3f3f 883c a2f5 543e 1831 5b3e
00000090: 3ed5 153d c767 5cbe 6fdb 51be 0464 53be
000000a0: a3f9 5d3e a19f 14bd bcfc 253d 39f5 13be
000000b0: 7ee4 8d3d f368 7bbd f6c0 dd3b 3544 9cbd
000000c0: a96a 3e3e f167 edbd 112c 3b3c 61f8 b3be
000000d0: 02b3 2a3e 8014 b7bd 0dc1 993e d8a0 823d
000000e0: 67ea 8cbd 97c7 b2be 62db a1be 3f8f a2bb
000000f0: 0cb5 f0bd fbbd 50be 8d76 0b3e 142a 3cbe
00000100: 1699 643e d38a a93c f12a b6bd 9ddc 6b3d
00000110: 4c77 9b3d 0699 82be edd3 3abc 37cf 32be
00000120: e922 203e 6499 18be 96e8 813d 15fa c43d
00000130: acae 16be d730 57be 246e a93c d843 65be
00000140: be89 4ebd cd0c a03d a11c 713e 01f9 f5bd
00000150: 5d8d 49be d5e0 5cbd d0c8 273e 1c6c 843a
00000160: 0878 bbbd 0dc8 8c3e 16d7 e4bd 0024 2dbd
00000170: df21 da3c d4e3 6ebe 48f6 80be 140f 823d
00000180: 227f 0fbd 9bd9 d33b cade 253c a7fa 243e
00000190: 7b9f acbe 46cd b5be 4fe7 71be 86a1 2c3e
000001a0: c870 85be 9f4d 873e c20a af3c c313 3b3d
000001b0: 458c bfbd 1159 bd3e 1c3f 2bbe acfe c13c
000001c0: e094 9dbd 8afd 25be c5ba 5fbe 2a8f c4bd
000001d0: 3e54 77be 7ac8 01be 7be8 20be ddce 133e
000001e0: 09b9 663d d940 8d3e cf83 db3d 7f1b dfbd
000001f0: 3fb6 673e bc6e 653d 3e07 503e b999 073e
00000200: 45ab fb3c 72e8 ffbd 0573 69be d2d9 6ebe
00000210: 8e81 37be abbd 01be 2aee 3b3e ba34 173d
00000220: f0c8 ac3d 5031 be3c 9e0c 49be 7b80 d9bc
00000230: 738e e3bd 614a eebb 4827 5fbe febd 773d
00000240: 3a7f 43be 8f2d 3b3e 40cc a93c 349d 873e
00000250: d6e0 65bd 36d3 833c 5045 c9bd 0083 cabc
00000260: 6c8b d7bd 6d89 823e 27ee 4c3d 5ae0 cd3d
00000270: 60c3 0b3e 949d edbd 93a4 cf3d b13e f23d
00000280: 268b 0bbd 4620 3bbe 6cbc c83d c250 db3d
00000290: 804e 2c3e 0483 223b 506b 823d e939 133e
000002a0: c8e1 493e 9f5d a93e 56de 473e 4413 f2bd
000002b0: ed34 2dbd 05f2 803e 3830 0bbe 04e3 56be
000002c0: 06a3 543d f46a 82be f90b 633a fd40 04be
000002d0: c979 193a e6ed 493e 739b 403e 722d 05bd
000002e0: a4e2 643e 35e1 cfbd 2f1d a7bd d0f3 2e3d
000002f0: 8c1a 3dbe 6018 673c 842d a53e de37 fdbc
00000300: 36cd 77be d16a 73be cd79 923e 28b8 703d
00000310: e5be 8fbd 8fc1 6fbd 4250 b9bc 36d3 94be
00000320: 13c2 b23b d4f0 e5bc 4f6d 17be 4139 2bbd
00000330: df1e eabb e55a 0f3e f002 8b3e a9b9 513e
00000340: 9a88 0e3e f8a1 f13d 92a4 133e 68c5 633d
00000350: a66f 2dbe e8b7 8b3d 4274 81b9 4c24 9bbe
00000360: 43cf 3dbe 4200 2cbd 5f3a 0bbe b4c6 63bd
00000370: 414d e63c 9c35 833e 20a4 db3d 866a 8bbe
00000380: 1e7d 91be 04de 3fbe db28 263e 2a31 603e
00000390: 6d7b 35be 339d a4bd a718 873e 274a eb3d
000003a0: 41c2 b13d 8932 773e b821 573e e895 7d3c
000003b0: 39e1 47bd 7305 abbd 5784 8abe 40ee 99bd
000003c0: ab68 90be 1120 0dbe 31c9 5d3c c24a a9bd
000003d0: 1a80 233e c5d8 9f3d 46f2 8b3e ac50 253e
000003e0: b2ca e2bd 4b71 2ebe 279e 473d d96d 23be
000003f0: 5999 65be 2c59 bf3d fc9c 4d3d 584d 33be
-0.10108445 -0.104695305 0.21415308 -0.06510732 -0.21533905 0.28632078 -0.21786042 0.07533538
0.24290867 0.12608571 0.13703041 -0.19251704 0.14522372 0.24604698 0.026331779 -0.13380401
0.15229182 -0.24201888 -0.18945734 -0.15317766 0.015774662 0.22381598 0.0920877 -0.011516053
-0.040795475 0.35419264 0.1682282 -0.11183763 -0.06590474 0.39710277 0.04883002 0.31712377
-0.009045985 0.01663172 0.20796826 0.21405447 0.036580317 -0.21523963 -0.20493864 -0.20643622
0.2167726 -0.036285046 0.04052423 -0.14449014 0.06928347 -0.061379384 0.0067673875 -0.07630197
0.18595375 -0.11592091 0.0114240805 -0.35150436 0.16669849 -0.08939457 0.300301 0.06378335
-0.06880646 -0.349179 -0.31612688 -0.004960924 -0.11753282 -0.20384972 0.13619442 -0.18375427
0.22324023 0.02069608 -0.08894909 0.05758344 0.075911134 -0.25507373 -0.011403066 -0.17461859
0.15638317 -0.14902264 0.0634319 0.09618012 -0.1471507 -0.21014725 0.020682402 -0.22389162
-0.05042433 0.078149416 0.23546077 -0.12010384 -0.19682832 -0.053925354 0.16385198 0.001010302
-0.091537535 0.27496377 -0.11173837 -0.04227066 0.02662748 -0.23329097 -0.25187898 0.06350532
-0.035033353 0.0064651496 0.010123918 0.16111241 -0.33715424 -0.35508174 -0.23623393 0.16858491
-0.26062608 0.26426408 0.021367434 0.045673143 -0.09352926 0.36982015 -0.16723293 0.023681007
-0.07694411 -0.16209999 -0.2184859 -0.09597619 -0.2415323 -0.12674132 -0.15713684 0.14434381
0.056328807 0.27588537 0.107185 -0.10893916 0.22628115 0.056013808 0.20315263 0.13242234
0.030721316 -0.12495507 -0.22797783 -0.2332528 -0.17920515 -0.12670009 0.18352571 0.03691552
0.08436763 0.023216873 -0.1963372 -0.026550522 -0.111111544 -0.0072720503 -0.21792328 0.060483925
-0.19091502 0.18279098 0.020727277 0.26487124 -0.056122623 0.016091924 -0.098276734 -0.024720669
-0.105246395 0.25495473 0.050031807 0.10052557 0.13648748 -0.11602321 0.10138812 0.11828364
-0.03406825 -0.1827403 0.098015636 0.10708763 0.1682682 0.002479733 0.063681245 0.1437756
0.19715035 0.3307924 0.19518408 -0.11820081 -0.042286802 0.25184646 -0.13592613 -0.20985037
0.051913284 -0.25472224 0.0008661147 -0.12915416 0.0005854634 0.19719657 0.18809299 -0.032514043
0.22352082 -0.10150377 -0.08159863 0.042712986 -0.18467158 0.014104933 0.32261288 -0.030910429
-0.24199376 -0.23771216 0.28608552 0.058769375 -0.07018832 -0.0585342 -0.022621278 -0.2906739
0.0054552644 -0.028068937 -0.14787792 -0.04180265 -0.0071447934 0.13999517 0.2715068 0.2048098
0.13919297 0.11798471 0.14418247 0.055608183 -0.16937122 0.06822187 -0.00024691416 -0.3030113
-0.18536095 -0.041992433 -0.13596486 -0.05560942 0.02811301 0.25626838 0.10724664 -0.27229708
-0.2841577 -0.18737036 0.16226523 0.21893755 -0.17722864 -0.08037796 0.26385996 0.11488753
0.08679629 0.24140371 0.21008956 0.015477635 -0.048798773 -0.08350649 -0.27054092 -0.07516146
-0.28204855 -0.13781764 0.013536737 -0.08266212 0.15966836 0.078050174 0.27333277 0.16144055
-0.11073817 -0.17035405 0.04873481 -0.15959872 -0.22421779 0.0934318 0.05019854 -0.17509973

fc2.weight f4 [256, 256]
00000000: 12c2 2dbf 9da3 ebbe 4afe b13e 1863 973c
00000010: 94f1 8abc 5f7a 82bf 782a 41bd 079e 13bf
00000020: 93de b0bf 9459 f93c 94e6 213d 285f d5be
00000030: 84e4 403f 0309 e63e d6e9 b8bc 55be 893c
00000040: 94a7 293e 8cd5 5ebf 0401 dd3c c601 113f
00000050: a016 2e3b 4d2d 82bd c0e9 9e3a 1eeb 50be
00000060: 5ae0 bebd 6b90 ce3e 78b9 893f 1ec1 7d3d
00000070: 076b f53d a4fb 563d 9bf1 a13c 93a0 f13e
00000080: 9c50 b5bc 3ecb 0e40 e041 7ebc b00d 34bd
00000090: a0e6 b7bf 4a0b a6bc 5eba 57bd 4cd8 94bc
000000a0: 043d a5bc 016e 2e3e 5112 fc3d 70f8 65bc
000000b0: 24da 43bd 1073 f7bb 2062 2c3c 8f02 4dbd
000000c0: 46a8 b5bf 3a7a 263f 4840 a43c b266 6ebe
000000d0: 6f90 863e 2088 e83c 80fb c53e f898 8bbc
000000e0: a68d 153d 8cb1 de3c 19ee 0fbf e287 293d
000000f0: 99e0 9f3d db8f 8d3d 0007 87b9 b252 4bbd
00000100: b74f a13f 1db0 01be 3cfd 9fbe a104 f13d
00000110: 6536 46bd fb49 6abf c2a5 11bd 1df3 4a3f
00000120: 827c 0d3d e0e1 fc3b 7eb0 1e3d d03d 623c
00000130: c8b2 053d 4532 4abf 63be 39c0 49bd fa3b
00000140: 6e81 983e 8ebe 3b3d bcd8 b43e 40a5 803d
00000150: 3811 b93f d32b 06bf cafe 3e3e 7d48 cebd
00000160: f96b 3ebf f87d f33e a6a4 03be 8f1b 1a3e
00000170: a36a c63e 6157 47bd 94ac 97be 638d 51bf
00000180: 0f95 3bbd ce92 39be 7435 e6bd 267f 36bd
00000190: 9ba1 2dbf c189 94bf 06cb c7bc 2c12 e33c
000001a0: 8fef 173c ffc6 10bf 14b9 c53c 5f26 54bf
000001b0: 31de 1fbd 7934 cb3e 429f 823c f0b2 b2bc
000001c0: 4865 25bd 92a4 023e 2b6e 05bc bcdc 66bd
000001d0: 714d 633d d95c 9bbf e828 4abd e988 a43f
000001e0: c07b da3c 3a66 3c3c 088e 36bf bccd b13e
000001f0: c49d 673d 2914 8c3e 2391 723f 8c8b 82bf
00000200: dd32 7fbf 6a04 6abc 83b5 02bf fee4 babf
00000210: 87bf 21be 6c1b 68bc 148c 3abd 587b 933d
00000220: 5b2e 923e 1afb ae3e 689e 533c 7aac 01bf
00000230: b0a9 18bc 04c8 46bd 2ae6 123d 046c a73c
00000240: 768c 0ebe dec2 b93c ad2f 5dbd 80b7 28ba
00000250: b1e4 023e 17a4 b6bd bcc3 c0bc 6eba 733d
00000260: 6a36 6abd f6fd 1d3e b1f2 273e b96e 503d
00000270: 1aaa 0d3e a8f6 1abd 90e8 bcbb 0a9a 413e
00000280: 6837 583d 08a9 15be 70db 8fbd df6f 493d
00000290: 4838 563d 750f 10be 802b 48bb c929 60be
000002a0: 2c2a 5a3f 2ce3 c33e 4abc 0b3b 9e86 393d
000002b0: 067f 85bf 4293 9c3e a62a 443d 50f0 1fbd
000002c0: 2f6e 90bd 85df 0c3c 90ac 663c e71a adbd
000002d0: 5336 03bd 769e a53c f7d4 70bd ec9a f83c
000002e0: 7b0d b0bf 4067 4abf 5a96 3f3f 34d7 28be
000002f0: 589a 73bc b073 94be 30e9 ed3d b624 adbf
00000300: 60f1 9cbc db52 ca3e a792 573f 6049 7dbe
00000310: 011f 8c3d 8719 aa3e 25c5 fc3c b9bb 663d
00000320: 9290 4e3d c796 e33d c878 173d f6e9 093e
00000330: bea3 a4bf 2cd8 743b 546e 983e 65e7 9abe
00000340: 2c41 19bd dbd9 e0bd 7c76 11bd 20ae 533c
00000350: 9206 06bd e41c 353d eabb f93c 7169 63bc
00000360: 3d1c 84bd 5059 883b e224 a53d a6c3 013e
00000370: ba0d 6b3e 9f77 cf3d fbc2 debf e67a 8dbc
00000380: 13d1 13bf 02ae 87bb 8435 19bd 2595 b83c
00000390: b0f9 ae3c cc37 50bd fcd4 94bd f022 733c
000003a0: 6034 3f3c 88ee aebc 0c65 723f 23c0 433d
000003b0: e06d 873e 3c93 2ebd c0d4 a8bf 4575 333b
000003c0: 756c ee3e 5378 063e c96b 183f 73dc 773e
000003d0: 385b 9b3f 9659 693d 2198 423f 7a85 a93c
000003e0: 5fe5 9fbd 14bb c5bc 1e47 2c3d c1dc 34bf
000003f0: 3910 c9bc 6e43 4ebf 81b1 f3bf 3dbb 82bb
-0.6787425 -0.46023265 0.3476432 0.018479869 -0.016960897 -1.0193595 -0.047159642 -0.57663006
-1.3817924 0.030438222 0.039526537 -0.4167416 0.7534869 0.4492875 -0.02257244 0.01681439
0.16567832 -0.87044597 0.026978023 0.5664333 0.0026563779 -0.06356297 0.0012124106 -0.2040219
-0.093201354 0.40344557 1.0759726 0.06195175 0.119833045 0.052486077 0.019768527 0.4719282
-0.022133164 2.231155 -0.0155186355 -0.043958366 -1.4367256 -0.020269055 -0.052667968 -0.018169545
-0.020170696 0.1703415 0.12308181 -0.014036283 -0.047815457 -0.0075515583 0.010521442 -0.05005127
-1.4191978 0.6503025 0.020050183 -0.23281363 0.2628207 0.028385222 0.38668442 -0.017040715
0.03651204 0.02718427 -0.56222683 0.041389354 0.078065105 0.06912204 -0.00025754422 -0.04963941
1.2602452 -0.12664838 -0.3124789 0.11768461 -0.04839172 -0.91519135 -0.03555847 0.7927721
0.034542568 0.007717356 0.038742535 0.013808683 0.032641202 -0.78982955 -2.9022453 0.007651959
0.29786247 0.045836024 0.35321605 0.06281519 1.445838 -0.5241062 0.18651882 -0.1007242
-0.74383503 0.47557044 -0.12855777 0.15049575 0.38753232 -0.048667315 -0.29623854 -0.81856364
-0.04579645 -0.18122408 -0.11240664 -0.044554852 -0.67824715 -1.1604539 -0.024388801 0.027718626
0.009273424 -0.56553644 0.024136104 -0.8287105 -0.039030258 0.3968847 0.01594508 -0.02181384
-0.040379792 0.12758091 -0.008143942 -0.056362852 0.055493776 -1.213771 -0.049355417 1.2854282
0.026670337 0.011498982 -0.7131047 0.34727275 0.05654694 0.2735913 0.9475271 -1.0198836
-0.99686986 -0.014283279 -0.51058215 -1.4601133 -0.15795718 -0.014166694 -0.045543745 0.0720126
0.2855099 0.3417595 0.012916185 -0.50653803 -0.0093178 -0.048530594 0.035864033 0.020437248
-0.13920769 0.022675928 -0.054000545 -0.0006436035 0.12782551 -0.089180164 -0.023530833 0.059503965
-0.0571808 0.1542891 0.16401173 0.050886843 0.1383442 -0.037832886 -0.0057650283 0.18906417
0.052787215 -0.14615262 -0.07024276 0.049178954 0.052299768 -0.14068396 -0.0030543506 -0.2189094
0.852206 0.38259256 0.0021321946 0.045294397 -1.042939 0.305811 0.047892235 -0.03904754
-0.07052266 0.008598213 0.014079228 -0.08452397 -0.03203423 0.020217162 -0.05879685 0.03034731
-1.3754114 -0.79063797 0.74838793 -0.16488343 -0.014868341 -0.28994513 0.116167426 -1.3526828
-0.019158065 0.3951634 0.8420815 -0.24735022 0.06841851 0.332226 0.030855725 0.05633137
0.05043084 0.11112743 0.03698042 0.13468155 -1.286247 0.0037360294 0.29771674 -0.30254665
-0.03741567 -0.10979053 -0.035513386 0.012919933 -0.03272111 0.044217005 0.030485112 -0.01388012
-0.064506985 0.0041610375 0.080636755 0.1267229 0.22954455 0.10130238 -1.7403253 -0.017270517
-0.57740897 -0.0041406164 -0.037404552 0.022532055 0.021359295 -0.050834462 -0.07267186 0.014839873
0.011670202 -0.021353975 0.94685435 0.047790658 0.26451015 -0.042620882 -1.3189926 0.002738313
0.4656712 0.13131838 0.5953947 0.24205188 1.2137213 0.0569702 0.7601338 0.02069353
-0.07807421 -0.024137057 0.04206001 -0.70649344 -0.024543868 -0.8057164 -1.9038545 -0.0039896057

fc2.bias f4 [256]
00000000: 7a1f ea3d 863f 0a3d 1f36 98bd 6736 9bbd
00000010: 8468 723e 450a 94bd 1a36 143d 11fa 263d
00000020: c865 163d a765 573c e8c7 74bb dad3 72bd
00000030: df97 15bd a06a 283d aa96 343d f554 45bd
00000040: dc72 ed3c 9b04 93bc ffb6 e1bb 2be0 b7bc
00000050: c36c 523d 5a1f d53c 5710 a2bc ca7f 263e
00000060: 4f59 3a3e 1110 523c b199 05be a301 97bd
00000070: 0e01 65bd e44c 0b3d 9382 dbbd 2c39 7cbd
00000080: 9b0b e7bc cdf9 273d da01 75bd 5a79 0dbc
00000090: 8488 6abd d8b2 82bc 12e1 3bbc 0cc2 ec3d
000000a0: 7b4f 2b3e f3b7 313d 18fd 80bc be5c 133c
000000b0: b848 4c3b 2422 3a3e 52bf bdba d4a4 2d3d
000000c0: fbc0 093e 4df5 d1bc ec68 033f a276 7abd
000000d0: 7357 043e 7546 863a cab2 57bc d46c b9bd
000000e0: a007 2d3d 7b42 c3bd 160c 143d c872 c73b
000000f0: c11b 863d 7d69 67ba a33f c1bb 7137 1f3d
00000100: 546f 53bc 8dd3 86bd 7e19 18be b25d 20bd
00000110: 50bd 063c f660 c33b 78c7 38bd 89e4 3bbd
00000120: 04f1 25bd 3dc9 79bd e45b 0b3d 5433 143d
00000130: 811b 36bc 314b 37bd 8a37 f33b 3179 06bd
00000140: 3035 99bd f7d5 23bd dfbd d5bc 6007 873c
00000150: edc2 59bd d5a0 b2bc d338 29bd bb59 133d
00000160: 0f61 093d 2916 e03c 1418 073a 43f9 d33b
00000170: a7e2 abbd 4ea5 473d dce0 893c 8484 703c
00000180: 88c1 ecbc 9122 113c 4f5c 253d 8ec8 ed3d
00000190: a111 2b3d ef36 a33b 484d 40bd 187f f33c
000001a0: 3fdf 1cbe d3fd 10bd 1e3e 253c b6e3 f73c
000001b0: 48a8 e63c 2a12 3dbc 8541 cbbc 5788 babb
000001c0: 315c d33c 0b68 29bc c02c 6abd d3c9 303d
000001d0: 8d5c 3d3e 3b6d 34bd 1bc0 93bd 3f8c bb3d
000001e0: 13ba ccbc 4e09 883c b05a 72bd 0319 b73e
000001f0: 4724 06bd 5e3e 96bc 6a91 103c 4fd5 63bd
00000200: 9299 0ebc 5af0 2c3c 63ae 63be 46e3 e93c
00000210: 8e0d 9abb 7f06 2cbd 21b5 8c3c d310 7bbc
00000220: 729b afbb 8b52 a03d 5b06 8bbd 5fc2 673c
00000230: 457e 293e 3a33 eabb a25b 2abd d241 64bd
00000240: bfab eb3a 7bdf f53c b3a2 c0bd ef56 eabc
00000250: eed3 79bd de5f 953c 445b 31bc 284b 2a3e
00000260: c8ff bcbd 7bf3 91bd eb1e 8abd f5d3 55bd
00000270: 21a9 c8bc 4281 e53e 6e25 0b3e fdef 193e
00000280: 8028 aebd c3af 833d c469 b63c 7e39 013d
00000290: fa15 043d fb20 113c 1f0c 1c3d 965d 283d
000002a0: 360f 1d3d e7f2 77bd 452c 8dbd 60a8 253d
000002b0: 8133 10bc f9a4 a73c 773b 7cbd 17e8 2bbd
000002c0: cff1 5cbd b2a0 b93e 3a7f f93d e8ed a83b
000002d0: 7798 9f3b 01f1 193d e180 fdbc c416 083e
000002e0: 1cd8 193d 1ad3 8e3e 8736 84bd 49a8 ccbc
000002f0: fa33 aa3d 0299 9ebd 2bfe 263e 2ae1 9b3c
00000300: 4bae 8ebd d7bb 8abc a570 1c3c 02ef 73bd
00000310: be1f 2b3e 1ddc b83e 548f 77bd 5d1d 5abd
00000320: a7a3 99bd 3d39 5cbc bc0e 8cbc 511f a03d
00000330: 89b5 f13d a327 a6bd 2dee fcbc 1bff 28bc
00000340: 1315 aabc 9167 333c 363a 83bc 3c53 dd3b
00000350: 453a bc3c 1648 e93d 3fa6 ba3c 9010 4fbd
00000360: b417 373e 6ec3 553d e623 2d3d 177a 0f3e
00000370: c154 b3bd e9ba 64bd 5624 8e3c 9956 e8bc
00000380: 5867 a3bc 437a ed3d 4357 a43d 0513 253d
00000390: 93f0 7cba ad86 493d 46d0 bcbd fc26 6d3c
000003a0: 119c bb3c 9cf3 863b c4f3 2c3d 3eaf 1abb
000003b0: 96d4 83bd 566e 073d 14e2 803c d0a4 94be
000003c0: 00d9 ee3d 3c34 363e c90e c93c 5267 b537
000003d0: 47a2 263d 559a 56bd 13a7 c03d 8c85 ecbd
000003e0: 39b5 e0ba 9787 f4bc 0d9b 8e3e 62eb 1f3b
000003f0: 627a 1f3e 60b2 01bd eebb 90bd ea4e 98bd
0.11431785 0.033751987 -0.07432198 -0.07578736 0.23672682 -0.07228521 0.036184408 0.040765826
0.03671816 0.013146794 -0.0037350599 -0.05928407 -0.03652179 0.04111731 0.044088997 -0.048176724
0.028985433 -0.017946532 -0.00688827 -0.022445759 0.051373255 0.026015926 -0.019783182 0.16259685
0.18198131 0.012821213 -0.1304691 -0.07373359 -0.05590921 0.034008875 -0.107182644 -0.06157796
-0.028203776 0.041009713 -0.05981622 -0.0086348895 -0.057259098 -0.01595442 -0.011467235 0.11560449
0.16729538 0.04338832 -0.015745685 0.008994279 0.0031171273 0.18177086 -0.0014476574 0.04239352
0.13452522 -0.025629664 0.51331973 -0.061148293 0.12923984 0.0010244387 -0.013165185 -0.090539604
0.0422436 -0.095341645 0.03614434 0.006086681 0.065482624 -0.00088276697 -0.0058974787 0.038871232
-0.012904961 -0.06583319 -0.14853474 -0.039151855 0.008223847 0.0059624864 -0.045112103 -0.045872245
-0.040513054 -0.06098293 0.03402318 0.036181763 -0.011114956 -0.044749442 0.0074223923 -0.03283042
-0.07480848 -0.039998975 -0.026091514 0.016483009 -0.05316441 -0.021805206 -0.041313957 0.035974246
0.033539828 0.027354317 0.0005153429 0.0064689233 -0.0839284 0.04874163 0.016830854 0.014680032
-0.028900877 0.008858339 0.040371235 0.116105184 0.04176486 0.004980914 -0.0469487 0.029723689
-0.15319537 -0.035398316 0.010085611 0.030259948 0.028156415 -0.011539975 -0.024811516 -0.0056925225
0.025800796 -0.010339747 -0.057171583 0.043161225 0.18492337 -0.044049483 -0.072143756 0.09157609
-0.02499107 0.016606 -0.059168518 0.3576127 -0.03274944 -0.018340286 0.008823732 -0.05562335
-0.008703606 0.010555351 -0.22234492 0.028550755 -0.004701323 -0.041998383 0.017176213 -0.015323835
-0.0053591067 0.07828244 -0.067883216 0.014145463 0.16552074 -0.00714722 -0.041591294 -0.055726834
0.0017980261 0.03001379 -0.094060324 -0.028605906 -0.060993128 0.01823419 -0.010824982 0.16630232
-0.09228474 -0.07126518 -0.067441784 -0.05220409 -0.02449471 0.44825178 0.13588497 0.15032955
-0.085038185 0.06430008 0.02226723 0.03154897 0.03224752 0.008857961 0.038097497 0.041104876
0.038344584 -0.060534384 -0.06893209 0.040443778 -0.008801342 0.020464407 -0.061580148 -0.041969385
-0.053941544 0.36255413 0.1218247 0.0051553138 0.00487047 0.037583355 -0.030945243 0.13289934
0.037559614 0.27895433 -0.06455713 -0.024982588 0.08310695 -0.07744028 0.16307895 0.019028265
-0.069668375 -0.016935272 0.009548341 -0.059554107 0.16711327 0.36105433 -0.060439423 -0.05325066
-0.07501917 -0.013441381 -0.01709687 0.07818473 0.11802203 -0.08113029 -0.03087529 -0.010314728
-0.020762002 0.010949985 -0.016018968 0.006754307 0.022977004 0.113907024 0.02278435 -0.050552905
0.17880136 0.05218833 0.042270564 0.14011417 -0.087564 -0.055842314 0.01735131 -0.028361605
-0.01994674 0.11595585 0.08024456 0.04030134 -0.00096488855 0.049200702 -0.092194125 0.014474627
0.022901567 0.004118396 0.04222466 -0.0023602988 -0.06437032 0.03306421 0.015732802 -0.29031992
0.11662483 0.17793363 0.024543183 2.1624994e-05 0.040682103 -0.052393276 0.09406867 -0.115489095
-0.0017143852 -0.02984981 0.2785267 0.0024401774 0.15574029 -0.031664252 -0.07067095 -0.07436927

fc3.weight f4 [5, 256]
00000000: e9c5 303f 32e6 203d cf25 0abd ce11 183d
00000010: 4096 793f 74c7 e6be 4457 68bd 06b7 0f3f
00000020: 0002 cf3b 8600 d4bc 427f 72bd d455 e53b
00000030: c41a 9bbd bc68 d73c 0c4b b93c 9ccd fb3c
00000040: 4417 68bd 2f02 483d 1402 32bd 00b8 fdbc
00000050: cf93 383f 6c14 37bd 80d6 1c3c 0a6d 6a3f
00000060: 3bb4 e23e b400 acbc 671d 72bf a8cf 1bbd
00000070: ad73 6bbb 07b2 34bc 9faf 97bf da5f 633d
00000080: f8de c6bc 2b2b 27be f771 483f 1922 24bd
00000090: 0863 9c3e e236 423d f4c2 4c3d 7623 423f
000000a0: 4c49 43be f390 8e3f 49b1 2d3d 54f6 673e
000000b0: e8ee 983d f1eb 9b3f 6ad6 f43c 3036 2c3d
000000c0: b8f7 f53e 3407 bfbc 2143 cf3f a854 a7bc
000000d0: 94c4 123f 55b1 103d 884b 733c b1b7 0b3f
000000e0: db91 ae3b 8327 a93d 6060 c93b 5ce4 863b
000000f0: 1704 d03e fc74 12bd c330 50bc 5770 15bd
00000100: bbd4 4abc c0e3 4cbb 16f8 32bf b413 8dbc
00000110: 7a16 073d 3a2e 1ebd 14f0 d63b 077b ee3f
00000120: f0af 633d 0fa3 ffbc 00a1 5f3b b31a 5f3f
00000130: 9707 71bd 1438 183c 8062 ec3c 85ca 1fbd
00000140: 35e3 e1bd 85d2 bfbc 0cc1 b739 8404 25bd
00000150: 4077 9d3c 7da9 a93c ae8b 64bc 60ce 76bc
00000160: 7711 05bf c8b7 163f e8d4 84bc 225a a33c
00000170: e45c 56bd c673 3d3f 8573 0ebd 8c2f 12bd
00000180: 08df 2fbd 35c3 c6bc c254 1b3b 77f3 593f
00000190: f897 e1bb f313 2cbd 5c68 cd3a 85ff 0e3f
000001a0: 822d c13f f6a3 763d 71c1 c53c dff5 423f
000001b0: c086 d6bb c557 3a3b f218 6e3d b564 0cbd
000001c0: 1594 fe3f edf5 f13c 96ee 57bd e1ff fa3c
000001d0: 6f88 363f f615 073d 7521 73bd 621d 013f
000001e0: 3950 5abd db94 3abc 626a 61bd 8a4d b33f
000001f0: 3d87 1a3c 0b41 fe3d dad2 16bd 5212 72bc
00000200: f855 073d e00b 0bbd 5a20 5b3e 8c7e 39bd
00000210: 3405 9a3c 608a 033d 8f11 c1bc ac2a a33c
00000220: 5621 0c3d 4751 cf3f 7e78 53bf 0415 31bd
00000230: 194c 753f 3410 143d d2e2 a33d d9ef 02bd
00000240: d665 803c 40e3 5a3c 62f9 13bc 5274 24bd
00000250: 883f ed3b fd87 183f c931 adbb 286d 20bf
00000260: 06b2 503d 325b cd3b 6faa b53c 5251 cc3a
00000270: d983 6c3b 0207 d53f 73d2 183f 36c6 17bc
00000280: 5447 ffbc 60bc 0d3f 2872 78bd 8ed4 95ba
00000290: 0dd0 adbc 3f28 b1bc 3011 5cbd b268 233c
000002a0: c46e bfbc 3fcf 953b a35c 373b f673 14bf
000002b0: 2776 f8bc 83d3 5fbc 80e6 e03a 713c 0c3d
000002c0: 4eab b53c ffd0 823f 8ff5 293f dbbd a1bb
000002d0: 2f43 3ebd 16a3 6bbd c20d 1d3c 160a cd3f
000002e0: f626 913c 7135 b9bf 43ef 55ba 6d6c 28bd
000002f0: 19e2 bd3f 93de f7bc 0798 16bd 7107 2cbd
00000300: f087 a7bb 2899 543c 9c80 e6bc 6112 b83c
00000310: 452b 1b40 61f8 d13f 3504 5abc cb43 fa3b
00000320: 001f d13b 6c1e 8239 23ba 003d 134c fc3e
00000330: 85f3 963f 7b09 fcbc ce93 6a3d 9fc7 9fbb
00000340: cb96 acbc 2c15 6f3c c7fa a73c 975d 07bc
00000350: ca9a 4b3d 5ece 063f 3e0c 9cbc 2566 b9bb
00000360: 7a98 043f ae4a fe3e 6cf6 c3bc 2efa 1c3f
00000370: 72ea 04bc 66f4 6c3d 4444 2bbd 80c1 c0bb
00000380: 3c69 33bd d0c1 6c3f fe2e 2840 725e 503a
00000390: bcce 86be d3e7 4f3f 1c8f f93c 14aa 6fbd
000003a0: e242 3c3c b163 d23b 9efb 383d 102b 21bd
000003b0: 850e beba 20b5 323d 2709 36bd 1e7e ab3d
000003c0: 04f1 283f 9dbf 7d3f ff64 263c 491d 393c
000003d0: 82ab 363f 43b0 92bb 3554 3b3f 6ac4 093f
000003e0: b594 283a 5889 3abd 5eec d8bf a8bf 16bd
000003f0: dd9d 4c3f 5276 3a3f 40a6 a9bf f4f6 b53c
0.69051987 0.03928203 -0.033727463 0.037126355 0.9749489 -0.45074046 -0.056723848 0.56138647
0.006317377 -0.025879156 -0.059203394 0.006998757 -0.075734645 0.026295058 0.022618793 0.03073769
-0.056662813 0.048830207 -0.043459013 -0.030971527 0.7210054 -0.04469721 0.009572625 0.9157263
0.4427813 -0.020996429 -0.94576114 -0.038039833 -0.0035927102 -0.011028773 -1.185047 0.055511333
-0.024276242 -0.16325061 0.78298897 -0.04007158 0.30544305 0.04741562 0.04999061 0.7583536
-0.1907093 1.1137985 0.0424054 0.2265256 0.07467443 1.2181379 0.029887397 0.042043865
0.48040557 -0.023318864 1.6192361 -0.02042611 0.57331204 0.035325367 0.014849551 0.54577166
0.005327446 0.082594894 0.006145522 0.004116578 0.4062812 -0.035756096 -0.012706938 -0.03648409
-0.01237982 -0.003126368 -0.699098 -0.01722131 0.03298042 -0.038618304 0.0065593813 1.8631295
0.05558771 -0.031205682 0.0034123063 0.87150115 -0.05884513 0.009290714 0.028855562 -0.039011497
-0.110296644 -0.023415813 0.0003504831 -0.04028751 0.019221902 0.020710701 -0.013949318 -0.015063852
-0.51979774 0.5887418 -0.016214803 0.01994044 -0.05233468 0.7400478 -0.034778137 -0.035689875
-0.04293731 -0.024263004 0.0023701643 0.8513712 -0.006884571 -0.042011213 0.001567136 0.5585864
1.5092013 0.06021496 0.024140092 0.7615642 -0.006546825 0.0028433662 0.05812926 -0.03427573
1.9888941 0.029536212 -0.052717768 0.03063959 0.7130193 0.032979928 -0.05935808 0.5043546
-0.053299163 -0.011388029 -0.055033095 1.4008038 0.009431657 0.1241475 -0.036822177 -0.014774876
0.03304097 -0.03394687 0.2139906 -0.0452867 0.01880131 0.032114387 -0.023567943 0.019917808
0.03421148 1.6196679 -0.8260573 -0.043232933 0.9581924 0.036148265 0.08002247 -0.031967018
0.01567356 0.013359845 -0.009031625 -0.040149994 0.0072402395 0.595825 -0.005285476 -0.6266656
0.050951026 0.006266975 0.022175996 0.00155882 0.003608933 1.6642764 0.5969612 -0.009263566
-0.031161942 0.5536556 -0.060655743 -0.0011431144 -0.02121737 -0.021625636 -0.05372733 0.009973692
-0.023368247 0.004571825 0.00279788 -0.5798944 -0.030329777 -0.013661268 0.0017158538 0.03423733
0.022176411 1.022003 0.6639032 -0.0049359626 -0.04645079 -0.057528578 0.0095858 1.6018703
0.017718773 -1.4469434 -0.0008160958 -0.041119028 1.4834625 -0.030257499 -0.03676608 -0.041999284
-0.0051126406 0.012975968 -0.028137498 0.022469701 2.424516 1.6403924 -0.013306667 0.007637476
0.0063818693 0.00024818198 0.031427514 0.4927679 1.1793066 -0.03076624 0.057269864 -0.0048760916
-0.021067997 0.01459245 0.020505322 -0.00826206 0.049708165 0.5265864 -0.019048806 -0.0056579285
0.5179516 0.4966635 -0.023921214 0.61319244 -0.008112537 0.057850264 -0.04181315 -0.005882442
-0.04380153 0.92483234 2.6278682 0.0007948644 -0.263296 0.8121311 0.030463748 -0.05851181
0.0114905555 0.0064205755 0.045161836 -0.03934771 -0.0014500177 0.043629766 -0.044442322 0.08373664
0.6599276 0.99120504 0.010155915 0.011298486 0.7135545 -0.0044765784 0.73175365 0.5381533
0.00064308505 -0.045541137 -1.6947134 -0.03680387 0.7992838 0.7283679 -1.325386 0.022212483

fc3.bias f4 [5]
00000000: 1012 823e fa99 a6bd 84de bf3d ed88 d13d
00000010: 1ac9 2a3e
0.25404406 -0.081348374 0.09368613 0.10231195 0.16678277
