other_model/dqn_team_a_ep540.pth (torch, 286849 bytes, 6 tensors)

fc1.weight f4 [256, 14]
00000000: ff0b ff3e 3139 f8be ae00 c83e cc7b 99be
00000010: 0edf 2e3c 5d7b 88bd 5820 903e f04f 01bd
00000020: 539a 0ec0 9267 a33f 12b0 86c1 0285 d940
00000030: 217e fd3d cdf6 bc3e 45dd 4abc f107 523e
00000040: 8266 c03c 8be7 2e3e d965 87be 308b 2a3e
00000050: c850 16be 93d0 42be f2fe 10be d6d5 7f3d
00000060: 3067 473e 89cb 2cbe a33a b2bd e9c4 b7bd
00000070: 25e1 ffbd 4c35 7cbe 67e7 4b3e a7ce 0abd
00000080: 1c4e 4dbe 270d 403e c698 0fbe 8d15 31be
00000090: 6d7f d53d b204 16be c140 65be f5a6 4dbd
000000a0: 5d2f 95bb 564e 2d3d c3eb 31bd 26b3 3bbe
000000b0: 09fb 3cbe a07b a33d 1e9f efbd 481e 583c
000000c0: 45e7 7dbe f24f 273e 7a95 4bbe 0076 313c
000000d0: bacf 32be 6a6f 3e3e 1a4a d43c d9a5 11bd
000000e0: 7e4e b8bf e098 24bf 40e6 a8bf e20a a8bf
000000f0: ff04 d23e 867d 6c3f 61bf d83e 41fb f3bd
00000100: 22e2 38bf c520 7c3f 684d 9bc0 3d8e 803f
00000110: 3b78 883d 2bd9 e63c 98bf 8fbe 6bcf e4be
00000120: 30b4 603e 037d 6cbe 63a4 3b3e ad21 10bd
00000130: c013 533d b89e 0fbe d192 81be 3286 5abe
00000140: 9a24 8c3e 908f febc 4c2c 0fbb 6c43 dfbc
00000150: ff8e 25be c14a c3bd 01e5 5f3e f7c9 84be
00000160: 5c08 43be 9792 743e eb34 d23d ffd2 5cbe
00000170: d91c 30be bc6f 81bd 8006 73be 44d2 8cbc
00000180: 9f50 6d3d 0f09 cebd 0975 1f3f 68f6 00bf
00000190: 8557 993e f59c c7bd aff8 a13e 573d 0f3f
000001a0: 2b9c 8a3e 0beb d33e 8cf2 18be e766 89be
000001b0: 31c4 a33f e397 bb3f 235e 0abe 99f6 423d
000001c0: 66f9 53be 3151 88be 9517 123e 4fe5 573e
000001d0: 9cf2 0f3e 7770 173d 3705 4f3e 9e36 5fbe
000001e0: 7ccc 6bbe a936 a9bd f8bb 99bc c9fa 8d3c
000001f0: 2cde 39be 99ab 86be 5e0b ce3e fd5d 583d
00000200: 5cb4 f23e 518b 5c3e 7436 85be 94ef 3bbe
00000210: c3ba ccbe 34bf 9f3e 6185 a33e d879 25bf
00000220: 61f8 623e 25c0 8ebf f8fc 053e 4262 f03d
00000230: 61ec 9d3d 20da 7dbf 1d7d b8bc e427 2b3e
00000240: 2947 373e 205a b8bd c0e1 793d 9f52 94bb
00000250: c89c 5d3d 9a59 2cba 8174 7d40 024f 933f
00000260: bb41 ed3d f632 8f3d 3767 eabd b4d8 543e
00000270: 7440 9c3a bd2e 6abe dd98 1dbe 680b e9bd
00000280: 4033 02bd 3810 cdbd b5b2 963d 438d 053e
00000290: b8a1 4dbe ea7f 9c3d 28df 2abe 787e 253e
000002a0: c96b 033f 5781 523e 8530 2a3f fd04 0e3f
000002b0: 289f 833d a94d 27bf c2ee d13e 9474 7f3e
000002c0: 4230 18c0 92a7 6a3f b52e 3bc1 e441 1440
000002d0: 3831 413e 338d 3e3d 5ab1 7e3e 9012 9f3e
000002e0: ab8b 463e fb1c 3c3e 3e08 9ebe a10f 2bbf
000002f0: 1cfd 16bf c80e 07bf f346 2c3d 1810 e2bd
00000300: 10a8 8dbf 213b 2d3f 35fe 3c3d 6373 4e3d
00000310: 55b5 103d cb5a c1bf 6e89 98bd db6a 98be
00000320: d2f0 5b3e e531 3f3e 770f cebd 8a29 823e
00000330: 2cac be3e af76 213f 9374 8140 7399 2440
00000340: b2c5 b23c 522b de3d fea7 023e 5a8f 6e3f
00000350: e5a5 be3e 13f1 583e 8504 833e 70ae 98bd
00000360: c989 ed3e 4c0d 4dbe fb17 9cbe cada e3bf
00000370: 8daf a4be a765 47c1 9e57 16be e67e 223d
00000380: e7bc e3bb e5a9 623e 922f d83e 9981 e23d
00000390: bd41 09bf a1b3 9c3e 77ea bebf cf18 903d
000003a0: 214a 0e3d 839b 9ebd 7002 8dbe 3b6f 313e
000003b0: 7c32 923d 418b 7ebe 87dd 18be fffb 39be
000003c0: 6812 123e 9e83 7ebe 4433 eabd 4d16 1ebb
000003d0: eef9 fe3d 9d33 58be b80e 1f3c 2ad2 71be
000003e0: 7ae8 c4bd 2d1b 913b bc49 2ebe ab8d 36be
000003f0: d69a 2abe 2cdf 86be 2dea 4ebd e135 023e
0.4981384 -0.48481134 0.3906302 -0.29977262 0.010673298 -0.06664155 0.28149676 -0.031570375
-2.2281692 1.2765982 -16.835972 6.7974863 0.12377573 0.36907044 -0.012381856 0.20510842
0.02348638 0.17080514 -0.2644489 0.16654658 -0.14679253 -0.19024877 -0.14159754 0.06245979
0.19472957 -0.16874518 -0.0870259 -0.089731045 -0.12494115 -0.24629706 0.19912492 -0.033888485
-0.20049328 0.18755017 -0.14023122 -0.17293377 0.10424695 -0.14650229 -0.22387983 -0.05020805
-0.0045527653 0.042311035 -0.04343773 -0.18330058 -0.18455137 0.07982564 -0.11700271 0.013190813
-0.24795254 0.1633909 -0.1988124 0.010831356 -0.17462054 0.18597189 0.02591424 -0.035558555
-1.4398954 -0.6429577 -1.3195267 -1.3128321 0.41019437 0.92379034 0.4233351 -0.11913157
-0.7222005 0.984875 -4.853199 1.0043408 0.06663557 0.028179726 -0.28075862 -0.44689497
0.21943736 -0.23094563 0.18324427 -0.035188366 0.051532507 -0.1402539 -0.25307325 -0.21340254
0.27371675 -0.031074315 -0.0021846471 -0.027253829 -0.1616783 -0.095357426 0.21864702 -0.25935337
-0.19046158 0.23884045 0.102639996 -0.21564864 -0.17198505 -0.0632014 -0.23732948 -0.017190106
0.057938214 -0.100603215 0.62287956 -0.50375986 0.29949585 -0.09746734 0.31635043 0.5595297
0.27072272 0.4139026 -0.14936274 -0.2683632 1.2794248 1.4655727 -0.13512473 0.047598455
-0.20700607 -0.26624444 0.14266808 0.21083568 0.14057392 0.03697249 0.20216833 -0.21798179
-0.23027223 -0.08262379 -0.018766388 0.017331498 -0.18151158 -0.26302794 0.40243047 0.05282401
0.47403228 0.2153752 -0.26018107 -0.1835311 -0.39986238 0.31200564 0.31937698 -0.64639044
0.22165062 -1.1152388 0.13084781 0.11737491 0.07711101 -0.9916096 -0.022520596 0.16714436
0.17898239 -0.09001565 0.061006308 -0.0045264508 0.054104596 -0.0006574631 3.9602358 1.1508486
0.11584803 0.06992142 -0.11445468 0.2078579 0.0011921064 -0.22869392 -0.15390344 -0.11379129
-0.031787157 -0.10012859 0.073583044 0.13042168 -0.20081222 0.07641585 -0.1668669 0.16161525
0.5133634 0.20557152 0.66480285 0.5547636 0.06426841 -0.65352875 0.4100247 0.24946815
-2.3779454 0.9166194 -11.698903 2.3165216 0.18866432 0.046521377 0.24872342 0.3106885
0.19389217 0.1837043 -0.30865663 -0.6682072 -0.58979964 -0.5275693 0.04205985 -0.11038226
-1.1066914 0.6766835 0.04614087 0.05040301 0.03532918 -1.5105833 -0.07448088 -0.29769024
0.21478584 0.18671377 -0.100615434 0.25422317 0.37240732 0.6307172 4.0454803 2.5718658
0.021822784 0.108481064 0.12759396 0.9318749 0.37235942 0.21185713 0.25589386 -0.07455146
0.46394184 -0.20024604 -0.30487046 -1.7801144 -0.32165185 -12.462317 -0.14681861 0.0396718
-0.006950009 0.22135122 0.42223793 0.11059875 -0.53615934 0.30605796 -1.4915303 0.07035982
0.034738664 -0.07744505 -0.27540922 0.17327587 0.071385354 -0.24857809 -0.14928256 -0.18162535
0.14264834 -0.24854895 -0.114355594 -0.002412218 0.12450014 -0.21113439 0.009708099 -0.23615327
-0.09614654 0.0044282884 -0.17020315 -0.1782748 -0.16660628 -0.26342142 -0.050516296 0.12715866

fc1.bias f4 [256]
00000000: bfcd 5c3e 085c e13d 2970 87be 47ef 11bd
00000010: 84df a13c 6491 b2be 7c04 06be 0889 45bd
00000020: ab0c 1f3e 1b9f 833e 5799 693d d546 6c3d
00000030: daf1 403e 3675 a1be 4f91 e83d d293 823d
00000040: 069e a8bd 69be 2abd 06d2 5bbe e13b 25be
00000050: f6ed 3ebc de9a 023e d403 e2bd ed02 733d
00000060: 2547 6ebe 764f 263e a35e 5bbd 3529 63be
00000070: c265 3a3e bad1 483e 7956 81be 3e90 81be
00000080: 0b08 09bc 0fd6 a0bd d807 91be 3c44 87bb
00000090: 134a f33d a377 7fbd 46e1 57be e81f 60bd
000000a0: d084 61be 8dee 513e cf08 7abd dd08 d23c
000000b0: ddfc 76be 2ba3 80be 4857 98be a05f 063f
000000c0: 1f81 543d 38db c93d 210b 6ebe 8f39 4dbe
000000d0: d5d5 9abd 971f 54bb d091 89be c465 d4bc
000000e0: 3f31 bbbe da0f 463e 97bb 0f3c 8344 8d3e
000000f0: 2b0a 513e d1ca f53d a9d5 63bd 3487 f0bd
00000100: 0858 4e3e 8090 3b3e 85d6 1e3c 6b50 41be
00000110: cf88 b43d 3a10 7e3d 1a5d 853e 6e35 f2bc
00000120: f57b ad3e e500 7dbd a1d7 e3bd 8909 863d
00000130: 94f5 b5bc db65 03be 0759 433d d2b5 4d3d
00000140: e1f3 51be 88fa 90bd b4fe 633e 5dc3 283e
00000150: ca34 52be 524c ab3d d7ee 81bd e618 383e
00000160: 33a4 d63e 2163 dabe 9495 c8bd 4bf4 413d
00000170: 97c8 92bd deb0 be3c 38dc 9c3d ea0d fbbd
00000180: 32d8 5ebd f725 f23d b48e a1be 3791 133e
00000190: a92d 0fbd 5014 053f f697 50bd c48c 313d
000001a0: 4119 523d dc39 7a3b 4333 c63d dac0 d93d
000001b0: b83d a2bd fe24 9abc 4e99 0b3f 4fbc 80be
000001c0: ba0b cd3d 70ba 9dbe 534b 0cbe 6790 293d
000001d0: 06ed 603c 395b 693d f780 95be dc7d 91be
000001e0: d098 bbbc 53dc 2d3d aa24 4cbe 3a62 153e
000001f0: 5067 5b3e 594a 59be 907e 063d 3927 84be
00000200: bb02 a93d e953 99be 27fc 973e 65e5 4bbd
00000210: 326d df3e c93b 673e 23e3 043e 5040 82bc
00000220: a8e7 b93d fed7 803e 7e67 9ebd f01b f53c
00000230: ed40 7b3d 7493 b83c 811b 94be 3561 793e
00000240: 39bb 483d 7a73 bb3e cc06 8abd 9ec4 043e
00000250: f0fa febd e42f adbe 35a5 2abd 0d3f c7bd
00000260: a716 5e3e a69a 353d e7cf 7bbd 1b7d 74be
00000270: e52a 17be 632d 873e ca41 33bd 7e51 4d3e
00000280: fbb6 61be a6b7 223e e089 dd3c 137c ddbd
00000290: 500f b7be f583 88be e1db f73e 71de d13d
000002a0: 608d 7c3e bb8d 5ebe 8810 40be 889e 1dbe
000002b0: d032 9c3e b8b0 55be 1e63 3cbe 2cdc fb3c
000002c0: 9715 063d 8c3b 803e f53c 2d3e ec43 ff3d
000002d0: b11f 1cbe 9a0f 89be 34be 55be f92a 533e
000002e0: ac56 32be 1e58 1c3e 8bc0 983d febe 6b3e
000002f0: ae3f e8be 2c2c 3abe 0b86 dcbb a450 5abe
00000300: b5f0 91bd 2429 e73e c32a a4be cf60 4dbe
00000310: ca4b 66be c513 24bd 7ee7 93bd 432d 643e
00000320: d770 b9bc 512f bdbe 7227 433e 3127 39bd
00000330: 85f7 323d f897 943d 7a97 0abe 7492 45bd
00000340: c15d 0dbe b3e8 aebe a646 83be f17e 92be
00000350: 4a7d c5bc 95ed df3d 826a 91be 736d 93be
00000360: 24f9 0d3e 4acf 4b3e 06f4 c4bd a5d2 be3d
00000370: 8d05 4a3e 1648 abbe 5c19 29be 7c73 02bd
00000380: ac97 73be 2322 d73d 3bff 1d3e 7e8e 143d
00000390: a8bd 813c b04a d5bd 3112 75be cc3a 653d
000003a0: 67a3 d13d 3a8a c53c 8efb a23d 579a 71be
000003b0: cb03 5dbe 1671 86be d52f 473e 91f3 403e
000003c0: 787a 8abe aa1a b0be 6059 f93d b53e 743d
000003d0: 2248 57be 790c 343e b8fd 62be 9c06 8abc
000003e0: 3e18 5dbe 36af 56be 3757 0cbd ceb6 3bbe
000003f0: 76b0 a4be 7146 80be c63e a9be 51a2 aabe
0.21562861 0.11003882 -0.2645276 -0.035628583 0.0197599 -0.3487655 -0.13087648 -0.048226386
0.15532176 0.25707325 0.057031002 0.05768474 0.18842259 -0.31534737 0.113558404 0.06375851
-0.082332656 -0.041685496 -0.21466836 -0.16136123 -0.011653414 0.1275439 -0.110358864 0.059328962
-0.23269327 0.1624125 -0.05355705 -0.22183688 0.1820288 0.19611254 -0.25261286 -0.2530536
-0.008363734 -0.078533284 -0.28326297 -0.004128007 0.11879363 -0.062369954 -0.21082029 -0.05471793
-0.2202332 0.20501156 -0.061043557 0.025638992 -0.24119897 -0.25124487 -0.2975409 0.5248966
0.051880952 0.09856266 -0.23246433 -0.20041488 -0.075603165 -0.0032367462 -0.2686906 -0.025927432
-0.3656101 0.19341984 0.008772752 0.27591333 0.20414035 0.12001575 -0.055623684 -0.11744538
0.20150769 0.18316841 0.0096947 -0.18878333 0.08815157 0.062027194 0.26047593 -0.029566493
0.33883634 -0.06176843 -0.11125112 0.065447874 -0.022211827 -0.12831824 0.047692325 0.050222225
-0.20503189 -0.07079035 0.2226513 0.16480775 -0.2052795 0.08364166 -0.06344383 0.17978248
0.4192215 -0.42653754 -0.09794155 0.047352117 -0.07167166 0.023277696 0.07659191 -0.12258513
-0.0544054 0.118236475 -0.31554186 0.14410864 -0.034955654 0.5198412 -0.05092617 0.043347135
0.051293615 0.003818146 0.09677746 0.10632487 -0.07921928 -0.018816467 0.545308 -0.25143668
0.10012002 -0.30806303 -0.13700609 0.04139748 0.013728386 0.056971762 -0.29199955 -0.28416336
-0.022900015 0.042446446 -0.19935861 0.14588252 0.2142613 -0.21219768 0.032835543 -0.25811175
0.08252474 -0.2994683 0.29684564 -0.049779315 0.43637997 0.225814 0.12977271 -0.015899807
0.09077388 0.2516479 -0.07734583 0.029920548 0.061341215 0.022531249 -0.28927234 0.24353488
0.049006674 0.3661154 -0.06739578 0.12965629 -0.12450206 -0.338256 -0.04166146 -0.09728823
0.21688329 0.044336937 -0.061477568 -0.23875849 -0.14762457 0.26401815 -0.043763913 0.20050618
-0.22042458 0.15890369 0.027043283 -0.10814681 -0.3575387 -0.26663175 0.48409942 0.102475055
0.24663305 -0.21733753 -0.18756306 -0.15392506 0.30507517 -0.20868194 -0.18397185 0.030744635
0.032735433 0.2504543 0.16917785 0.12464127 -0.15246464 -0.26769716 -0.20873338 0.20621862
-0.17415875 0.15267989 0.074586 0.23022076 -0.45361084 -0.18180913 -0.0067298464 -0.21319824
-0.07125989 0.45148575 -0.32063875 -0.20056461 -0.22489849 -0.040057916 -0.07221888 0.22282891
-0.022636814 -0.36950162 0.19058016 -0.04520339 0.043693084 0.07255548 -0.13534346 -0.04823537
-0.13805296 -0.3416191 -0.25639838 -0.28612474 -0.024107594 0.10933987 -0.28401572 -0.2879444
0.13864571 0.19903293 -0.09616856 0.09317521 0.1972868 -0.33453435 -0.1651358 -0.031848416
-0.23788327 0.10504558 0.15429394 0.036268704 0.015837505 -0.10414636 -0.2393272 0.055964276
0.10236245 0.024113763 0.079581365 -0.23594032 -0.21583478 -0.26258153 0.1945184 0.18842913
-0.2704656 -0.34395343 0.1217525 0.059630115 -0.2102361 0.17582883 -0.22167099 -0.016848855
-0.21591279 -0.20965275 -0.034262862 -0.18331453 -0.3216588 -0.25053743 -0.33055705 -0.33326963

fc2.weight f4 [256, 256]
00000000: c11a cabf c0ef 9dbc 841a 9d3c 649b 643d
00000010: 9ccf 20c0 1e69 f03d 9e81 36bd 7fdb 133f
00000020: a43c 8f3c 9fc6 7f3e 0f75 0b3f 3009 ed3c
00000030: 3346 773e 6760 963f 5fd4 993f 242b edc0
00000040: abd8 cebe 1a20 01bd c81d fe3c 45c4 0fbd
00000050: 9f15 60bf 2210 9a3f 0a6b 9abc 9209 72bf
00000060: 899b 0e3f ee2f 5840 8060 6bbc f415 dbbc
00000070: 00ca 6fbe 7411 1ec0 0db9 5a40 8c6e bdbe
00000080: 32ec 18bd 8ef8 363c a47b ba3d a905 b4bf
00000090: 3bec 943c 6142 463c 808f 9bbb fbf2 b53f
000000a0: 50d8 2cbc 1b19 323f 5099 f6be 464d 51c0
000000b0: 3aa1 cdbc 8072 033a 182d 2ebd ad6a 17c0
000000c0: 7d7a 2d3d 6acd cd3f 164c 82bd 3612 a1bb
000000d0: 9f7e 4c3f 9845 b13c 4527 7cbd a8ac c2bc
000000e0: edaf 0dbf 20ec 273b d8ad 0bbd 14e9 20bf
000000f0: 784d db3c 0a6f 66bd 06d4 443f 5c57 c3bc
00000100: 7a1c 793d 4ce8 e9bf ee64 793d b359 83bf
00000110: 45c1 e8bf 006b 353a a012 94c0 2163 6ebf
00000120: 66b9 d43f 2bb1 00c0 e980 b03f 8e03 403d
00000130: 23d8 3e3d 9c13 30c0 f2e2 8d3f cc87 18bf
00000140: 715d 893e 8624 673d 79c9 01c0 3a60 dbbf
00000150: 28c8 7abd 56e6 083c 4b07 2740 6069 99bb
00000160: 2671 dfbf d2fb 0ebf 3555 a5bf 5015 cc3c
00000170: 2df1 2940 3c3a ea3c 9024 2abd dc18 2640
00000180: 927f c93f d09b da3c 8454 bdbc cb4d 41bf
00000190: e46c efbe 1f31 0ac0 bd1c b9be d8a0 953f
000001a0: 5c1e 813c c09c 3d3c 30fb e03c 2a5c 9b3f
000001b0: b44b 0f3c d835 c0bc ac9c 7fc0 4259 583d
000001c0: e64d 403f 288e a83b be91 39bd c8c8 f23c
000001d0: ec6a a2bf 0f28 123d 49d6 c33d 6686 3040
000001e0: 56ff 4dbf 63fb 17bc 4163 15c0 ae5b 26bd
000001f0: b281 67bd 91ac 9cbd ded5 583d 6f74 933b
00000200: 2af6 b0bc c84b 2abf e2c8 033f ce65 013d
00000210: d038 bc3d 3364 6e40 026d f33f a8d4 a93c
00000220: f147 393d 9ab8 9b3f 3ef8 ffbf b609 973e
00000230: 6c64 8ebc a018 70be f4e7 e1bf 997f d8bc
00000240: 343d 853d d86a 29c0 57fb a9bf dfed 84c0
00000250: 6911 173c 55a6 10bf 519d 8dbe aec1 a9ba
00000260: 8a8b 8640 53e8 7e3d a60e 37be c4ae d4bc
00000270: b7a3 fdbd 9449 ae3c e09c e6bb c59e 6ebb
00000280: df90 513d 5e66 373c f4fe 6b3d 3f36 56be
00000290: 0a94 1bc0 8e52 1b3d e7d9 7ebf 08be e13c
000002a0: 4a4c 18c0 4c0c 18bd 25b4 8a3c 4beb 1540
000002b0: 8c9a 1440 e2c5 2f3d 3833 bfbc 76f6 5dbd
000002c0: 689c 25be 64e6 c0bc 91c4 32bd 95ff 1bc0
000002d0: 0611 08be 46c3 4040 9d17 e13e d62f b5bc
000002e0: af2f f03c 3682 083f 6c8f 0440 af3e a33c
000002f0: 020e 983f 96b6 40be 6399 8dbf 42d6 45bd
00000300: 63dc 2540 745a 303f 51b2 053f 604f 81bb
00000310: b298 4c3d 0e10 0940 42b8 e6be 6dbe 963e
00000320: 557c 62c0 5c90 0640 1a79 3abd d163 c93f
00000330: f1b1 99bd 953a b9bf 38c9 823f 08e2 263c
00000340: e797 33bd 2c84 97bd 7dd8 143f e30d 283f
00000350: e87d 073d 4ef7 343d 0e90 d23e c531 6640
00000360: 148a 3f3d 6c11 e03c 0980 62bd b0b6 09bd
00000370: 1904 94be 0f0d 02bf 6f37 803f 13b7 4abc
00000380: fbf8 ee3f 68a4 56c0 a052 6f3c 1d6e 4d3b
00000390: 85fd 293e e1ef 3c3d 331c 2c40 cbbe f33f
000003a0: 14fc 243d d335 3440 d861 abbf 9e7c 3c3d
000003b0: 9cde 3d40 54fc 7abe 6857 53bd b1b9 42bf
000003c0: 7df9 4fbb 77a3 703f 988b e8bc 6267 5c3d
000003d0: 2a55 663d 2823 a9bf 0655 4a3d a8be 70bd
000003e0: 9b4e 7740 4738 f33a 905a e33f 6ef1 bcbc
000003f0: 70b6 4640 84a4 993c 4735 8c3d 042e b0bd
-1.5789415 -0.01927936 0.019177683 0.055812255 -2.5126715 0.117387995 -0.044557206 0.577568
0.01748497 0.24978112 0.5447549 0.028935045 0.24147873 1.174817 1.2017936 -7.411516
-0.4039968 -0.031524755 0.03102006 -0.035099287 -0.8753299 1.2036173 -0.018849868 -0.94545853
0.5570608 3.3779254 -0.014366269 -0.026743867 -0.234169 -2.4698153 3.4175446 -0.36998403
-0.03733463 0.0111676585 0.09105614 -1.4064227 0.01817905 0.012100787 -0.004747331 1.4214777
-0.01054962 0.6956956 -0.48163843 -3.2703414 -0.025101293 0.0005014315 -0.042523474 -2.365886
0.042353142 1.6078312 -0.063621685 -0.004915501 0.7988071 0.02163963 -0.061560888 -0.02376397
-0.55346566 0.002562292 -0.034101337 -0.6285565 0.026770338 -0.05625824 0.7688602 -0.023845367
0.060818173 -1.8274016 0.06088727 -1.0261749 -1.8183981 0.00069205463 -4.6272736 -0.9312001
1.6619079 -2.0108135 1.378934 0.04687839 0.046592843 -2.7511969 1.1084883 -0.5958221
0.26829103 0.056431316 -2.027922 -1.7138741 -0.06122604 0.008355698 2.6098201 -0.004681751
-1.7456405 -0.55853 -1.2916628 0.024912506 2.6553452 0.028592221 -0.041538775 2.5952673
1.5742056 0.026685625 -0.02311159 -0.7550933 -0.46762764 -2.159248 -0.36154738 1.1689711
0.015761547 0.011573017 0.027463526 1.2137501 0.008746076 -0.023463175 -3.9939375 0.052819498
0.75118864 0.0051438995 -0.045305006 0.029636756 -1.268888 0.035682734 0.09562356 2.758203
-0.80467737 -0.009276244 -2.334183 -0.040614776 -0.05652017 -0.07650102 0.052938335 0.004499964
-0.021601755 -0.66521883 0.514784 0.03159123 0.091905236 3.7248657 1.9017642 0.020731285
0.045234624 1.2165711 -1.9997633 0.29499596 -0.01738187 -0.23446894 -1.7648911 -0.02642803
0.06505814 -2.6471462 -1.3279828 -4.154037 0.0092204595 -0.565038 -0.27659085 -0.0012951398
4.2045336 0.06223328 -0.17876682 -0.025962241 -0.12384742 0.02127532 -0.007037744 -0.0036410552
0.05116355 0.01119384 0.05761619 -0.2091913 -2.4309106 0.037920527 -0.9955124 0.027556434
-2.3796563 -0.037121102 0.016931603 2.3424861 2.3219328 0.042913325 -0.023339853 -0.05419012
-0.16172945 -0.023547359 -0.04364449 -2.4374745 -0.13287744 3.0119185 0.43963328 -0.022117537
0.029319612 0.53323686 2.0712538 0.01992735 1.1879275 -0.18819651 -1.1062435 -0.048300035
2.5915763 0.6888802 0.52225214 -0.00394623 0.04995031 2.141605 -0.45062453 0.29442158
-3.5388386 2.102561 -0.045525648 1.5733587 -0.07504643 -1.4471003 1.0217657 0.010185726
-0.043846037 -0.07398257 0.58142835 0.6564619 0.033079058 0.04418116 0.4112553 3.5967877
0.04676254 0.027352057 -0.055297885 -0.03362149 -0.28909376 -0.50801176 1.0016917 -0.01237275
1.8669733 -3.3537846 0.014607102 0.003134615 0.16600616 0.046127204 2.6892211 1.90426
0.040279463 2.8157852 -1.3389235 0.04601728 2.966712 -0.24510318 -0.05159703 -0.7606459
-0.00317344 0.9399943 -0.028386876 0.05380953 0.056233563 -1.3213854 0.04939749 -0.058775574
3.8641727 0.0018556201 1.7762012 -0.023064341 3.104885 0.018755205 0.06846099 -0.08602527

fc2.bias f4 [256]
00000000: ec0d 243e c5d0 663c 93ef cbbc ae4e 59bd
00000010: d64b 103c b472 cc3c 7644 143e 86ff 03bd
00000020: 0c31 51bd 96c9 fcbb ad1c eebd fd04 96bd
00000030: 6912 d3bd 4382 8f3f 51d7 43bd 6754 6ebd
00000040: 9c6a 433e d708 0b3f 764c 543e 842a af3c
00000050: a165 84bd c882 61bd aeb5 0dbe d703 81bd
00000060: 8084 b6be 93a6 73bd 6c57 da3d 9c52 833c
00000070: a301 91bd 110d 043d 7147 6abd 526b 0cbd
00000080: 9449 4ebd c52e 07bc 823d 6d3c a625 82bd
00000090: 17d0 61bd eb44 6fbc 934b 9bbc 81b8 43bc
000000a0: 7793 0ebd 9a19 dcbd b38f 00be 03b9 67bd
000000b0: 7538 e0bc fa54 4dbc 7dd8 86bc 49e8 9cbe
000000c0: ae84 1e3d 3ddd dcbe ceae f7bb d662 f53b
000000d0: 80d9 52bd e744 6abd b83b 94bd e33d 2e3d
000000e0: 844d 843f 6913 4fbd 1dcb a9bd 1621 a5bd
000000f0: 37b0 35bd f794 123e 748d 1c3e e4fa 84bd
00000100: 2659 d5bb 6afc 0c3d 93a1 2b3e f797 0ebd
00000110: bc33 8abb 9f3c 963c 495e c0bd 32ee d33e
00000120: 114d 82bd 36bc 46bc 3454 cbbd 21f5 9cbb
00000130: 1753 95bd b533 2b3c e5d5 c7bc b9dd 0bbd
00000140: 10a4 c03c 44a3 92bd 771c d4bc 760f d6bc
00000150: f80b 9dbe 4772 4e3e 57e2 1a3d 9463 013d
00000160: 3e1d ffb9 40e9 b0bc 5525 ee3d e32a c7bd
00000170: 3ff7 99bd 39d0 ea3e 74ce 6a3c bed9 9fbd
00000180: 5edb 27bd 664b 95bd b282 46be ac88 b4bd
00000190: ff11 7bbd f92d 5b3e 8b4e 41bd 9e74 09bd
000001a0: 7db7 253c 364b 34bc 71d4 80bd 7919 79bd
000001b0: 5fd0 2cbd f31c 08bd 1e42 d33e f238 c03d
000001c0: c335 e7bc 003a 503e 7070 8a3d af46 85bd
000001d0: 4c1c b5bd b214 6bbd d916 023f 5f93 91bd
000001e0: 3040 62bd d356 97bc facb 05bf cdbd 07bd
000001f0: 2d2c d93c 338a 01bd 523e 29be 9d3a 53bd
00000200: 665d ea3e a539 e0bd 0e54 20bd 2112 a7be
00000210: 41a0 93bd fed2 81bd 287b c1bd 3b68 c63e
00000220: 9b80 08be df53 08bd d3de 6dbd 0a43 cebe
00000230: 51f5 d23c afe8 b5be 4830 03bd cc7b b6bd
00000240: 4e1e c7bc 1135 75be d525 38bc 9ff8 b83c
00000250: 198e 5dbc 6bcc 04bd e8c2 13bd 1925 463c
00000260: e718 7e3e 1a31 083f 3ad2 81bd 447d 24be
00000270: 5543 9dbd 0ae1 50bc e5f5 83bd 8330 8a3c
00000280: 78d3 b03c 7e14 fa3c 646a 683b b015 31bd
00000290: 79c3 e7be 7585 523e f0ff 9e3e 925e fbbd
000002a0: 8e85 6cbc fb3c 2dbe 0174 b63d e9f6 5fbd
000002b0: 2290 b8bd 73ad 3cbd 3096 0ebf eebb 2bbd
000002c0: b3bf a2bd 4c60 51bb b9d9 bebc c7cf eebc
000002d0: afc6 793d 4d2d 973e ca89 adbd 2553 20be
000002e0: 4db1 a2bd eae7 873e 2c35 06bd c29f 3dbe
000002f0: 3c95 80bc df13 aebd 1b85 25bd fd72 a0bd
00000300: 180f 98bb 4142 c03c d153 80bd e615 303e
00000310: fb7e db3e 678e 7cb9 2542 cdbe 348a bbbc
00000320: 4495 a3bd 7710 8cbc 4140 18bd 78d9 793f
00000330: 50df 983c d22c 46be 097d 63bd bfe8 23bc
00000340: 91fc b33d efb4 dc3d add5 90bf 087a 92bd
00000350: 1c1a da3e 1843 d2bc 66da 873c 5fb1 6f3a
00000360: 2bba b83c a9cf 38bd 66f0 3ebc 0761 d4bb
00000370: 5f4c 15bd cde9 76be 3e5d a5bc ebea 85bd
00000380: 4e0d 98bc 9bca 013d 9292 76be d5d3 4b3e
00000390: ccbb 04bd 1165 0a3c 30c9 2e3e 3a25 d33c
000003a0: 68c4 3b3b efb3 2fbe 8381 a43f db32 f93b
000003b0: 274e 0bbd 7a80 96bd 6c54 41be 349e 2f3c
000003c0: 3395 dcbc 638d c5bd 1271 723c 1e75 96bc
000003d0: f422 92bc b86a 1a3c 3c6b 9ebd 9d5e 5d3d
000003e0: e0a9 2c3d 5a57 2b3c ff00 883a ff36 063d
000003f0: 2b6f 68bd 6203 54bd 4075 b837 1039 c03d
0.16020936 0.0140878605 -0.024894511 -0.05305355 0.008807143 0.024957038 0.14479241 -0.032226108
-0.051072165 -0.0077144606 -0.11626563 -0.0732517 -0.10306246 1.1211628 -0.047812764 -0.05818596
0.19083637 0.54310364 0.20732293 0.021382578 -0.06464697 -0.055056363 -0.13838837 -0.062995605
-0.35647964 -0.05948503 0.10661206 0.016030602 -0.0708039 0.032239024 -0.057197038 -0.034282036
-0.05036314 -0.008250897 0.014479997 -0.06354837 -0.05513009 -0.014603834 -0.018956935 -0.011945845
-0.034808602 -0.107470706 -0.12554817 -0.056572925 -0.02737067 -0.012532467 -0.016460652 -0.3064597
0.038700752 -0.4313754 -0.00755868 0.007488589 -0.051476955 -0.057194617 -0.07237953 0.04253949
1.0336156 -0.05055562 -0.08290694 -0.08062951 -0.044357505 0.14314638 0.15288335 -0.06493166
-0.0065108715 0.03442041 0.16760854 -0.034812894 -0.004217593 0.018339453 -0.093929835 0.41392666
-0.063623555 -0.012129834 -0.0992817 -0.004789964 -0.07291239 0.01044934 -0.024393985 -0.034146998
0.023515731 -0.07160047 -0.02589248 -0.02613042 -0.30673194 0.20160781 0.03781351 0.031589106
-0.00048659177 -0.021595597 0.11628214 -0.09724977 -0.075178616 0.45861986 0.014331449 -0.07805203
-0.04098069 -0.07289772 -0.19385794 -0.088151306 -0.06129646 0.21404256 -0.047194045 -0.03355848
0.010114548 -0.01100426 -0.0629052 -0.06081531 -0.042190906 -0.033230733 0.4126138 0.093858615
-0.028223878 0.20334625 0.06759727 -0.065076225 -0.08843288 -0.057392783 0.5081611 -0.07108187
-0.055236995 -0.018474018 -0.5226437 -0.033139993 0.026510322 -0.031625938 -0.1652768 -0.05156957
0.45774382 -0.10948495 -0.03914266 -0.3263102 -0.072083004 -0.06339072 -0.09447318 0.38751397
-0.13330309 -0.03328311 -0.05807383 -0.40285522 0.025751742 -0.35529086 -0.032028466 -0.08910331
-0.024306443 -0.23946024 -0.011239489 0.02257949 -0.013522648 -0.03242151 -0.03607455 0.012093806
0.24814187 0.53199923 -0.06338926 -0.1606341 -0.07678858 -0.012748966 -0.06443385 0.016868835
0.021585211 0.03052735 0.0035463804 -0.043233573 -0.4526632 0.20558722 0.3105464 -0.12273897
-0.014436139 -0.16917793 0.08908845 -0.05467883 -0.09011866 -0.04606385 -0.5569792 -0.04192727
-0.0794672 -0.0031948267 -0.023297178 -0.02915181 0.060980495 0.2952675 -0.08473547 -0.15656717
-0.07943974 0.26544124 -0.032765552 -0.18517974 -0.01569616 -0.08499884 -0.040410142 -0.07834432
-0.004640471 0.023469092 -0.06265987 0.17195854 0.42870316 -0.00024085642 -0.40089527 -0.022893049
-0.079874545 -0.017097695 -0.037170652 0.97597456 0.018661171 -0.19353035 -0.055539165 -0.010004221
0.087884076 0.10776698 -1.1315209 -0.07152182 0.42598045 -0.025666758 0.016583633 0.0009143557
0.02254971 -0.045119915 -0.011653995 -0.006481293 -0.036449786 -0.24112625 -0.020186063 -0.06538948
-0.018561032 0.03168736 -0.2407935 0.19905026 -0.03240566 0.008446948 0.17068934 0.025774587
0.0028651003 -0.17158483 1.2852024 0.0076049394 -0.03401008 -0.07348724 -0.1887986 0.010718871
-0.026926612 -0.09646108 0.014797466 -0.018366393 -0.017838933 0.009424858 -0.07735297 0.05404531
0.042154193 0.010457838 0.0010376273 0.032767292 -0.056746643 -0.05176104 2.1989108e-05 0.09385884

fc3.weight f4 [5, 256]
00000000: 7124 813f 1295 0c3d 746f fb3c 872c 8abc
00000010: 172b 31bd a26b 8a3f a420 2740 e4fc a93b
00000020: 2269 2d3c 448c 56bf 3058 3cc0 0fdd c2bb
00000030: e3cb 9e40 717d 323f 9ffc af40 f236 2dbd
00000040: ddcf 3540 563b 8c3f e156 3940 b814 783c
00000050: 9cf6 c6bb 21c3 27bc 2a93 7340 669b 673d
00000060: 3bee 8540 95d9 ea3b 0cae 3b40 7a61 23bd
00000070: 694f 483c feb2 e33f c6c5 63bd effe 703f
00000080: 6d15 b2bc c240 79bc d656 06bb c3fe 423c
00000090: 1376 8cbc 6433 0a3d a2ee 25bd c1e3 9fbd
000000a0: 3e78 0f3d cf4a bdbc 1c07 9740 a45b 9bbc
000000b0: 7dbc aa3b 88db 9740 4cbe c73c 4e51 2dbe
000000c0: f5eb e83c 75ad 7540 0de4 913c 2646 383d
000000d0: aa1a da3a ec59 383c b3b1 9040 b315 da3e
000000e0: a727 9ebf 7ed3 11bd 6745 1240 8072 483c
000000f0: 05fd ecbc 7bb6 fb40 604a 4440 0a3a 333d
00000100: 5bda 3dbc 0039 033b a3c6 74bf bbd2 243c
00000110: 4f9c cfbb 9e90 2a3c 666d 6a3d 043b ae40
00000120: d2d1 1bbd 281f c0bc 1be2 c5bb 603f 313b
00000130: 18e1 08bc 2046 873c a629 7d3b 0b70 493d
00000140: d524 013d 3ddd 4cbd 8140 443c eabf 8940
00000150: 49a9 4d40 eb8a c8be dc0c 0d40 82a0 1fbd
00000160: 9bdb 0fbd ddef 5cbd d2f4 0c40 82d6 3a40
00000170: e91e 6d3d b403 813f 204e a83b 08fd fd3c
00000180: b85a d63f 7d21 22bd 6deb f8bf f9a6 3640
00000190: 845a 2abc 1de5 6440 3266 6d3d 6a8a 75bd
000001a0: 3c2e 90bc 93bc 31bd 9cfb 2abc d651 84bc
000001b0: 0a97 2fbc 5278 54bd ec5b 6840 659c 7640
000001c0: a7c8 afbc 682a d340 9388 d240 39ef 05bd
000001d0: 4f23 efbb 8113 f8bc 0404 b540 7d1f 8fbc
000001e0: 6b52 98bc f382 9640 25fc 1c40 a660 523d
000001f0: 7053 90bb d9a9 b8bc 191d 7d40 802a f0bb
00000200: 4bf0 5840 913b 8240 00ba 9fbb 8959 b440
00000210: 8311 b53c e286 14bd 0d96 e93c fc5d 4a3e
00000220: 9a30 c440 af2f 16bd 7071 16bd 33dd 15c0
00000230: 8be3 ab3b 8287 fdbf 299c 8740 53f0 873d
00000240: 36a1 cd3c 773d 503e 30c7 b4be b3f9 df3f
00000250: ce3d 19bb 045a d83c 3da0 9b3b 2858 cb3b
00000260: c240 d3bf 6e7e d440 0e48 753d 4474 0e40
00000270: 7ec5 3c3c b5e3 29bd 379f bf3a 8454 383c
00000280: 1c0a 18bd f3d7 efbc 0cab 183c 873e b53a
00000290: d713 f43d 672b 8140 26a4 ffbe 787d 2dbf
000002a0: 61b6 a5bc 8eb2 6f40 131d 9840 ec52 4b3b
000002b0: 575a c1bc b020 8bbb 9556 1640 2160 823c
000002c0: 7877 983c faf3 003c 398e 01bd 86af 1a40
000002d0: e6cb 6040 6d44 de40 f200 0040 a705 7440
000002e0: 7283 e0bc b3d5 6040 9f17 4440 a797 19c0
000002f0: 5111 05bd 694d e03a 269a 3bbd f83c 133d
00000300: 507f d43b 0f6d 8a40 5c75 1bbc 791f 5340
00000310: 90d9 efbf 1ed0 85bc 37f8 b3be bca2 35bd
00000320: 1598 03bb 344a e9bc 5524 ef3b 021e 8040
00000330: 3419 48bd db0a 5b40 798d 6cbc 9828 023c
00000340: d726 1e40 b851 f4bf da24 a93f ace2 6cbd
00000350: cbed f740 e8bf e03c 1d71 bcba e037 393c
00000360: 2f96 17bd 430d 0dc0 d099 393d d6b5 18bb
00000370: 758c a5bc 9406 cc40 6f51 3840 d462 7f3d
00000380: 22c4 333d 141a 573c c12b 6f40 0819 9abe
00000390: 695b 4a3c e8c4 0d3c 66ec 8440 81f0 733c
000003a0: 372a 713e ba29 b240 8f45 fe3f 7b82 89bd
000003b0: f6b4 193d e4ab df3b b791 8640 b276 09bd
000003c0: 3b43 32bd 2733 fbbc 66aa 6b3c cc13 383d
000003d0: fc9e 3b40 1065 8640 9049 b13c 19a9 ac3f
000003e0: 4c0a 763d b671 95bc d017 793c 03b5 7a40
000003f0: 12e6 3c40 25ed 273c acb3 aabc a704 fe3f
1.0089246 0.034321852 0.030692793 -0.016866935 -0.043253984 1.0814097 2.6113672 0.0051876176
0.010584148 -0.8380778 -2.9428825 -0.0059467624 4.9623885 0.6972266 5.4995875 -0.042288728
2.840812 1.0955608 2.8959277 0.0151416585 -0.0060718786 -0.010239393 3.8058572 0.056544684
4.185331 0.007167051 2.932498 -0.039887883 0.012225964 1.7788999 -0.055608533 0.94139
-0.021738732 -0.015213193 -0.0020498536 0.01190156 -0.017146146 0.033740416 -0.04051078 -0.078071125
0.03502678 -0.02310696 4.719618 -0.018964596 0.005210458 4.7455482 0.024382733 -0.16925547
0.028432826 3.838712 0.017808938 0.044988774 0.0016640027 0.011251908 4.521692 0.4259468
-1.2355851 -0.035602085 2.285486 0.01223433 -0.028929243 7.8660254 3.0670395 0.043756522
-0.0115877045 0.0020022988 -0.95615596 0.010060008 -0.006335772 0.010410456 0.057233237 5.444704
-0.038041897 -0.023452356 -0.0060389168 0.002704583 -0.008354448 0.01651293 0.003862956 0.049179118
0.031529266 -0.050015677 0.01197827 4.304677 3.2134573 -0.39168486 2.2039099 -0.03897143
-0.03512154 -0.05393969 2.2024426 2.9193425 0.057890806 1.0079255 0.0051362664 0.031004444
1.6746435 -0.03958272 -1.9446846 2.8539412 -0.010397557 3.576484 0.05795879 -0.059946455
-0.017600171 -0.04339273 -0.010435965 -0.016152304 -0.010717163 -0.05187256 3.6306105 3.8532956
-0.021457983 6.5989265 6.5791717 -0.032698844 -0.0072979103 -0.030282738 5.65674 -0.01747107
-0.018593987 4.703485 2.4528897 0.051361702 -0.004404478 -0.022541927 3.954901 -0.007329285
3.3896663 4.0697713 -0.004874468 5.6359296 0.022103077 -0.036261447 0.028513933 0.19762415
6.130933 -0.03666657 -0.036729276 -2.341626 0.005245631 -1.9806979 4.2378125 0.06637635
0.025101285 0.20335947 -0.35308218 1.7498077 -0.0023382786 0.02641011 0.0047493265 0.0062055774
-1.6504138 6.6404333 0.05988317 2.2258463 0.011521695 -0.041476924 0.0014619593 0.011250619
-0.037119016 -0.029277777 0.0093181245 0.0013827839 0.11917847 4.036548 -0.49929923 -0.67769575
-0.020228567 3.745273 4.753549 0.0031024767 -0.023602648 -0.00424584 2.3490345 0.015914978
0.018611655 0.007870669 -0.031629775 2.416963 3.512445 6.9458528 2.0000577 3.812845
-0.027406428 3.5130432 3.0639417 -2.3998811 -0.032487217 0.0017112914 -0.045801304 0.035946816
0.0064849034 4.325813 -0.00948843 3.298796 -1.873827 -0.01633459 -0.3515031 -0.04434465
-0.0020079662 -0.028477766 0.0072980323 4.003663 -0.04885216 3.4225376 -0.014438027 0.007944249
2.4711206 -1.9087439 1.3214371 -0.05783336 7.7477775 0.027435258 -0.0014376972 0.011304826
-0.03700846 -2.2039344 0.045312703 -0.0023301742 -0.020208577 6.375803 2.8799703 0.06235011
0.04388822 0.013128776 3.7370455 -0.30097222 0.012350895 0.008652903 4.153857 0.014888884
0.2355126 5.5675936 1.9864978 -0.0671434 0.037526093 0.006825911 4.2052875 -0.033560462
-0.043521147 -0.03066404 0.014383888 0.044940755 2.9315786 4.1998367 0.021641523 1.3489105
0.060068414 -0.018242698 0.015203431 3.917298 2.9515424 0.010249411 -0.020837627 1.984517

fc3.bias f4 [5]
00000000: 3d99 45be 53a1 21bf 9c33 d33d 0f26 06bf
00000010: 4d09 14bf
-0.19296737 -0.63136786 0.10312578 -0.5240182 -0.5782669
