other_model/dqn_team_b_ep730.pth (torch, 286849 bytes, 6 tensors)

fc1.weight f4 [256, 14]
000000 92 ec f7 bc 40 99 21 bf 2f 42 f8 bd 94 e3 bf 3e
       -0.030264173 -0.63124466 -0.121219985 0.37478316
000010 ed f9 b3 3e 61 53 0e c0 c5 85 34 be 10 3b b7 bf
       0.35151616 -2.223839 -0.17629154 -1.43149
000020 c2 2c 8f 3f 48 50 f7 bc e0 ba 01 41 e4 57 08 3d
       1.1185534 -0.030189648 8.108124 0.033286944
000030 a6 c0 9d 3e ff b3 37 3d 03 7d 78 be be 89 f5 be
       0.30811042 0.044849392 -0.24266438 -0.4795665
000040 17 b5 9e bd ea 3d 21 3e 78 83 e9 bd 66 43 b4 bc
       -0.07749384 0.15746275 -0.11402029 -0.022004794
000050 d0 86 1d bd 74 7b 8a be d4 52 a6 3e 2f be 3c 3d
       -0.038458645 -0.27047312 0.32485068 0.04607981
000060 a6 fb a6 be 05 86 d2 3d ac 34 28 be d4 c9 b0 bd
       -0.32613868 0.102794684 -0.16426343 -0.08632246
000070 01 17 cb be 17 7b 0d c0 3b 70 3d 3d ab 70 df 3c
       -0.39665988 -2.2106378 0.04624961 0.027275404
000080 a9 e4 92 3d 32 dc 8c 3e 4c 21 4f be 3e c3 72 bd
       0.0717252 0.27511746 -0.20227545 -0.05926823
000090 e3 07 57 bf 3d 8f c9 be 2c 65 a5 c0 dd e1 b5 3f
       -0.8399641 -0.39367095 -5.1686 1.4209553
0000a0 cf f7 08 3f a8 f0 06 3e c5 c3 26 bf ce de c1 bc
       0.53503126 0.1317774 -0.6514247 -0.023665812
0000b0 75 dc 21 bf c1 4f 14 bc da 19 72 be 3b b7 93 bf
       -0.63227016 -0.009052218 -0.23642674 -1.1540293
0000c0 82 4e ae ba e2 86 3d be b6 63 77 3f f2 85 6b 3d
       -0.0013298544 -0.18508485 0.9663652 0.057500787
0000d0 dd 3f 99 40 28 2a 97 3f c6 e7 15 3e 5c f0 17 3e
       4.789046 1.180974 0.14639196 0.14837784
0000e0 7f 53 99 3e 0b 9f ba 3b 12 fd 05 3f bc 0c d9 3d
       0.29946515 0.005695229 0.5233928 0.10598132
0000f0 6f bb 0e 3e 90 8a cf be c5 b8 3b be aa d5 94 bc
       0.13938688 -0.40535402 -0.18332203 -0.01816829
000100 7f 3d 8b be 81 6e ab 3f 12 42 dd bf d8 31 c7 40
       -0.27195355 1.3393098 -1.7285788 6.2248344
000110 e6 34 df be 7c 9a 05 bf 2c c1 24 bf a8 2a 24 be
       -0.43595046 -0.5218885 -0.64357257 -0.16031897
000120 60 a9 19 bf 1a 53 77 3c f5 c3 6c be 01 f7 16 be
       -0.6002407 0.015095497 -0.23121627 -0.14742662
000130 73 a3 6d 3c 70 11 d6 be 13 13 ab be 7d e7 92 3e
       0.014504301 -0.4181018 -0.3341299 0.28692237
000140 63 8e ed 3e 1b da 94 bf 8f 38 86 3e e9 30 0e be
       0.46397695 -1.162906 0.26215026 -0.13885845
000150 71 05 c0 be ca 72 e8 3e 81 0b dc be 31 fa 41 bd
       -0.3750415 0.45400077 -0.42977527 -0.04735774
000160 7d 37 1f be 32 b3 06 c0 7d fc 84 3e 58 a1 82 bf
       -0.15548511 -2.1046872 0.25973883 -1.0205488
000170 03 c1 41 3d ad 84 a4 be a5 9a f8 be 24 a2 fa be
       0.04730321 -0.32132474 -0.48555484 -0.48951828
000180 b2 25 f4 bd e6 3c ad 3d 8d 0f fc 3d 83 cc 5a be
       -0.11921252 0.08458881 0.123076536 -0.21367078
000190 80 61 13 3c c6 f8 03 bf d0 7a 58 3d 13 ed 70 be
       0.008995414 -0.51551473 0.052851498 -0.23527937
0001a0 cd 2c a7 3e 0c d9 8a be 7e 63 b7 be d8 e2 84 be
       0.32651368 -0.2711872 -0.35818094 -0.25954318
0001b0 bf 79 17 3f 43 39 e9 be 5e 58 19 be b8 11 82 be
       0.59170145 -0.455515 -0.14975116 -0.25404143
0001c0 23 0a e7 bc 9b b5 4a bf e4 48 61 3d 8c e7 8b be
       -0.028203076 -0.7918336 0.055001155 -0.27325094
0001d0 14 15 13 3d 3c 9e 7e be 10 07 4d be 84 18 0f 3e
       0.035908774 -0.24865049 -0.20022225 0.13974196
0001e0 21 b8 d7 bf b2 62 27 bf ae 32 8d c0 ec 3c 95 3c
       -1.6853067 -0.6538497 -4.4124365 0.018217526
0001f0 e2 2e fa 3d 3b a5 4d 3d 83 d4 46 be d7 83 d1 bd
       0.122159734 0.050206404 -0.19417004 -0.102302246
000200 57 77 01 be 4a c1 d6 3d c3 7d c1 bd b5 66 33 3d
       -0.12643181 0.10486086 -0.09447815 0.04379912
000210 5c 93 52 be 57 f8 b1 3d ab b0 80 be e3 89 37 be
       -0.20564026 0.08689945 -0.25134787 -0.17923693
000220 a9 23 52 3e ca 7c 34 bc 67 f7 21 be 7e e4 76 be
       0.20521416 -0.01101608 -0.15817033 -0.241106
000230 c5 cb e8 be 3e 70 85 3d 9a bb 2c be 60 ba bb be
       -0.45467964 0.06515549 -0.1686844 -0.3666563
000240 c0 ee 9a bd 55 ea 04 3f 77 77 7e 3e b9 8f 97 be
       -0.07565069 0.5192006 0.2485026 -0.2960184
000250 f1 59 03 3f 88 f5 09 40 25 3f cd 40 77 c0 07 41
       0.51309115 2.155611 6.413958 8.4844885
000260 9a f2 a0 be 5a b1 ea be 92 39 2c bf b0 5a 0c 3f
       -0.3143509 -0.45838434 -0.67275345 0.5482588
000270 11 7b 26 bf b4 a4 5e 3e 9d 21 83 bf 54 f0 c7 3e
       -0.65031534 0.21742517 -1.0244633 0.39050543
000280 c8 42 8e bf c8 40 13 be e4 bd 8a 3e 68 c5 83 be
       -1.111413 -0.14380181 0.27098 -0.25736547
000290 8f 6d e1 bf 58 79 b9 3f 00 4d fe 3c bc a2 15 3c
       -1.761156 1.4490156 0.031042576 0.009133037
0002a0 de 0a 1e bc d5 7e a3 be f2 21 1b be b4 0b 66 be
       -0.009646146 -0.31932703 -0.15149668 -0.22465402
0002b0 81 73 aa be 4e a6 94 be 35 4c c0 be 2d 68 bf 3e
       -0.33291247 -0.2903313 -0.3755814 0.37384167
0002c0 d8 0d 32 3e 1f 79 8c 3f d3 7b 8b 3e 1e 43 00 41
       0.17388093 1.0974463 0.27242908 8.016386
0002d0 99 75 f3 3d a2 46 00 be 9f 34 cc 3e ab 8f f4 be
       0.11887664 -0.12526944 0.39883897 -0.4776586
0002e0 25 e7 79 3d 9f 5e 2b bf 05 98 c8 be b6 79 6c bf
       0.061011452 -0.66941255 -0.39178482 -0.92373216
0002f0 5f 5d 18 be 23 88 88 3d 27 b3 24 3e fb d1 47 3f
       -0.14879368 0.06666591 0.16083966 0.7805478
000300 53 62 35 3e 99 46 09 41 a4 5d 3f 3e 21 a4 2e 3e
       0.17713289 8.579736 0.18688065 0.17054798
000310 9b b3 72 bf 30 b6 9e bf 4d 6c 70 bf d6 96 24 bd
       -0.94805306 -1.2399349 -0.93915254 -0.04018291
000320 b2 fb 03 3d de dc 32 3e a8 15 13 be a0 28 b9 3c
       0.032222457 0.17467067 -0.1436373 0.02260238
000330 94 3e be 3e 82 fc 64 bf b8 2e 02 40 e1 cf cb be
       0.37157118 -0.89447796 2.0341015 -0.39807037
000340 88 b9 00 3d d1 12 48 bd bf 6b bd bd 5a 79 50 3d
       0.031426936 -0.04884607 -0.092490666 0.05089698
000350 b9 7d 86 be 3b fc c2 3d fd 81 4b 3e 5b ca d5 3d
       -0.26267794 0.095207654 0.19873805 0.10438987
000360 f8 d7 1d be 14 66 13 be 98 90 29 3d ce b2 f0 3c
       -0.15414417 -0.14394408 0.04139766 0.029382136
000370 36 19 3d be 67 5c 37 be bb 03 7e be 20 79 f3 3d
       -0.18466648 -0.17906342 -0.2480611 0.11888337
000380 a1 90 26 3f 3f 3f 79 bf d3 ce ef 3e bc 86 7a bf
       0.65064436 -0.9736213 0.46837482 -0.9786184
000390 8a 6c 6d 3e af f5 9e 3e 21 46 97 3e 35 40 3b 3f
       0.23185936 0.31046817 0.29545692 0.7314485
0003a0 95 13 82 be f2 4d 9f 3e 4b 09 e2 bf 0d 43 0f bf
       -0.25405565 0.31114155 -1.7659086 -0.55961686
0003b0 16 52 df be 7b 25 87 be 41 1a f6 3d d5 22 e5 3d
       -0.43617314 -0.26395783 0.12016726 0.11188284
0003c0 d4 cc a1 be 13 9d aa be 0d dd 12 3e 0d 40 e6 be
       -0.31601584 -0.33322963 0.14342137 -0.44970742
0003d0 a9 9a ab be 27 4a 4f be 4f 05 9e 3e 2b 0c 16 3e
       -0.33516434 -0.2024313 0.30863425 0.14653079
0003e0 b7 06 35 bc ad 0f fc 3e 84 2f 00 bd 23 8a b4 be
       -0.011048964 0.4923071 -0.031295314 -0.3526164
0003f0 d1 ed 43 be 80 85 8e bc 60 fd 10 3d c5 dc a8 bd
       -0.19133689 -0.017397642 0.035397887 -0.082452334

fc1.bias f4 [256]
000000 c2 57 dc 3d 7e 6a d6 bd 54 69 eb 3e ed 4c 13 3e
       0.10758926 -0.104695305 0.45978796 0.14384814
000010 62 b5 f6 be 8a 64 82 3e 99 3a 8e be 93 45 87 bc
       -0.4818526 0.2546733 -0.2777908 -0.016512668
000020 0c bf 41 3e 9d 1c 01 3e f1 ce be bd ea 69 90 be
       0.18920535 0.12608571 -0.09316815 -0.28205806
000030 b3 9f 01 bd 9b 09 8f 3e 80 ab f7 bc eb 03 09 be
       -0.03164644 0.27937016 -0.030233145 -0.13380401
000040 cd 4e 19 be ae 0b 84 be 1b 01 42 be ac 42 71 be
       -0.14971466 -0.2579016 -0.18945734 -0.2356059
000050 dd 39 81 3c cc 8c 16 3f 62 c2 a6 3e 95 84 ac 3e
       0.015774662 0.5880859 0.32570177 0.33694902
000060 8b 27 68 bd 18 2e c0 3d 6f 5a 6c bd 21 0b e5 bd
       -0.056678336 0.09383792 -0.05770343 -0.11183763
000070 cc d8 94 ba a9 19 94 3e 8f f3 06 3d a7 06 1b 3e
       -0.0011356114 0.28925827 0.03294712 0.15139256
000080 c2 b0 11 3e fd 02 e5 3d bd 1c 5d 3e 80 ed 4a 3e
       0.14227584 0.111822106 0.21592994 0.19817162
000090 2d b9 88 3e 5f ab 6c be 07 1f 62 be 7f 0e a8 be
       0.26703778 -0.23112248 -0.22082148 -0.3282356
0000a0 c0 4e 3b 3e 48 43 66 be b7 d3 ed 3b ea cd 1a be
       0.1829176 -0.22486603 0.0072579044 -0.15117612
0000b0 7e e4 8d 3d f3 68 7b bd f6 c0 dd 3b 35 44 9c bd
       0.06928347 -0.061379384 0.0067673875 -0.07630197
0000c0 f5 ba 35 3e 2f b5 7f be 11 2c 3b 3c dd a9 b0 be
       0.177471 -0.2497146 0.0114240805 -0.34504595
0000d0 35 1f 58 3d 4b 14 f7 bd b9 ed d7 3e d8 a0 82 3d
       0.052764136 -0.120644175 0.42173555 0.06378335
0000e0 fc 4e e0 bd 60 e9 ba be 95 d7 aa be 3f 8f a2 bb
       -0.10952565 -0.36506176 -0.333676 -0.004960924
0000f0 1f 9e 08 be d9 f8 73 be 8d 76 0b 3e 14 2a 3c be
       -0.13341568 -0.23825397 0.13619442 -0.18375427
000100 38 19 9e 3e 53 fc cb 3c 0f 54 57 bd f2 91 3f be
       0.30878615 0.024900591 -0.0525704 -0.18708017
000110 05 76 87 bb 11 4a d4 be d4 99 ba 3d cf 12 43 be
       -0.004133942 -0.41462758 0.09111372 -0.19050144
000120 e9 22 20 3e 64 99 18 be 96 e8 81 3d b4 ed 9d 3d
       0.15638317 -0.14902264 0.0634319 0.07711354
000130 44 f2 26 be d3 47 5c be 07 1e e2 3d 28 18 7a be
       -0.16303355 -0.21511774 0.110408835 -0.24423277
000140 18 cc 87 bd cd 0c a0 3d 76 2b 20 bd 01 f9 f5 bd
       -0.06630725 0.078149416 -0.039103948 -0.12010384
000150 b2 ab b9 be de 7e af bd 59 2c 06 3d 16 d7 e3 bd
       -0.36263806 -0.0856912 0.032757137 -0.11125009
000160 a2 e9 f7 bd 05 52 bb 3e c8 42 41 be f4 de 06 3f
       -0.12105109 0.36586013 -0.18873131 0.5268395
000170 00 72 0b 3e 6c 27 7f be d2 96 8c be a6 07 01 3f
       0.13617706 -0.24917382 -0.27458817 0.50402296
000180 93 73 7b bd 11 5a 7c bd bb 76 51 bd a7 fa 24 3e
       -0.061389517 -0.06160933 -0.05113862 0.16111241
000190 7b 9f ac be 23 5d 18 bf 33 78 9c be 05 c9 10 3e
       -0.33715424 -0.59517115 -0.30560455 0.14139183
0001a0 cc 91 6c be ae 4e 09 3f c2 0a af 3c 38 8c bd 3e
       -0.23102492 0.5363568 0.021367434 0.3702104
0001b0 da f8 5e 3e f2 5e 77 3e c2 83 47 3d ac fe c1 3c
       0.21774617 0.24157313 0.04870964 0.023681007
0001c0 e0 94 9d bd aa fb b5 be b0 65 87 be 94 ba f9 3d
       -0.07694411 -0.35543567 -0.2644477 0.1219379
0001d0 3e 54 77 be 00 d6 07 be 7b e8 20 be 0c dd cd 3e
       -0.2415323 -0.13265228 -0.15713684 0.40207708
0001e0 9e aa 25 3d 98 71 a9 b8 6f 97 98 bc 45 c6 c3 be
       0.040445916 -8.0797065e-05 -0.018626897 -0.38237205
0001f0 0f 2f 47 3e 40 f6 68 be 5c a5 c3 3d 1d a1 e2 3d
       0.19451545 -0.22750187 0.09553024 0.11065886
000200 66 54 55 bc f0 22 c6 3d 3f 00 d3 bd 50 a3 42 be
       -0.01302061 0.096746325 -0.10302781 -0.19007611
000210 7a 72 65 be 13 57 21 be 92 aa 2b 3e 97 4c ac 3c
       -0.2240695 -0.15755872 0.16764286 0.021032615
000220 cc 85 0d 3b 3b 6b a6 bd e5 3c 71 3d 3b fd a2 be
       0.0021594642 -0.08125921 0.058895964 -0.31833825
000230 73 8e e3 bd 77 af bd bc e0 6a 6f be fe bd 77 3d
       -0.111111544 -0.023154957 -0.23380613 0.060483925
000240 3a 7f 43 be 08 57 e1 3e 91 fe de 3d 34 9d 87 3e
       -0.19091502 0.44011712 0.108883984 0.26487124
000250 1c 20 db bd 16 36 f9 bd 50 45 c9 bd 00 83 ca bc
       -0.10699484 -0.12168519 -0.098276734 -0.024720669
000260 6c 8b d7 bd af 83 3d 3e cf 9f 8a 3e e6 d1 8c 3d
       -0.105246395 0.18507265 0.2707505 0.068759724
000270 5c c3 cc 3d 2b e8 1f be 93 a4 cf 3d ae f8 b0 bd
       0.09998199 -0.15615909 0.10138812 -0.08641182
000280 26 8b 0b bd de 63 4b be 6c bc c8 3d 99 e7 78 3d
       -0.03406825 -0.19862315 0.098015636 0.060767744
000290 80 4e 2c 3e b2 97 3b bd 6c e5 66 3e 89 0d 00 3e
       0.1682682 -0.045798965 0.22548455 0.12505163
0002a0 ab 27 97 3e ea 22 0c 3e 32 fe b9 3e 44 13 f2 bd
       0.29522452 0.13685194 0.36326748 -0.11820081
0002b0 eb 1d 88 bd c6 30 7f 3d 38 30 0b be 56 01 71 be
       -0.066463314 0.062302373 -0.13592613 -0.23535666
0002c0 ad a6 08 3d 42 ad e9 be f9 0b 63 3a 5e 3c ce bd
       0.03336208 -0.45639998 0.0008661147 -0.10070108
0002d0 ba 44 a0 3d 10 1e ae 3d 0f 57 06 3f 72 2d 05 bd
       0.078256086 0.08501828 0.5247659 -0.032514043
0002e0 8e 75 24 3f ba 8a 9c 3d fd 4a 20 be 60 0b 4f 3c
       0.64241874 0.076436475 -0.15653606 0.012636989
0002f0 8c 1a 3d be cf 6e 66 3d 02 31 86 3e d9 dd 87 bd
       -0.18467158 0.05625802 0.26209265 -0.06634111
000300 36 cd 77 be a1 94 bd be 77 bc 02 3e bb a9 2f 3d
       -0.24199376 -0.37027457 0.12767206 0.042886477
000310 fd fd cc bd 91 8b f1 ba 6c b6 1d bd 4c cf 9c be
       -0.10009382 -0.0018428435 -0.03850405 -0.30626905
000320 13 c2 b2 3b 91 a3 5c 3e 52 06 9d be 3b f2 a2 bd
       0.0054552644 0.2154677 -0.30668885 -0.07956358
000330 39 ad a5 3e aa 35 fc 3d f8 85 af 3d bb 9d 0c 3f
       0.3235872 0.12314923 0.085704744 0.5492818
000340 9a 88 0e 3e f8 a1 f1 3d 92 a4 13 3e 68 c5 63 3d
       0.13919297 0.11798471 0.14418247 0.055608183
000350 a6 6f 2d be f7 6b 69 3d 42 bf 6f 3e 4c 24 9b be
       -0.16937122 0.05698773 0.23412803 -0.3030113
000360 db 12 4e be 42 00 2c bd 44 85 4d bd 25 55 35 be
       -0.2012438 -0.041992433 -0.05017592 -0.17708261
000370 ec ed 15 3d f3 0b c8 3d cf 8a c2 3d 54 7d 43 3d
       0.036603853 0.09767904 0.09499132 0.047726944
000380 1e 7d 91 be 3f ed a1 be db 28 26 3e 8b b6 46 3e
       -0.2841577 -0.31626317 0.16226523 0.19405572
000390 6d 7b 35 be 33 9d a4 bd 17 83 be 3e ed c2 ca 3d
       -0.17722864 -0.08037796 0.3720939 0.099004604
0003a0 41 c2 b1 3d 89 32 77 3e 46 5e 80 3e 3e ab d1 3b
       0.08679629 0.24140371 0.25071925 0.0063985875
0003b0 58 df e2 3b 73 05 ab bd db 2d 26 be 5f 11 ed bd
       0.0069235973 -0.08350649 -0.1622843 -0.11575579
0003c0 f6 97 4f be ec 95 2b be d7 45 ed 3d c3 80 17 3e
       -0.20272812 -0.1675641 0.115855865 0.14795212
0003d0 6d 39 18 3e c5 d8 9f 3d c5 5d ea 3e ac 50 25 3e
       0.14865656 0.078050174 0.45774665 0.16144055
0003e0 1e ea 5d bd e3 b4 3e be 86 52 f4 3c fa 18 1d be
       -0.05417835 -0.1862369 0.029824506 -0.15341559
0003f0 e8 dc 75 be 1b 80 cc 3e e5 1b 1b be 07 d8 3f be
       -0.2401005 0.39941487 -0.1514736 -0.18734752

fc2.weight f4 [256, 256]
000000 83 2c 28 c0 9d a3 eb be 87 3b 29 40 1e 96 45 40
       -2.6277168 -0.46023265 2.6442583 3.0872874
000010 f2 3a 22 40 7e 91 8b bf 1a bc 80 bf 5c b9 12 bf
       2.5348477 -1.0903776 -1.0057404 -0.57314086
000020 80 31 a7 bf 94 59 f9 3c 83 b2 0b be 0d d3 06 c0
       -1.3061981 0.030438222 -0.13642316 -2.1066315
000030 9e 79 04 40 ee 50 fd 3f 32 cf 2e 3f 55 be 89 3c
       2.069923 1.9790323 0.68284905 0.01681439
000040 7c 9e fa 3f 8c d5 5e bf 04 01 dd 3c 31 4f f8 3f
       1.9579616 -0.87044597 0.026978023 1.9399167
000050 a0 16 2e 3b 2e 48 90 bf be 63 c6 3f 50 e7 6d c0
       0.0026563779 -1.1272027 1.5499189 -3.7172432
000060 9e 66 df bd be a3 4f 40 19 cf 90 40 1e c1 7d 3d
       -0.109082446 3.244369 4.5252805 0.06195175
000070 f8 7b 6e 3f b9 e4 6e be 3b 07 12 3d eb e2 3f 3f
       0.9315791 -0.23329438 0.035651427 0.74955624
000080 ef db 32 be 85 8c 15 40 d8 95 71 be 85 fe e5 bc
       -0.1746671 2.3367016 -0.23592317 -0.028075466
000090 34 a6 99 c0 4a 0b a6 bc f1 ab 16 bd 0b 4e 79 c0
       -4.8015385 -0.020269055 -0.03678507 -3.8953884
0000a0 a0 e4 fd 3f 5f a9 a8 3f ea a3 18 40 c7 9a 61 bc
       1.9835396 1.3176688 2.3850045 -0.013769812
0000b0 24 da 43 bd 10 73 f7 bb 20 62 2c 3c 8f 02 4d bd
       -0.047815457 -0.0075515583 0.010521442 -0.05005127
0000c0 cd 0e c6 bf d8 93 90 40 48 40 a4 3c 1a 79 13 40
       -1.5473267 4.5180473 0.020050183 2.3042665
0000d0 57 86 15 3f bf 08 a1 3c 42 fc 11 3f f8 98 8b bc
       0.5840811 0.01965749 0.5702554 -0.017040715
0000e0 3c e1 fe 3d 55 29 39 3c 21 f6 35 c0 e2 87 29 3d
       0.12445304 0.011301358 -2.8431475 0.041389354
0000f0 c0 b2 7e 3d 26 7e 96 bf 00 07 87 b9 b2 52 4b bd
       0.062182188 -1.1757247 -0.00025754422 -0.04963941
000100 5d bc b2 3f d0 00 2c 3c 7b 39 b0 be 38 dd 9c 3f
       1.3963734 0.010498241 -0.34418854 1.2255011
000110 09 67 3d 3f b8 8c 1e c0 91 2a fa be 3b e2 46 3f
       0.73985344 -2.4773388 -0.488606 0.7768895
000120 82 7c 0d 3d e0 e1 fc 3b 7e b0 1e 3d d1 ef 07 bb
       0.034542568 0.007717356 0.038742535 -0.0020742307
000130 b4 48 89 3c 45 32 4a bf b1 9b 92 c0 70 0b 28 3c
       0.0167583 -0.78982955 -4.5815053 0.010256633
000140 a5 5f 90 3e 8e be 3b 3d 0d 7e 60 3f 40 a5 80 3d
       0.2819797 0.045836024 0.8769234 0.06281519
000150 b3 63 f7 3f 1d 14 fc be 72 aa 92 40 e5 4b ff bf
       1.9327301 -0.49234095 4.5833063 -1.9945036
000160 1f e6 b6 bf 19 f7 e2 be ff a3 ff bf 49 32 b0 c0
       -1.4288977 -0.44329146 -1.9971923 -5.5061383
000170 e8 a6 1b c0 e8 32 84 bd e2 63 8f be fe ee bd bf
       -2.4320621 -0.06455022 -0.28005892 -1.483856
000180 11 5e 87 bd 85 75 2f bd fe 0a a4 bf 26 7f 36 bd
       -0.066097386 -0.042836685 -1.2815855 -0.044554852
000190 9b a1 2d bf 5a 69 e4 bf df 18 22 bd 2b 1c e9 3e
       -0.67824715 -1.7844651 -0.0395745 0.45529303
0001a0 78 56 00 bf 59 e6 7a c0 14 b9 c5 3c 2f e8 81 bf
       -0.5013194 -3.9203093 0.024136104 -1.0148982
0001b0 c1 63 c9 be 54 d7 ba 3f 19 42 bb 3f f0 b2 b2 bc
       -0.3933392 1.4596963 1.4629546 -0.02181384
0001c0 48 65 25 bd 16 0c 56 3f 9c 46 45 40 d2 83 92 3f
       -0.040379792 0.8361219 3.0824347 1.1446478
0001d0 71 4d 63 3d 12 65 a2 bf e8 28 4a bd cf 98 11 40
       0.055493776 -1.2687094 -0.049355417 2.2749517
0001e0 c0 7b da 3c fd 49 00 40 21 8b d1 bf e1 86 7a 40
       0.026670337 2.004516 -1.6370584 3.9144824
0001f0 1c 56 94 3d a8 ca e3 3f dc b9 cd 3f 7e 72 16 c0
       0.072429866 1.7796221 1.6072345 -2.350738
000200 d5 5a 76 bf af 5b 6e 3e c4 03 31 c1 e7 bb c9 c0
       -0.9623235 0.23277162 -11.063419 -6.3041873
000210 65 b0 5b bf 46 93 a9 3b 14 8c 3a bd 42 e8 65 3d
       -0.8581603 0.005175027 -0.045543745 0.0561297
000220 44 9a 4d 3f 63 fe da 3d e2 0f b9 bd 68 81 f6 3f
       0.80313516 0.10693052 -0.090362325 1.9258242
000230 b0 a9 18 bc 04 c8 46 bd 2a e6 12 3d 04 6c a7 3c
       -0.0093178 -0.048530594 0.035864033 0.020437248
000240 76 8c 0e be 68 f4 a2 40 b0 9a 1e bf 80 b7 28 ba
       -0.13920769 5.0923347 -0.61954784 -0.0006436035
000250 ff fc 35 bf e7 8f 84 bf bc c3 c0 bc 6e ba 73 3d
       -0.71089166 -1.0356416 -0.023530833 0.059503965
000260 6a 36 6a bd 18 94 b7 3e e0 96 73 bf ba 6e 50 3d
       -0.0571808 0.35855174 -0.9515209 0.050886847
000270 7e 7a 0e 3f 72 d0 b3 bc 90 e8 bc bb 9d d7 06 bf
       0.5565566 -0.02194998 -0.0057650283 -0.5267275
000280 68 37 58 3d 70 65 05 be 70 db 8f bd 73 61 08 3d
       0.052787215 -0.13026977 -0.07024276 0.03329606
000290 48 38 56 3d 23 60 dc bd 34 8e 54 c0 0f 4c 77 be
       0.052299768 -0.10760524 -3.3211794 -0.24150108
0002a0 91 85 18 40 74 37 0c 40 a8 41 2e 40 9e 86 39 3d
       2.3831522 2.1908846 2.7227573 0.045294397
0002b0 f4 97 2f c0 68 51 bf bf a6 2a 44 3d 50 f0 1f bd
       -2.7436495 -1.4946718 0.047892235 -0.03904754
0002c0 89 1f 55 bd 3b f6 d9 3f 90 ac 66 3c 39 81 c7 bf
       -0.052032027 1.7028269 0.014079228 -1.5586311
0002d0 b7 da 94 be b1 5e 57 3c 26 9f 83 c0 ec 9a f8 3c
       -0.29073116 0.013145135 -4.1131773 0.03034731
0002e0 f0 db 3e c0 98 75 6b c0 30 06 a8 3f 34 d7 28 be
       -2.982174 -3.6790524 1.3126888 -0.16488343
0002f0 58 9a 73 bc df 1e 8f bf ba 6c e8 bf 6e 74 1e c0
       -0.014868341 -1.1181296 -1.8158181 -2.4758563
000300 60 f1 9c bc c4 07 62 3f f9 11 fd 3f c8 05 6d be
       -0.019158065 0.882931 1.977111 -0.23146737
000310 69 51 60 3d 7b f6 0c 3f 25 c5 fc 3c 18 02 8a 3d
       0.05476514 0.550636 0.030855725 0.067386806
000320 92 90 4e 3d e0 88 11 c0 ed 41 4f 3e 83 42 e3 3d
       0.05043084 -2.2739792 0.20239992 0.110966705
000330 17 ed 6f c0 ec 97 3b 3b f7 95 bf 3f ae bf a1 be
       -3.7488458 0.0028624488 1.4967641 -0.31591552
000340 2c 41 19 bd db d9 e0 bd 7c 76 11 bd 20 ae 53 3c
       -0.03741567 -0.10979053 -0.035513386 0.012919933
000350 92 06 06 bd b4 76 5f 3d c7 49 ec 3f 71 69 63 bc
       -0.03272111 0.054556563 1.8460015 -0.01388012
000360 0c 2a 47 bd 50 59 88 3b 58 6a 4a bf d3 a2 6e 40
       -0.048624083 0.0041610375 -0.7906852 3.728688
000370 a5 73 27 40 38 b1 ec 3f d7 36 a2 c0 b8 96 03 3e
       2.6164334 1.8491583 -5.0691943 0.12850463
000380 13 d1 13 bf d5 2d 53 3e 84 35 19 bd 43 60 89 be
       -0.57740897 0.20622952 -0.037404552 -0.26831254
000390 b0 f9 ae 3c cc 37 50 bd 2b fc 97 bf b0 b6 88 ba
       0.021359295 -0.050834462 -1.187383 -0.0010430422
0003a0 60 34 3f 3c 88 ee ae bc 1b aa 78 40 1e c7 3a 3d
       0.011670202 -0.021353975 3.8853824 0.04560005
0003b0 90 c1 cf bd 3c 93 2e bd ea 58 98 bf 45 75 33 3b
       -0.10144341 -0.042620882 -1.1902134 0.002738313
0003c0 9b 1f a9 3d 8e 09 0b 40 d4 55 4a 40 7d 24 72 40
       0.082579814 2.1724582 3.1614885 3.783477
0003d0 78 b5 1d 40 96 59 69 3d cf 97 38 40 7a 85 a9 3c
       2.464201 0.0569702 2.8842657 0.02069353
0003e0 b7 d2 c9 bf 72 3c 07 bc fe 13 d6 be df 90 33 bf
       -1.576743 -0.008254157 -0.41812128 -0.7014293
0003f0 33 e7 0d bc 13 41 37 c0 5f 02 7c c0 66 bc 67 bc
       -0.008661079 -2.8633468 -3.9376447 -0.014144039

fc2.bias f4 [256]
000000 77 88 87 be 7d 2a 02 3b 1f 36 98 bd 3d dc de bd
       -0.26471302 0.001986175 -0.07432198 -0.10881851
000010 d1 3d aa 3e 56 d2 2f bf 1a 36 14 3d 5f e1 f6 be
       0.33250287 -0.6868032 0.036184408 -0.4821882
000020 b5 ae aa 3c a0 4e 33 bb cb e2 2b bc e5 46 9b bd
       0.02083526 -0.0027360097 -0.010491083 -0.075818814
000030 2a a6 56 bd e8 37 19 3c 4a e7 49 3c f5 54 45 bd
       -0.05240456 0.009351708 0.01232321 -0.048176724
000040 23 ac 56 3c 67 0b fd bc 7c 8a ba bc 2b e0 b7 bc
       0.013102564 -0.030889226 -0.022771113 -0.022445759
000050 56 ea fa be 79 33 40 3c d8 18 8a bd ef e9 d3 3c
       -0.4900691 0.011731022 -0.0674302 0.025868384
000060 9c c8 9e 3f cf 62 66 be 80 54 e6 3e d9 34 ce be
       1.2404971 -0.2249863 0.44986343 -0.40274695
000070 0e 01 65 bd eb 7c 94 3c 80 c2 87 bf 2c 39 7c bd
       -0.05590921 0.018125972 -1.0606232 -0.06157796
000080 38 94 34 bd 98 1d 4d 3f 34 1d 47 bf b4 a2 fb bc
       -0.044086665 0.8012328 -0.77778935 -0.030717231
000090 9a cc e9 bd 06 f9 a8 be 65 0d e0 bc 9a 18 7c bd
       -0.11415978 -0.3300249 -0.027350137 -0.0615469
0000a0 43 02 64 bf b6 3e 19 bf 63 93 e9 3e 85 2f e9 3e
       -0.8906595 -0.59861314 0.4562026 0.45544067
0000b0 b8 48 4c 3b b0 88 e4 bd 26 dd 3a bc 1a 7f ce 3c
       0.0031171273 -0.111588836 -0.011405265 0.025207091
0000c0 bb ed a0 3d 10 09 2a bd c3 d7 3e 3e fe 69 b7 bd
       0.078578435 -0.04151255 0.18636994 -0.08955763
0000d0 ac d5 71 bc 13 a3 b3 be 0b 8d 88 bf 32 93 22 bf
       -0.014760416 -0.35085353 -1.0668043 -0.6350585
0000e0 15 8a 1d bf d5 ff 89 bd 88 01 c6 3e c5 c4 af 3a
       -0.6153882 -0.06738249 0.38673043 0.0013410082
0000f0 0b 80 78 bd 18 58 89 bc b7 9a a4 bc 71 37 1f 3d
       -0.060668986 -0.01676564 -0.020093305 0.038871232
000100 39 3f 25 bd 5c ec c0 bd e5 b1 89 be 7b 9d 10 3f
       -0.040343497 -0.09420082 -0.26893535 0.56490296
000110 50 bd 06 3c 35 4a 37 bc 99 d4 79 bd 44 55 8e be
       0.008223847 -0.011187126 -0.060993765 -0.27799428
000120 6e ff 66 bd 3d c9 79 bd 45 90 1a bc 5d 58 4e 3e
       -0.05639594 -0.06098293 -0.009433811 0.20150895
000130 9d 2a dd bc 5a f7 7d 3e 8a 37 f3 3b 8f 87 47 bd
       -0.026997859 0.24801388 0.0074223923 -0.048713263
000140 f6 b6 0a bf 1b 52 68 bd 5e b0 70 3d ba b0 76 bc
       -0.54185426 -0.056718927 0.058761947 -0.015056783
000150 11 89 89 bd ea 48 cf bd d3 38 29 bd 03 50 8a be
       -0.067155965 -0.10121329 -0.041313957 -0.2701417
000160 b1 91 b6 bc 0e 1d de be 3e c8 7b bc 43 f9 d3 3b
       -0.022286268 -0.43381542 -0.015367566 0.0064689233
000170 d7 69 cc bd 63 33 0c be 17 7f 78 3a 84 84 70 3c
       -0.09981125 -0.13691477 0.0009479387 0.014680032
000180 40 64 3a be 1d 2e e6 bb 4f 5c 25 3d 0f 6c 05 3f
       -0.18202305 -0.00702454 0.040371235 0.5211801
000190 3b ee 2f 3c 3e 98 24 3f 35 8b 9b 3e a2 8f c2 be
       0.010737951 0.64294803 0.30379644 -0.38000208
0001a0 28 b3 02 bf ad 62 33 bd 1e 3e 25 3c 35 70 f0 be
       -0.5105462 -0.043795276 0.010085611 -0.46960607
0001b0 d1 16 49 3c de a5 e0 bc 85 41 cb bc ae 8b a1 bc
       0.012273506 -0.027422842 -0.024811516 -0.019719925
0001c0 ca 92 c9 be 0b 68 29 bc c0 2c 6a bd fc 9a 68 3c
       -0.39369804 -0.010339747 -0.057171583 0.014197107
0001d0 3d 4a b2 bd 3b 6d 34 bd 50 52 3e 3e d1 c8 d1 be
       -0.08705566 -0.044049483 0.18586087 -0.40973523
0001e0 13 ba cc bc f0 d3 be 3b f8 b3 be bd de ff 22 bb
       -0.02499107 0.0058236048 -0.0931167 -0.0024871747
0001f0 b1 32 47 bd b9 7d 11 3f 00 f1 bb bc ee 7e e6 3e
       -0.048632327 0.5683246 -0.022942066 0.45018715
000200 bf 6c c3 bc ce 92 ae bb 0f 5d b4 be 46 e3 e9 3c
       -0.023855565 -0.005327559 -0.35227248 0.028550755
000210 8e 0d 9a bb 9f 11 97 bd 06 95 cd 3f 15 95 e3 bc
       -0.004701323 -0.07376408 1.6061103 -0.027781049
000220 72 9b af bb a3 c6 00 bf 27 21 7a be 5f c2 67 3c
       -0.0053591067 -0.50303096 -0.24426709 0.014145463
000230 ff 24 b8 3c 3a 33 ea bb 02 96 4c bd d2 41 64 bd
       0.022478579 -0.00714722 -0.049947746 -0.055726834
000240 13 5f f5 be 60 85 67 3c 3c 57 23 3f e1 39 36 bd
       -0.47924098 0.01413092 0.63804984 -0.04448879
000250 4e 3d 90 bd 1d 1a 0f bf 44 5b 31 bc c7 61 20 3f
       -0.07042943 -0.5589922 -0.010824982 0.62649196
000260 c8 ff bc bd 0d e1 a7 bd eb 1e 8a bd 72 ca f2 be
       -0.09228474 -0.08197222 -0.067441784 -0.4742008
000270 21 a9 c8 bc be 94 0d bd 91 47 38 be 6d 4f 1d bf
       -0.02449471 -0.03456568 -0.1799605 -0.6144932
000280 f3 36 ef bd d1 ec c9 3c 6f 0f 43 3c 21 56 80 3c
       -0.116804026 0.024649056 0.011905535 0.01566607
000290 fa 15 04 3d 95 31 e6 bb ac 9a e1 3c 50 9e ce 3c
       0.03224752 -0.0070249536 0.027539574 0.025221974
0002a0 90 01 b8 3c 9f 80 9c bd 45 2c 8d bd 78 bc 7e be
       0.022461683 -0.0764172 -0.06893209 -0.24876583
0002b0 9d 36 ca bc 73 20 96 3b e1 ae 9a bd 6c 02 97 bd
       -0.024684245 0.004581505 -0.07552887 -0.07373509
0002c0 20 00 8f bd ad 9a 73 be b7 d4 a3 3d 37 fe d9 bc
       -0.06982446 -0.23789473 0.079995565 -0.026610477
0002d0 29 6a bd 3e 32 c5 b1 3c dc 22 61 bd 89 6e f5 bd
       0.36995056 0.021700475 -0.054964885 -0.119839735
0002e0 58 23 cc 3c b1 89 9b bb 2a 9d 10 bd 49 a8 cc bc
       0.024919197 -0.0047466387 -0.035306133 -0.024982588
0002f0 6b 94 92 be 02 99 9e bd 6c 25 00 bf 2a e1 9b 3c
       -0.2862886 -0.07744028 -0.500571 0.019028265
000300 4b ae 8e bd d7 bb 8a bc ee 4c c5 bb ba 7e 9a bd
       -0.069668375 -0.016935272 -0.0060211336 -0.075437024
000310 9d 56 bc be 76 4b 3a bd e3 4e 9c bd 5d 1d 5a bd
       -0.3678483 -0.04548212 -0.07632234 -0.05325066
000320 a7 a3 99 bd 01 51 c9 bc 33 0f d8 bc 52 b8 c3 be
       -0.07501917 -0.024574758 -0.026374435 -0.38226563
000330 1f 50 ed be a3 27 a6 bd e8 cd b5 3c 7c 37 30 3e
       -0.4635019 -0.08113029 0.02219291 0.17208666
000340 2e 4c 42 bf 76 19 5b 3f 86 ab 02 bd 3c 53 dd 3b
       -0.7589749 0.85585725 -0.03190186 0.006754307
000350 52 7e 4d 3c 8f 80 3f be 95 25 e2 3b 90 10 4f bd
       0.012542324 -0.18701385 0.006901453 -0.050552905
000360 45 a8 06 be 42 1d 16 bf 07 97 22 3f 8c 66 b2 be
       -0.13150127 -0.58638394 0.635117 -0.34843862
000370 c1 54 b3 bd a1 70 87 bd c5 23 30 3e 4a 33 0c bf
       -0.087564 -0.06613279 0.17201145 -0.5476576
000380 12 c2 12 bd f2 c0 9d be 39 89 72 3d 20 17 bc bb
       -0.03582961 -0.30811268 0.059212897 -0.0057400614
000390 38 04 5f bc e1 26 ea be c8 61 bf be 1e 66 36 bc
       -0.013611846 -0.45732787 -0.3737929 -0.011132745
0003a0 11 9c bb 3c d4 5b d8 bd 87 1c 0f 3e 40 32 81 be
       0.022901567 -0.1056439 0.13975726 -0.2523365
0003b0 d0 5b a4 bd fd 6f ab 3c 14 e2 80 3c 6b f6 0d bf
       -0.08025324 0.020927424 0.015732802 -0.5545413
0003c0 0e 56 1f be d1 bc f0 bd 9c 8a 4d 3c 84 ef 81 bc
       -0.15560171 -0.11754764 0.012545254 -0.01586128
0003d0 1f 1c 24 3e ac 27 a0 bd b9 dc 86 bb 6e 6b cc be
       0.16026352 -0.07820067 -0.0041156677 -0.39925712
0003e0 39 b5 e0 ba 43 da ec 3d 7b 58 7e 3e 45 a3 9c 3e
       -0.0017143852 0.115650676 0.2483844 0.30593315
0003f0 d6 90 30 bf ed b9 43 be be 5f bb be 1a d6 b8 bd
       -0.68971 -0.19113894 -0.36596483 -0.09025212

fc3.weight f4 [5, 256]
000000 e2 2a 30 40 32 e6 20 3d cf 25 0a bd ce 11 18 3d
       2.7526174 0.03928203 -0.033727463 0.037126355
000010 3f 14 5e 40 18 d6 99 3f 44 57 68 bd 71 14 38 40
       3.4699857 1.2018461 -0.056723848 2.8762476
000020 00 02 cf 3b 86 00 d4 bc 8c 35 38 bd 2c c9 d0 bc
       0.006317377 -0.025879156 -0.04497294 -0.025486551
000030 c4 1a 9b bd b4 97 2a 3c a9 b8 dc 3b 9c cd fb 3c
       -0.075734645 0.010412145 0.0067358804 0.03073769
000040 44 17 68 bd c2 f3 06 3d 14 02 32 bd 00 b8 fd bc
       -0.056662813 0.03294731 -0.043459013 -0.030971527
000050 20 c9 79 40 6c 14 37 bd 80 d6 1c 3c ce 69 9b 40
       3.9029007 -0.04469721 0.009572625 4.8566656
000060 f1 60 c3 bf cc 32 01 41 78 c9 e6 40 71 c4 ae bf
       -1.5263959 8.074902 7.2120934 -1.3653699
000070 ad 73 6b bb 07 b2 34 bc 1f ec 5c bf da 5f 63 3d
       -0.0035927102 -0.011028773 -0.8629779 0.055511333
000080 f8 de c6 bc 94 db 53 40 09 a7 47 3f 56 27 c6 bc
       -0.024276242 3.310277 0.7798925 -0.024188679
000090 c7 84 25 40 e9 99 70 40 89 b4 0b 3d 79 77 c5 40
       2.586229 3.759394 0.03410772 6.170834
0000a0 bb 19 3f c0 c3 db 64 3f 69 8d fb bf 57 16 71 40
       -2.9859455 0.8939783 -1.965253 3.7669885
0000b0 e8 ee 98 3d cc bc a2 40 a4 9c 30 3d 30 36 2c 3d
       0.07467443 5.0855465 0.043118134 0.042043865
0000c0 b4 54 77 40 34 07 bf bc e2 93 a3 40 12 df 94 bb
       3.8645449 -0.023318864 5.111802 -0.0045431936
0000d0 b6 ad 52 40 ce 25 42 40 4f 2c 34 c0 1f cc 9b 40
       3.2918525 3.0335574 -2.8152044 4.868667
0000e0 4e e1 04 3f 15 4d 86 bf e4 c9 03 40 3c 41 d3 3c
       0.5190629 -1.0492274 2.0591974 0.025787942
0000f0 8c 9e 21 40 13 83 53 bd 1f 4f f7 bc 57 70 15 bd
       2.525302 -0.051638674 -0.030189095 -0.03648409
000100 b4 d4 4a bc cf 00 51 3c 6d 7e 8d 3e 48 84 a4 bf
       -0.012379814 0.01275654 0.27635518 -1.2852869
000110 7a 16 07 3d 4d cf a3 bc 14 f0 d6 3b d7 a5 c9 40
       0.03298042 -0.01999631 0.0065593813 6.301494
000120 82 a1 22 3d 0f a3 ff bc 82 51 4c bc 57 79 50 40
       0.039704807 -0.031205682 -0.012470605 3.257406
000130 97 07 71 bd 37 3a f9 3f 80 62 ec 3c 36 78 bd bc
       -0.05884513 1.9470891 0.028855562 -0.02312861
000140 90 2e 7f 40 85 d2 bf bc 48 64 7e bf 84 04 25 bd
       3.987217 -0.023415813 -0.9937177 -0.04028751
000150 40 77 9d 3c de 77 55 40 ae 8b 64 bc 45 f9 2d bf
       0.019221902 3.335441 -0.013949318 -0.6795848
000160 4c 13 c5 be c4 8c 6c 3f e8 d4 84 bc 22 5a a3 3c
       -0.38491285 0.9240229 -0.016214803 0.01994044
000170 e4 5c 56 bd 0c d5 34 40 2e ca 9a bc 8c 2f 12 bd
       -0.05233468 2.8255033 -0.018895235 -0.035689875
000180 41 b7 c7 bf be 4c 09 bc c2 54 1b 3b b4 6b 62 40
       -1.56028 -0.008380113 0.0023701643 3.5378237
000190 b5 81 a1 3c 40 0e f1 bf 68 fc 10 bf 04 06 fb 3f
       0.01971517 -1.8832474 -0.5663514 1.9611211
0001a0 8e a2 75 40 db 3d a3 3d 71 c1 c5 3c b5 77 b0 40
       3.8380466 0.07970782 0.024140092 5.5146127
0001b0 c0 86 d6 bb c5 57 3a 3b f2 18 6e 3d b5 64 0c bd
       -0.006546825 0.0028433662 0.05812926 -0.03427573
0001c0 0a 59 bc 40 ed f5 f1 3c 96 ee 57 bd 79 80 5e 3c
       5.885869 0.029536212 -0.052717768 0.013580435
0001d0 7d 04 83 40 f6 15 07 3d 84 3a 84 bf 00 25 5f 40
       4.094298 0.032979928 -1.0330358 3.4866333
0001e0 39 50 5a bd db 94 3a bc ce d5 b5 bd e2 59 9a 40
       -0.053299163 -0.011388029 -0.08878671 4.823472
0001f0 0e 65 d3 bb 9b dc 1e 40 ca af a5 bb f0 0e 16 40
       -0.0064512556 2.4822147 -0.005056356 2.3446617
000200 fb 9f 53 3d e2 fa 93 bc a4 db 00 41 8c 7e 39 bd
       0.05166624 -0.018063966 8.053623 -0.0452867
000210 34 05 9a 3c 60 8a 03 3d b7 1a f0 3e 93 16 1b 3d
       0.01880131 0.032114387 0.46895382 0.037863325
000220 56 21 0c 3d a7 fc 0b 40 4e 76 51 40 04 15 31 bd
       0.03421148 2.1872957 3.2728457 -0.043232933
000230 ec fb 02 40 34 10 14 3d 45 24 a3 3d d9 ef 02 bd
       2.046626 0.036148265 0.07965902 -0.031967018
000240 2a 18 e1 bf 40 e3 5a 3c 84 36 09 c0 52 74 24 bd
       -1.7585499 0.013359845 -2.1439524 -0.040149994
000250 14 80 39 3d 5a 6f 1c 40 c9 31 ad bb 10 9d ee bf
       0.04528816 2.4442964 -0.005285476 -1.8641682
000260 06 b2 50 3d 2b 8c 1d bc 6f aa b5 3c a8 56 f6 3f
       0.050951026 -0.009615938 0.022175996 1.9245195
000270 d9 83 6c 3b 41 dc c1 40 e0 4c 06 40 c0 ea 28 3e
       0.003608933 6.0581365 2.098442 0.164958
000280 ea 54 7a bc ac 4b 6d 40 bf f0 39 bd 8e d4 95 ba
       -0.015279034 3.7077436 -0.04539561 -0.0011431144
000290 0d d0 ad bc 3f 28 b1 bc 52 b8 17 bd b2 68 23 3c
       -0.02121737 -0.021625636 -0.037041016 0.009973692
0002a0 c4 6e bf bc 3f cf 95 3b a3 5c 37 3b 53 2d d8 3f
       -0.023368247 0.004571825 0.00279788 1.6888832
0002b0 27 76 f8 bc 83 d3 5f bc 4f ad a4 3c 71 3c 0c 3d
       -0.030329777 -0.013661268 0.020102171 0.03423733
0002c0 4e ab b5 3c b5 2b 3b 40 4a ca 46 40 db bd a1 bb
       0.022176411 2.9245427 3.1060967 -0.0049359626
0002d0 d2 6b 73 bf 16 a3 6b bd 79 a7 a7 3c 65 88 7e 40
       -0.95086396 -0.057528578 0.0204656 3.9770749
0002e0 d4 fd 27 3d 1d 94 4b c0 a1 05 ad bf 6d 6c 28 bd
       0.041013554 -3.180915 -1.3517343 -0.041119028
0002f0 29 13 a0 40 93 de f7 bc 02 c4 a1 40 71 07 2c bd
       5.002339 -0.030257499 5.0551767 -0.041999284
000300 f0 87 a7 bb 28 99 54 3c d4 f6 cd bc 61 12 b8 3c
       -0.0051126406 0.012975968 -0.02514211 0.022469701
000310 9a e0 92 40 ce 85 b3 40 35 04 5a bc cb 43 fa 3b
       4.589917 5.6100836 -0.013306667 0.007637476
000320 00 1f d1 3b f5 c0 1f bb fc 61 1c 3d 1b 0e 48 40
       0.0063818693 -0.0024376486 0.038179383 3.125861
000330 84 ee e9 be 7b 09 fc bc 2d 92 8d 3e 26 11 03 c0
       -0.45689785 -0.03076624 0.27650586 -2.0479217
000340 a2 44 97 bf 9a db ca 3f 91 77 97 3b 97 5d 07 bc
       -1.181782 1.5848267 0.0046224077 -0.00826206
000350 ca 9a 4b 3d f3 8f 1c 40 3e 0c 9c bc 25 66 b9 bb
       0.049708165 2.446286 -0.019048806 -0.0056579285
000360 a7 4b 40 40 32 ba be 40 ee b9 12 c0 fb ad 73 40
       3.0046175 5.960229 -2.2925982 3.807494
000370 72 ea 04 bc b9 19 a7 40 9b 70 1d c0 80 0d dd bf
       -0.008112537 5.22189 -2.459998 -1.7269745
000380 3c 69 33 bd be 43 6d 40 e3 d8 92 40 d0 9f 88 3c
       -0.04380153 3.7072597 4.5889754 0.016677767
000390 bc ce 86 be 15 9b 87 40 b1 2f a1 40 9f 63 4b bd
       -0.263296 4.237681 5.0370717 -0.049655553
0003a0 e2 42 3c 3c 67 14 d2 40 c0 b6 58 40 f3 43 6c 40
       0.0114905555 6.5649905 3.3861542 3.6916473
0003b0 85 0e be ba 32 b3 8e 3d 27 09 36 bd cd 60 c6 40
       -0.0014500177 0.069677725 -0.044442322 6.1993165
0003c0 dd 7c 8b 40 cf 77 a7 40 57 a8 84 bb f9 38 96 bb
       4.358992 5.233375 -0.004048388 -0.0045844284
0003d0 9d c2 95 40 27 b0 92 bb 32 32 33 40 a8 2c ca 40
       4.6800065 -0.0044765654 2.7999387 6.317951
0003e0 b5 94 28 3a 52 3e 1a bf 2e 5b 84 bf c4 5e c4 bf
       0.00064308505 -0.60251343 -1.0340326 -1.534142
0003f0 2c 93 76 40 04 aa 6c 40 c2 54 27 c0 f4 f6 b5 3c
       3.8527327 3.697877 -2.6145482 0.022212483

fc3.bias f4 [5]
000000 90 61 a7 be 7a 08 8d bf 12 a1 8c bf 3a 5b 32 bf
       -0.32691622 -1.1018212 -1.0986655 -0.6967045
000010 b6 0c fd bd
       -0.1235594
