other_model/dqn_team_b_ep330.pth (torch, 286849 bytes, 6 tensors)

fc1.weight f4 [256, 14]
0	0x3eb9deb1	0.36302713
1	0xbf3f7739	-0.74791294
2	0x3ea33eaf	0.3188376
3	0x3eb8e8c2	0.3611508
4	0x3ebb9264	0.36635125
5	0xbf93cbfd	-1.1546627
6	0xbe11fcc0	-0.14256573
7	0xbf541af3	-0.8285362
8	0x3f65c43f	0.8975257
9	0xbe3a7eb4	-0.18212396
10	0x40b92df7	5.786861
11	0xbfda8a29	-1.7073413
12	0x3e764b71	0.24052216
13	0xbcba4355	-0.022737185
14	0xbe787d03	-0.24266438
15	0xbef589be	-0.4795665
16	0xbd9eb517	-0.07749384
17	0x3e213dea	0.15746275
18	0xbde98378	-0.11402029
19	0xbcb44366	-0.022004794
20	0xbd1d86d0	-0.038458645
21	0xbe8a7b74	-0.27047312
22	0x3ea652d4	0.32485068
23	0x3d3cbe2f	0.04607981
24	0xbea6fba6	-0.32613868
25	0x3dd28605	0.102794684
26	0xbe2834ac	-0.16426343
27	0xbdb0c9d4	-0.08632246
28	0xbeba84e7	-0.3642952
29	0xbfae1fba	-1.3603432
30	0x3dc00e85	0.093777694
31	0xbd4f4c10	-0.05060965
32	0x3e94837e	0.2900657
33	0x3f2f9218	0.68582296
34	0x3cb1d238	0.021706685
35	0x3d66cbdd	0.056346763
36	0xbf9c2f73	-1.220198
37	0x3e890cb1	0.26767495
38	0xbe323c7f	-0.1740589
39	0x3ef21a53	0.4728571
40	0x3e2e7f2e	0.17040703
41	0xbe6e7117	-0.23285328
42	0xbf00fd95	-0.50386935
43	0x3e8e83ec	0.27835023
44	0xbefef28b	-0.4979442
45	0x3e060557	0.13087974
46	0xbebc00de	-0.36719412
47	0xbf07a92f	-0.5299253
48	0xbe048ee6	-0.12945136
49	0xbcec81c1	-0.028870465
50	0x3efb3cb2	0.49069744
51	0x3f159d97	0.5844359
52	0x3f9daa35	1.2317568
53	0x3e0f303c	0.13983244
54	0xbde8e3ce	-0.11371575
55	0xbde4d2c5	-0.111730136
56	0xbd9eb62b	-0.077495895
57	0x3e6c63fa	0.23085013
58	0x3df43ff5	0.11926261
59	0x3e740392	0.23829487
60	0x3e3e7a3c	0.18601316
61	0xbeaad37e	-0.3336448
62	0xbe04464c	-0.12917441
63	0x3daba7d3	0.08381619
64	0xbdd48f42	-0.10378887
65	0x3f459d8b	0.77193516
66	0xbf4b8dbb	-0.7951314
67	0x40569597	3.3528802
68	0xbe93c8d8	-0.2886417
69	0xbebfc9ab	-0.37458548
70	0xbf24c12c	-0.64357257
71	0xbe242aa8	-0.16031897
72	0xbf19a960	-0.6002407
73	0x3c77531a	0.015095497
74	0xbe6cc3f5	-0.23121627
75	0xbe16f701	-0.14742662
76	0x3c6da373	0.014504301
77	0xbed61170	-0.4181018
78	0xbeab1313	-0.3341299
79	0x3e92e77d	0.28692237
80	0x3eed8e63	0.46397695
81	0xbf94da1b	-1.162906
82	0x3e86388f	0.26215026
83	0xbe0e30e9	-0.13885845
84	0xbead4247	-0.33839628
85	0x3efb4e7b	0.49083313
86	0xbec94857	-0.39313003
87	0xbc48f6e7	-0.012265897
88	0xbdfa4bbd	-0.12221477
89	0xc0037b23	-2.0543907
90	0x3e960536	0.2930085
91	0xbf779639	-0.96713597
92	0x3da5a2cb	0.08087691
93	0xbe935432	-0.28775173
94	0xbef89aa5	-0.48555484
95	0xbefaa224	-0.48951828
96	0xbdaf6367	-0.08563881
97	0x3df1ff30	0.11816251
98	0x3e24b89b	0.16086046
99	0xbe323ec0	-0.1740675
100	0x3d3f9bc5	0.046779413
101	0xbef46c7e	-0.47739023
102	0x3db93a60	0.09044337
103	0xbe4b8330	-0.19874263
104	0x3eba6c04	0.36410534
105	0xbe6f4e84	-0.23369795
106	0xbea3da89	-0.32002667
107	0xbe6393c6	-0.2222434
108	0x3f0de44e	0.5542649
109	0xbed6665f	-0.41874978
110	0xbde5a5e2	-0.1121328
111	0xbe5d9e10	-0.21642327
112	0xbc4721de	-0.012154071
113	0xbf4d6a15	-0.80239993
114	0x3d8fc349	0.070196696
115	0xbec65f24	-0.38744462
116	0xbbdbadc7	-0.0067040655
117	0xbe8b12fc	-0.2716292
118	0xbe77fc38	-0.24217308
119	0x3e0eb084	0.13934523
120	0xbfa09ae7	-1.2547272
121	0xbea4444e	-0.32083362
122	0xc08d92a5	-4.424151
123	0xbcf1317d	-0.029442543
124	0x3df9d83b	0.12199446
125	0x3d4cf7df	0.050041076
126	0xbe46d483	-0.19417004
127	0xbdd183d7	-0.102302246
128	0xbe017757	-0.12643181
129	0x3dd6c14a	0.10486086
130	0xbdc17dc3	-0.09447815
131	0x3d3366b5	0.04379912
132	0xbe52935c	-0.20564026
133	0x3db1f857	0.08689945
134	0xbe80b0ab	-0.25134787
135	0xbe3789e3	-0.17923693
136	0x3e5223a9	0.20521416
137	0xbc347cca	-0.01101608
138	0xbe21f767	-0.15817033
139	0xbe76e47e	-0.241106
140	0xbe9b76bc	-0.30364025
141	0x3d96dd0e	0.073663816
142	0x3dde89e4	0.10866144
143	0xbbf74528	-0.007546086
144	0xbd94eeb9	-0.07272095
145	0xbe98edbc	-0.29868877
146	0x3e7edb8d	0.2488844
147	0xbeb3f887	-0.3515055
148	0x3f623adc	0.8837106
149	0x3f96d6a4	1.1784253
150	0x40117761	2.2729113
151	0x406e8c34	3.7273073
152	0xbcb2f40d	-0.021844888
153	0xbe29dc42	-0.16587928
154	0xbf262ba9	-0.6491037
155	0x3f1322a0	0.5747471
156	0xbf206d28	-0.6266656
157	0x3e79c293	0.2439063
158	0xbf7ec365	-0.995169
159	0x3ed53b25	0.41646686
160	0xbf8a82df	-1.0821189
161	0xbdf0e592	-0.11762537
162	0x3e9849dc	0.2974385
163	0xbe6c7302	-0.23090747
164	0xbfe16d8f	-1.761156
165	0x3fb97958	1.4490156
166	0x3d6b867e	0.05750131
167	0x3d11c8b7	0.035591807
168	0x3dfc3941	0.12315608
169	0xbe2d0acd	-0.16898651
170	0xbcc1fbb9	-0.023679601
171	0xbd9fa418	-0.0779497
172	0xbd9d59f4	-0.07683173
173	0xbf642794	-0.8912289
174	0xbdfee57c	-0.124461144
175	0x3d8f3f55	0.069945015
176	0x3e4e3227	0.20136319
177	0x3f5aa907	0.85414165
178	0x3e26047f	0.16212653
179	0x40c09381	6.018006
180	0x3e5473b3	0.20747261
181	0xbd1633b7	-0.036670413
182	0x3c8480a4	0.016174622
183	0x3cf22470	0.02955839
184	0xbea0fde5	-0.31443706
185	0xbe1e3629	-0.15450348
186	0xbecc1539	-0.39859942
187	0xbed6eed0	-0.41979074
188	0xbe0a89f3	-0.13529186
189	0x3e8cf5dd	0.2753133
190	0x3e980fe3	0.2969962
191	0x3eb303b2	0.34963757
192	0x3f438c10	0.76385593
193	0x40b51aae	5.659507
194	0x3e085222	0.13312581
195	0x3def30ff	0.11679267
196	0xbf702950	-0.9381304
197	0xbf202d03	-0.6256868
198	0xbf6fcf44	-0.9367564
199	0x3e8ca564	0.27469933
200	0x3b914321	0.004433051
201	0x3f24b1d2	0.6433383
202	0xbe2cceae	-0.16875717
203	0x3ebdcc51	0.37069944
204	0x3eae4319	0.34035566
205	0xbf005e44	-0.5014384
206	0x3ff18143	1.8867573
207	0xc0145704	-2.317811
208	0x3e51d24b	0.20490377
209	0x3dff3dca	0.12462957
210	0xbdbd6bbf	-0.092490666
211	0x3d50795a	0.05089698
212	0xbe867db9	-0.26267794
213	0x3dc2fc3b	0.095207654
214	0x3e4b81fd	0.19873805
215	0x3dd5ca5b	0.10438987
216	0xbe1dd7f8	-0.15414417
217	0xbe136614	-0.14394408
218	0x3d299098	0.04139766
219	0x3cf0b2ce	0.029382136
220	0xbe3d1936	-0.18466648
221	0xbe375c67	-0.17906342
222	0xbe7e03bb	-0.2480611
223	0x3df37920	0.11888337
224	0x3e87cdce	0.26524204
225	0xbf119c3e	-0.5687903
226	0x3d7685a0	0.06018603
227	0xbf046215	-0.5171216
228	0x3e44e303	0.19227223
229	0x3efc195b	0.49238095
230	0x3e8cef57	0.27526352
231	0x3f2a0d1d	0.6642626
232	0xbea6832a	-0.32521945
233	0x3e76fa58	0.24118936
234	0xbff7b578	-1.9352255
235	0x3f6d003b	0.92578477
236	0xbeada0ba	-0.33911687
237	0xbe2ae699	-0.16689529
238	0x3e0b50bb	0.13605015
239	0x3e02d507	0.12776576
240	0xbe99ab0b	-0.30013308
241	0xbea27b4a	-0.31734687
242	0x3e2320a5	0.15930422
243	0xbede1e44	-0.43382466
244	0xbea378e0	-0.31928158
245	0xbe3f068f	-0.18654846
246	0x3ea62718	0.324517
247	0x3e264fc3	0.16241364
248	0x3b9e6616	0.004833947
249	0x3f0218b9	0.50818974
250	0xbc7c8455	-0.01541241
251	0xbeac685a	-0.33673364
252	0xbe43edd1	-0.19133689
253	0xbc8e8580	-0.017397642
254	0x3d10fd60	0.035397887
255	0xbda8dcc5	-0.082452334

fc1.bias f4 [256]
0	0x3d23d9ea	0.04000274
1	0xbdd66a7e	-0.104695305
2	0x3dc2e488	0.09516245
3	0xbdee1941	-0.116259106
4	0xbeab494d	-0.33454362
5	0x3e82648a	0.2546733
6	0xbe7a1442	-0.2442179
7	0x3cace5e2	0.02110571
8	0x3e4193ac	0.18903989
9	0x3e011c9d	0.12608571
10	0x3e4c1eab	0.19933574
11	0xbe82ddf4	-0.25559962
12	0x3d6944de	0.056950442
13	0x3e6707c8	0.22561562
14	0x3e12ae53	0.14324312
15	0xbe0903eb	-0.13380401
16	0xbd57a6bd	-0.05264925
17	0xbe77d3cc	-0.24201888
18	0xbe42011b	-0.18945734
19	0xbe3162d0	-0.1732285
20	0x3c8139dd	0.015774662
21	0x3ea19438	0.31558394
22	0x3dbc987a	0.0920877
23	0x3e54a888	0.20767415
24	0xbd68278b	-0.056678336
25	0x3e2a3f10	0.16625619
26	0xbc1486ce	-0.009065343
27	0xbde50b21	-0.11183763
28	0x3d74ca2b	0.059763115
29	0x3ea8907e	0.3292274
30	0x3d4801fd	0.04883002
31	0x3e317199	0.1732849
32	0xbc14359c	-0.009045985
33	0x3d8d60ee	0.069032535
34	0x3e44b20a	0.19208542
35	0x3e4aed80	0.19817162
36	0x3e63a996	0.2223266
37	0xbe6cab5f	-0.23112248
38	0xbe621f07	-0.22082148
39	0xbeb285f3	-0.3486782
40	0x3e5df9a3	0.2167726
41	0xbdc4adcb	-0.09603461
42	0x3ca9bf39	0.020721065
43	0xbe13f539	-0.14449014
44	0x3d8de47e	0.06928347
45	0xbd7b68f3	-0.061379384
46	0x3bddc0f6	0.0067673875
47	0xbd9c4435	-0.07630197
48	0x3e35baf5	0.177471
49	0xbe72c7be	-0.23709008
50	0x3c3b2c11	0.0114240805
51	0xbe526aad	-0.20548506
52	0x3d581f35	0.052764136
53	0xbdd79bba	-0.10527749
54	0x3e8beec3	0.27330598
55	0x3d82a0d8	0.06378335
56	0xbcfdbac3	-0.030972844
57	0xbeb2c797	-0.349179
58	0xbe500127	-0.2031294
59	0xbba28f3f	-0.004960924
60	0xbe089e1f	-0.13341568
61	0xbe51cec3	-0.2048903
62	0x3e0b768d	0.13619442
63	0xbe3c2a14	-0.18375427
64	0x3e84122c	0.25795114
65	0x3d92b8c5	0.07164148
66	0xbdd9ecdd	-0.10640881
67	0xbdfa815d	-0.12231705
68	0x3c407ec2	0.011748971
69	0xbe9612b2	-0.29311138
70	0xbc3ad3ed	-0.011403066
71	0xbe4312cf	-0.19050144
72	0x3e2022e9	0.15638317
73	0xbe189964	-0.14902264
74	0x3d81e896	0.0634319
75	0x3dbe74ee	0.09299646
76	0xbe16aeac	-0.1471507
77	0xbe5730d7	-0.21014725
78	0x3d71712f	0.05894583
79	0xbe675a63	-0.22593074
80	0xbd87cc18	-0.06630725
81	0x3da00ccd	0.078149416
82	0x3e00d54f	0.12581371
83	0xbdf5f901	-0.12010384
84	0xbe967daf	-0.29392764
85	0xbd8ef7a4	-0.069808275
86	0x3dcfe94e	0.10151921
87	0x3e0d2b01	0.13785936
88	0xbdb71938	-0.08940357
89	0x3ede4f2d	0.4341978
90	0xbdf7a5cc	-0.1209217
91	0x3ed18d47	0.409281
92	0xbdc15fcf	-0.09442102
93	0xbe7f276c	-0.24917382
94	0xbe8c96d2	-0.27458817
95	0x3ec7f787	0.39056036
96	0xbd7b7393	-0.061389517
97	0xbc48e5be	-0.012261806
98	0xbd313a56	-0.043268524
99	0x3e24faa7	0.16111241
100	0xbeac9f7b	-0.33715424
101	0xbf0324e0	-0.5122814
102	0xbe71e74f	-0.23623393
103	0x3e5f1fcb	0.21789472
104	0xbe8570c8	-0.26062608
105	0x3ee122f5	0.43971983
106	0x3caf0ac2	0.021367434
107	0x3db1dcc6	0.08684687
108	0xbdbf8c45	-0.09352926
109	0x3eaee1b4	0.34156573
110	0xbd8ca66a	-0.068676785
111	0x3cc1feac	0.023681007
112	0xbd9d94e0	-0.07694411
113	0xbebd8063	-0.37012014
114	0xbe5ab37f	-0.21357535
115	0x3c01f153	0.007931071
116	0xbe77543e	-0.2415323
117	0xbea9d0f2	-0.33167225
118	0xbe20e87b	-0.15713684
119	0x3ec7a8c7	0.38995954
120	0x3d25aa9e	0.040445916
121	0x3cc68f0a	0.024238128
122	0x3c02da21	0.007986576
123	0xbe87daa2	-0.2653399
124	0x3e472f0f	0.19451545
125	0x3d918f3c	0.07107398
126	0xbd6a19bd	-0.057153452
127	0x3de2a11d	0.11065886
128	0xbc555466	-0.01302061
129	0xbdffe872	-0.12495507
130	0xbd186443	-0.037204992
131	0xbd748b2a	-0.05970303
132	0xbe65727a	-0.2240695
133	0xbe215713	-0.15755872
134	0x3e3bee2a	0.18352571
135	0x3cac4c97	0.021032615
136	0x3ca0276e	0.019550052
137	0xbda66b3b	-0.08125921
138	0xbe490c9e	-0.1963372
139	0xbe47c4b6	-0.19508633
140	0xbde38e73	-0.111111544
141	0xbbee4a61	-0.0072720503
142	0xbe5f2748	-0.21792328
143	0x3d77bdfe	0.060483925
144	0xbe437f3a	-0.19091502
145	0x3ec97a55	0.39351144
146	0x3e0e2312	0.13880566
147	0x3e879d34	0.26487124
148	0xbc80d8da	-0.015728403
149	0x3bcf261e	0.0063216826
150	0xbdc94550	-0.098276734
151	0xbcca8300	-0.024720669
152	0xbdd78b6c	-0.105246395
153	0x3e36eb98	0.1786331
154	0x3e1f2d63	0.15544657
155	0x3d8cd1e6	0.068759724
156	0x3df7cc21	0.120994814
157	0xbe0fa426	-0.14027461
158	0x3dcfa493	0.10138812
159	0x3e29ba44	0.16574961
160	0xbd0b8b26	-0.03406825
161	0xbe4b63de	-0.19862315
162	0x3dc8bc6c	0.098015636
163	0x3dbac988	0.0912047
164	0x3e2c4e80	0.1682682
165	0xbcf5128a	-0.029916067
166	0x3e36adbf	0.17839716
167	0x3e1339e9	0.1437756
168	0x3e8ef205	0.2791902
169	0x3e7db847	0.24777327
170	0x3e8cde95	0.27513567
171	0xbdf21344	-0.11820081
172	0x3de051e7	0.10953122
173	0x3ea079f5	0.31343046
174	0xbe0b3038	-0.13592613
175	0xbe710156	-0.23535666
176	0x3d08a6ad	0.03336208
177	0xbeb8916b	-0.36048445
178	0x3a630bf9	0.0008661147
179	0xbdf2e85a	-0.11860724
180	0xbd55b2b2	-0.05217237
181	0x3e5853b3	0.21125679
182	0x3ec8db60	0.3922987
183	0xbd052d72	-0.032514043
184	0x3f167901	0.5877839
185	0xbbc6814e	-0.006057895
186	0xbe2638d7	-0.1623262
187	0x3c4f0b60	0.012636989
188	0xbe3d1a8c	-0.18467158
189	0x3e8487b6	0.2588479
190	0x3e74f32c	0.23920888
191	0xbd87ddd9	-0.06634111
192	0xbe77cd36	-0.24199376
193	0xbe7a3f87	-0.24438296
194	0x3e63a29b	0.22229998
195	0x3d2fa9bb	0.042886477
196	0xbd8fbee5	-0.07018832
197	0xbd986801	-0.07441712
198	0xbcb95042	-0.022621278
199	0xbe94d336	-0.2906739
200	0x3bb2c213	0.0054552644
201	0x3d8ace9c	0.06777689
202	0xbe176d4f	-0.14787792
203	0xbda2f23b	-0.07956358
204	0x3ecb448b	0.39700732
205	0x3dfc35aa	0.12314923
206	0x3dcdbd15	0.1004583
207	0x3e991069	0.29895332
208	0x3e0e889a	0.13919297
209	0x3df1a1f8	0.11798471
210	0x3e13a492	0.14418247
211	0x3d63c568	0.055608183
212	0xbe2d6fa6	-0.16937122
213	0x3d696bf7	0.05698773
214	0xb9817442	-0.00024691416
215	0xbe9b244c	-0.3030113
216	0xbe4e12db	-0.2012438
217	0xbd2c0042	-0.041992433
218	0xbe93e73f	-0.28887364
219	0xbdac8ff2	-0.08425893
220	0x3dca2f1c	0.09872267
221	0x3e1d63b1	0.1537006
222	0xbd0ebeed	-0.03485005
223	0xbe8b6a86	-0.27229708
224	0xbe917d1e	-0.2841577
225	0xbe8b8600	-0.2725067
226	0x3e2628db	0.16226523
227	0x3e3c0214	0.18360168
228	0xbe357b6d	-0.17722864
229	0xbda49d33	-0.08037796
230	0x3e8e8ed6	0.2784335
231	0x3dcac2ed	0.099004604
232	0x3db1c241	0.08679629
233	0x3e773289	0.24140371
234	0x3e5f0bd0	0.2178185
235	0x3bd1ab3e	0.0063985875
236	0xbd210b44	-0.039317384
237	0xbdab0573	-0.08350649
238	0xbea63543	-0.3246251
239	0xbdcc8a25	-0.099872865
240	0xbeb1dace	-0.34737247
241	0xbe591c82	-0.21202281
242	0xbce83a77	-0.02834819
243	0xbc954b1f	-0.018224297
244	0x3e4beadc	0.1991381
245	0x3d9fd8c5	0.078050174
246	0x3efe0851	0.4961572
247	0x3e2550ac	0.16144055
248	0xbc0534f7	-0.008130304
249	0xbe3eb4e3	-0.1862369
250	0x3d479e27	0.04873481
251	0xbdcbdd2b	-0.09954294
252	0xbe75dce8	-0.2401005
253	0x3e8a4ca1	0.27011588
254	0x3de9074c	0.11378345
255	0xbe3fd807	-0.18734752

fc2.weight f4 [256, 256]
0	0xbfe7efd6	-1.8120067
1	0xbeeba39d	-0.46023265
2	0x3fb1aca4	1.3880811
3	0x3fe5ca74	1.7952409
4	0x3ea08372	0.31350285
5	0xbf8b917e	-1.0903776
6	0xbf8692e5	-1.0513579
7	0xbf16ca3e	-0.5890235
8	0xbfa73180	-1.3061981
9	0x3cf95994	0.030438222
10	0x3da81e47	0.082089
11	0xc00a89d1	-2.1646616
12	0x3f5dda5f	0.8666133
13	0x3f781234	0.96902776
14	0x3fcb7705	1.5895697
15	0x3c89be55	0.01681439
16	0x3eb2320d	0.3480381
17	0xbf5ed58c	-0.87044597
18	0x3cdd0104	0.026978023
19	0x3f378189	0.7168203
20	0x3b2e16a0	0.0026563779
21	0xbfca1c6c	-1.5789924
22	0x3a9ee9c0	0.0012124106
23	0xbf99151b	-1.1959566
24	0xbddf669e	-0.109082446
25	0x3f7e4667	0.99326175
26	0x4029336c	2.6437635
27	0x3d7dc11e	0.06195175
28	0x3f8b3e7a	1.0878441
29	0xbfb58c7d	-1.4183499
30	0x3ca1f19b	0.019768527
31	0x3f3fe2eb	0.74955624
32	0xbcb5509c	-0.022133164
33	0x3ffc6f84	1.9721532
34	0xbc7e41e0	-0.0155186355
35	0xbce5fe85	-0.028075466
36	0xc094f8f1	-4.6553884
37	0xbca60b4a	-0.020269055
38	0xbd16abf1	-0.03678507
39	0xbfefe96c	-1.874311
40	0xbca53d04	-0.020170696
41	0xbede08a6	-0.43365973
42	0x3f732e56	0.9499258
43	0xbc65f870	-0.014036283
44	0xbd43da24	-0.047815457
45	0xbbf77310	-0.0075515583
46	0x3c2c6220	0.010521442
47	0xbd4d028f	-0.05005127
48	0xbfc60ecd	-1.5473267
49	0x406c38b4	3.690961
50	0x3ca44048	0.020050183
51	0x40330da6	2.797708
52	0x3f158657	0.5840811
53	0x3c4cd67e	0.012502311
54	0x3fc0310d	1.5014969
55	0xbc8b98f8	-0.017040715
56	0x3d1f5d4e	0.03890734
57	0x3cdeb18c	0.02718427
58	0xc03295b6	-2.7903876
59	0x3d2987e2	0.041389354
60	0x3d7eb2c0	0.062182188
61	0xbf967e26	-1.1757247
62	0xb9870700	-0.00025754422
63	0xbd4b52b2	-0.04963941
64	0x40344bb7	2.8171213
65	0xbcb10cb2	-0.021612499
66	0xbf1742c7	-0.5908627
67	0x3f0c0fdb	0.54711694
68	0x3f3d6709	0.73985344
69	0xbf48d402	-0.784485
70	0xbd11a5c2	-0.03555847
71	0x3f46e23b	0.7768895
72	0x3d0d7c82	0.034542568
73	0x3bfce1e0	0.007717356
74	0x3d1eb07e	0.038742535
75	0x3c623dd0	0.013808683
76	0x3d05b2c8	0.032641202
77	0xbf4a3245	-0.78982955
78	0xc06441df	-3.5665205
79	0xbaa12eda	-0.0012297288
80	0x3e905fa5	0.2819797
81	0x3d3bbe8e	0.045836024
82	0x3f7fd59f	0.99935335
83	0x3d80a540	0.06281519
84	0x3fc9e9f6	1.5774524
85	0xbf021af1	-0.5082236
86	0x3f882fb3	1.0639557
87	0xbfb7801b	-1.433597
88	0xbfb6e61f	-1.4288977
89	0x3defe6d1	0.117139466
90	0xbfd2a62e	-1.6456964
91	0xc034aa06	-2.8228774
92	0x3deb2640	0.11481905
93	0xbd8432e8	-0.06455022
94	0xbe8f63e2	-0.28005892
95	0xc0108fe7	-2.258783
96	0xbd875e11	-0.066097386
97	0xbe0527cd	-0.13003464
98	0xbfa5e648	-1.2960901
99	0xbd367f26	-0.044554852
100	0xbf2da19b	-0.67824715
101	0xbfed73dd	-1.8550984
102	0xbcc7cb06	-0.024388801
103	0x3ee50208	0.44728112
104	0x3c17ef8f	0.009273424
105	0xc02c082b	-2.6879985
106	0x3cc5b914	0.024136104
107	0xbf900c44	-1.1253743
108	0xbd1fde31	-0.039030258
109	0x3ff6ff64	1.9296689
110	0x3feea32e	1.8643548
111	0xbcb2b2f0	-0.02181384
112	0xbd256548	-0.040379792
113	0x3eb04bb6	0.34432763
114	0x3fff41fb	1.9942011
115	0x3efb94d4	0.49136984
116	0x3d634d71	0.055493776
117	0xbfb8b708	-1.4430857
118	0xbd4a28e8	-0.049355417
119	0x3fef928b	1.8716596
120	0x3cda7bc0	0.026670337
121	0x3f94bac3	1.1619495
122	0xbfd18b21	-1.6370584
123	0x3f8ab09c	1.0835147
124	0x3d94561c	0.072429866
125	0x3f01cb9c	0.5070131
126	0x4009edd0	2.15514
127	0xc016727e	-2.350738
128	0xbf765ad5	-0.9623235
129	0xbc6a046a	-0.014283279
130	0xc0ef98f8	-7.487423
131	0xc0c32ff9	-6.099606
132	0xbf5bb065	-0.8581603
133	0x3ba99346	0.005175027
134	0xbd3a8c14	-0.045543745
135	0x3d65e842	0.0561297
136	0x3f51ab26	0.81901777
137	0x3ddafe63	0.10693052
138	0x3c539e68	0.012916185
139	0x3ee79ea2	0.45238215
140	0xbc18a9b0	-0.0093178
141	0xbd46c804	-0.048530594
142	0x3d12e62a	0.035864033
143	0x3ca76c04	0.020437248
144	0xbe0e8c76	-0.13920769
145	0xbee1e647	-0.44121
146	0xbf217f1e	-0.6308459
147	0xba28b780	-0.0006436035
148	0x3eb57ba0	0.3544588
149	0xbf99ab16	-1.2005336
150	0xbcc0c3bc	-0.023530833
151	0x3d73ba6e	0.059503965
152	0xbd6a366a	-0.0571808
153	0x3ea6f856	0.3261134
154	0xbf8b68f4	-1.0891404
155	0x3d506eba	0.050886847
156	0x3f0e7a7e	0.5565566
157	0xbcb3d072	-0.02194998
158	0xbbbce890	-0.0057650283
159	0x3f0e9ab5	0.55704814
160	0x3d583768	0.052787215
161	0xbe056570	-0.13026977
162	0xbd8fdb70	-0.07024276
163	0x3d086173	0.03329606
164	0x3d563848	0.052299768
165	0xbddc6023	-0.10760524
166	0xbff3b4d9	-1.9039565
167	0xbe6029c9	-0.2189094
168	0x3fedda78	1.8582296
169	0x3f26613f	0.64992136
170	0x400afa20	2.1715164
171	0x3d39869e	0.045294397
172	0xc027d214	-2.6221972
173	0xbe9ab688	-0.30217385
174	0x3d442aa6	0.047892235
175	0xbd1ff050	-0.03904754
176	0xbd551f89	-0.052032027
177	0x3ff58040	1.9179764
178	0x3c66ac90	0.014079228
179	0xbfc7243e	-1.5557935
180	0xbe9b2188	-0.3029902
181	0x3cdd2cfe	0.026998993
182	0xc0540400	-3.3127441
183	0x3cf89aec	0.03034731
184	0xc03b81d4	-2.929799
185	0xc04873b9	-3.1320632
186	0x3f9bf8a7	1.2185258
187	0xbe28d734	-0.16488343
188	0xbc739a58	-0.014868341
189	0xbf59160f	-0.84799284
190	0xbf72a572	-0.947837
191	0xc01e746e	-2.4758563
192	0xbc9cf160	-0.019158065
193	0x3f4e0b34	0.80485845
194	0x40034793	2.0512435
195	0xbe6d05c8	-0.23146737
196	0x3d8c1f01	0.06841851
197	0x3eaa1987	0.332226
198	0x3cfcc525	0.030855725
199	0x3d66bbb9	0.05633137
200	0x3d4e9092	0.05043084
201	0xbfe37c95	-1.7772394
202	0x3d1778c8	0.03698042
203	0x3de34283	0.110966705
204	0xc07f9f84	-3.994111
205	0x3b3b97ec	0.0028624488
206	0x3fbf95f7	1.4967641
207	0xbe0d4f71	-0.13799836
208	0xbd19412c	-0.03741567
209	0xbde0d9db	-0.10979053
210	0xbd11767c	-0.035513386
211	0x3c53ae20	0.012919933
212	0xbd060692	-0.03272111
213	0x3d5f76b4	0.054556563
214	0x3cf9bbea	0.030485112
215	0xbc636971	-0.01388012
216	0xbd472a0c	-0.048624083
217	0x3b885950	0.0041610375
218	0xbedfbb9a	-0.43697816
219	0x3fc89abd	1.5672222
220	0x40027e12	2.0389447
221	0x3ff01b4d	1.8758332
222	0xc03d5ab7	-2.9586618
223	0xbc8d7ae6	-0.017270517
224	0xbf13d113	-0.57740897
225	0x3e6d4159	0.2316946
226	0xbd193584	-0.037404552
227	0xbe396639	-0.18105401
228	0x3caef9b0	0.021359295
229	0xbd5037cc	-0.050834462
230	0xbec73ff8	-0.38915992
231	0xba88b6b0	-0.0010430422
232	0x3c3f3460	0.011670202
233	0xbcaeee88	-0.021353975
234	0x3f197f87	0.59960216
235	0x3d3ac71e	0.04560005
236	0x3efe8697	0.4971206
237	0xbd2e933c	-0.042620882
238	0xbf845d64	-1.0341
239	0x3b337545	0.002738313
240	0x3eec066c	0.4609865
241	0x3fee752d	1.8629509
242	0x3f93c01c	1.1543002
243	0x3fcd5512	1.6041586
244	0x4023b12a	2.5576882
245	0x3d695996	0.0569702
246	0x406ff35d	3.7492287
247	0x3ca9857a	0.02069353
248	0xbfcbdb2b	-1.592626
249	0xbc073c72	-0.008254157
250	0x3d2c471e	0.04206001
251	0xbf4321eb	-0.7622363
252	0xbc0de733	-0.008661079
253	0xc043826c	-3.0548353
254	0xc06fe6dc	-3.7484655
255	0xbc67bc66	-0.014144039

fc2.bias f4 [256]
0	0xbd0e464a	-0.034735
1	0x3b022a7d	0.001986175
2	0xbd98361f	-0.07432198
3	0xbdbe5504	-0.09293559
4	0xbdaf6850	-0.08564818
5	0xbe9c64f6	-0.30545777
6	0x3d14361a	0.036184408
7	0xbea15aa1	-0.31514457
8	0x3caaaeb5	0.02083526
9	0xbb334ea0	-0.0027360097
10	0xbc2be2cb	-0.010491083
11	0xbd72d3da	-0.05928407
12	0xbd56a62a	-0.05240456
13	0x3cceb8d3	0.025234615
14	0x3ce71082	0.028206114
15	0xbd4554f5	-0.048176724
16	0x3c56ac23	0.013102564
17	0xbcfd0b67	-0.030889226
18	0xbbe1b6ff	-0.00688827
19	0xbcb7e02b	-0.022445759
20	0xbe9cc1fb	-0.30616745
21	0x3c403379	0.011731022
22	0xbd53233e	-0.05154728
23	0xbc628565	-0.013825749
24	0x3f34424c	0.7041366
25	0x3de749eb	0.112933956
26	0xbee39d4d	-0.44455948
27	0xbf07be1f	-0.53024477
28	0xbd65010e	-0.05590921
29	0x3c947ceb	0.018125972
30	0xbeffa158	-0.49927783
31	0xbd7c392c	-0.06157796
32	0xbd349438	-0.044086665
33	0x3e909ffc	0.28247058
34	0xbe8e6d24	-0.27817643
35	0xbcfba2b4	-0.030717231
36	0x3d88904b	0.06668147
37	0xbd026786	-0.03183701
38	0xbc3be112	-0.011467235
39	0xbe6fb86a	-0.23410192
40	0xbf54606f	-0.82959646
41	0xbef0a3ab	-0.4699987
42	0x3e38a373	0.18031101
43	0x3e559d22	0.20860723
44	0x3b4c48b8	0.0031171273
45	0xbe895b7c	-0.2682761
46	0xbc3add26	-0.011405265
47	0x3cce7f1a	0.025207091
48	0xbe02d4b7	-0.12776457
49	0xbd2a0910	-0.04151255
50	0x3e901f44	0.28148854
51	0xbd96e2c4	-0.07367471
52	0xbe81b97c	-0.25336826
53	0x3e4643b0	0.19361758
54	0xbf290e45	-0.660374
55	0xbe5e1d93	-0.21690969
56	0x36bb4508	5.5810706e-06
57	0xbdc3427b	-0.095341645
58	0x3eb2b594	0.34904158
59	0x3aafc4c5	0.0013410082
60	0xbe899464	-0.26871026
61	0xbc895818	-0.01676564
62	0xbca49ab7	-0.020093305
63	0x3d1f3771	0.038871232
64	0xbcc8619a	-0.024460603
65	0xbdc0ec5c	-0.09420082
66	0x3e931e9b	0.28734288
67	0xbd868b32	-0.06569518
68	0x3c06bd50	0.008223847
69	0x3bc360f6	0.0059624864
70	0xbd79d499	-0.060993765
71	0x3d523d55	0.051328022
72	0xbd66ff6e	-0.05639594
73	0xbd79c93d	-0.06098293
74	0x3bd351ef	0.006448976
75	0xbe2e6300	-0.17029953
76	0xbcdd2a9d	-0.026997859
77	0x3ec47f79	0.38378504
78	0x3bf3378a	0.0074223923
79	0xbd47878f	-0.048713263
80	0xbe236161	-0.15955116
81	0xbd68521b	-0.056718927
82	0xbd2bed5d	-0.041974414
83	0x3a1d50f2	0.00060011365
84	0xbd898911	-0.067155965
85	0xbd292f56	-0.04130491
86	0xbd2938d3	-0.041313957
87	0x3cd6c7a0	0.026218235
88	0x3f345c3c	0.7045324
89	0xbe95b06c	-0.29236162
90	0x3a071814	0.0005153429
91	0x3bd3f943	0.0064689233
92	0xbdcc69d7	-0.09981125
93	0xbe8480d1	-0.2587953
94	0x3c89e0dc	0.016830854
95	0x3c708484	0.014680032
96	0xbec598d7	-0.3859317
97	0xbbe62e1d	-0.00702454
98	0x3d255c4f	0.040371235
99	0xbe27cf43	-0.16387658
100	0x3c2fee3b	0.010737951
101	0x3e04d9a1	0.12973644
102	0xbd404d48	-0.0469487
103	0xbe9bd822	-0.30438334
104	0xbe89fff5	-0.26953092
105	0xbd3362ad	-0.043795276
106	0x3c253e1e	0.010085611
107	0xbe326e68	-0.17424929
108	0x3c4916d1	0.012273506
109	0xbce0a5de	-0.027422842
110	0xbccb4185	-0.024811516
111	0xbca18bae	-0.019719925
112	0xbd69b1fa	-0.057054497
113	0xbc29680b	-0.010339747
114	0xbd6a2cc0	-0.057171583
115	0x3cdf76d9	0.02727835
116	0xbe4d73f3	-0.20063762
117	0xbd346d3b	-0.044049483
118	0xbc6154c7	-0.013753123
119	0xbec46b1d	-0.3836297
120	0xbcccba13	-0.02499107
121	0x3c88094e	0.016606
122	0xbdbeb3f8	-0.0931167
123	0x3e4387e8	0.19094813
124	0xbd4732b1	-0.048632327
125	0x3eaa052f	0.3320708
126	0xbcbbf100	-0.022942066
127	0xbd63d54f	-0.05562335
128	0xbcaf331c	-0.021386676
129	0xbbae92ce	-0.005327559
130	0xbea47b5d	-0.3212537
131	0x3ce9e346	0.028550755
132	0xbb9a0d8e	-0.004701323
133	0xbd6d14e3	-0.057881247
134	0x3f7a34ce	0.97736824
135	0xbc7b10d3	-0.015323835
136	0xbbaf9b72	-0.0053591067
137	0xbe6ee5a3	-0.23329787
138	0xbc7b1d10	-0.015326753
139	0x3c67c25f	0.014145463
140	0xbd7526a5	-0.059851307
141	0xbbea333a	-0.00714722
142	0xbd4c9602	-0.049947746
143	0xbd6441d2	-0.055726834
144	0xbe7061df	-0.23474835
145	0x3c678560	0.01413092
146	0x3dc90208	0.098148406
147	0xbd3639e1	-0.04448879
148	0xbd903d4e	-0.07042943
149	0xbec84d6b	-0.39121565
150	0xbc315b44	-0.010824982
151	0x3f063de0	0.52438164
152	0xbdbcffc8	-0.09228474
153	0xbda7e10d	-0.08197222
154	0xbd8a1eeb	-0.067441784
155	0xbecf64af	-0.40506503
156	0xbcc8a921	-0.02449471
157	0x3e378de0	0.17925215
158	0xbdc5ff0c	-0.09667787
159	0xbe664dfb	-0.22490685
160	0xbdceafb9	-0.1009211
161	0xbe535f46	-0.20641813
162	0x3c430f6f	0.011905535
163	0x3c805621	0.01566607
164	0x3d0415fa	0.03224752
165	0xbbe63195	-0.0070249536
166	0x3ce19aac	0.027539574
167	0x3cce9e50	0.025221974
168	0x3cb80190	0.022461683
169	0xbd9c809f	-0.0764172
170	0xbd8d2c45	-0.06893209
171	0x3cf145a7	0.029452158
172	0xbcca369d	-0.024684245
173	0x3b962073	0.004581505
174	0xbd9aaee1	-0.07552887
175	0xbd6cf680	-0.05785227
176	0xbd8f0020	-0.06982446
177	0xbd89cb96	-0.06728284
178	0xbd83231b	-0.0640318
179	0xbc2fc2b8	-0.010727577
180	0xbc346d80	-0.011012435
181	0x3cb1c532	0.021700475
182	0xbd6122dc	-0.054964885
183	0xbe2ffd6f	-0.17186521
184	0x3ccc2358	0.024919197
185	0x3c3674ee	0.011136277
186	0x3dbf2824	0.09333828
187	0xbccca849	-0.024982588
188	0x3bdf1eed	0.0068091066
189	0xbd9e9902	-0.07744028
190	0x3ed00d75	0.40635267
191	0x3c9be12a	0.019028265
192	0xbd8eae4b	-0.069668375
193	0xbc8abbd7	-0.016935272
194	0xbbc54cee	-0.0060211336
195	0xbd9a7eba	-0.075437024
196	0xbe430869	-0.19046177
197	0x3e60b8d4	0.21945506
198	0xbd9c4ee3	-0.07632234
199	0xbd5a1d5d	-0.05325066
200	0xbd99a3a7	-0.07501917
201	0xbcc95101	-0.024574758
202	0xbcd80f33	-0.026374435
203	0xbe8b2787	-0.27178594
204	0xbe383f8c	-0.17992991
205	0xbda627a3	-0.08113029
206	0x3ebd1fe7	0.36938402
207	0x3eb43613	0.35197505
208	0xbed4b178	-0.41541648
209	0x3c336791	0.010949985
210	0xbd02ab86	-0.03190186
211	0x3bdd533c	0.006754307
212	0x3cbc3a45	0.022977004
213	0xbe6254c0	-0.22102642
214	0x3cbaa63f	0.02278435
215	0xbd4f1090	-0.050552905
216	0xbd4e8dcb	-0.050428193
217	0xbed5d8fc	-0.41767108
218	0x3df8ae51	0.12142623
219	0xbe0cffda	-0.13769475
220	0xbdb354c1	-0.087564
221	0x3e13b879	0.1442584
222	0x3e657137	0.2240647
223	0xbce85699	-0.028361605
224	0xbd12c212	-0.03582961
225	0xbe9c3928	-0.30512357
226	0x3e6f4688	0.2336675
227	0xbbbc1720	-0.0057400614
228	0xbc5f0438	-0.013611846
229	0xbea46685	-0.32109466
230	0xbdbcd046	-0.092194125
231	0xbc36661e	-0.011132745
232	0x3cbb9c11	0.022901567
233	0x3e1442b5	0.14478572
234	0x3e9a6e8b	0.30162463
235	0xbe959631	-0.2921615
236	0xbda45bd0	-0.08025324
237	0x3cab6ffd	0.020927424
238	0x3c80e214	0.015732802
239	0xbf4ca7b9	-0.79943424
240	0xbd97d857	-0.074143104
241	0xbe555f52	-0.20837143
242	0x3c4d8a9c	0.012545254
243	0x37b56752	2.1624994e-05
244	0xbe8a48ae	-0.27008575
245	0xbda027ac	-0.07820067
246	0xbdf33038	-0.11874431
247	0x3d0da281	0.034578804
248	0xbae0b539	-0.0017143852
249	0xbe348c7f	-0.1763172
250	0x3ea99057	0.33117935
251	0xbc2a4ea6	-0.010394728
252	0xbe85d6ee	-0.2614054
253	0xbd9c4bd0	-0.076316476
254	0xbe817faa	-0.25292712
255	0xbdb8d61a	-0.09025212

fc3.weight f4 [5, 256]
0	0x4007591b	2.1148136
1	0x3d20e632	0.03928203
2	0xbd0a25cf	-0.033727463
3	0x3d1811ce	0.037126355
4	0x4026359c	2.597022
5	0xbf8fc2d9	-1.1231338
6	0xbd685744	-0.056723848
7	0x3feb9e00	1.8407593
8	0x3bcf0200	0.006317377
9	0xbcd40086	-0.025879156
10	0xbd38358c	-0.04497294
11	0x3be555d4	0.006998757
12	0xbd9b1ac4	-0.075734645
13	0x3cd768bc	0.026295058
14	0x3bdcb8a9	0.0067358804
15	0x3cfbcd9c	0.03073769
16	0xbd681744	-0.056662813
17	0x3d06f3c2	0.03294731
18	0xbd320214	-0.043459013
19	0xbcfdb800	-0.030971527
20	0x40001ff4	2.0019503
21	0xbd37146c	-0.04469721
22	0x3c1cd680	0.009572625
23	0x3f9ac339	1.2090827
24	0xbe8f729c	-0.28017128
25	0x3e399575	0.1812342
26	0xbfaa86b7	-1.3322362
27	0xbf85d4c8	-1.0455561
28	0xbb6b73ad	-0.0035927102
29	0xbc34b207	-0.011028773
30	0xc01faa9a	-2.4947877
31	0x3d635fda	0.055511333
32	0xbcc6def8	-0.024276242
33	0xc00b6f55	-2.1786702
34	0x3f1cd9b2	0.61269677
35	0xbcc62756	-0.024188679
36	0x3fd446d2	1.6584113
37	0x3d4236e2	0.04741562
38	0x3d4cc2f4	0.04999061
39	0x3ff34d78	1.9008017
40	0xc03f19bb	-2.9859455
41	0x3fb14558	1.3849287
42	0xbf1487e7	-0.5801987
43	0x3f6880f2	0.90821755
44	0x3d98eee8	0.07467443
45	0x404d633d	3.209182
46	0x3d309ca4	0.043118134
47	0x3d2c3630	0.042043865
48	0x400f2509	2.2366354
49	0xbcbf0734	-0.023318864
50	0x404b0d5a	3.17269
51	0xbca754a8	-0.02042611
52	0x3fbbc14f	1.4668368
53	0x40320f85	2.7821972
54	0xc0647d63	-3.570153
55	0x4077664a	3.8656182
56	0x3fb52124	1.4150739
57	0x3da92783	0.082594894
58	0x3f90e980	1.1321259
59	0x3cd3413c	0.025787942
60	0x3fd33043	1.6499103
61	0xbd538313	-0.051638674
62	0xbcf74f1f	-0.030189095
63	0xbd157057	-0.03648409
64	0xbce7873b	-0.028262725
65	0x3c5100cf	0.01275654
66	0xbe6e1375	-0.2324961
67	0xbf0da4b7	-0.5532946
68	0x3d07167a	0.03298042
69	0xbd1e2e3a	-0.038618304
70	0x3bd6f014	0.0065593813
71	0x40bfadb2	5.989953
72	0x3d22a182	0.039704807
73	0xbcffa30f	-0.031205682
74	0x3b5fa100	0.0034123063
75	0x40056a90	2.084629
76	0xbd710797	-0.05884513
77	0x3fcd8d38	1.6058722
78	0x3cec6280	0.028855562
79	0xbcbd7836	-0.02312861
80	0x3f39a7a4	0.72521424
81	0xbcbfd285	-0.023415813
82	0x39b7c10c	0.0003504831
83	0xbd250484	-0.04028751
84	0x3c9d7740	0.019221902
85	0x407f258f	3.9866674
86	0xbc648bae	-0.013949318
87	0x3e1be002	0.15222171
88	0xc04c2eab	-3.1903484
89	0x3fe83407	1.8140877
90	0xbc84d4e8	-0.016214803
91	0x3ca35a22	0.01994044
92	0xbd565ce4	-0.05233468
93	0x4026b9d5	2.6050923
94	0xbd0e7385	-0.034778137
95	0xbd122f8c	-0.035689875
96	0xbfe8b12c	-1.8179069
97	0xbc094cbe	-0.008380113
98	0x3b1b54c2	0.0023701643
99	0x400f12c7	2.235521
100	0x3ca181b5	0.01971517
101	0xbf3eb69d	-0.74497396
102	0x3acd685c	0.001567136
103	0x3fe19ca8	1.7625933
104	0x4069d16d	3.6534073
105	0x3da33ddb	0.07970782
106	0x3cc5c171	0.024140092
107	0x40343974	2.8160067
108	0xbbd686c0	-0.006546825
109	0x3b3a57c5	0.0028433662
110	0x3d6e18f2	0.05812926
111	0xbd0c64b5	-0.03427573
112	0x402b1534	2.6731691
113	0x3cf1f5ed	0.029536212
114	0xbd57ee96	-0.052717768
115	0x3cfaffe1	0.03063959
116	0x400c0b34	2.1881838
117	0x3d0715f6	0.032979928
118	0xbeac9da5	-0.33714023
119	0x3f921954	1.141398
120	0xbd5a5039	-0.053299163
121	0xbc3a94db	-0.011388029
122	0xbdb5d5ce	-0.08878671
123	0x40563e3e	3.347549
124	0xbbd3650e	-0.0064512556
125	0xbf86d961	-1.0535089
126	0xbba5afca	-0.005056356
127	0xbc721252	-0.014774876
128	0x3d0755f8	0.03304097
129	0xbc93fae2	-0.018063966
130	0x40795ed8	3.8964138
131	0xbd397e8c	-0.0452867
132	0x3c9a0534	0.01880131
133	0x3d038a60	0.032114387
134	0x3f612864	0.87952256
135	0x3ca32aac	0.019917808
136	0x3d0c2156	0.03421148
137	0x4059c334	3.4025393
138	0x3eb4cf66	0.35314482
139	0xbd311504	-0.043232933
140	0x3fda3523	1.7047466
141	0x3d141034	0.036148265
142	0x3da32445	0.07965902
143	0xbd02efd9	-0.031967018
144	0xbf72ef97	-0.94896835
145	0x3c5ae340	0.013359845
146	0xbe221881	-0.1582966
147	0xbd247452	-0.040149994
148	0x3d398014	0.04528816
149	0x4023ce95	2.5594838
150	0xbbad31c9	-0.005285476
151	0xc0353381	-2.8312685
152	0x3d50b206	0.050951026
153	0xbc1d8c2b	-0.009615938
154	0x3cb5aa6f	0.022175996
155	0x3f0bd00f	0.5461435
156	0x3b6c83d9	0.003608933
157	0x402dce56	2.7157187
158	0x3fdcad4d	1.7240387
159	0xbe38065f	-0.1797118
160	0xbcff4754	-0.031161942
161	0x3fd34697	1.6505917
162	0xbd39f0bf	-0.04539561
163	0xba95d48e	-0.0011431144
164	0xbcadd00d	-0.02121737
165	0xbcb1283f	-0.021625636
166	0xbd17b852	-0.037041016
167	0x3c2368b2	0.009973692
168	0xbcbf6ec4	-0.023368247
169	0x3b95cf3f	0.004571825
170	0x3b375ca3	0.00279788
171	0xbd844fca	-0.06460531
172	0xbcf87627	-0.030329777
173	0xbc5fd383	-0.013661268
174	0x3ca4ad4f	0.020102171
175	0x3d0c3c71	0.03423733
176	0x3cb5ab4e	0.022176411
177	0x3ffd2592	1.977709
178	0x40014fd9	2.0204985
179	0xbba1bddb	-0.0049359626
180	0xbd3e432f	-0.04645079
181	0xbd6ba316	-0.057528578
182	0x3ca7a779	0.0204656
183	0x404f1185	3.2354443
184	0x3d27fdd4	0.041013554
185	0xc04c9853	-3.1967971
186	0xbd8edac7	-0.06975322
187	0xbd286c6d	-0.041119028
188	0x4062037e	3.5314631
189	0xbcf7de93	-0.030257499
190	0x405a30b1	3.409222
191	0xbd2c0771	-0.041999284
192	0xbba787f0	-0.0051126406
193	0x3c549928	0.012975968
194	0xbccdf6d4	-0.02514211
195	0x3cb81261	0.022469701
196	0x409903c1	4.7817082
197	0x40805f62	4.0116434
198	0xbc5a0435	-0.013306667
199	0x3bfa43cb	0.007637476
200	0x3bd11f00	0.0063818693
201	0xbb1fc0f5	-0.0024376486
202	0x3d1c61fc	0.038179383
203	0x3fea36db	1.829799
204	0x3ffcbc75	1.9745013
205	0xbcfc097b	-0.03076624
206	0x3eeeeb9e	0.46664137
207	0xbf8effcf	-1.1171817
208	0xbfae3c55	-1.3612162
209	0x3c6f152c	0.01459245
210	0x3b977791	0.0046224077
211	0xbc075d97	-0.00826206
212	0x3d4b9aca	0.049708165
213	0x3ff97f73	1.949202
214	0xbc9c0c3e	-0.019048806
215	0xbbb96625	-0.0056579285
216	0x4000f78c	2.015109
217	0x40971040	4.7207336
218	0xbebad362	-0.36489397
219	0x3fe612ae	1.797445
220	0xbc04ea72	-0.008112537
221	0x3fbd6cc8	1.4798822
222	0xbfd3795b	-1.652141
223	0xbbc0c180	-0.005882442
224	0xbd33693c	-0.04380153
225	0x40448e19	3.071173
226	0x405f97cc	3.49364
227	0x3c889fd0	0.016677767
228	0xbe86cebc	-0.263296
229	0x402a8fc7	2.6650255
230	0x3cf98f1c	0.030463748
231	0xbd4b639f	-0.049655553
232	0x3c3c42e2	0.0114905555
233	0x409e731c	4.9515514
234	0x4088b168	4.271656
235	0x400290de	2.040092
236	0xbabe0e85	-0.0014500177
237	0x3d8eb332	0.069677725
238	0xbd360927	-0.044442322
239	0x406d90ae	3.7119555
240	0x3fc61852	1.5476172
241	0x400f58e4	2.2398005
242	0xbb84a857	-0.004048388
243	0x3c391d49	0.011298486
244	0x402af04d	2.6709168
245	0xbb92b027	-0.0044765654
246	0x3fdb69ad	1.7141625
247	0x3f971ef9	1.1806327
248	0x3a2894b5	0.00064308505
249	0xbf923de0	-1.1425133
250	0xc01b3e06	-2.4256606
251	0xbfba4e51	-1.455515
252	0x401649da	2.3482575
253	0x40417578	3.0227947
254	0xbfa387f7	-1.2775868
255	0x3cb5f6f4	0.022212483

fc3.bias f4 [5]
0	0x3eda9b69	0.42696694
1	0xbee9d47c	-0.45669925
2	0xbf13c880	-0.57727814
3	0xbe1e7010	-0.15472436
4	0x3dfca71b	0.1233656
