other_model/dqn_team_b_ep520.pth (torch, 286849 bytes, 6 tensors)

fc1.weight f4 [256, 14]
0	0x3ea50644	0.32231343
1	0xbf2269f3	-0.63442916
2	0x3e810b29	0.25203827
3	0x3ed214fd	0.41031638
4	0x3e55a0d5	0.20862134
5	0xbfcb5851	-1.5886327
6	0xbea0b304	-0.31386578
7	0xbf8a01f3	-1.0781845
8	0x3f859e08	1.0438852
9	0xbdb60a61	-0.08888698
10	0x40d43fa6	6.6327696
11	0xbd158660	-0.036505103
12	0x3e6fac89	0.2340566
13	0xbcef3704	-0.029201038
14	0xbe787d03	-0.24266438
15	0xbef589be	-0.4795665
16	0xbd9eb517	-0.07749384
17	0x3e213dea	0.15746275
18	0xbde98378	-0.11402029
19	0xbcb44366	-0.022004794
20	0xbd1d86d0	-0.038458645
21	0xbe8a7b74	-0.27047312
22	0x3ea652d4	0.32485068
23	0x3d3cbe2f	0.04607981
24	0xbea6fba6	-0.32613868
25	0x3dd28605	0.102794684
26	0xbe2834ac	-0.16426343
27	0xbdb0c9d4	-0.08632246
28	0xbe2559e3	-0.1614757
29	0xc0049187	-2.0713823
30	0x3e971e36	0.29515237
31	0xbe71b87c	-0.23605531
32	0x3ea10a63	0.31453237
33	0x3f53314d	0.824971
34	0x3d39e59a	0.04538498
35	0xbd92ad36	-0.071619436
36	0xbf588db7	-0.8459124
37	0x3e2ca7ab	0.16860835
38	0xc07a67d2	-3.9125867
39	0x402d7e85	2.7108471
40	0x3eced54f	0.40397117
41	0x3a3a0e63	0.00070974807
42	0xbed46dea	-0.41490108
43	0xbda73f11	-0.08166326
44	0xbecb4a44	-0.39705098
45	0x3df0e8c5	0.11763147
46	0xbe871faa	-0.26391345
47	0xbf8f4fc6	-1.119622
48	0xbced5c6f	-0.02897474
49	0xbdb3b238	-0.08774227
50	0x3f4392e9	0.7639604
51	0x3e99a156	0.30005902
52	0x401e21c2	2.4708104
53	0xbf1d2df0	-0.6139822
54	0x3e067b91	0.13133074
55	0x3e088426	0.1333166
56	0x3d756030	0.059906185
57	0x3e2aa7db	0.16665594
58	0x3e8e0297	0.2773635
59	0x3e36da70	0.17856765
60	0x3dfdb288	0.12387568
61	0xbe8afb5e	-0.27144903
62	0xbe491e14	-0.1964038
63	0xbd26db3a	-0.040736414
64	0x3c83e9f3	0.016102767
65	0x3f954bdb	1.1663774
66	0xbe8afd68	-0.2714646
67	0x40ae28e3	5.442491
68	0xbeb18c04	-0.34677136
69	0xbedd8cdd	-0.43271533
70	0xbf24c12c	-0.64357257
71	0xbe242aa8	-0.16031897
72	0xbf19a960	-0.6002407
73	0x3c77531a	0.015095497
74	0xbe6cc3f5	-0.23121627
75	0xbe16f701	-0.14742662
76	0x3c6da373	0.014504301
77	0xbed61170	-0.4181018
78	0xbeab1313	-0.3341299
79	0x3e92e77d	0.28692237
80	0x3eed8e63	0.46397695
81	0xbf94da1b	-1.162906
82	0x3e86388f	0.26215026
83	0xbe0e30e9	-0.13885845
84	0xbeb98c35	-0.36239782
85	0x3eeef21c	0.4666909
86	0xbed59245	-0.41713157
87	0xbd1041a3	-0.035218846
88	0xbe12a921	-0.1432233
89	0xc005f055	-2.0927937
90	0x3e8b43ae	0.27200073
91	0xbf811673	-1.0084976
92	0x3d73a929	0.059487496
93	0xbe9e47ad	-0.3091406
94	0xbef89aa5	-0.48555484
95	0xbefaa224	-0.48951828
96	0xbddb31a3	-0.10702827
97	0x3dc630f5	0.096773066
98	0x3e0f87c3	0.14016633
99	0xbe482731	-0.195462
100	0x3cd5b09a	0.026085187
101	0xbeff25bc	-0.49833477
102	0x3d8f1308	0.06986052
103	0xbe5f7b53	-0.21824388
104	0x3eafe22e	0.3435225
105	0xbe820a53	-0.25398502
106	0xbeadd68a	-0.33952743
107	0xbe792972	-0.24332216
108	0x3f12ff1c	0.57420516
109	0xbee1203e	-0.4396991
110	0xbe07e69d	-0.13271566
111	0xbe72b1ba	-0.2370061
112	0xbd0d5c47	-0.03451183
113	0xbf52bb66	-0.823172
114	0x3d4771f2	0.04869265
115	0xbed2b2c6	-0.41152018
116	0xbd00c2fa	-0.031435944
117	0xbe94ab93	-0.2903715
118	0xbe88fe96	-0.26756734
119	0x3df5c5f0	0.12000644
120	0xbfa764e6	-1.3077667
121	0xbeaa3fe7	-0.3325188
122	0xc08cded7	-4.402202
123	0xbcc3d64a	-0.023905892
124	0x3dd2cc20	0.1029284
125	0x3cfdbf0f	0.030974893
126	0xbe46d483	-0.19417004
127	0xbdd183d7	-0.102302246
128	0xbe017757	-0.12643181
129	0x3dd6c14a	0.10486086
130	0xbdc17dc3	-0.09447815
131	0x3d3366b5	0.04379912
132	0xbe52935c	-0.20564026
133	0x3db1f857	0.08689945
134	0xbe80b0ab	-0.25134787
135	0xbe3789e3	-0.17923693
136	0x3e5223a9	0.20521416
137	0xbc347cca	-0.01101608
138	0xbe21f767	-0.15817033
139	0xbe76e47e	-0.241106
140	0xbd5100cc	-0.05102615
141	0xbe959541	-0.29215434
142	0x3e6bfdac	0.23045987
143	0xbe6fdbc3	-0.23423676
144	0x3da62be1	0.08113838
145	0x3c62a33e	0.013832865
146	0x3ecc8d9a	0.39951783
147	0xbea2a1b5	-0.31763998
148	0x3f7e6057	0.9936575
149	0x3fcc82fb	1.5977472
150	0x40b5aca2	5.6773233
151	0x4071ef51	3.7802317
152	0xbcf6f2e2	-0.030145112
153	0xbe325cf6	-0.17418274
154	0xbf2c3992	-0.67275345
155	0x3f0c5ab0	0.5482588
156	0xbf267b11	-0.65031534
157	0x3e5ea4b4	0.21742517
158	0xbf83219d	-1.0244633
159	0x3ec7f054	0.39050543
160	0xbf8e42c8	-1.111413
161	0xbe1340c8	-0.14380181
162	0x3e8abde4	0.27098
163	0xbe83c568	-0.25736547
164	0xbfe16d8f	-1.761156
165	0x3fb97958	1.4490156
166	0x3cfe4d00	0.031042576
167	0x3c15a2bc	0.009133037
168	0x3e629442	0.22126868
169	0xbf18e27f	-0.59720606
170	0x3db68667	0.08912354
171	0xbe9324a7	-0.287389
172	0xbce32b8a	-0.027730722
173	0xbf3fee3c	-0.7497289
174	0xbd846394	-0.064643055
175	0x3d5b3154	0.05351384
176	0x3e21ee01	0.15813448
177	0x3f68ad03	0.90888995
178	0x3f87e54b	1.061685
179	0x40e7b49d	7.2407975
180	0x3e16b880	0.14718819
181	0xbdc69156	-0.096956894
182	0x3e10bb6f	0.14134
183	0xbf2b29e1	-0.6686078
184	0xbe38167b	-0.17977326
185	0xbe9bb70c	-0.3041309
186	0xbea3b1fc	-0.3197173
187	0xbf066a2f	-0.52505773
188	0xbd88829f	-0.06665539
189	0x3e823bec	0.25436342
190	0xbcff61ba	-0.03117453
191	0x3f2004d1	0.6250735
192	0xbf2bac28	-0.67059565
193	0x4100c412	8.047869
194	0x3e0b45aa	0.13600793
195	0x3df5187e	0.11967562
196	0xbf534d17	-0.82539505
197	0xbf6ee4f0	-0.9331808
198	0xbf5105c7	-0.8164944
199	0x3db366bf	0.08759832
200	0x3d93c035	0.07214395
201	0x3e8ecb4f	0.27889487
202	0xbdd4685b	-0.10371467
203	0x3e697d3c	0.2280168
204	0x3ec9b4f0	0.39395857
205	0xbf3c32ac	-0.7351482
206	0x3fe01b87	1.7508401
207	0xbf56b4b2	-0.8386947
208	0x3e0c69e0	0.13712263
209	0x3d68db2b	0.05684964
210	0xbdbd6bbf	-0.092490666
211	0x3d50795a	0.05089698
212	0xbe867db9	-0.26267794
213	0x3dc2fc3b	0.095207654
214	0x3e4b81fd	0.19873805
215	0x3dd5ca5b	0.10438987
216	0xbe1dd7f8	-0.15414417
217	0xbe136614	-0.14394408
218	0x3d299098	0.04139766
219	0x3cf0b2ce	0.029382136
220	0xbe3d1936	-0.18466648
221	0xbe375c67	-0.17906342
222	0xbe7e03bb	-0.2480611
223	0x3df37920	0.11888337
224	0x3eca7226	0.39540213
225	0xbf678e84	-0.90451837
226	0x3e5d6712	0.2162135
227	0xbf2e1ea3	-0.680155
228	0x3e042ef0	0.1290853
229	0x3f014107	0.5048985
230	0x3e4caf1a	0.19988671
231	0x3f479d81	0.77974707
232	0xbebd0336	-0.36916512
233	0x3edcc089	0.43115643
234	0xc008c2ee	-2.1368976
235	0xbe081fa2	-0.13293317
236	0xbecf5fb1	-0.40502694
237	0xbe6e65f5	-0.23281081
238	0x3e0b50bb	0.13605015
239	0x3e02d507	0.12776576
240	0xbe99ab0b	-0.30013308
241	0xbea27b4a	-0.31734687
242	0x3e2320a5	0.15930422
243	0xbede1e44	-0.43382466
244	0xbea378e0	-0.31928158
245	0xbe3f068f	-0.18654846
246	0x3ea62718	0.324517
247	0x3e264fc3	0.16241364
248	0x3b9e6616	0.004833947
249	0x3f0218b9	0.50818974
250	0xbc7c8455	-0.01541241
251	0xbeac685a	-0.33673364
252	0xbe43edd1	-0.19133689
253	0xbc8e8580	-0.017397642
254	0x3d10fd60	0.035397887
255	0xbda8dcc5	-0.082452334

fc1.bias f4 [256]
0	0x3d095fbf	0.033538576
1	0xbdd66a7e	-0.104695305
2	0x3ea84eb8	0.32872558
3	0x3e03e0d7	0.12878738
4	0xbec90c7e	-0.39267343
5	0x3e82648a	0.2546733
6	0xbe87fd99	-0.26560667
7	0x3a090dfb	0.00052282185
8	0x3e2e0da3	0.1699739
9	0x3e011c9d	0.12608571
10	0x3e439e3e	0.19103333
11	0xbe9069ea	-0.28205806
12	0xbb5a9632	-0.0033353684
13	0x3e69fa2e	0.22849342
14	0x3d9a8c67	0.07546311
15	0xbe0903eb	-0.13380401
16	0xbdf2d10c	-0.11856279
17	0xbe77d3cc	-0.24201888
18	0xbe42011b	-0.18945734
19	0xbe2808fa	-0.16409674
20	0x3c8139dd	0.015774662
21	0x3f02ae49	0.5104719
22	0x3dbc987a	0.0920877
23	0x3e03ee13	0.12883787
24	0xbd68278b	-0.056678336
25	0x3defc114	0.117067486
26	0xbc351698	-0.01105275
27	0xbde50b21	-0.11183763
28	0x3d0671d4	0.0328234
29	0x3e4b5758	0.19857538
30	0x3d4801fd	0.04883002
31	0x3e1b06a7	0.15139256
32	0xbc14359c	-0.009045985
33	0x3d8f493b	0.069963895
34	0x3e44b20a	0.19208542
35	0x3e4aed80	0.19817162
36	0x3e5aad03	0.21355061
37	0xbe6cab5f	-0.23112248
38	0xbe621f07	-0.22082148
39	0xbeaf12c7	-0.34194013
40	0x3ea209a7	0.3164799
41	0xbd520357	-0.051272716
42	0x3dbfd99d	0.09367678
43	0xbe13f539	-0.14449014
44	0x3d8de47e	0.06928347
45	0xbd7b68f3	-0.061379384
46	0x3bddc0f6	0.0067673875
47	0xbd9c4435	-0.07630197
48	0x3e35baf5	0.177471
49	0xbe18e109	-0.14929594
50	0x3c3b2c11	0.0114240805
51	0xbe877856	-0.26458997
52	0x3d581f35	0.052764136
53	0xbdd79bba	-0.10527749
54	0x3e1f6aa8	0.1556803
55	0x3d82a0d8	0.06378335
56	0xbd80d418	-0.06290454
57	0xbeb2c797	-0.349179
58	0xbea1abd4	-0.31576407
59	0xbba28f3f	-0.004960924
60	0xbe089e1f	-0.13341568
61	0xbe73f8d9	-0.23825397
62	0x3e0b768d	0.13619442
63	0xbe3c2a14	-0.18375427
64	0x3e621484	0.22078139
65	0x3ccbfc53	0.024900591
66	0xbd6ffd5a	-0.058591224
67	0xbd9ea0f5	-0.07745544
68	0x3c407ec2	0.011748971
69	0xbeb8481c	-0.35992515
70	0xbc3ad3ed	-0.011403066
71	0xbe4312cf	-0.19050144
72	0x3e2022e9	0.15638317
73	0xbe189964	-0.14902264
74	0x3d81e896	0.0634319
75	0x3dbe74ee	0.09299646
76	0xbe16aeac	-0.1471507
77	0xbe5c47d3	-0.21511774
78	0xbcbcd1f6	-0.023049336
79	0xbe675a63	-0.22593074
80	0xbd87cc18	-0.06630725
81	0x3da00ccd	0.078149416
82	0xbd202b76	-0.039103948
83	0xbdf5f901	-0.12010384
84	0xbea36f98	-0.31921077
85	0xbd8ef7a4	-0.069808275
86	0x3d5cf0f7	0.05394074
87	0x3d4d237d	0.050082672
88	0xbdf7e9a2	-0.12105109
89	0x3ecd4c68	0.40097356
90	0xbe0f5b9e	-0.13999793
91	0x3ef2b286	0.47401828
92	0x3d348722	0.044074185
93	0xbe7f276c	-0.24917382
94	0xbe8c96d2	-0.27458817
95	0x3eaa0192	0.33204323
96	0xbd7b7393	-0.061389517
97	0xbc48e5be	-0.012261806
98	0xbd313a56	-0.043268524
99	0x3e24faa7	0.16111241
100	0xbeac9f7b	-0.33715424
101	0xbf0c75e7	-0.54867405
102	0xbe71e74f	-0.23623393
103	0x3e40c272	0.18824175
104	0xbe8570c8	-0.26062608
105	0x3ef8f685	0.4862558
106	0x3caf0ac2	0.021367434
107	0x3dfb1155	0.12259165
108	0xbdbf8c45	-0.09352926
109	0x3ea24c1c	0.31698692
110	0xbd5c7bcf	-0.05382901
111	0x3cc1feac	0.023681007
112	0xbd9d94e0	-0.07694411
113	0xbe8d541b	-0.2760323
114	0xbe7e87cd	-0.24856491
115	0x3d770f8b	0.060317557
116	0xbe77543e	-0.2415323
117	0xbea43293	-0.32069835
118	0xbe20e87b	-0.15713684
119	0x3ebd5623	0.3697978
120	0x3d25aa9e	0.040445916
121	0x3d260815	0.04053505
122	0x3c02da21	0.007986576
123	0xbe987e2f	-0.2978377
124	0x3e472f0f	0.19451545
125	0xbdb187dc	-0.08668491
126	0xbdc4a444	-0.09601644
127	0x3de2a11d	0.11065886
128	0xbc555466	-0.01302061
129	0xbe1037d1	-0.14083792
130	0xbe052f27	-0.13006268
131	0xbe1dd5d4	-0.154136
132	0xbe65727a	-0.2240695
133	0xbe215713	-0.15755872
134	0x3e3bee2a	0.18352571
135	0x3cac4c97	0.021032615
136	0x3b0d85cc	0.0021594642
137	0xbda66b3b	-0.08125921
138	0xbe490c9e	-0.1963372
139	0xbe491bf4	-0.1963957
140	0xbde38e73	-0.111111544
141	0xbcbdaf77	-0.023154957
142	0xbe6f6ae0	-0.23380613
143	0x3d77bdfe	0.060483925
144	0xbe437f3a	-0.19091502
145	0x3ec4e047	0.3845236
146	0x3ddefe91	0.108883984
147	0x3e879d34	0.26487124
148	0xbc3d2400	-0.011544228
149	0xbdd8aedc	-0.10580227
150	0xbdc94550	-0.098276734
151	0xbcca8300	-0.024720669
152	0xbdd78b6c	-0.105246395
153	0x3e05cc23	0.13066153
154	0x3e00c49c	0.12575
155	0x3d8cd1e6	0.068759724
156	0x3df7cc21	0.120994814
157	0xbe1fe82b	-0.15615909
158	0x3dcfa493	0.10138812
159	0x3e068c72	0.13139513
160	0xbd0b8b26	-0.03406825
161	0xbe4b63de	-0.19862315
162	0x3dc8bc6c	0.098015636
163	0x3d9cfb06	0.076650664
164	0x3e2c4e80	0.1682682
165	0xbcf5128a	-0.029916067
166	0x3e049d0d	0.12950535
167	0x3e000d89	0.12505163
168	0x3e9afa9e	0.3026933
169	0x3e8204e7	0.25394365
170	0x3eaa0145	0.33204094
171	0xbdf21344	-0.11820081
172	0x3d5ceb19	0.053935144
173	0x3ddd7f22	0.10815264
174	0xbe0b3038	-0.13592613
175	0xbe710156	-0.23535666
176	0x3d08a6ad	0.03336208
177	0xbee8b5bc	-0.45451152
178	0x3a630bf9	0.0008661147
179	0xbbc25a9a	-0.0059312107
180	0x3ccccde9	0.02500053
181	0x3def9915	0.1169912
182	0x3ef28081	0.47363666
183	0xbd052d72	-0.032514043
184	0x3f2cbc39	0.67474705
185	0x3d87d74a	0.0663286
186	0xbe35f25e	-0.17768237
187	0x3c4f0b60	0.012636989
188	0xbe3d1a8c	-0.18467158
189	0x3de4657e	0.111521706
190	0x3e473629	0.19454254
191	0xbd87ddd9	-0.06634111
192	0xbe77cd36	-0.24199376
193	0xbe7ff9ba	-0.24997607
194	0x3e4ff3e0	0.20307875
195	0x3d2fa9bb	0.042886477
196	0xbdac76c3	-0.084210895
197	0xbd986801	-0.07441712
198	0xbd1db66c	-0.03850405
199	0xbe94d336	-0.2906739
200	0x3bb2c213	0.0054552644
201	0x3d8ff724	0.0702956
202	0xbe176d4f	-0.14787792
203	0xbda2f23b	-0.07956358
204	0x3e8e9af9	0.2785261
205	0x3dfc35aa	0.12314923
206	0x3daf85f8	0.085704744
207	0x3e9bc625	0.3042461
208	0x3e0e889a	0.13919297
209	0x3df1a1f8	0.11798471
210	0x3e13a492	0.14418247
211	0x3d63c568	0.055608183
212	0xbe2d6fa6	-0.16937122
213	0x3d696bf7	0.05698773
214	0x3e609802	0.21932986
215	0xbe9b244c	-0.3030113
216	0xbe4e12db	-0.2012438
217	0xbd2c0042	-0.041992433
218	0xbe30f188	-0.17279637
219	0xbe34315f	-0.17596959
220	0x3e011c3e	0.1260843
221	0x3de8932d	0.113561966
222	0x3c5284f9	0.012849086
223	0xbe8b6a86	-0.27229708
224	0xbe917d1e	-0.2841577
225	0xbe8a3ac3	-0.26997957
226	0x3e2628db	0.16226523
227	0x3df4e4be	0.119576916
228	0xbe357b6d	-0.17722864
229	0xbda49d33	-0.08037796
230	0x3e8e8ed6	0.2784335
231	0x3dcac2ed	0.099004604
232	0x3db1c241	0.08679629
233	0x3e773289	0.24140371
234	0x3e4d03b9	0.20020951
235	0x3bd1ab3e	0.0063985875
236	0xbc013ffc	-0.00788879
237	0xbdab0573	-0.08350649
238	0xbea63543	-0.3246251
239	0xbded115f	-0.11575579
240	0xbead0321	-0.3379145
241	0xbe2e54c5	-0.17024525
242	0x3db172d7	0.08664482
243	0xbc84b1e2	-0.016198102
244	0x3e18396d	0.14865656
245	0x3d9fd8c5	0.078050174
246	0x3ee7b7bb	0.45257363
247	0x3e2550ac	0.16144055
248	0xbd5dea1e	-0.05417835
249	0xbe3eb4e3	-0.1862369
250	0x3d479e27	0.04873481
251	0xbdec6465	-0.11542586
252	0xbe75dce8	-0.2401005
253	0x3e96d3b4	0.29458392
254	0x3d38da9c	0.045130357
255	0xbe3fd807	-0.18734752

fc2.weight f4 [256, 256]
0	0xc00aaf38	-2.1669445
1	0xbeeba39d	-0.46023265
2	0x40629cdf	3.5408247
3	0x4021143b	2.5168598
4	0x40318cad	2.7742112
5	0xbf8b917e	-1.0903776
6	0xbf848a71	-1.0354749
7	0xbf16ca3e	-0.5890235
8	0xbfa73180	-1.3061981
9	0x3cf95994	0.030438222
10	0x3eb00e5d	0.34385958
11	0xc006d30d	-2.1066315
12	0x3fce4c58	1.6117048
13	0x401188c5	2.2739727
14	0x3fcc4fd2	1.5961859
15	0x3c89be55	0.01681439
16	0x3f448efc	0.76780677
17	0xbf5ed58c	-0.87044597
18	0x3cdd0104	0.026978023
19	0x3fe290fc	1.7700496
20	0x3b2e16a0	0.0026563779
21	0xbfc10a35	-1.508124
22	0x3a9ee9c0	0.0012124106
23	0xc0076d7e	-2.1160579
24	0xbddf669e	-0.109082446
25	0x4023b0c1	2.5576632
26	0x4090cf19	4.5252805
27	0x3d7dc11e	0.06195175
28	0x3f7a5647	0.977879
29	0xbf3e0c93	-0.74237937
30	0x3ca1f19b	0.019768527
31	0x3f3fe2eb	0.74955624
32	0xbcb5509c	-0.022133164
33	0x4004a3c6	2.072496
34	0xbc7e41e0	-0.0155186355
35	0xbce5fe85	-0.028075466
36	0xc0b268c6	-5.5752897
37	0xbca60b4a	-0.020269055
38	0xbd16abf1	-0.03678507
39	0xc03c3d8a	-2.941256
40	0x3ff2627a	1.8936303
41	0x3f97e9f0	1.1868267
42	0x3fc6eb6d	1.5540596
43	0xbc65f870	-0.014036283
44	0xbd43da24	-0.047815457
45	0xbbf77310	-0.0075515583
46	0x3c2c6220	0.010521442
47	0xbd4d028f	-0.05005127
48	0xbfc60ecd	-1.5473267
49	0x40931894	4.5967503
50	0x3ca44048	0.020050183
51	0x401a0d4f	2.4070623
52	0x3f158657	0.5840811
53	0x3c4cd67e	0.012502311
54	0x3f929292	1.145098
55	0xbc8b98f8	-0.017040715
56	0x3dfee13c	0.12445304
57	0x3cdeb18c	0.02718427
58	0xc035f621	-2.8431475
59	0x3d2987e2	0.041389354
60	0x3d7eb2c0	0.062182188
61	0xbf967e26	-1.1757247
62	0xb9870700	-0.00025754422
63	0xbd4b52b2	-0.04963941
64	0x403ec5c8	2.9808216
65	0x3c2c00d0	0.010498241
66	0xbef8c22e	-0.48585647
67	0x3f452df4	0.77023244
68	0x3f3d6709	0.73985344
69	0xbfc9aced	-1.5755898
70	0xbd11a5c2	-0.03555847
71	0x3f46e23b	0.7768895
72	0x3d0d7c82	0.034542568
73	0x3bfce1e0	0.007717356
74	0x3d1eb07e	0.038742535
75	0x3c623dd0	0.013808683
76	0x3d05b2c8	0.032641202
77	0xbf4a3245	-0.78982955
78	0xc0846554	-4.137369
79	0xbaa12eda	-0.0012297288
80	0x3e905fa5	0.2819797
81	0x3d3bbe8e	0.045836024
82	0x3f607e0d	0.8769234
83	0x3d80a540	0.06281519
84	0x3ff951d7	1.94781
85	0xbf021af1	-0.5082236
86	0x40348e2e	2.821178
87	0xbfcbb6ce	-1.5915163
88	0xbfb6e61f	-1.4288977
89	0x3edef1e1	0.43543914
90	0xbff46335	-1.9092776
91	0xc0508791	-3.2582743
92	0xbf1614b9	-0.5862537
93	0xbd8432e8	-0.06455022
94	0xbe8f63e2	-0.28005892
95	0xc0077ff3	-2.1171844
96	0xbd875e11	-0.066097386
97	0xbe0527cd	-0.13003464
98	0xbfa5e648	-1.2960901
99	0xbd367f26	-0.044554852
100	0xbf2da19b	-0.67824715
101	0xbfe671ce	-1.800348
102	0xbcc7cb06	-0.024388801
103	0x3f263850	0.64929676
104	0x3c17ef8f	0.009273424
105	0xc05cdac9	-3.4508536
106	0x3cc5b914	0.024136104
107	0xbe0a549a	-0.13508835
108	0xbd1fde31	-0.039030258
109	0x4006236e	2.0959125
110	0x3ff36f0b	1.9018263
111	0xbcb2b2f0	-0.02181384
112	0xbd256548	-0.040379792
113	0x3eaaeffc	0.3338622
114	0x4045469c	3.0824347
115	0x3f557526	0.8338188
116	0x3d634d71	0.055493776
117	0xc005f20a	-2.092898
118	0xbd4a28e8	-0.049355417
119	0x3fe56365	1.7920958
120	0x3cda7bc0	0.026670337
121	0x40008874	2.0083284
122	0xbfd18b21	-1.6370584
123	0x402de45c	2.717063
124	0x3d94561c	0.072429866
125	0x3fd46e28	1.6596117
126	0x3fc80406	1.5626228
127	0xc016727e	-2.350738
128	0xbf765ad5	-0.9623235
129	0xbc6a046a	-0.014283279
130	0xc12aeae8	-10.68235
131	0xc0d803f8	-6.7504845
132	0xbf5bb065	-0.8581603
133	0x3ba99346	0.005175027
134	0xbd3a8c14	-0.045543745
135	0x3d65e842	0.0561297
136	0x3f4d9a44	0.80313516
137	0x3ddafe63	0.10693052
138	0x3c539e68	0.012916185
139	0x3daf06c8	0.08546215
140	0xbc18a9b0	-0.0093178
141	0xbd46c804	-0.048530594
142	0x3d12e62a	0.035864033
143	0x3ca76c04	0.020437248
144	0xbe0e8c76	-0.13920769
145	0x3ffaa152	1.9580481
146	0xbf1e9ab0	-0.61954784
147	0xba28b780	-0.0006436035
148	0x3ee83144	0.45350087
149	0xbf86985b	-1.0515245
150	0xbcc0c3bc	-0.023530833
151	0x3d73ba6e	0.059503965
152	0xbd6a366a	-0.0571808
153	0x3ee735eb	0.45158324
154	0xbf99dcea	-1.2020543
155	0x3d506eba	0.050886847
156	0x3f0e7a7e	0.5565566
157	0xbcb3d072	-0.02194998
158	0xbbbce890	-0.0057650283
159	0x3f5a0726	0.8516716
160	0x3d583768	0.052787215
161	0xbe056570	-0.13026977
162	0xbd8fdb70	-0.07024276
163	0x3d086173	0.03329606
164	0x3d563848	0.052299768
165	0xbddc6023	-0.10760524
166	0xbfde0b80	-1.734726
167	0xbe774c0f	-0.24150108
168	0x401c9e51	2.4471629
169	0x3f253415	0.64532596
170	0x3fdc30d8	1.7202406
171	0x3d39869e	0.045294397
172	0xc02ad194	-2.6690416
173	0xbfc8cee7	-1.5688142
174	0x3d442aa6	0.047892235
175	0xbd1ff050	-0.03904754
176	0xbd551f89	-0.052032027
177	0x3e7a6e95	0.24456246
178	0x3c66ac90	0.014079228
179	0xbfc32f19	-1.5248748
180	0xbe7c0bb2	-0.24613836
181	0x3c575eb1	0.013145135
182	0xc06bccee	-3.684383
183	0x3cf89aec	0.03034731
184	0xc00970e9	-2.1475165
185	0xc036d7f6	-2.8569312
186	0x3fa7908f	1.3090991
187	0xbe28d734	-0.16488343
188	0xbc739a58	-0.014868341
189	0xbf901673	-1.1256851
190	0xbf69774c	-0.9119766
191	0xc01e746e	-2.4758563
192	0xbc9cf160	-0.019158065
193	0x3f73614c	0.9507034
194	0x3ffd11f9	1.977111
195	0xbe6d05c8	-0.23146737
196	0x3d605169	0.05476514
197	0x3eaa1987	0.332226
198	0x3cfcc525	0.030855725
199	0x3d66bbb9	0.05633137
200	0x3d4e9092	0.05043084
201	0xc0237dbd	-2.5545495
202	0x3d1778c8	0.03698042
203	0x3de34283	0.110966705
204	0xc07062f6	-3.75604
205	0x3b3b97ec	0.0028624488
206	0x3fbf95f7	1.4967641
207	0xbe1477ae	-0.14498779
208	0xbd19412c	-0.03741567
209	0xbde0d9db	-0.10979053
210	0xbd11767c	-0.035513386
211	0x3c53ae20	0.012919933
212	0xbd060692	-0.03272111
213	0x3d5f76b4	0.054556563
214	0x3ddb36d5	0.10703818
215	0xbc636971	-0.01388012
216	0xbd472a0c	-0.048624083
217	0x3b885950	0.0041610375
218	0xbee44f88	-0.44591928
219	0x401b60f1	2.4277918
220	0x3fe292fa	1.7701104
221	0x3fecb138	1.8491583
222	0xc06b5c26	-3.6774993
223	0xbc8d7ae6	-0.017270517
224	0xbf13d113	-0.57740897
225	0x3ec1a116	0.3781821
226	0xbd193584	-0.037404552
227	0xbda5d1f5	-0.08096687
228	0x3caef9b0	0.021359295
229	0xbd5037cc	-0.050834462
230	0xbec73ff8	-0.38915992
231	0xba88b6b0	-0.0010430422
232	0x3c3f3460	0.011670202
233	0xbcaeee88	-0.021353975
234	0x3ffc5aea	1.9715245
235	0x3d3ac71e	0.04560005
236	0x3f139468	0.57648325
237	0xbd2e933c	-0.042620882
238	0xbf845d64	-1.0341
239	0x3b337545	0.002738313
240	0x3e977308	0.2957995
241	0x40591b41	3.3922884
242	0x40009c74	2.0095491
243	0x402bb93d	2.683181
244	0x401db578	2.464201
245	0x3d695996	0.0569702
246	0x4029f20d	2.6553986
247	0x3ca9857a	0.02069353
248	0xbfc9d2b7	-1.576743
249	0xbc073c72	-0.008254157
250	0x3d2c471e	0.04206001
251	0xbf3f1109	-0.7463537
252	0xbc0de733	-0.008661079
253	0xc06eb45c	-3.7297583
254	0xc0494a9b	-3.1451786
255	0xbc67bc66	-0.014144039

fc2.bias f4 [256]
0	0x3d298f15	0.04139622
1	0x3b022a7d	0.001986175
2	0xbd98361f	-0.07432198
3	0xbdbe5504	-0.09293559
4	0x3e337b5d	0.17527528
5	0xbf4062bb	-0.7515065
6	0x3d14361a	0.036184408
7	0xbeed1dd6	-0.46311826
8	0x3caaaeb5	0.02083526
9	0xbb334ea0	-0.0027360097
10	0xbc2be2cb	-0.010491083
11	0xbd72d3da	-0.05928407
12	0xbd56a62a	-0.05240456
13	0x3cceb8d3	0.025234615
14	0x3ce71082	0.028206114
15	0xbd4554f5	-0.048176724
16	0x3c56ac23	0.013102564
17	0xbcfd0b67	-0.030889226
18	0xbcba8a7c	-0.022771113
19	0xbcb7e02b	-0.022445759
20	0xbdc66063	-0.09686353
21	0x3c403379	0.011731022
22	0xbd53233e	-0.05154728
23	0x3cfe130a	0.031014938
24	0x3f728a6b	0.9474246
25	0xbe29e3b6	-0.16590771
26	0x3eaad0f8	0.33362556
27	0xbef8c362	-0.48586565
28	0xbd65010e	-0.05590921
29	0x3c947ceb	0.018125972
30	0xbf0c3043	-0.5476114
31	0xbd7c392c	-0.06157796
32	0xbd349438	-0.044086665
33	0x3f2fef70	0.6872473
34	0xbf290976	-0.6603006
35	0xbcfba2b4	-0.030717231
36	0xbc8a3c33	-0.016874408
37	0xbdad27b8	-0.084548414
38	0xbc3be112	-0.011467235
39	0xbd76ba14	-0.06023605
40	0xbf640243	-0.8906595
41	0xbef726ef	-0.4827189
42	0xbdd20c52	-0.10256256
43	0x3e1ae8d7	0.15127884
44	0x3b4c48b8	0.0031171273
45	0xbe263f8c	-0.16235179
46	0xbc3add26	-0.011405265
47	0x3cce7f1a	0.025207091
48	0xbd8b3642	-0.06797458
49	0xbd2a0910	-0.04151255
50	0x3dedb616	0.11606996
51	0xbdb769fe	-0.08955763
52	0x3ac67102	0.001513988
53	0xbecf208e	-0.40454525
54	0xbf30561d	-0.688814
55	0xbee48e60	-0.44639874
56	0xbdc873ec	-0.09787735
57	0xbe26c87b	-0.16287415
58	0x3eeb5348	0.45961976
59	0x3aafc4c5	0.0013410082
60	0xbe7f153d	-0.24910446
61	0xbc895818	-0.01676564
62	0xbca49ab7	-0.020093305
63	0x3d1f3771	0.038871232
64	0xbcc8619a	-0.024460603
65	0xbdc0ec5c	-0.09420082
66	0x3e537775	0.20651038
67	0x3e15ab50	0.14616132
68	0x3c06bd50	0.008223847
69	0xbb860683	-0.0040901317
70	0xbd79d499	-0.060993765
71	0xbe18aa36	-0.1490868
72	0xbd66ff6e	-0.05639594
73	0xbd79c93d	-0.06098293
74	0x3bd351ef	0.006448976
75	0xbe2a87a3	-0.16653304
76	0xbcdd2a9d	-0.026997859
77	0x3ec51067	0.38489076
78	0x3bf3378a	0.0074223923
79	0xbd47878f	-0.048713263
80	0xbe571aaf	-0.21006273
81	0xbd68521b	-0.056718927
82	0xbd2bed5d	-0.041974414
83	0x3a1d50f2	0.00060011365
84	0xbd898911	-0.067155965
85	0x3cde1e20	0.027113974
86	0xbd2938d3	-0.041313957
87	0xbe621392	-0.22077778
88	0x3ed3571a	0.4127739
89	0xbf035359	-0.51299053
90	0xbc7bc83e	-0.015367566
91	0x3bd3f943	0.0064689233
92	0xbdcc69d7	-0.09981125
93	0xbe64abd8	-0.22331178
94	0x3c89e0dc	0.016830854
95	0x3c708484	0.014680032
96	0xbf05c820	-0.5225849
97	0xbbe62e1d	-0.00702454
98	0x3d255c4f	0.040371235
99	0x3d298faa	0.041396774
100	0x3c2fee3b	0.010737951
101	0x3e2f04cf	0.17091678
102	0x3e6a9e3b	0.22911923
103	0xbe18dde6	-0.14928398
104	0xbea98e09	-0.33116177
105	0xbd3362ad	-0.043795276
106	0x3c253e1e	0.010085611
107	0xbe2a210b	-0.16614167
108	0x3c4916d1	0.012273506
109	0xbce0a5de	-0.027422842
110	0xbccb4185	-0.024811516
111	0xbca18bae	-0.019719925
112	0xbe66d107	-0.22540675
113	0xbc29680b	-0.010339747
114	0xbd6a2cc0	-0.057171583
115	0x3cdf76d9	0.02727835
116	0xbd165e39	-0.03671095
117	0xbd346d3b	-0.044049483
118	0x3ea1558b	0.31510577
119	0xbef970d5	-0.48718897
120	0xbcccba13	-0.02499107
121	0x3bbed3f0	0.0058236048
122	0xbdbeb3f8	-0.0931167
123	0x3d9107cb	0.070815645
124	0xbd4732b1	-0.048632327
125	0x3eb9efc4	0.3631574
126	0xbcbbf100	-0.022942066
127	0x3eac235f	0.33620736
128	0xbcaf331c	-0.021386676
129	0xbbae92ce	-0.005327559
130	0xbea47b5d	-0.3212537
131	0x3ce9e346	0.028550755
132	0xbb9a0d8e	-0.004701323
133	0xbd6d14e3	-0.057881247
134	0x3f9a02b7	1.2032079
135	0xbc7b10d3	-0.015323835
136	0xbbaf9b72	-0.0053591067
137	0xbf028f1e	-0.5099963
138	0xbe431823	-0.19052176
139	0x3c67c25f	0.014145463
140	0x3e274528	0.16334975
141	0xbbea333a	-0.00714722
142	0xbd4c9602	-0.049947746
143	0xbd6441d2	-0.055726834
144	0xbde3cfef	-0.111236446
145	0x3c678560	0.01413092
146	0x3e874da9	0.26426437
147	0xbd3639e1	-0.04448879
148	0xbd903d4e	-0.07042943
149	0xbee78549	-0.45218876
150	0xbc315b44	-0.010824982
151	0x3f58331a	0.84452975
152	0xbdbcffc8	-0.09228474
153	0xbda7e10d	-0.08197222
154	0xbd8a1eeb	-0.067441784
155	0xbf00e3ac	-0.503474
156	0xbcc8a921	-0.02449471
157	0x3e405f2b	0.18786304
158	0x3d510e10	0.0510388
159	0xbe96dccc	-0.2946533
160	0xbdceafb9	-0.1009211
161	0xbc0c2915	-0.008554717
162	0x3c430f6f	0.011905535
163	0x3c805621	0.01566607
164	0x3d0415fa	0.03224752
165	0xbbe63195	-0.0070249536
166	0x3ce19aac	0.027539574
167	0x3cce9e50	0.025221974
168	0x3cb80190	0.022461683
169	0xbd9c809f	-0.0764172
170	0xbd8d2c45	-0.06893209
171	0xbe7ebc78	-0.24876583
172	0xbcca369d	-0.024684245
173	0x3b962073	0.004581505
174	0xbd9aaee1	-0.07552887
175	0xbd97026c	-0.07373509
176	0xbd8f0020	-0.06982446
177	0xbdf8f8cc	-0.12156829
178	0x3db8725b	0.090061866
179	0xbc2fc2b8	-0.010727577
180	0xbc346d80	-0.011012435
181	0x3cb1c532	0.021700475
182	0xbd6122dc	-0.054964885
183	0x3d82448b	0.0636073
184	0x3ccc2358	0.024919197
185	0xbb9b89b1	-0.0047466387
186	0xbea52a98	-0.3225906
187	0xbccca849	-0.024982588
188	0x3d609128	0.05482593
189	0xbd9e9902	-0.07744028
190	0x3e6b1ca4	0.22960144
191	0x3c9be12a	0.019028265
192	0xbd8eae4b	-0.069668375
193	0xbc8abbd7	-0.016935272
194	0xbbc54cee	-0.0060211336
195	0xbd9a7eba	-0.075437024
196	0xbea16eab	-0.31529745
197	0x3e149b78	0.14512432
198	0xbd9c4ee3	-0.07632234
199	0xbd5a1d5d	-0.05325066
200	0xbd99a3a7	-0.07501917
201	0xbcc95101	-0.024574758
202	0xbcd80f33	-0.026374435
203	0xbeb2d4dd	-0.34928027
204	0xbdf44fc5	-0.11929277
205	0xbda627a3	-0.08113029
206	0x3dd9be73	0.106320284
207	0x3c74a752	0.01493247
208	0xbf28ce49	-0.65939766
209	0x3ef42b77	0.4768941
210	0xbd02ab86	-0.03190186
211	0x3bdd533c	0.006754307
212	0x3c4d7e52	0.012542324
213	0xbe56dbad	-0.20982237
214	0x3be22595	0.006901453
215	0xbd4f1090	-0.050552905
216	0x3d6ef74b	0.058341306
217	0xbefe9d17	-0.49729225
218	0x3f2ed642	0.6829568
219	0xbe5e20d3	-0.21692209
220	0xbdb354c1	-0.087564
221	0xbd7efaaa	-0.06225077
222	0x3e072bb6	0.13200268
223	0x398c4984	0.00026757654
224	0xbd12c212	-0.03582961
225	0xbe27f785	-0.16403015
226	0x3e8f8926	0.28034323
227	0xbbbc1720	-0.0057400614
228	0xbc5f0438	-0.013611846
229	0xbedb9625	-0.4288799
230	0x3e11746c	0.14204568
231	0xbc36661e	-0.011132745
232	0x3cbb9c11	0.022901567
233	0x3e0d97ba	0.1382741
234	0x3e4f3903	0.20236592
235	0xbe9e237d	-0.3088645
236	0xbda45bd0	-0.08025324
237	0x3cab6ffd	0.020927424
238	0x3c80e214	0.015732802
239	0xbef934b3	-0.4867302
240	0x3d258635	0.040411193
241	0xbe942072	-0.28931004
242	0x3c4d8a9c	0.012545254
243	0xbc81ef84	-0.01586128
244	0xbdded786	-0.108809516
245	0xbda027ac	-0.07820067
246	0xbe51992e	-0.2046859
247	0xbd0b3dfa	-0.033994652
248	0xbae0b539	-0.0017143852
249	0x3eaf89ac	0.34284723
250	0x3f080733	0.53135985
251	0x3e1cfc64	0.15330654
252	0xbeb4b5ed	-0.35295048
253	0x3def1439	0.11673779
254	0xbe36c91b	-0.17850153
255	0xbdb8d61a	-0.09025212

fc3.weight f4 [5, 256]
0	0x40231e69	2.548731
1	0x3d20e632	0.03928203
2	0xbd0a25cf	-0.033727463
3	0x3d1811ce	0.037126355
4	0x40102b5d	2.2526467
5	0x3ea11f23	0.31469068
6	0xbd685744	-0.056723848
7	0x3fad99e3	1.3562587
8	0x3bcf0200	0.006317377
9	0xbcd40086	-0.025879156
10	0xbd38358c	-0.04497294
11	0x3be555d4	0.006998757
12	0xbd9b1ac4	-0.075734645
13	0x3cd768bc	0.026295058
14	0x3bdcb8a9	0.0067358804
15	0x3cfbcd9c	0.03073769
16	0xbd681744	-0.056662813
17	0x3d06f3c2	0.03294731
18	0xbd320214	-0.043459013
19	0xbcfdb800	-0.030971527
20	0x4031f693	2.7806747
21	0xbd37146c	-0.04469721
22	0x3c1cd680	0.009572625
23	0x407a028b	3.9064052
24	0xbe8dd6d5	-0.27702966
25	0x405d80f2	3.4609952
26	0x40718113	3.773503
27	0xbf84fd78	-1.0389853
28	0xbb6b73ad	-0.0035927102
29	0xbc34b207	-0.011028773
30	0xbf12ea66	-0.57388914
31	0x3d635fda	0.055511333
32	0xbcc6def8	-0.024276242
33	0x3e8b3291	0.27187017
34	0x3ed5ee26	0.41783255
35	0xbcc62756	-0.024188679
36	0x402de335	2.7169926
37	0x3dbfbd75	0.09362308
38	0x3d4cc2f4	0.04999061
39	0x4048d3c2	3.1379247
40	0xc03f19bb	-2.9859455
41	0x3f41e749	0.7574354
42	0xbfdf99aa	-1.746877
43	0x3f297fe5	0.66210777
44	0x3d98eee8	0.07467443
45	0x4097e78c	4.747015
46	0x3d309ca4	0.043118134
47	0x3d2c3630	0.042043865
48	0x404a059d	3.1565926
49	0xbcbf0734	-0.023318864
50	0x40957f19	4.671765
51	0xbb94df12	-0.0045431936
52	0x402bdbda	2.6852937
53	0x4047d876	3.1225867
54	0xc0068dbd	-2.102401
55	0x407b6a64	3.9283686
56	0x3f8da813	1.1066917
57	0xbf055e4b	-0.52097005
58	0x4010a397	2.2599847
59	0x3cd3413c	0.025787942
60	0x3f4805b9	0.7813373
61	0xbd538313	-0.051638674
62	0xbcf74f1f	-0.030189095
63	0xbd157057	-0.03648409
64	0xbce7873b	-0.028262725
65	0x3c5100cf	0.01275654
66	0xbc2476ca	-0.010038087
67	0xbf273f14	-0.65330625
68	0x3d07167a	0.03298042
69	0xbcf30f78	-0.029670462
70	0x3bd6f014	0.0065593813
71	0x40ce16b9	6.440274
72	0x3d22a182	0.039704807
73	0xbcffa30f	-0.031205682
74	0x3b5fa100	0.0034123063
75	0x4002a452	2.0412793
76	0xbd710797	-0.05884513
77	0x3fc97632	1.5739195
78	0x3cec6280	0.028855562
79	0xbcbd7836	-0.02312861
80	0x3fca91e8	1.5825777
81	0xbcbfd285	-0.023415813
82	0x39b7c10c	0.0003504831
83	0xbd250484	-0.04028751
84	0x3c9d7740	0.019221902
85	0x407e0513	3.9690597
86	0xbc648bae	-0.013949318
87	0xbeca85e2	-0.3955527
88	0xbd1a2c83	-0.037640106
89	0x3fd32448	1.6495447
90	0xbc84d4e8	-0.016214803
91	0x3ca35a22	0.01994044
92	0xbd565ce4	-0.05233468
93	0x4016bc83	2.3552558
94	0xbd0e7385	-0.034778137
95	0xbd122f8c	-0.035689875
96	0xbff486de	-1.9103658
97	0xbc094cbe	-0.008380113
98	0x3b1b54c2	0.0023701643
99	0x40782aef	3.8776205
100	0x3ca181b5	0.01971517
101	0xbfbc83d2	-1.4727728
102	0x3d886f05	0.066618
103	0x40119d8a	2.2752404
104	0x40713273	3.7687042
105	0x3da33ddb	0.07970782
106	0x3cc5c171	0.024140092
107	0x408753d0	4.228981
108	0xbbd686c0	-0.006546825
109	0x3b3a57c5	0.0028433662
110	0x3d6e18f2	0.05812926
111	0xbd0c64b5	-0.03427573
112	0x402c7836	2.694837
113	0x3cf1f5ed	0.029536212
114	0xbd57ee96	-0.052717768
115	0x3cfaffe1	0.03063959
116	0x407c059e	3.9378428
117	0x3d0715f6	0.032979928
118	0xbfea763f	-1.8317336
119	0x3fdb5e05	1.7138067
120	0xbd5a5039	-0.053299163
121	0xbc3a94db	-0.011388029
122	0xbdb5d5ce	-0.08878671
123	0x4084cfcf	4.1503673
124	0xbbd3650e	-0.0064512556
125	0xbf4aa7d9	-0.79162365
126	0xbba5afca	-0.005056356
127	0x3f6ace46	0.91721
128	0x3d0755f8	0.03304097
129	0xbc93fae2	-0.018063966
130	0x40795ed8	3.8964138
131	0xbd397e8c	-0.0452867
132	0x3c9a0534	0.01880131
133	0x3d038a60	0.032114387
134	0x3f1a977f	0.60387415
135	0x3ca32aac	0.019917808
136	0x3d0c2156	0.03421148
137	0x4048f464	3.1399164
138	0xbce1a850	-0.027546078
139	0xbd311504	-0.043232933
140	0x400f2f20	2.2372513
141	0x3d141034	0.036148265
142	0x3da32445	0.07965902
143	0xbd02efd9	-0.031967018
144	0xbf676bda	-0.90398943
145	0x3c5ae340	0.013359845
146	0xbfc4fcbd	-1.538963
147	0xbd247452	-0.040149994
148	0x3d398014	0.04528816
149	0x40266626	2.5999846
150	0xbbad31c9	-0.005285476
151	0xc001d31e	-2.0285106
152	0x3d50b206	0.050951026
153	0xbc1d8c2b	-0.009615938
154	0x3cb5aa6f	0.022175996
155	0x3f84fcb8	1.0389624
156	0x3b6c83d9	0.003608933
157	0x406ff51d	3.7493355
158	0x402692ca	2.6027093
159	0xbe2e268d	-0.17006893
160	0xbcff4754	-0.031161942
161	0x407c47ac	3.9418745
162	0xbd39f0bf	-0.04539561
163	0xba95d48e	-0.0011431144
164	0xbcadd00d	-0.02121737
165	0xbcb1283f	-0.021625636
166	0xbd17b852	-0.037041016
167	0x3c2368b2	0.009973692
168	0xbcbf6ec4	-0.023368247
169	0x3b95cf3f	0.004571825
170	0x3b375ca3	0.00279788
171	0x3fd82d53	1.6888832
172	0xbcf87627	-0.030329777
173	0xbc5fd383	-0.013661268
174	0x3ca4ad4f	0.020102171
175	0x3d0c3c71	0.03423733
176	0x3cb5ab4e	0.022176411
177	0x4019c797	2.402807
178	0x40516664	3.2718744
179	0xbba1bddb	-0.0049359626
180	0xbd3e432f	-0.04645079
181	0xbd6ba316	-0.057528578
182	0x3ca7a779	0.0204656
183	0x407278ec	3.7886305
184	0x3d27fdd4	0.041013554
185	0xc04b941d	-3.180915
186	0xbf21e2a5	-0.6323646
187	0xbd286c6d	-0.041119028
188	0x403bb4d8	2.9329128
189	0xbcf7de93	-0.030257499
190	0x406f0dd9	3.7352202
191	0xbd2c0771	-0.041999284
192	0xbba787f0	-0.0051126406
193	0x3c549928	0.012975968
194	0xbccdf6d4	-0.02514211
195	0x3cb81261	0.022469701
196	0x409507b7	4.6571918
197	0x40a272aa	5.076497
198	0xbc5a0435	-0.013306667
199	0x3bfa43cb	0.007637476
200	0x3bd11f00	0.0063818693
201	0xbb1fc0f5	-0.0024376486
202	0x3d1c61fc	0.038179383
203	0x4026f013	2.608403
204	0x3f68c016	0.909181
205	0xbcfc097b	-0.03076624
206	0x3f0f71f6	0.56033266
207	0xbff48001	-1.9101564
208	0xbf90be5f	-1.1308097
209	0x3fb8c2fb	1.4434503
210	0x3b977791	0.0046224077
211	0xbc075d97	-0.00826206
212	0x3d4b9aca	0.049708165
213	0x400556cf	2.0834234
214	0xbc9c0c3e	-0.019048806
215	0xbbb96625	-0.0056579285
216	0x40457fea	3.0859323
217	0x4095f04b	4.6855826
218	0xbfd7d8fc	-1.6863093
219	0x402f0b38	2.7350597
220	0xbc04ea72	-0.008112537
221	0x3fc7201d	1.5556675
222	0xc00adf29	-2.1698706
223	0xbe49028f	-0.19629882
224	0xbd33693c	-0.04380153
225	0x4055cc82	3.3406072
226	0x4080f842	4.030305
227	0x3c889fd0	0.016677767
228	0xbe86cebc	-0.263296
229	0x403b1b7b	2.9235523
230	0x4042e828	3.0454197
231	0xbd4b639f	-0.049655553
232	0x3c3c42e2	0.0114905555
233	0x409f0b0e	4.9700994
234	0x404051ee	3.0050006
235	0x4084e8d4	4.1534214
236	0xbabe0e85	-0.0014500177
237	0x3d8eb332	0.069677725
238	0xbd360927	-0.044442322
239	0x409731c0	4.724823
240	0x401122a6	2.2677398
241	0x4054ade8	3.3231144
242	0xbb84a857	-0.004048388
243	0xbb9638f9	-0.0045844284
244	0x407129f5	3.7681859
245	0xbb92b027	-0.0044765654
246	0x4022568b	2.5365322
247	0x404d5dea	3.208857
248	0x3a2894b5	0.00064308505
249	0xbf2162fe	-0.63041675
250	0xbfad074f	-1.3517855
251	0xbfd3b2fc	-1.6538997
252	0x40227109	2.538149
253	0x406d597c	3.7085867
254	0xbf7afd4b	-0.98042744
255	0x3cb5f6f4	0.022212483

fc3.bias f4 [5]
0	0x3e8493b8	0.2589395
1	0xbf576ea6	-0.8415321
2	0xbf1f6fc3	-0.6227991
3	0xbebf6ffe	-0.3739013
4	0x3e0d456e	0.13796017
