other_model/dqn_team_a_ep10.pth (torch, 286773 bytes, 6 tensors)

fc1.weight f4 [256, 14]
0	0x3c981b5f	0.018567739
1	0x3e11c9d0	0.14237142
2	0xbdd1b129	-0.10238869
3	0x3be7d3d6	0.0070748134
4	0xbda9c5b9	-0.08289666
5	0x3e44b5a4	0.19209915
6	0x3e80d476	0.25162095
7	0x3e183b10	0.1486628
8	0xbfe063b9	-1.7530433
9	0xbe5d2d88	-0.215994
10	0x3e7e1b50	0.24815106
11	0x3df35e26	0.11883192
12	0x3cbbaf02	0.022910599
13	0x3e8951be	0.26820177
14	0xbc4add45	-0.012381856
15	0x3e5207f1	0.20510842
16	0x3cc06682	0.02348638
17	0x3e2ee78b	0.17080514
18	0xbe8765d9	-0.2644489
19	0x3e2a8b30	0.16654658
20	0xbe1650c8	-0.14679253
21	0xbe42d093	-0.19024877
22	0xbe10fef2	-0.14159754
23	0x3d7fd5d6	0.06245979
24	0x3e476730	0.19472957
25	0xbe2ccb89	-0.16874518
26	0xbdb23aa3	-0.0870259
27	0xbdb7c4e9	-0.089731045
28	0xbdffe125	-0.12494115
29	0xbe7c354c	-0.24629706
30	0x3e4be767	0.19912492
31	0xbd0acea7	-0.033888485
32	0xbe4d4e1c	-0.20049328
33	0x3e400d27	0.18755017
34	0xbe0f98c6	-0.14023122
35	0xbe31158d	-0.17293377
36	0x3dd57f6d	0.10424695
37	0xbe1604b2	-0.14650229
38	0xbe6540c1	-0.22387983
39	0xbd4da6f5	-0.05020805
40	0xbb952f5d	-0.0045527653
41	0x3d2d4e56	0.042311035
42	0xbd31ebc3	-0.04343773
43	0xbe3bb326	-0.18330058
44	0xbe3cfb09	-0.18455137
45	0x3da37ba0	0.07982564
46	0xbdef9f1e	-0.11700271
47	0x3c581e48	0.013190813
48	0xbe7de745	-0.24795254
49	0x3e274ff2	0.1633909
50	0xbe4b957a	-0.1988124
51	0x3c317600	0.010831356
52	0xbe32cfba	-0.17462054
53	0x3e3e6f6a	0.18597189
54	0x3cd44a1a	0.02591424
55	0xbd11a5d9	-0.035558555
56	0xbe3d1202	-0.184639
57	0x3e49263f	0.19643496
58	0xbd7b52fa	-0.06135843
59	0xbe4894a5	-0.19587953
60	0x3e8d823d	0.27638426
61	0x3e1edec3	0.15514664
62	0x3e94cd67	0.2906296
63	0xbe4a98d6	-0.19784865
64	0xbf1fda33	-0.6244232
65	0x3e27945d	0.1636519
66	0xbf4556dc	-0.7708566
67	0xbea9c594	-0.33158553
68	0x3e073480	0.13203621
69	0x3dbfa52e	0.093576774
70	0xbe8fbf98	-0.28075862
71	0xbee4cf6b	-0.44689497
72	0x3e60b430	0.21943736
73	0xbe6c7d03	-0.23094563
74	0x3e3ba463	0.18324427
75	0xbd1021ad	-0.035188366
76	0x3d5313c0	0.051532507
77	0xbe0f9eb8	-0.1402539
78	0xbe8192d1	-0.25307325
79	0xbe5a8632	-0.21340254
80	0x3e8c249a	0.27371675
81	0xbcfe8f90	-0.031074315
82	0xbb0f2c4c	-0.0021846471
83	0xbcdf436c	-0.027253829
84	0xbe258eff	-0.1616783
85	0xbdc34ac1	-0.095357426
86	0x3e5fe501	0.21864702
87	0xbe84c9f7	-0.25935337
88	0xbe43085c	-0.19046158
89	0x3e749297	0.23884045
90	0x3dd234eb	0.102639996
91	0xbe5cd2ff	-0.21564864
92	0xbe301cd9	-0.17198505
93	0xbd816fbc	-0.0632014
94	0xbe730680	-0.23732948
95	0xbc8cd244	-0.017190106
96	0x3d6d509f	0.057938214
97	0xbdce090f	-0.100603215
98	0x3e6f6af0	0.23380637
99	0xbcb8acce	-0.022543337
100	0xbd2da113	-0.04238994
101	0xbe2cdf95	-0.16882165
102	0x3bf61a28	0.0075104423
103	0x3e472d27	0.19450818
104	0xbca645d8	-0.020296976
105	0x3d028c82	0.03187228
106	0xbd8c2e44	-0.06844762
107	0xbe147d7d	-0.14500995
108	0xbe70b70f	-0.23507331
109	0x3d0f6fa9	0.035018597
110	0xbdb24237	-0.08704036
111	0x3dc3f54a	0.095682696
112	0xbe53f966	-0.20700607
113	0xbe885131	-0.26624444
114	0x3e121795	0.14266808
115	0x3e57e54f	0.21083568
116	0x3e0ff29c	0.14057392
117	0x3d177077	0.03697249
118	0x3e4f0537	0.20216833
119	0xbe5f369e	-0.21798179
120	0xbe6bcc7c	-0.23027223
121	0xbda936a9	-0.08262379
122	0xbc99bbf8	-0.018766388
123	0x3c8dfac9	0.017331498
124	0xbe39de2c	-0.18151158
125	0xbe86ab99	-0.26302794
126	0x3e84c827	0.25933954
127	0x3e20e42b	0.15712039
128	0x3e8b5fec	0.2722162
129	0x3e0cc680	0.13747597
130	0xbde68e80	-0.112576485
131	0xbeb92e5d	-0.36168185
132	0xbe60140d	-0.21882649
133	0xbe32015c	-0.17383331
134	0x3ab741d0	0.0013981406
135	0xbeb166b4	-0.3464867
136	0x3e795d20	0.2435193
137	0x3f8770f4	1.0581346
138	0xbc0811ca	-0.0083050225
139	0xbcb26823	-0.021778172
140	0xbe8594fb	-0.26090226
141	0xbed82e05	-0.4222261
142	0xbead8ac7	-0.3389494
143	0xbcb87666	-0.022517394
144	0xbcc5c613	-0.0241423
145	0x3d93f44b	0.072243296
146	0xbe072d5c	-0.13200897
147	0x3c5fedc8	0.013667531
148	0x3d9f6ae2	0.07784058
149	0x3e69a7c5	0.22817905
150	0x3f3f1a40	0.7464943
151	0x3f21a535	0.6314271
152	0x3e42a4fc	0.19008249
153	0x3e139e50	0.1441586
154	0xbdea6737	-0.11445468
155	0x3e54d8b4	0.2078579
156	0x3a9c4074	0.0011921064
157	0xbe6a2ebd	-0.22869392
158	0xbe1d98dd	-0.15390344
159	0xbde90b68	-0.11379129
160	0xbd023340	-0.031787157
161	0xbdcd1038	-0.10012859
162	0x3d96b2b5	0.073583044
163	0x3e058d43	0.13042168
164	0xbe4da1b8	-0.20081222
165	0x3d9c7fea	0.07641585
166	0xbe2adf28	-0.1668669
167	0x3e257e78	0.16161525
168	0x3df6120c	0.12015161
169	0x3e41b19b	0.18915407
170	0x3e6fe19f	0.23425911
171	0x3e91edd2	0.28501755
172	0xbe84997a	-0.25898343
173	0x3dc05312	0.093908444
174	0x3da34d3e	0.07973717
175	0x3e84c337	0.25930187
176	0xbf26991b	-0.6507737
177	0x3e8a1482	0.2696877
178	0xbef9b950	-0.48774195
179	0x3f0292e7	0.51005405
180	0xbd4c4a2a	-0.049875416
181	0xbe44a22f	-0.19202493
182	0x3ce045cc	0.027377032
183	0x3dc51a85	0.09624199
184	0xbc356f63	-0.01107392
185	0x3daaed04	0.083459884
186	0x3cd79fb8	0.026321277
187	0x3d5b2d16	0.053509794
188	0xbe887f2b	-0.2665952
189	0xbe5e8a1b	-0.2173237
190	0x3c5d29fc	0.013498779
191	0x3cece6ec	0.028918706
192	0x3e1bca0d	0.15213795
193	0xbd32bef1	-0.043639127
194	0x3ce443b4	0.027864315
195	0x3d0396fb	0.032126408
196	0xbb2be513	-0.0026229068
197	0xbe6fe5a3	-0.23427443
198	0xbda41374	-0.08011523
199	0x3e0f2d7a	0.13982192
200	0x3d5ac943	0.053414594
201	0xbee0cd2f	-0.43906543
202	0xbe9bd4ba	-0.30435735
203	0xbdece4db	-0.11567088
204	0x3ca92643	0.020648127
205	0x3ecc40d8	0.39893222
206	0x3f19d6b2	0.60093224
207	0x3fd5be57	1.6698712
208	0x3db0df55	0.08636347
209	0x3e312cc4	0.17302233
210	0xbd79d7a3	-0.060996663
211	0x3e297598	0.16548765
212	0x3e7c7cbd	0.24656959
213	0x3e4923dd	0.19642587
214	0xbd6073e1	-0.05479801
215	0xbec1d4a1	-0.37857535
216	0x3ddb9f4f	0.10723745
217	0xbe2fc7c5	-0.1716605
218	0xbdb97961	-0.09056354
219	0xbf826754	-1.0187783
220	0x3ec46d31	0.38364556
221	0xbfedd6f4	-1.8581223
222	0xbd50dec5	-0.0509937
223	0x3e0ac020	0.13549852
224	0xbe814f87	-0.25255987
225	0xbd2ca2f4	-0.04214759
226	0x3e0b6434	0.13612443
227	0x3dfbcee0	0.12295318
228	0xbdb5ea74	-0.08882609
229	0x3e1a49b6	0.15067181
230	0xbe85fc9d	-0.2616929
231	0x3c87216d	0.01649543
232	0x3d3c9400	0.04603958
233	0xbd8c7dd9	-0.06859941
234	0xbe8588e5	-0.26081005
235	0x3e389a38	0.1802758
236	0x3da6444b	0.081184946
237	0xbe748265	-0.23877867
238	0xbe18dd87	-0.14928256
239	0xbe39fbff	-0.18162535
240	0x3e121268	0.14264834
241	0xbe7e839e	-0.24854895
242	0xbdea3344	-0.114355594
243	0xbb1e164d	-0.002412218
244	0x3dfef9ee	0.12450014
245	0xbe58339d	-0.21113439
246	0x3c1f0eb8	0.009708099
247	0xbe71d22a	-0.23615327
248	0xbdc4e87a	-0.09614654
249	0x3b911b2d	0.0044282884
250	0xbe2e49bc	-0.17020315
251	0xbe368dab	-0.1782748
252	0xbe1a573e	-0.15072343
253	0xbe7d7ac7	-0.24753867
254	0xbd0ddbc2	-0.034633406
255	0x3e127979	0.1430415

fc1.bias f4 [256]
0	0x3deb08d6	0.11476295
1	0x3de15c08	0.11003882
2	0xbe877029	-0.2645276
3	0xbd11ef47	-0.035628583
4	0x3dae662d	0.08515582
5	0xbeb29164	-0.3487655
6	0xbe06047c	-0.13087648
7	0xb914c286	-0.00014186846
8	0x3e1f0cab	0.15532176
9	0x3df182cf	0.11792528
10	0x3e066bdd	0.13127084
11	0x3d6c46d5	0.05768474
12	0xbd4d474c	-0.050116822
13	0xbeaad0fe	-0.33362573
14	0x3e365fa6	0.17809924
15	0x3e236a9d	0.15958638
16	0xbd948c22	-0.07253291
17	0xbd2abe69	-0.041685496
18	0xbe4b8e6f	-0.19878553
19	0xbe24f0dc	-0.16107506
20	0xbdd5a1d8	-0.1043126
21	0x3e3d76c5	0.18502338
22	0xbdc17c9a	-0.09447594
23	0x3c46c7f7	0.012132636
24	0xbe685a18	-0.22690618
25	0x3d1ee6e3	0.03879441
26	0xbd5b5ea3	-0.05355705
27	0xbe632935	-0.22183688
28	0x3e58631d	0.21131559
29	0x3e676617	0.22597538
30	0xbe1bff79	-0.15234174
31	0xbe088442	-0.13331702
32	0xbc09080b	-0.008363734
33	0xbd804ed5	-0.06265036
34	0xbe4c6555	-0.1996053
35	0x3d983224	0.074314386
36	0x3e1bd31e	0.15217254
37	0x3bb444e9	0.005501379
38	0xbe57e146	-0.21082029
39	0x3d29a1de	0.041414134
40	0xbe6184d0	-0.2202332
41	0x3e4aa2a4	0.19788605
42	0xbe02c34e	-0.12769815
43	0xbea2b107	-0.31775686
44	0xbe53fde6	-0.20702323
45	0xbe80a32b	-0.25124487
46	0xbe8bc9b9	-0.2730234
47	0x3dc5a6dc	0.096509665
48	0x3d54817d	0.051881302
49	0x3df8dbe7	0.12151318
50	0xbe6e0b21	-0.23246433
51	0xbe4d398f	-0.20041488
52	0xbc8bc04d	-0.01705947
53	0x3c4f31de	0.012646167
54	0xbe729c81	-0.23692514
55	0xbcd465c4	-0.025927432
56	0xbe35df3a	-0.17760935
57	0x3e565372	0.2093027
58	0x3c0fbb97	0.008772752
59	0x3bc3038c	0.0059513506
60	0x3e510a2b	0.20414035
61	0x3df5cad1	0.12001575
62	0x3d31995d	0.04335915
63	0xbdf08734	-0.11744538
64	0x3e4e5808	0.20150769
65	0x3e146312	0.14490917
66	0x3cd18822	0.025577608
67	0xbda287f7	-0.079360895
68	0x3df640b9	0.120240636
69	0x3d7e103a	0.062027194
70	0xbe562cc2	-0.20915511
71	0xbe185a4e	-0.14878199
72	0x3e60a3bb	0.21937458
73	0xbdcae28c	-0.09906492
74	0xbe026a69	-0.12735905
75	0x3d860989	0.065447874
76	0xbbcedf5d	-0.006313248
77	0xbd9ba6bf	-0.07600164
78	0x3c9f53f3	0.01944921
79	0x3e36a2d7	0.17835556
80	0xbe288fdf	-0.16461132
81	0xbd6f7f5a	-0.05847106
82	0x3d4fab5d	0.050700534
83	0x3b9edc15	0.004848013
84	0xbe264c8d	-0.1624014
85	0x3dcbd38c	0.09952459
86	0x3da99287	0.08279901
87	0x3e3818e6	0.17978248
88	0x3e4f22ca	0.20228115
89	0xbe0f0f5a	-0.139707
90	0xbe5a53db	-0.21321051
91	0x3d41f44b	0.047352117
92	0xbe580161	-0.21094276
93	0x3cbeb0de	0.023277696
94	0x3d9cdc38	0.07659191
95	0xbe6a04e3	-0.22853427
96	0xbdb98e9e	-0.09060405
97	0x3e08a196	0.1334289
98	0xbe996ceb	-0.2996591
99	0x3e698d85	0.22807892
100	0xbe0aa9c2	-0.1354132
101	0x3e83b39b	0.25722966
102	0xbd509750	-0.050925553
103	0x3e5bcfa3	0.21465926
104	0x3d521941	0.051293615
105	0x3ca1641d	0.019701058
106	0x3dc63343	0.09677746
107	0x3e768093	0.24072485
108	0xbd89fb4b	-0.067373835
109	0xbb404106	-0.0029335632
110	0xbda98f5c	-0.08279297
111	0xbe71350f	-0.23555396
112	0x3da32cdf	0.07967543
113	0xbe9598a7	-0.29218027
114	0xbe0c4b53	-0.13700609
115	0x3d299067	0.04139748
116	0xbd9b4507	-0.07581525
117	0x3d9534d0	0.07285464
118	0xbe853d65	-0.26023403
119	0xbe9821a4	-0.29713166
120	0x3dde33da	0.10849734
121	0x3d97fca1	0.07421232
122	0xbe274dcd	-0.16338272
123	0x3e15623a	0.14588252
124	0x3e5b6750	0.2142613
125	0xbe41e459	-0.18934764
126	0x3d067e90	0.032835543
127	0xbe842739	-0.25811175
128	0x3db21526	0.0869544
129	0xbe913220	-0.28358555
130	0xbda4a71c	-0.08039686
131	0xbd0a4f1e	-0.03376686
132	0x3e26cecb	0.16289823
133	0xbde592d0	-0.11209643
134	0x3d5a2d98	0.053266138
135	0xbc824050	-0.015899807
136	0x3dda6ee2	0.106656805
137	0x3e487821	0.19577076
138	0xbe1e64e2	-0.15468171
139	0x3d3f0531	0.04663581
140	0x3d7b40ed	0.061341215
141	0x3d7cf05e	0.06175267
142	0xbe0d2641	-0.13784124
143	0x3e05637c	0.13026232
144	0x3da293e2	0.07938363
145	0xbdcb8067	-0.099366
146	0xbd239c03	-0.039943706
147	0xbdae5300	-0.08511925
148	0xbdde73b6	-0.10861914
149	0xbd6fd821	-0.058555726
150	0xbbe2ff97	-0.0069274413
151	0xbd86850d	-0.06568346
152	0x3c9d857e	0.019228693
153	0x3d76a914	0.06021984
154	0xbd3ac179	-0.045594666
155	0xbe747d1b	-0.23875849
156	0xbc6110f0	-0.013736948
157	0x3e872d63	0.26401815
158	0xbd3341ca	-0.043763913
159	0x3e5d9516	0.21638903
160	0xbe517363	-0.20454173
161	0x3e32fb3e	0.17478654
162	0x3d2fd35f	0.04292619
163	0xbe2d5ec9	-0.16930689
164	0xbe9721c1	-0.2951794
165	0xbe8883f5	-0.26663175
166	0x3e96dc0b	0.29464754
167	0x3dd1de71	0.102475055
168	0x3e59bb52	0.21262863
169	0xbe5e8dbb	-0.21733753
170	0xbe303697	-0.17208324
171	0xbdf553e0	-0.119788885
172	0x3deeb588	0.11655718
173	0xbe55b0b8	-0.20868194
174	0xbe2848bc	-0.16433996
175	0x3cfbdc2c	0.030744635
176	0x3d398661	0.04529417
177	0x3e803b8c	0.2504543
178	0x3e2d3cf5	0.16917785
179	0x3e25a12c	0.16174763
180	0xbdf730ff	-0.12069892
181	0xbe5900c7	-0.21191703
182	0xbe3e8668	-0.1860596
183	0x3e532af9	0.20621862
184	0xbdb8875b	-0.09010192
185	0x3e885df4	0.2663418
186	0xbdba21bd	-0.09088466
187	0x3e7c0296	0.24610361
188	0xbea16cdb	-0.31528363
189	0xbe3a2812	-0.18179348
190	0x3e366049	0.17810167
191	0xbe5a50a4	-0.21319824
192	0x3d9fea05	0.078083076
193	0x3ea7ac7c	0.32748783
194	0xbe99b87a	-0.30023557
195	0xbe4d60cf	-0.20056461
196	0xbe664bca	-0.22489849
197	0x3e298859	0.16555919
198	0x3d7c0579	0.061528657
199	0x3e88bfcf	0.26708838
200	0xbdebfd94	-0.115229756
201	0xbe529577	-0.20564829
202	0x3e432772	0.19058016
203	0xbd92962c	-0.07157549
204	0xbe92e409	-0.28689602
205	0xbd30ff77	-0.04321238
206	0xbd8d5eed	-0.06902871
207	0xbd459274	-0.04823537
208	0xbdfa3454	-0.12217012
209	0xbe9ea521	-0.30985358
210	0xbe880dda	-0.26573068
211	0xbe814b70	-0.25252867
212	0xbc06c0e1	-0.008224697
213	0x3ddfed95	0.10933987
214	0xbe85f252	-0.26161438
215	0xbe111293	-0.14167242
216	0x3e2604d6	0.16212782
217	0x3e4bcf4a	0.19903293
218	0xbdc4f406	-0.09616856
219	0x3ddf59df	0.109058134
220	0x3cc4e2e2	0.024033967
221	0xbe0dec73	-0.1385973
222	0xbe0fd87d	-0.14047427
223	0xbd02737c	-0.031848416
224	0x3d645af7	0.055750813
225	0xbc39e3a9	-0.011345782
226	0x3e1dff3b	0.15429394
227	0xbd8d12c3	-0.06888344
228	0x3d2f6cdd	0.04282843
229	0xbdb90e87	-0.09035974
230	0xbe06b138	-0.13153541
231	0xbcd98679	-0.02655338
232	0x3e0c0137	0.13672338
233	0x3d2f546a	0.042805113
234	0xbe7afa61	-0.24509574
235	0xbe719a57	-0.23594032
236	0xbe1cfae8	-0.15330088
237	0xbe866f0f	-0.26256606
238	0x3e472fd5	0.1945184
239	0x3e669099	0.22516097
240	0xbe4eae2b	-0.20183627
241	0xbe9f4b5e	-0.31112188
242	0x3e0cf04b	0.1376354
243	0x3dc03227	0.09384566
244	0xbe574822	-0.2102361
245	0x3e3a44bb	0.18190281
246	0xbe62fdb8	-0.22167099
247	0xbc8a069c	-0.016848855
248	0xbe6660b0	-0.22497821
249	0xbe56af36	-0.20965275
250	0xbe3ac869	-0.18240513
251	0xbe2b7336	-0.16743168
252	0xbe756437	-0.2396401
253	0xbe704954	-0.23465472
254	0xbe9ffb7f	-0.31246564
255	0xbe9af9f5	-0.30268827

fc2.weight f4 [256, 256]
0	0xbf95aeb2	-1.1693938
1	0xbc9defc0	-0.01927936
2	0x3c9d1a84	0.019177683
3	0x3d649b64	0.055812255
4	0xbce7ea6f	-0.028310029
5	0x3df0691e	0.117387995
6	0xbd36819e	-0.044557206
7	0xbd4275cd	-0.047475625
8	0x3c8f3ca4	0.01748497
9	0x3e918d42	0.28428084
10	0x3e89b374	0.26894724
11	0x3ced0930	0.028935045
12	0x3ed023de	0.40652364
13	0xbb092e5d	-0.0020932176
14	0x3f1fd518	0.6243453
15	0xbf5855d7	-0.8450598
16	0x3d49b1ca	0.04924182
17	0xbd01201a	-0.031524755
18	0x3d401d4e	0.046902947
19	0xbd0f95ff	-0.035055157
20	0x3daf7354	0.08566919
21	0x3f1ee153	0.6206257
22	0xbd0e43f4	-0.034732774
23	0xbe049e6c	-0.12951058
24	0x3f0fdf49	0.5620008
25	0x3da829a5	0.08211068
26	0xbc6b6080	-0.014366269
27	0xbcdb15f4	-0.026743867
28	0x3e899986	0.26874942
29	0xbdbd2114	-0.09234825
30	0x3e62f61a	0.22164193
31	0x3cfca834	0.030841924
32	0xbd18ec32	-0.03733463
33	0xbb9a8264	-0.004715251
34	0x3e636796	0.22207484
35	0xbd43f05a	-0.04783664
36	0x3c385740	0.011251271
37	0xbd4bf3be	-0.049792998
38	0xbb9b8f80	-0.004747331
39	0x3d495042	0.049148805
40	0xbc2cd850	-0.01054962
41	0xbd14ab1e	-0.036296003
42	0x3c971285	0.018441448
43	0xbd8dac8e	-0.06917678
44	0xbc6ef7be	-0.0145854335
45	0x3a037280	0.0005014315
46	0xbd356097	-0.04428157
47	0xbef28494	-0.47366774
48	0x3d2d7a1f	0.042352792
49	0x3e7846c8	0.24245751
50	0xbd824c16	-0.063621685
51	0xbba11236	-0.004915501
52	0x3e90db8b	0.28292498
53	0x3cb14598	0.02163963
54	0xbd7c2744	-0.061560884
55	0xbcc2aca8	-0.02376397
56	0x3d854e98	0.06509131
57	0x3b27ec20	0.002562292
58	0xbd0badd8	-0.034101337
59	0xbdaf0505	-0.08545879
60	0x3cdb4d78	0.026770338
61	0xbd666f0a	-0.05625824
62	0x3ec4c5c7	0.38432142
63	0xbcc3575c	-0.023845367
64	0x3d791c7a	0.060818173
65	0xbf1d2acc	-0.6139343
66	0x3d385680	0.045004368
67	0xbebd1854	-0.36932623
68	0xbd3f0006	-0.04663088
69	0x3a356b00	0.00069205463
70	0x3c8e04a9	0.017336207
71	0x3afe1f9a	0.001938808
72	0xbc9842fd	-0.01858663
73	0xbda0bfb7	-0.07849067
74	0x3e9c3c0b	0.3051456
75	0x3d40038e	0.04687839
76	0x3cfb7293	0.030694282
77	0xbdffb089	-0.12484843
78	0x3e8b011f	0.27149293
79	0x3ee4316c	0.44568956
80	0x3e66962a	0.2251822
81	0x3d465fae	0.04843109
82	0x3e6290fd	0.22125621
83	0xbd2256a7	-0.03963342
84	0xbd0ec916	-0.03485974
85	0xbbf6a6dc	-0.0075272154
86	0x3da7a9a3	0.081866525
87	0xbb996960	-0.004681751
88	0x3d2adeee	0.04171651
89	0x39eac4e4	0.00044778653
90	0xbe5a5152	-0.21320084
91	0x3ccc1550	0.024912506
92	0x3be18ed0	0.0068834797
93	0x3cea3a3c	0.028592221
94	0xbd2a2490	-0.041538775
95	0x3de885e1	0.113536604
96	0x3f03676a	0.5132967
97	0x3d036037	0.03207418
98	0xbd1fb8ab	-0.038994472
99	0x3d825704	0.06364253
100	0x3d006e6b	0.031355303
101	0xbecfdf9e	-0.40600294
102	0xbeb91cc8	-0.3615477
103	0x3e04ae11	0.12957026
104	0x3c811e5c	0.015761547
105	0x3c3d9cc0	0.011573017
106	0x3ce0fb30	0.027463526
107	0xbd7abe3a	-0.06121657
108	0x3e200fa8	0.15630972
109	0xbbf863e1	-0.007580266
110	0xbf18254f	-0.5943193
111	0x3d174ad7	0.036936607
112	0x3dc23040	0.09481859
113	0x3cac406d	0.021026814
114	0xbd3991be	-0.045305006
115	0x3cf2c8c8	0.029636756
116	0xbb84a460	-0.0040479153
117	0x3ca23343	0.019799834
118	0x3d82c808	0.06385809
119	0x3e8b2758	0.27178454
120	0x3e464185	0.19360931
121	0xbc17fa70	-0.009276018
122	0xbe2dfe8e	-0.16991636
123	0xbd265bae	-0.040614776
124	0xbd6781b2	-0.05652017
125	0xbd9cac91	-0.07650102
126	0x3d58d5de	0.052938335
127	0x3b93746f	0.004499964
128	0xbc2a3355	-0.010388215
129	0xbf2e5caa	-0.68110144
130	0x3d76d688	0.060263187
131	0x3d01c1f3	0.031679105
132	0x3f1b29d2	0.6061069
133	0x3dfd53cb	0.12369498
134	0x3e7f0644	0.24904734
135	0x3ca9d4a8	0.020731285
136	0x3d7a565f	0.061117526
137	0x3f0364d7	0.51325744
138	0xbdc89785	-0.09794525
139	0x3e9ddd98	0.30833125
140	0xbc8e646c	-0.01738187
141	0xbe8cb80d	-0.2748417
142	0x3d8b70fe	0.06808661
143	0x3ceb804b	0.028747698
144	0x3e147552	0.14497879
145	0xbdef3e13	-0.116817616
146	0x3d78018a	0.060548343
147	0xbd0915b2	-0.033467956
148	0xbbda50b4	-0.0066624526
149	0xbcc7956d	-0.024363244
150	0xbe99f6e9	-0.3007119
151	0x3c6f018e	0.014587773
152	0x3f1c4755	0.61046344
153	0x3d3dd9e8	0.04635039
154	0xbe47523e	-0.19464967
155	0xbcd4aec4	-0.025962241
156	0x3e7ea562	0.24867776
157	0x3cae4994	0.02127532
158	0xbbe69ce0	-0.007037744
159	0x3c489212	0.012241857
160	0x3d108272	0.035280652
161	0xbb99a6c5	-0.00468907
162	0x3d2af086	0.041733287
163	0x3e0bbd2f	0.13646387
164	0x3de23970	0.110461116
165	0x3d1b528e	0.037920527
166	0x3efd3342	0.4945317
167	0x3ce1be08	0.027556434
168	0xbd0b5491	-0.034016196
169	0xbd180c4c	-0.037121102
170	0x3cde3698	0.027125642
171	0x3ed126fc	0.40850055
172	0x3f12ba58	0.5731559
173	0x3d2fc5e2	0.042913325
174	0xbcfa5414	-0.03055767
175	0xbd5df676	-0.05419012
176	0xbe259c68	-0.16172945
177	0xbcc0e664	-0.023547359
178	0xbd32c491	-0.04364449
179	0xbdefd1b2	-0.11709918
180	0xbdcf13a1	-0.10111166
181	0xbd102052	-0.035187073
182	0x3f07436b	0.52837247
183	0xbcb52fd6	-0.022117537
184	0x3dc149d9	0.094379134
185	0x3e9e3adf	0.3090429
186	0x3f122c60	0.5709896
187	0x3d12adc5	0.03581025
188	0x3cf9dd02	0.030500893
189	0xbe40bab0	-0.18821216
190	0xbb883df0	-0.004157774
191	0xbd45d642	-0.048300035
192	0x3dc416b0	0.0957464
193	0x3f1e4e8a	0.6183859
194	0x3f0ae8d8	0.5426154
195	0xbb814f60	-0.00394623
196	0x3d4c98b2	0.04995031
197	0x3e58d02c	0.21173161
198	0x3c328386	0.010895615
199	0x3d5d7181	0.054063324
200	0xbf0ef2d6	-0.5583929
201	0xbd1b1657	-0.0378631
202	0xbd3a791a	-0.045525648
203	0x3ef17041	0.47155955
204	0xbf073610	-0.5281687
205	0xbdbf0d04	-0.093286544
206	0x3f0f93c2	0.56084836
207	0x3c26e208	0.010185726
208	0xbce512f4	-0.02796314
209	0xbd97842c	-0.07398257
210	0x3c8e1b03	0.017346865
211	0x3d8a69be	0.0675845
212	0x3d077de8	0.033079058
213	0x3d34f74e	0.04418116
214	0x3eddd507	0.4332659
215	0x3ee85d30	0.45383596
216	0x3cc9470f	0.024570016
217	0x3ce0116c	0.027352057
218	0xbd628009	-0.055297885
219	0xbc915085	-0.01773859
220	0xbd4230e0	-0.047409892
221	0x3e230228	0.15918791
222	0x3e0bdd6e	0.13658687
223	0xbc4ab713	-0.01237275
224	0xbd77c702	-0.060492523
225	0xbb0ed9e9	-0.0021797365
226	0x3c6f52a0	0.014607102
227	0xbcb958d4	-0.022625364
228	0x3e3e9607	0.18611918
229	0x3ce0ba33	0.027432537
230	0x3e412f6c	0.18865746
231	0x3c5d2dfd	0.013499734
232	0x3d3c87e5	0.046028037
233	0x3e6823a4	0.22669846
234	0xbfba949f	-1.4576606
235	0x3d3c7c9e	0.04601728
236	0x3c106920	0.008814126
237	0xbe7b006e	-0.24511883
238	0xbd535768	-0.05159703
239	0xbdd94931	-0.10609663
240	0x3defbbb8	0.117057264
241	0x3f79088d	0.9727867
242	0xbd355437	-0.044269767
243	0x3d84563a	0.06461759
244	0x3d66552a	0.056233563
245	0xbf14509f	-0.5793552
246	0x3d4a5506	0.04939749
247	0xbd70bea8	-0.058775574
248	0x3ec95aeb	0.39327177
249	0x3af33847	0.0018556201
250	0x3d796168	0.06088391
251	0xbcbcf16e	-0.023064341
252	0x3eb629bd	0.3557872
253	0x3d0de0b0	0.034638107
254	0x3d4a2b6c	0.049357817
255	0xbd9f2946	-0.07771544

fc2.bias f4 [256]
0	0x3d8e1bdc	0.069389075
1	0x3cf58495	0.029970447
2	0xbccbef93	-0.024894511
3	0xbd227dc8	-0.039670736
4	0x3d262f71	0.040572587
5	0x3d23c7c0	0.03998542
6	0x3d6485e3	0.055791747
7	0xbca1e301	-0.019761564
8	0xbd1022ac	-0.035189316
9	0xbd24779a	-0.040153123
10	0x3c5eef54	0.013606865
11	0xbd7e69da	-0.062112667
12	0x3b9bcccc	0.0047546383
13	0x3e0a1ab8	0.13486755
14	0x3c98cb8a	0.018651742
15	0xbd2d4a31	-0.042307083
16	0x3de9abdf	0.11409735
17	0x3da0c075	0.07849208
18	0x3da39460	0.07987285
19	0x3caf2a84	0.021382578
20	0xbd47bcd6	-0.048764072
21	0xbd20745e	-0.039173476
22	0x3cd58db9	0.026068555
23	0xbd8103d7	-0.062995605
24	0x39931881	0.00028056282
25	0xbd73a693	-0.05948503
26	0x3ca2b147	0.019859923
27	0x3d02b7bb	0.0319135
28	0xbd802dcb	-0.06258734
29	0x3d6f682d	0.05844896
30	0xbd293909	-0.04131416
31	0xbc4d6a42	-0.012537541
32	0xbd0d3b29	-0.034480248
33	0x3bfa1230	0.0076315627
34	0x3cf8bba0	0.030362904
35	0xbd433cdf	-0.047665473
36	0xbd20c1aa	-0.039247192
37	0x3cff18a4	0.03113968
38	0xbb4975ae	-0.0030740309
39	0xbaa567c7	-0.0012619429
40	0xbd0e9377	-0.034808602
41	0xbd9b0b26	-0.07570486
42	0x3d69524a	0.056963243
43	0xbccb3860	-0.024807155
44	0xbc3c3765	-0.011487816
45	0x3d6fa019	0.05850229
46	0xbc86d87d	-0.016460652
47	0x3c3a4881	0.011369825
48	0x3d33b209	0.04387096
49	0xbd4896f4	-0.048972085
50	0xbbf7aece	-0.00755868
51	0x3bf562d6	0.007488589
52	0xbd11cb16	-0.03559407
53	0xbd293682	-0.04131175
54	0x3e15d78f	0.1463301
55	0xbd76a367	-0.060214426
56	0x3cffd90d	0.031231428
57	0xbd0e0501	-0.03467274
58	0x3d08de61	0.033415202
59	0xbd5066c4	-0.050879255
60	0xbce94394	-0.028474607
61	0x3cba3d34	0.022734262
62	0x3d21b0bc	0.039475188
63	0xbd48e75d	-0.04904877
64	0x3bfe66cc	0.007763719
65	0x3d0cfc6a	0.03442041
66	0xbd90287e	-0.07038973
67	0xbc9b1313	-0.018929994
68	0xbb8a33bc	-0.004217593
69	0x3cc5faa4	0.024167366
70	0xbd9fd710	-0.07804692
71	0x3da1c1a0	0.07898259
72	0xbd824d11	-0.063623555
73	0xbc46bc36	-0.012129834
74	0xbdaaccfa	-0.083398774
75	0x3c35bf2c	0.011092942
76	0xbd955317	-0.07291239
77	0x3c2b33b5	0.01044934
78	0x3bf18f19	0.007371795
79	0xbcaf741b	-0.021417668
80	0x3d216071	0.039398614
81	0xbd92a344	-0.07160047
82	0xbcd41c77	-0.02589248
83	0x3d7d019e	0.06176912
84	0x3cc19521	0.02363068
85	0xbd82cae6	-0.06386356
86	0x3c22a74a	0.00992758
87	0x3d016394	0.031589106
88	0xb9ff1d3e	-0.00048659177
89	0x3c26a0d1	0.010170178
90	0x3df7f509	0.121072836
91	0x3bce00c6	0.0062867133
92	0xbcb95f7f	-0.022628544
93	0x3e503421	0.20332386
94	0x3cf78419	0.030214356
95	0xbd9fd9be	-0.07805203
96	0x3c749be3	0.014929744
97	0xbd698858	-0.057014793
98	0x3b720bb1	0.0036933238
99	0x3d6492cc	0.05580406
100	0xbd3a0392	-0.04541356
101	0x3d3a7024	0.045517102
102	0xbd414e8b	-0.047194045
103	0xbd09749e	-0.03355848
104	0x3c25b77d	0.010114548
105	0xbc344b36	-0.01100426
106	0xbd409a74	-0.047022298
107	0xbd791979	-0.06081531
108	0xbd2cd05f	-0.042190906
109	0xbd081cf3	-0.033230733
110	0x3e0646a1	0.1311288
111	0x3dc80980	0.09767437
112	0xbc4a31cd	-0.012340975
113	0x3ddb3de8	0.10705167
114	0x3d3b220b	0.045686763
115	0xbd497ef3	-0.049193334
116	0xbd96baa2	-0.07359816
117	0xbd2a0648	-0.041509897
118	0x3e38760a	0.18013778
119	0xbd62184c	-0.055198953
120	0xbd624030	-0.055236995
121	0xbda5f4e9	-0.081033535
122	0x3d73e2b8	0.059542388
123	0xbd07bdcd	-0.033139993
124	0x3d2da483	0.04239322
125	0xbccce2e1	-0.025010528
126	0x3dc0bdd2	0.09411205
127	0xbd533a9d	-0.05156957
128	0x3dcd4f29	0.10024864
129	0x3e0d6b82	0.13810542
130	0xbd20540e	-0.03914266
131	0x3dc33365	0.09531287
132	0xbd93a041	-0.072083004
133	0xbd42978e	-0.047507815
134	0xbda0f3ef	-0.07859027
135	0x3caf1917	0.021374268
136	0x3dda7aa5	0.10667924
137	0xbd0853df	-0.03328311
138	0xbd088327	-0.0333282
139	0xbc2714b0	-0.010197803
140	0x3d4c87ef	0.049934324
141	0xbc6a5618	-0.014302753
142	0x3c68b4e4	0.014203284
143	0xbd9ecce0	-0.077539206
144	0xbcc71e4e	-0.024306443
145	0xbda58ae6	-0.080831334
146	0x3e42959c	0.19002384
147	0x3db7592c	0.08952555
148	0x3a977180	0.0011554211
149	0xbd04cc6b	-0.03242151
150	0xbcc43ce5	-0.023954818
151	0x3c462519	0.012093806
152	0x3cc1e97e	0.023670908
153	0xbd9d957b	-0.07694527
154	0xbd81d23a	-0.06338926
155	0x3d5e6f03	0.054305088
156	0xbd797837	-0.06090566
157	0x3b4d62b4	0.003133935
158	0xbd83f5e5	-0.06443385
159	0x3d0626af	0.032751735
160	0x3cb0d378	0.021585211
161	0x3d3586ff	0.044318195
162	0x3c9f2a1e	0.019429263
163	0xbcc31b1b	-0.023816636
164	0x3de5db13	0.11223426
165	0x3dd46318	0.10370463
166	0x3de3d81f	0.11125206
167	0xbc20e476	-0.009820094
168	0x3abda164	0.0014467654
169	0x3cef75ce	0.029230978
170	0x3d6dd15c	0.05806099
171	0xbd1c0d5c	-0.038098678
172	0xbd9808f9	-0.074235864
173	0xbcf73e10	-0.03018096
174	0x3be9c357	0.007133882
175	0xbd2bbbee	-0.04192727
176	0xbda2bfb3	-0.0794672
177	0x3c4fe1a3	0.012688073
178	0xbbf2f39c	-0.0074142944
179	0xbe028751	-0.12746932
180	0x3d501d7a	0.05080936
181	0x3d49f59d	0.0493065
182	0x3ca8f1d5	0.020623127
183	0x3c6b29a7	0.014353192
184	0xbd84dddc	-0.06487629
185	0x3c425ae4	0.01186249
186	0x3d803876	0.06260769
187	0xbd9a0020	-0.07519555
188	0xbc80953c	-0.01569616
189	0xbd8d8ca5	-0.069115914
190	0xbcc8ed5d	-0.024527246
191	0xbd997465	-0.074929036
192	0x3c383232	0.011242436
193	0x3dc61325	0.0967162
194	0xbd8053d1	-0.06265987
195	0x3de05ad0	0.10954821
196	0xbccaf795	-0.02477626
197	0xb97c8e67	-0.00024085642
198	0xbc2b166b	-0.010442357
199	0xbcbb8a34	-0.022893049
200	0xbd8fa54f	-0.07013952
201	0xba9f39c3	-0.0012147952
202	0xbcae63b5	-0.021287778
203	0xbca114cd	-0.019663239
204	0x3c98df50	0.018661171
205	0x3d285bb0	0.041103065
206	0xbd226e9e	-0.039656274
207	0xbb39c133	-0.0028343915
208	0x3db08f2a	0.086210564
209	0xbc8e1993	-0.01734618
210	0x3d7165f3	0.058935117
211	0xbd927a08	-0.07152182
212	0x3d66aa85	0.056314964
213	0xbcd24318	-0.025666758
214	0x3d04fba1	0.032466535
215	0x3c31caa1	0.010851533
216	0x3cb8ba2b	0.02254971
217	0xbda6dbbf	-0.08147382
218	0x3b8a929c	0.004228903
219	0x3c1a0943	0.009401622
220	0xbca87be2	-0.020566884
221	0xbe2489ff	-0.16068266
222	0x3df36a34	0.11885491
223	0xbd85eaeb	-0.06538948
224	0xbc980d4e	-0.018561032
225	0x3d42d906	0.04757025
226	0x3bad685c	0.0052919816
227	0x3dd5a7ab	0.10432371
228	0xbd04bbcc	-0.03240566
229	0x3d24b621	0.040212754
230	0x3d80850b	0.06275376
231	0x3d122dd0	0.03568822
232	0x3e1a9723	0.15096717
233	0x3d95ed27	0.07320624
234	0xbd067932	-0.032830425
235	0x3d2142d1	0.03937036
236	0xbc947f74	-0.01812718
237	0xbd6bf285	-0.05760433
238	0x3dc21715	0.09477059
239	0x3c2f9e34	0.010718871
240	0xbc34f0c9	-0.011043736
241	0xbdaeb2ab	-0.08530172
242	0xbd9dfb94	-0.07714
243	0x3bf32f5b	0.0074214167
244	0x3da4824d	0.080326654
245	0x3c3d9637	0.011571459
246	0xbd9e6b3c	-0.07735297
247	0x3d856227	0.06512862
248	0x3d6db84a	0.05803708
249	0x3ce1163c	0.027476422
250	0x3a8800ff	0.0010376273
251	0x3cc8524a	0.024453301
252	0x3dde9515	0.10868279
253	0xbd21ca32	-0.03949947
254	0x3c39f660	0.011350244
255	0xbd18eb24	-0.037333623

fc3.weight f4 [5, 256]
0	0x3ea9e743	0.3318425
1	0x3d0c9512	0.034321852
2	0x3cfb6f74	0.030692793
3	0xba80fa98	-0.0009840308
4	0xbd312b17	-0.043253984
5	0x3eb5328c	0.35390127
6	0x3f311c27	0.6918358
7	0xbc522f54	-0.012828667
8	0x3cd8d171	0.026467057
9	0x3bdd5d21	0.0067554866
10	0xbc52f22d	-0.012875122
11	0xbcb2d427	-0.021829678
12	0x3eed3889	0.46332195
13	0x3e006e28	0.12542021
14	0x3e3e877c	0.1860637
15	0xbd2d36f2	-0.042288728
16	0x3ec1bbf7	0.37838718
17	0x3f0b9fa6	0.5454048
18	0x3f0b3e6f	0.5439214
19	0x3c7814b8	0.0151416585
20	0xbbc6f69c	-0.0060718786
21	0xbc27c321	-0.010239393
22	0x3eb276df	0.34856316
23	0x3d679b66	0.056544684
24	0x3eb03f6d	0.3442339
25	0x3bead995	0.007167051
26	0x3eb8e1a9	0.36109665
27	0xbd23617a	-0.039887883
28	0x3ce64494	0.028108872
29	0x3e5d8529	0.21632828
30	0xbd63c5c6	-0.055608533
31	0x3ea4d999	0.32197264
32	0xbd1a1924	-0.037621632
33	0x3a2f8ff4	0.0006697171
34	0xbb0656d6	-0.0020498536
35	0x3c42fec3	0.01190156
36	0xbc8c7613	-0.017146146
37	0x3d4b41ce	0.049623303
38	0xbd25eea2	-0.04051078
39	0xbd9fe3c1	-0.078071125
40	0x3d0f783e	0.03502678
41	0xbcbd4acf	-0.02310696
42	0x3e9ce3fd	0.3064269
43	0xbc9b5ba4	-0.018964596
44	0x3baabc7d	0.005210458
45	0x3eb0f37c	0.34560764
46	0x3cc7be4c	0.024382733
47	0xbe6122bb	-0.21985905
48	0xb9cb8747	-0.00038819967
49	0x3ec3a228	0.38209653
50	0x3c91e40d	0.017808938
51	0x3d384626	0.044988774
52	0xbc68f670	-0.0142189115
53	0x3cde49d8	0.02713482
54	0x3f986c35	1.1908022
55	0xbbd0354c	-0.0063540097
56	0x3c8d7937	0.017269714
57	0xbd11d37e	-0.035602085
58	0x3e9f27a6	0.31084937
59	0x3c487280	0.01223433
60	0xbcecfd05	-0.028929243
61	0x3fb066ac	1.3781333
62	0x3ecb3111	0.39685872
63	0x3d333a0a	0.043756522
64	0xbcd41194	-0.025887288
65	0x3b033900	0.0020022988
66	0xbd6835a8	-0.056691796
67	0x3c24d2bb	0.010060008
68	0xbbcf9c4f	-0.006335772
69	0xbc523acd	-0.012831402
70	0x3d6a6d66	0.057233237
71	0x3ebdd08e	0.37073177
72	0xbd1bd1d2	-0.038041897
73	0xbcc01f28	-0.023452356
74	0xbbc5e21b	-0.0060389168
75	0x3b313f60	0.002704583
76	0xbc08e118	-0.008354448
77	0x3c874620	0.01651293
78	0x3b7d29a6	0.003862956
79	0x3d4cfe2e	0.050047092
80	0x3d0124d5	0.031529266
81	0xbd4cdd3d	-0.050015677
82	0x3c444081	0.01197827
83	0x3f112920	0.56703377
84	0x3e4b70fa	0.19867316
85	0x3d6ee95c	0.058328018
86	0x3ea51936	0.32245797
87	0xbd1fa082	-0.03897143
88	0xbd0fdb9b	-0.03512154
89	0xbd5cefdd	-0.05393969
90	0x3ec0d131	0.376596
91	0xbc42199d	-0.011846927
92	0x3c706680	0.014672875
93	0x3d7dc2a0	0.061953187
94	0x3ba84e20	0.0051362664
95	0x3cfdfd08	0.031004444
96	0x3eb97394	0.36220992
97	0xbd632fea	-0.055465616
98	0xbbba5ae0	-0.0056871027
99	0x3e84fa0b	0.25972018
100	0xbcd74a23	-0.026280468
101	0x3e96a36c	0.29421556
102	0x3d6d6632	0.05795879
103	0xbd758a6a	-0.059946455
104	0xbc902e3c	-0.017600171
105	0xbd31bc93	-0.04339273
106	0x3bb27c4c	0.0054469462
107	0xbc8451d6	-0.016152304
108	0xbc2f970a	-0.010717163
109	0xbd547852	-0.05187256
110	0x3f0334d4	0.51252484
111	0x3f0a5848	0.54040956
112	0xbd18f2c4	-0.037340894
113	0x400bb818	2.1831112
114	0x3ee73286	0.45155734
115	0xbd05ef39	-0.032698844
116	0xbce1ea4b	-0.02757754
117	0xbcf81381	-0.030282738
118	0x3f952fd4	1.1655221
119	0xbd089e2e	-0.033353977
120	0xbc98526b	-0.018593987
121	0x3da6b056	0.08139102
122	0x3eb92c4b	0.36166605
123	0x3d5260a6	0.051361702
124	0xbb905370	-0.004404478
125	0x3aa4347c	0.0012527849
126	0x3efb0015	0.490235
127	0xbbf02a80	-0.007329285
128	0x3eda138e	0.42593044
129	0x3e48e95c	0.1962027
130	0xbb9fba00	-0.004874468
131	0x3f026556	0.50935876
132	0x3cb51183	0.022103077
133	0xbd1486e2	-0.036261447
134	0x3ce9960d	0.028513933
135	0x3cb8ea76	0.022572737
136	0x3eeb5799	0.4596527
137	0xbd162faf	-0.03666657
138	0xbd577fdd	-0.052612174
139	0xbb914920	-0.004433766
140	0x3c93f348	0.018060341
141	0x3e4d1130	0.20026088
142	0x3f03f152	0.515401
143	0x3d4ed234	0.050493434
144	0x3ccda136	0.025101285
145	0xbbc9f2ed	-0.006162992
146	0xbead9ce1	-0.33908752
147	0x3ee5d467	0.44888613
148	0xbc2c29ee	-0.010508044
149	0x3cd85a04	0.02641011
150	0xbc5da70a	-0.013528595
151	0x3bcb5828	0.0062055774
152	0x3b7e6493	0.003881727
153	0x3d34c214	0.0441304
154	0x3d75480e	0.05988317
155	0x3f1b5187	0.60671276
156	0x3ce07fa0	0.027404606
157	0xbd29e3b5	-0.041476924
158	0x3abf9f37	0.0014619593
159	0x3c385484	0.011250619
160	0xbd180a1c	-0.037119016
161	0xbd39cddc	-0.04536234
162	0x3c18ab0c	0.0093181245
163	0x3c8d70cb	0.017265698
164	0x3dccd280	0.10001087
165	0x3f1c79a2	0.61123097
166	0x3ef4713f	0.4774265
167	0x3c6a6456	0.0143061485
168	0xbd13e9a0	-0.036111474
169	0x3f09c533	0.5381653
170	0x3ec854c8	0.39127183
171	0xbb2d4f80	-0.002644509
172	0xbcc15a57	-0.023602648
173	0xbca4e50f	-0.020128755
174	0x3e635bcc	0.22202986
175	0x3c826021	0.015914978
176	0x3c987778	0.018611655
177	0x3c00f3fa	0.007870669
178	0xbd018e39	-0.031629775
179	0x3eca2126	0.39478415
180	0x3f21ef32	0.6325561
181	0x3f370c05	0.71502715
182	0x3e91b337	0.28457043
183	0x3ee775d8	0.45207095
184	0xbd4c0736	-0.049811564
185	0x3f1aff24	0.60545564
186	0x3f107d78	0.5644145
187	0x3de92edb	0.1138589
188	0xbd051151	-0.032487217
189	0x3c9021b9	0.017594205
190	0xbd3b9a26	-0.045801304
191	0x3d219482	0.03944827
192	0x3bd47f50	0.0064849034
193	0x3ec746ea	0.3892129
194	0xbc1b755c	-0.00948843
195	0x3f07fd29	0.53120667
196	0xbd209d2d	-0.039212395
197	0xbc85d01e	-0.01633459
198	0xbc979ea8	-0.01850827
199	0xbd35a2bc	-0.04434465
200	0x3c6f07a3	0.014589223
201	0xbce94a34	-0.028477766
202	0xbc0ca79e	-0.008584885
203	0x3ab2195e	0.0013587882
204	0xbd481934	-0.04885216
205	0x3cb6e808	0.022327438
206	0xbc6c8d79	-0.014438027
207	0x3c022898	0.007944249
208	0x3eb8e755	0.36113992
209	0xbcc6e284	-0.024277933
210	0x3f0cb7e9	0.54968125
211	0xbd6ce2ac	-0.05783336
212	0x3f05ff70	0.5234289
213	0x3ce0bfe8	0.027435258
214	0xbabc711d	-0.0014376972
215	0x3c3937e0	0.011304826
216	0xbd17962f	-0.03700846
217	0xbd1065dc	-0.03525339
218	0x3d3999d0	0.045312703
219	0xbb18b5d6	-0.0023301742
220	0xbca58c75	-0.020208577
221	0x3f8e8c96	1.1136653
222	0x3ecede67	0.40404055
223	0x3d7f62d4	0.06235011
224	0x3d33c422	0.04388822
225	0x3c571a14	0.013128776
226	0x3e5526eb	0.20815627
227	0xbebe3578	-0.37150168
228	0x3c4a5b69	0.012350895
229	0x3c0dc4e8	0.008652903
230	0x3f222730	0.63341045
231	0x3cfc1521	0.030771794
232	0xbe2c28e1	-0.16812469
233	0x3e9836f2	0.2972942
234	0x3d3f21d4	0.04666312
235	0xbd89827b	-0.0671434
236	0x3d19b4f6	0.037526093
237	0xbc1463d6	-0.009057006
238	0x3e8aa077	0.2707555
239	0xbd0976b2	-0.033560462
240	0xbd32433b	-0.043521147
241	0xbcfb3327	-0.03066404
242	0x3c9f79a8	0.01946719
243	0x3d3813cf	0.044940766
244	0xbe8afa4b	-0.27144083
245	0x3f066014	0.52490354
246	0x3cb14990	0.021641523
247	0xbe1c14ff	-0.15242384
248	0x3d760a4c	0.060068414
249	0xbd195775	-0.03743692
250	0x3c7917d0	0.015203431
251	0x3e81cee1	0.2535315
252	0x3f87b653	1.0602516
253	0x3cfcee78	0.03087543
254	0xbd453c10	-0.048152983
255	0xbc9c8bfd	-0.01910972

fc3.bias f4 [5]
0	0xbd7be470	-0.06149715
1	0x3e1de69f	0.15420006
2	0x3e8dd33b	0.2770022
3	0xbd6e49f1	-0.058175985
4	0x3e0044aa	0.12526193
