other_model/dqn_team_b_ep530.pth (torch, 286849 bytes, 6 tensors)

fc1.weight f4 [256, 14]
000000 ef f7 96 3e 6b 9b 1d bf 73 0b 66 3e 4a 9f e1 3e
       0.29486033 -0.61565274 0.22465305 0.4406684
000010 72 52 59 3e 1f 2c e4 bf a2 d7 9e be 0f 86 8e bf
       0.21222857 -1.7825965 -0.3102389 -1.1134661
000020 ba 25 88 3f 52 72 9f bd ca f0 d4 40 ef 7a d8 bd
       1.0636513 -0.07785477 6.654393 -0.10570323
000030 b6 61 80 3e 7e 02 4d bc 03 7d 78 be be 89 f5 be
       0.25074548 -0.012512801 -0.24266438 -0.4795665
000040 17 b5 9e bd ea 3d 21 3e 78 83 e9 bd 66 43 b4 bc
       -0.07749384 0.15746275 -0.11402029 -0.022004794
000050 d0 86 1d bd 74 7b 8a be d4 52 a6 3e 2f be 3c 3d
       -0.038458645 -0.27047312 0.32485068 0.04607981
000060 a6 fb a6 be 05 86 d2 3d ac 34 28 be d4 c9 b0 bd
       -0.32613868 0.102794684 -0.16426343 -0.08632246
000070 bf ef 37 be 9c d1 fd bf 19 c2 8d 3e a6 d6 8a be
       -0.1796255 -1.9829593 0.27687147 -0.2711689
000080 39 51 84 3e 41 ef 7f 3f c1 15 31 bc 82 d2 52 3d
       0.25843218 0.9997445 -0.010808409 0.051470287
000090 4f 69 60 bf 9c f7 10 3e 0e f4 69 c0 e7 c1 10 40
       -0.8766069 0.14156955 -3.655521 2.2618349
0000a0 5f 2d c4 3e 31 af a4 bc 54 91 d7 be 58 29 a7 bd
       0.38315865 -0.020103069 -0.42103064 -0.081621826
0000b0 7c 82 ce be 3f 06 b7 3d 55 d5 8d be 7c 2b 64 bf
       -0.40333927 0.08936738 -0.27701822 -0.8912885
0000c0 e2 79 2c bd 17 55 3b bd 97 78 43 3f ee c3 a0 3e
       -0.042108424 -0.045735445 0.7635588 0.31399482
0000d0 ad 32 52 40 1f 26 17 bf 82 3e e1 3d 9b 4f e5 3d
       3.284343 -0.59042543 0.109982505 0.11196824
0000e0 6a ab bd 3d 48 06 b3 3d 00 42 9f 3e 1e b6 19 3e
       0.0926121 0.087414324 0.31105042 0.15010878
0000f0 7a 67 d2 3d 5d 07 8f be f7 93 5e be 1c 5b b1 bc
       0.10273643 -0.27935305 -0.21736132 -0.02164989
000100 71 26 8c 3c b0 b3 96 3f 83 c9 09 3d b8 52 b8 40
       0.017108174 1.1773586 0.033639442 5.7600975
000110 e3 a9 b3 be ba aa df be 2c c1 24 bf a8 2a 24 be
       -0.3509055 -0.43684942 -0.64357257 -0.16031897
000120 60 a9 19 bf 1a 53 77 3c f5 c3 6c be 01 f7 16 be
       -0.6002407 0.015095497 -0.23121627 -0.14742662
000130 73 a3 6d 3c 70 11 d6 be 13 13 ab be 7d e7 92 3e
       0.014504301 -0.4181018 -0.3341299 0.28692237
000140 63 8e ed 3e 1b da 94 bf 8f 38 86 3e e9 30 0e be
       0.46397695 -1.162906 0.26215026 -0.13885845
000150 35 8c b9 be 1c f2 ee 3e 45 92 d5 be a3 41 10 bd
       -0.36239782 0.4666909 -0.41713157 -0.035218846
000160 21 a9 12 be 55 f0 05 c0 ae 43 8b 3e 73 16 81 bf
       -0.1432233 -2.0927937 0.27200073 -1.0084976
000170 29 a9 73 3d ad 47 9e be a5 9a f8 be 24 a2 fa be
       0.059487496 -0.3091406 -0.48555484 -0.48951828
000180 a3 31 db bd f5 30 c6 3d c3 87 0f 3e 31 27 48 be
       -0.10702827 0.096773066 0.14016633 -0.195462
000190 9a b0 d5 3c bc 25 ff be 08 13 8f 3d 53 7b 5f be
       0.026085187 -0.49833477 0.06986052 -0.21824388
0001a0 2e e2 af 3e 53 0a 82 be 8a d6 ad be 72 29 79 be
       0.3435225 -0.25398502 -0.33952743 -0.24332216
0001b0 1c ff 12 3f 3e 20 e1 be 9d e6 07 be ba b1 72 be
       0.57420516 -0.4396991 -0.13271566 -0.2370061
0001c0 47 5c 0d bd 66 bb 52 bf f2 71 47 3d c6 b2 d2 be
       -0.03451183 -0.823172 0.04869265 -0.41152018
0001d0 fa c2 00 bd 93 ab 94 be 96 fe 88 be f0 c5 f5 3d
       -0.031435944 -0.2903715 -0.26756734 0.12000644
0001e0 e6 64 a7 bf e7 3f aa be d7 de 8c c0 4a d6 c3 bc
       -1.3077667 -0.3325188 -4.402202 -0.023905892
0001f0 20 cc d2 3d 0f bf fd 3c 83 d4 46 be d7 83 d1 bd
       0.1029284 0.030974893 -0.19417004 -0.102302246
000200 57 77 01 be 4a c1 d6 3d c3 7d c1 bd b5 66 33 3d
       -0.12643181 0.10486086 -0.09447815 0.04379912
000210 5c 93 52 be 57 f8 b1 3d ab b0 80 be e3 89 37 be
       -0.20564026 0.08689945 -0.25134787 -0.17923693
000220 a9 23 52 3e ca 7c 34 bc 67 f7 21 be 7e e4 76 be
       0.20521416 -0.01101608 -0.15817033 -0.241106
000230 e9 59 59 bd 58 67 53 be ae 19 6b 3e ef 71 33 be
       -0.05306426 -0.20644891 0.22959015 -0.17523931
000240 e8 16 9c 3d 48 e9 e7 3d ed 2d ca 3e f7 eb 72 be
       0.076215565 0.11323792 0.39488164 -0.23722826
000250 a1 e5 85 3f 97 9e d2 3f c4 de c9 40 66 f8 7a 40
       1.0460702 1.6454648 6.308443 3.921411
000260 eb 85 4e bc ee 66 20 be 92 39 2c bf b0 5a 0c 3f
       -0.012605171 -0.15664265 -0.67275345 0.5482588
000270 11 7b 26 bf b4 a4 5e 3e 9d 21 83 bf 54 f0 c7 3e
       -0.65031534 0.21742517 -1.0244633 0.39050543
000280 c8 42 8e bf c8 40 13 be e4 bd 8a 3e 68 c5 83 be
       -1.111413 -0.14380181 0.27098 -0.25736547
000290 8f 6d e1 bf 58 79 b9 3f 00 4d fe 3c bc a2 15 3c
       -1.761156 1.4490156 0.031042576 0.009133037
0002a0 b0 8e 6e 3e ce 6a 17 bf 1f 79 ce 3d ad 7c 95 be
       0.23296618 -0.59147346 0.10081696 -0.29196683
0002b0 29 e8 ea bc 0d f4 20 bf b7 52 86 bd a5 b7 eb 3d
       -0.028675156 -0.6287239 -0.06558745 0.11509637
0002c0 ef 61 25 3e ab 2c 6f 3f 80 19 c4 3f ea b9 e8 40
       0.1615064 0.9342753 1.5320282 7.2726946
0002d0 79 ce 20 3e 2d 65 b2 bd b5 d0 bf 3d 6b 80 2f bf
       0.15703763 -0.08710704 0.093659796 -0.68555325
0002e0 54 fa 68 be 7a 43 c8 be d8 07 94 be b9 1b 22 bf
       -0.22751743 -0.3911398 -0.28912234 -0.6332355
0002f0 8c de 13 bd 5a 11 80 3e 7f 41 c0 3b d8 35 28 3f
       -0.03610091 0.25013238 0.0058671827 0.6570716
000300 3c 91 ef be ed 88 00 41 c7 29 4b 3e 57 70 3a 3e
       -0.46790493 8.033429 0.19840156 0.18206917
000310 c6 11 5a bf fc 4c 75 bf 76 ca 57 bf 3a 78 9d 3d
       -0.8518337 -0.95820594 -0.84293306 0.07688947
000320 f6 c0 53 3d 4b 73 7b 3e 12 48 fe bd a4 b9 46 3e
       0.051697694 0.245557 -0.1241609 0.19406754
000330 d9 25 bf 3e 35 7a 41 bf 87 1b e0 3f b2 b4 56 bf
       0.37333563 -0.755771 1.7508401 -0.8386947
000340 57 97 ee 3d 51 62 14 3d bf 6b bd bd 5a 79 50 3d
       0.116499595 0.036226574 -0.092490666 0.05089698
000350 b9 7d 86 be 3b fc c2 3d fd 81 4b 3e 5b ca d5 3d
       -0.26267794 0.095207654 0.19873805 0.10438987
000360 f8 d7 1d be 14 66 13 be 98 90 29 3d ce b2 f0 3c
       -0.15414417 -0.14394408 0.04139766 0.029382136
000370 36 19 3d be 67 5c 37 be bb 03 7e be 20 79 f3 3d
       -0.18466648 -0.17906342 -0.2480611 0.11888337
000380 fd 2c c7 3e 51 44 6a bf 20 fc 56 3e 42 3a 31 bf
       0.3890151 -0.9151049 0.20994616 -0.6922952
000390 ad 81 13 3e ef 6e 0a 3f 8d f6 5b 3e f9 b2 4b 3f
       0.14404936 0.5407552 0.2148077 0.79569966
0003a0 93 0b a9 be 4c 47 e0 3e 27 b5 03 c0 32 f7 f3 be
       -0.33016643 0.43804395 -2.0579317 -0.47649533
0003b0 c7 31 ca be ae 0a 64 be bb 50 0b 3e 07 d5 02 3e
       -0.39491102 -0.22269699 0.13605015 0.12776576
0003c0 0b ab 99 be 4a 7b a2 be a5 20 23 3e 44 1e de be
       -0.30013308 -0.31734687 0.15930422 -0.43382466
0003d0 e0 78 a3 be 8f 06 3f be 18 27 a6 3e c3 4f 26 3e
       -0.31928158 -0.18654846 0.324517 0.16241364
0003e0 16 66 9e 3b b9 18 02 3f 55 84 7c bc 5a 68 ac be
       0.004833947 0.50818974 -0.01541241 -0.33673364
0003f0 d1 ed 43 be 80 85 8e bc 60 fd 10 3d c5 dc a8 bd
       -0.19133689 -0.017397642 0.035397887 -0.082452334

fc1.bias f4 [256]
000000 8e ba 4d 3d 7e 6a d6 bd c6 a6 9d 3e 02 09 dc 3d
       0.05022674 -0.104695305 0.307913 0.107439056
000010 60 2a cb be 8a 64 82 3e 99 fd 87 be fb 0d 09 3a
       -0.39680767 0.2546733 -0.26560667 0.00052282185
000020 a3 0d 2e 3e 9d 1c 01 3e 44 94 55 3e ea 69 90 be
       0.1699739 0.12608571 0.2085734 -0.28205806
000030 32 78 d5 3b 15 ef 94 3e fb 9f 60 3d eb 03 09 be
       0.0065145725 0.29088655 0.05484007 -0.13380401
000040 e8 19 de bd cc d3 77 be 1b 01 42 be 0b fd 25 be
       -0.10844785 -0.24201888 -0.18945734 -0.1620981
000050 dd 39 81 3c 67 60 04 3f 7a 98 bc 3d 89 db c2 3d
       0.015774662 0.517096 0.0920877 0.09514529
000060 8b 27 68 bd 9f 4c 0b 3e 98 16 35 bc 21 0b e5 bd
       -0.056678336 0.13603447 -0.01105275 -0.11183763
000070 b4 c6 37 3d ea 74 69 3e 8f f3 06 3d a7 06 1b 3e
       0.044867232 0.22798505 0.03294712 0.15139256
000080 9c 35 14 bc 89 9f 4e 3d 0a b2 44 3e 80 ed 4a 3e
       -0.009045985 0.050445113 0.19208542 0.19817162
000090 73 c2 57 3e 5f ab 6c be 07 1f 62 be c7 12 af be
       0.2107027 -0.23112248 -0.22082148 -0.34194013
0000a0 75 dc 99 3e a8 d3 93 bd 3b 4f e4 3d ea cd 1a be
       0.30051008 -0.072181046 0.111479245 -0.15117612
0000b0 7e e4 8d 3d f3 68 7b bd f6 c0 dd 3b 35 44 9c bd
       0.06928347 -0.061379384 0.0067673875 -0.07630197
0000c0 f5 ba 35 3e 09 e1 18 be 11 2c 3b 3c 11 14 8d be
       0.177471 -0.14929594 0.0114240805 -0.27554372
0000d0 35 1f 58 3d ba 9b d7 bd c7 73 1d 3e d8 a0 82 3d
       0.052764136 -0.10527749 0.15376197 0.06378335
0000e0 18 d4 80 bd 97 c7 b2 be d4 ab a1 be 3f 8f a2 bb
       -0.06290454 -0.349179 -0.31576407 -0.004960924
0000f0 1f 9e 08 be d9 f8 73 be 8d 76 0b 3e 14 2a 3c be
       -0.13341568 -0.23825397 0.13619442 -0.18375427
000100 84 14 62 3e 53 fc cb 3c d0 f2 a0 bd 76 76 bb bd
       0.22078139 0.024900591 -0.07858813 -0.09153454
000110 c2 7e 40 3c 64 b3 bf be ed d3 3a bc cf 12 43 be
       0.011748971 -0.37441552 -0.011403066 -0.19050144
000120 e9 22 20 3e 64 99 18 be 96 e8 81 3d ee 74 be 3d
       0.15638317 -0.14902264 0.0634319 0.09299646
000130 ac ae 16 be d3 47 5c be 5d a8 f7 bc 28 18 7a be
       -0.1471507 -0.21511774 -0.030231649 -0.24423277
000140 18 cc 87 bd cd 0c a0 3d 76 2b 20 bd 01 f9 f5 bd
       -0.06630725 0.078149416 -0.039103948 -0.12010384
000150 89 27 9e be de 7e af bd 45 c9 e0 3d 1c 9d c2 3c
       -0.30889538 -0.0856912 0.10975889 0.023756556
000160 a2 e9 f7 bd 3a 21 d4 3e 9e 5b 0f be 3c b6 ec 3e
       -0.12105109 0.414316 -0.13999793 0.46232784
000170 07 88 28 3d 6c 27 7f be d2 96 8c be d0 cd a3 3e
       0.04114535 -0.24917382 -0.27458817 0.3199296
000180 93 73 7b bd be e5 48 bc bb 76 51 bd a7 fa 24 3e
       -0.061389517 -0.012261806 -0.05113862 0.16111241
000190 7b 9f ac be e7 75 0c bf 4f e7 71 be 5f f5 62 3e
       -0.33715424 -0.54867405 -0.23623393 0.22163914
0001a0 54 29 53 be c7 90 fc 3e c2 0a af 3c 55 11 fb 3d
       -0.20621234 0.49329206 0.021367434 0.12259165
0001b0 45 8c bf bd 08 d5 b2 3e 06 a5 3e bd ac fe c1 3c
       -0.09352926 0.34928155 -0.046544097 0.023681007
0001c0 e0 94 9d bd e2 a1 79 be cd 87 7e be 55 5f 56 3d
       -0.07694411 -0.2437816 -0.24856491 0.05233701
0001d0 3e 54 77 be fb 19 9e be 7b e8 20 be 9d a4 ce 3e
       -0.2415323 -0.30879197 -0.15713684 0.40359965
0001e0 9e aa 25 3d 5d 3a fd 3c 21 da 02 3c ee 80 94 be
       0.040445916 0.030911619 0.007986576 -0.29004616
0001f0 0f 2f 47 3e 3a 99 ca bd 44 a4 c4 bd 1d a1 e2 3d
       0.19451545 -0.09892507 -0.09601644 0.11065886
000200 66 54 55 bc d1 37 10 be ec 46 24 be cb 2e 43 be
       -0.01302061 -0.14083792 -0.1604268 -0.19060819
000210 7a 72 65 be 13 57 21 be 2a ee 3b 3e 97 4c ac 3c
       -0.2240695 -0.15755872 0.18352571 0.021032615
000220 cc 85 0d 3b 3b 6b a6 bd 9e 0c 49 be 16 c2 68 be
       0.0021594642 -0.08125921 -0.1963372 -0.22730288
000230 73 8e e3 bd 77 af bd bc e0 6a 6f be fe bd 77 3d
       -0.111111544 -0.023154957 -0.23380613 0.060483925
000240 3a 7f 43 be d4 64 ca 3e 91 fe de 3d 34 9d 87 3e
       -0.19091502 0.3953005 0.108883984 0.26487124
000250 9d 65 a3 bc dc ae d8 bd 50 45 c9 bd 00 83 ca bc
       -0.019945914 -0.10580227 -0.098276734 -0.024720669
000260 6c 8b d7 bd ca fd 21 3e b0 ef 11 3e e6 d1 8c 3d
       -0.105246395 0.15819469 0.1425159 0.068759724
000270 21 cc f7 3d 2b e8 1f be 93 a4 cf 3d 20 b8 c6 3d
       0.120994814 -0.15615909 0.10138812 0.09703088
000280 26 8b 0b bd de 63 4b be 6c bc c8 3d 06 fb 9c 3d
       -0.03406825 -0.19862315 0.098015636 0.076650664
000290 80 4e 2c 3e 8a 12 f5 bc 0d 9d 04 3e 89 0d 00 3e
       0.1682682 -0.029916067 0.12950535 0.12505163
0002a0 e1 f0 98 3e ea 7e 7e 3e 7d cb b1 3e 44 13 f2 bd
       0.29871276 0.24853101 0.34725562 -0.11820081
0002b0 19 eb 5c 3d 7c e7 a9 3d 38 30 0b be 56 01 71 be
       0.053935144 0.08296105 -0.13592613 -0.23535666
0002c0 ad a6 08 3d 6c 9a de be f9 0b 63 3a 7e 3a ce 3b
       0.03336208 -0.4347719 0.0008661147 0.006293594
0002d0 07 07 be 3c 15 99 ef 3d 1b 58 ee 3e 72 2d 05 bd
       0.02319671 0.1169912 0.46551594 -0.032514043
0002e0 e3 fa 2c 3f 5f a8 28 3d 65 c5 35 be 60 0b 4f 3c
       0.6757032 0.041176196 -0.17751081 0.012636989
0002f0 8c 1a 3d be 5b 39 a2 3d 29 36 47 3e d9 dd 87 bd
       -0.18467158 0.07921096 0.19454254 -0.06634111
000300 36 cd 77 be 1e 32 7a be e0 f3 4f 3e bb a9 2f 3d
       -0.24199376 -0.2443318 0.20307875 0.042886477
000310 c3 76 ac bd 01 68 98 bd 6c b6 1d bd 36 d3 94 be
       -0.084210895 -0.07441712 -0.03850405 -0.2906739
000320 13 c2 b2 3b 62 f0 dc 3d 4f 6d 17 be 3b f2 a2 bd
       0.0054552644 0.10788037 -0.14787792 -0.07956358
000330 5c 71 a6 3e aa 35 fc 3d f8 85 af 3d e8 24 a9 3e
       0.3250836 0.12314923 0.085704744 0.3303597
000340 9a 88 0e 3e f8 a1 f1 3d 92 a4 13 3e 68 c5 63 3d
       0.13919297 0.11798471 0.14418247 0.055608183
000350 a6 6f 2d be f7 6b 69 3d fe 81 81 3e 4c 24 9b be
       -0.16937122 0.05698773 0.2529449 -0.3030113
000360 db 12 4e be 42 00 2c bd 7e e4 39 be 3d 3f 27 be
       -0.2012438 -0.041992433 -0.18153569 -0.16332717
000370 bb 3c 13 3e 2d 93 e8 3d 32 da 63 3d 86 6a 8b be
       0.14378636 0.113561966 0.05562801 -0.27229708
000380 1e 7d 91 be 28 57 8a be db 28 26 3e 09 29 00 3e
       -0.2841577 -0.2701962 0.16226523 0.12515654
000390 6d 7b 35 be 33 9d a4 bd d6 8e 8e 3e ed c2 ca 3d
       -0.17722864 -0.08037796 0.2784335 0.099004604
0003a0 41 c2 b1 3d 89 32 77 3e 22 ee 69 3e 3e ab d1 3b
       0.08679629 0.24140371 0.22844747 0.0063985875
0003b0 94 e5 1d 3c 73 05 ab bd 43 35 a6 be 5f 11 ed bd
       0.009637255 -0.08350649 -0.3246251 -0.11575579
0003c0 21 03 ad be 35 c0 40 be 6e 49 cb 3d 23 de 5a 3c
       -0.3379145 -0.18823321 0.09926115 0.013358626
0003d0 6d 39 18 3e c5 d8 9f 3d fb 61 e9 3e ac 50 25 3e
       0.14865656 0.078050174 0.45582566 0.16144055
0003e0 1e ea 5d bd e3 b4 3e be 27 9e 47 3d 62 d5 0c be
       -0.05417835 -0.1862369 0.04873481 -0.13753274
0003f0 e8 dc 75 be 54 d3 80 3e 24 ab 37 3b 07 d8 3f be
       -0.2401005 0.2516123 0.0028025592 -0.18734752

fc2.weight f4 [256, 256]
000000 cd 38 10 c0 9d a3 eb be 24 36 53 40 2b f2 1b 40
       -2.2534668 -0.46023265 3.3001795 2.4366558
000010 06 5b 1e 40 7e 91 8b bf 71 8a 84 bf 3e ca 16 bf
       2.4743056 -1.0903776 -1.0354749 -0.5890235
000020 80 31 a7 bf 94 59 f9 3c ef e0 8c 3e 0d d3 06 c0
       -1.3061981 0.030438222 0.2751536 -2.1066315
000030 4b b6 cb 3f b6 1f 19 40 e1 bd ca 3f 55 be 89 3c
       1.5915006 2.3925605 1.5839196 0.01681439
000040 ed e9 12 3f 8c d5 5e bf 04 01 dd 3c 8b e0 d6 3f
       0.5738819 -0.87044597 0.026978023 1.6787275
000050 a0 16 2e 3b ad 0f c4 bf c0 e9 9e 3a 56 4f fc bf
       0.0026563779 -1.5317284 0.0012124106 -1.9711711
000060 9e 66 df bd 88 ae 29 40 19 cf 90 40 1e c1 7d 3d
       -0.109082446 2.6512775 4.5252805 0.06195175
000070 31 9f 87 3f 38 d6 44 bf 3b 07 12 3d eb e2 3f 3f
       1.0595456 -0.7688937 0.035651427 0.74955624
000080 9c 50 b5 bc f8 2d 00 40 e0 41 7e bc 85 fe e5 bc
       -0.022133164 2.0028057 -0.0155186355 -0.028075466
000090 a8 7d b0 c0 4a 0b a6 bc f1 ab 16 bd 8a 3d 3c c0
       -5.515339 -0.020269055 -0.03678507 -2.941256
0000a0 9f 63 ed 3f 36 f9 89 3f 24 7f bb 3f c7 9a 61 bc
       1.8546027 1.0779178 1.4648175 -0.013769812
0000b0 24 da 43 bd 10 73 f7 bb 20 62 2c 3c 8f 02 4d bd
       -0.047815457 -0.0075515583 0.010521442 -0.05005127
0000c0 cd 0e c6 bf 94 18 93 40 48 40 a4 3c 0c 11 13 40
       -1.5473267 4.5967503 0.020050183 2.2979155
0000d0 57 86 15 3f 7e d6 4c 3c 93 0e 8e 3f f8 98 8b bc
       0.5840811 0.012502311 1.1098198 -0.017040715
0000e0 3c e1 fe 3d 8c b1 de 3c 21 f6 35 c0 e2 87 29 3d
       0.12445304 0.02718427 -2.8431475 0.041389354
0000f0 c0 b2 7e 3d 26 7e 96 bf 00 07 87 b9 b2 52 4b bd
       0.062182188 -1.1757247 -0.00025754422 -0.04963941
000100 c8 c5 3e 40 d0 00 2c 3c 91 9a c5 be 46 99 4a 3f
       2.9808216 0.010498241 -0.38594487 0.79140127
000110 09 67 3d 3f 1c de bd bf c2 a5 11 bd 3b e2 46 3f
       0.73985344 -1.4833407 -0.03555847 0.7768895
000120 82 7c 0d 3d e0 e1 fc 3b 7e b0 1e 3d d0 3d 62 3c
       0.034542568 0.007717356 0.038742535 0.013808683
000130 c8 b2 05 3d 45 32 4a bf e3 73 8d c0 70 0b 28 3c
       0.032641202 -0.78982955 -4.4203963 0.010256633
000140 a5 5f 90 3e 8e be 3b 3d 0d 7e 60 3f 40 a5 80 3d
       0.2819797 0.045836024 0.8769234 0.06281519
000150 82 88 ec 3f 1d 14 fc be 95 89 34 40 84 f7 e5 bf
       1.8479159 -0.49234095 2.8208973 -1.7966161
000160 1f e6 b6 bf 49 b5 d6 3e 35 63 f4 bf 27 1e 5a c0
       -1.4288977 0.41935185 -1.9092776 -3.4080904
000170 05 37 22 bf e8 32 84 bd e2 63 8f be d6 33 07 c0
       -0.63365203 -0.06455022 -0.28005892 -2.1125388
000180 11 5e 87 bd cd 27 05 be fe 0a a4 bf 26 7f 36 bd
       -0.066097386 -0.13003464 -1.2815855 -0.044554852
000190 9b a1 2d bf ce 71 e6 bf 06 cb c7 bc 6b 90 32 3f
       -0.67824715 -1.800348 -0.024388801 0.69751614
0001a0 d2 6d b5 be 47 60 58 c0 14 b9 c5 3c 9a 54 0a be
       -0.3543535 -3.3808763 0.024136104 -0.13508835
0001b0 31 de 1f bd 98 7d e4 3f 5c ff fa 3f f0 b2 b2 bc
       -0.039030258 1.7850828 1.960918 -0.02181384
0001c0 48 65 25 bd dc 10 a7 3e 9c 46 45 40 e0 8f 6a 3f
       -0.040379792 0.3263005 3.0824347 0.91625786
0001d0 71 4d 63 3d 61 b2 0a c0 e8 28 4a bd f5 69 e6 3f
       0.055493776 -2.1671374 -0.049355417 1.8001086
0001e0 c0 7b da 3c 82 e4 e2 3f 21 8b d1 bf 11 44 2e 40
       0.026670337 1.7725985 -1.6370584 2.7229044
0001f0 1c 56 94 3d af c6 d5 3f 06 04 c8 3f 7e 72 16 c0
       0.072429866 1.6701258 1.5626228 -2.350738
000200 d5 5a 76 bf 6a 04 6a bc 50 a1 2f c1 3c c2 d8 c0
       -0.9623235 -0.014283279 -10.976883 -6.7737103
000210 65 b0 5b bf 46 93 a9 3b 14 8c 3a bd 42 e8 65 3d
       -0.8581603 0.005175027 -0.045543745 0.0561297
000220 44 9a 4d 3f 63 fe da 3d 68 9e 53 3c 92 57 34 3e
       0.80313516 0.10693052 0.012916185 0.1761153
000230 b0 a9 18 bc 04 c8 46 bd 2a e6 12 3d 04 6c a7 3c
       -0.0093178 -0.048530594 0.035864033 0.020437248
000240 76 8c 0e be 97 40 0a 40 b0 9a 1e bf 80 b7 28 ba
       -0.13920769 2.1601923 -0.61954784 -0.0006436035
000250 78 a9 c4 3e 5b 98 86 bf bc c3 c0 bc 6e ba 73 3d
       0.38410544 -1.0515245 -0.023530833 0.059503965
000260 6a 36 6a bd b9 ef c9 3e 39 f5 bf bf ba 6e 50 3d
       -0.0571808 0.39440706 -1.4996711 0.050886847
000270 7e 7a 0e 3f 72 d0 b3 bc 90 e8 bc bb 55 41 2c 3f
       0.5565566 -0.02194998 -0.0057650283 0.6728719
000280 68 37 58 3d 70 65 05 be 70 db 8f bd 73 61 08 3d
       0.052787215 -0.13026977 -0.07024276 0.03329606
000290 48 38 56 3d 23 60 dc bd 80 0b de bf 0f 4c 77 be
       0.052299768 -0.10760524 -1.734726 -0.24150108
0002a0 c7 7a 17 40 a1 4f 12 3f 52 07 dc 3f 9e 86 39 3d
       2.3668687 0.57152754 1.7189734 0.045294397
0002b0 94 d1 2a c0 93 7a c1 bf a6 2a 44 3d 50 f0 1f bd
       -2.6690416 -1.5115532 0.047892235 -0.03904754
0002c0 89 1f 55 bd 94 3f 6c 3f 90 ac 66 3c c1 44 d6 bf
       -0.052032027 0.9228451 0.014079228 -1.6739732
0002d0 46 7d 97 be b1 5e 57 3c 63 e8 7a c0 ec 9a f8 3c
       -0.29587764 0.013145135 -3.9204338 0.03034731
0002e0 df e2 0d c0 e5 59 38 c0 96 7f 94 3f 34 d7 28 be
       -2.216972 -2.8804867 1.1601436 -0.16488343
0002f0 58 9a 73 bc 70 0c 92 bf 4c 77 69 bf 6e 74 1e c0
       -0.014868341 -1.1410046 -0.9119766 -2.4758563
000300 60 f1 9c bc e3 51 64 3f f9 11 fd 3f c8 05 6d be
       -0.019158065 0.8918745 1.977111 -0.23146737
000310 69 51 60 3d 87 19 aa 3e 25 c5 fc 3c b9 bb 66 3d
       0.05476514 0.332226 0.030855725 0.05633137
000320 92 90 4e 3d ce 6b 35 c0 c8 78 17 3d 83 42 e3 3d
       0.05043084 -2.8347049 0.03698042 0.110966705
000330 1f 4c 69 c0 ec 97 3b 3b f7 95 bf 3f 53 45 46 be
       -3.645271 0.0028624488 1.4967641 -0.19362383
000340 2c 41 19 bd db d9 e0 bd 7c 76 11 bd 20 ae 53 3c
       -0.03741567 -0.10979053 -0.035513386 0.012919933
000350 92 06 06 bd b4 76 5f 3d da e6 85 3d 71 69 63 bc
       -0.03272111 0.054556563 0.06538172 -0.01388012
000360 0c 2a 47 bd 50 59 88 3b 87 b1 fd be db fe 16 40
       -0.048624083 0.0041610375 -0.49549505 2.3593051
000370 a6 89 f8 3f 38 b1 ec 3f 61 6a 87 c0 e6 7a 8d bc
       1.9417007 1.8491583 -4.2317357 -0.017270517
000380 13 d1 13 bf 1a 85 a7 3e 84 35 19 bd 07 5c de bd
       -0.57740897 0.32718736 -0.037404552 -0.108573966
000390 b0 f9 ae 3c cc 37 50 bd f8 3f c7 be b0 b6 88 ba
       0.021359295 -0.050834462 -0.38915992 -0.0010430422
0003a0 60 34 3f 3c 88 ee ae bc ac 8b ec 3f 1e c7 3a 3d
       0.011670202 -0.021353975 1.8480124 0.04560005
0003b0 e0 a4 02 3f 3c 93 2e bd 64 5d 84 bf 45 75 33 3b
       0.5103283 -0.042620882 -1.0341 0.002738313
0003c0 08 73 97 3e 54 b4 4c 40 78 51 f7 3f 23 56 2e 40
       0.2957995 3.1985064 1.9321737 2.7240074
0003d0 78 b5 1d 40 96 59 69 3d 94 66 27 40 7a 85 a9 3c
       2.464201 0.0569702 2.6156359 0.02069353
0003e0 b7 d2 c9 bf 72 3c 07 bc 1e 47 2c 3d c1 a1 37 bf
       -1.576743 -0.008254157 0.04206001 -0.7173119
0003f0 33 e7 0d bc ef 80 64 c0 2b f8 61 c0 66 bc 67 bc
       -0.008661079 -3.5703695 -3.530772 -0.014144039

fc2.bias f4 [256]
000000 a8 70 d1 bb 7d 2a 02 3b 1f 36 98 bd 04 55 be bd
       -0.0063916035 0.001986175 -0.07432198 -0.09293559
000010 b3 cc 42 3e d8 f8 2c bf 1a 36 14 3d ee 12 fb be
       0.19023399 -0.67567205 0.036184408 -0.4903788
000020 b5 ae aa 3c a0 4e 33 bb cb e2 2b bc da d3 72 bd
       0.02083526 -0.0027360097 -0.010491083 -0.05928407
000030 2a a6 56 bd d3 b8 ce 3c 82 10 e7 3c f5 54 45 bd
       -0.05240456 0.025234615 0.028206114 -0.048176724
000040 23 ac 56 3c 67 0b fd bc 7c 8a ba bc 2b e0 b7 bc
       0.013102564 -0.030889226 -0.022771113 -0.022445759
000050 9a 40 d0 bd 79 33 40 3c 3e 23 53 bd 13 f5 22 3d
       -0.10168572 0.011731022 -0.05154728 0.039784502
000060 de a4 6b 3f 49 ca 8f be bf f3 ba 3e 3b b0 00 bf
       0.9204844 -0.2808402 0.3651409 -0.50268906
000070 0e 01 65 bd eb 7c 94 3c 23 b8 00 bf 2c 39 7c bd
       -0.05590921 0.018125972 -0.5028097 -0.06157796
000080 38 94 34 bd e7 72 1a 3f 63 94 19 bf b4 a2 fb bc
       -0.044086665 0.6033158 -0.59992045 -0.030717231
000090 26 cf 95 bc 73 82 01 be 12 e1 3b bc ba d1 1a bc
       -0.018287253 -0.12647419 -0.011467235 -0.009449417
0000a0 43 02 64 bf 3c 45 00 bf 57 d5 f4 bc 6b e0 5b 3e
       -0.8906595 -0.50105643 -0.029886885 0.21472327
0000b0 b8 48 4c 3b 5c 46 bf bc 26 dd 3a bc 1a 7f ce 3c
       0.0031171273 -0.02334898 -0.011405265 0.025207091
0000c0 ea d7 75 bd 10 09 2a bd 6f cb 29 3e fe 69 b7 bd
       -0.060020365 -0.04151255 0.1658151 -0.08955763
0000d0 44 25 9e bb 6a 82 c7 be db 5b 2f bf d2 72 e2 be
       -0.0048262198 -0.38966686 -0.68499535 -0.44228226
0000e0 af f3 e8 bd 04 dc 30 be ff d1 f7 3e c5 c4 af 3a
       -0.11374604 -0.1727143 0.48402402 0.0013410082
0000f0 48 1f 7f be 18 58 89 bc b7 9a a4 bc 71 37 1f 3d
       -0.24914277 -0.01676564 -0.020093305 0.038871232
000100 9a 61 c8 bc 5c ec c0 bd 3b 67 42 3e 72 a4 ef 3d
       -0.024460603 -0.09420082 0.18984692 0.11701287
000110 50 bd 06 3c 83 06 86 bb 99 d4 79 bd a2 ff ca bd
       0.008223847 -0.0040901317 -0.060993765 -0.09912039
000120 6e ff 66 bd 3d c9 79 bd ef 51 d3 3b 3a 42 3f be
       -0.05639594 -0.06098293 0.006448976 -0.18677607
000130 9d 2a dd bc 9d 30 bd 3e 8a 37 f3 3b 8f 87 47 bd
       -0.026997859 0.36951151 0.0074223923 -0.048713263
000140 96 d2 4e be 1b 52 68 bd 5d ed 2b bd f2 50 1d 3a
       -0.2019752 -0.056718927 -0.041974414 0.00060011365
000150 11 89 89 bd 71 85 3b 3d d3 38 29 bd 1e 88 4f be
       -0.067155965 0.045781557 -0.041313957 -0.20266768
000160 4e 55 e7 3e 78 f7 f1 be 3e c8 7b bc 43 f9 d3 3b
       0.4518227 -0.47259116 -0.015367566 0.0064689233
000170 d7 69 cc bd 3e 09 23 be dc e0 89 3c 84 84 70 3c
       -0.09981125 -0.15921494 0.016830854 0.014680032
000180 d3 c5 f0 be 1d 2e e6 bb 4f 5c 25 3d f3 23 6c 3c
       -0.47025928 -0.00702454 0.040371235 0.014412868
000190 3b ee 2f 3c 7f 9e 49 3e 4c 85 7a 3e 61 29 34 be
       0.010737951 0.19689368 0.24464911 -0.1759391
0001a0 a3 43 a6 be ad 62 33 bd 1e 3e 25 3c 49 87 9c be
       -0.32473478 -0.043795276 0.010085611 -0.30571964
0001b0 d1 16 49 3c de a5 e0 bc 85 41 cb bc ae 8b a1 bc
       0.012273506 -0.027422842 -0.024811516 -0.019719925
0001c0 dd f0 f2 bd 0b 68 29 bc c0 2c 6a bd d9 76 df 3c
       -0.11862347 -0.010339747 -0.057171583 0.02727835
0001d0 fc 1d 80 bd 3b 6d 34 bd d2 cc 9e 3e 46 15 e5 be
       -0.06255719 -0.044049483 0.3101564 -0.44742793
0001e0 13 ba cc bc f0 d3 be 3b f8 b3 be bd 26 0f 9f 3d
       -0.02499107 0.0058236048 -0.0931167 0.07766561
0001f0 b1 32 47 bd 83 ec b4 3e 00 f1 bb bc 1d 10 cd 3e
       -0.048632327 0.35336694 -0.022942066 0.40051356
000200 1c 33 af bc ce 92 ae bb 5d 7b a4 be 46 e3 e9 3c
       -0.021386676 -0.005327559 -0.3212537 0.028550755
000210 8e 0d 9a bb e3 14 6d bd 80 23 98 3f 15 95 e3 bc
       -0.004701323 -0.057881247 1.1885834 -0.027781049
000220 72 9b af bb 8b 45 e9 be d9 00 3d be 5f c2 67 3c
       -0.0053591067 -0.4556087 -0.18457355 0.014145463
000230 36 de 0a 3e 3a 33 ea bb 02 96 4c bd d2 41 64 bd
       0.13561329 -0.00714722 -0.049947746 -0.055726834
000240 92 75 0a be 60 85 67 3c 1a fe 83 3e e1 39 36 bd
       -0.13521412 0.01413092 0.25779802 -0.04448879
000250 4e 3d 90 bd c6 23 e4 be 44 5b 31 bc e2 ff 25 3f
       -0.07042943 -0.44558543 -0.010824982 0.6484357
000260 c8 ff bc bd 0d e1 a7 bd eb 1e 8a bd 8f ef f6 be
       -0.09228474 -0.08197222 -0.067441784 -0.48229644
000270 21 a9 c8 bc 59 b4 33 3e e6 f9 11 bc 5a a2 61 be
       -0.02449471 0.17549266 -0.008909678 -0.22034588
000280 b9 af ce bd 36 a9 3b 3d 6f 0f 43 3c 21 56 80 3c
       -0.1009211 0.04581567 0.011905535 0.01566607
000290 fa 15 04 3d 95 31 e6 bb ac 9a e1 3c 50 9e ce 3c
       0.03224752 -0.0070249536 0.027539574 0.025221974
0002a0 90 01 b8 3c 9f 80 9c bd 45 2c 8d bd 78 bc 7e be
       0.022461683 -0.0764172 -0.06893209 -0.24876583
0002b0 9d 36 ca bc 73 20 96 3b e1 ae 9a bd 6c 02 97 bd
       -0.024684245 0.004581505 -0.07552887 -0.07373509
0002c0 20 00 8f bd 69 52 1a be 00 96 4d 3d b8 c2 2f bc
       -0.06982446 -0.150705 0.05019188 -0.010727577
0002d0 80 6d 34 bc 32 c5 b1 3c dc 22 61 bd 69 b4 60 3d
       -0.011012435 0.021700475 -0.054964885 0.054859553
0002e0 58 23 cc 3c b1 89 9b bb d6 52 2f be 49 a8 cc bc
       0.024919197 -0.0047466387 -0.17121443 -0.024982588
0002f0 28 49 6b 3d 02 99 9e bd 5d 5f 51 3e 2a e1 9b 3c
       0.057442814 -0.07744028 0.20446534 0.019028265
000300 4b ae 8e bd d7 bb 8a bc ee 4c c5 bb ba 7e 9a bd
       -0.069668375 -0.016935272 -0.0060211336 -0.075437024
000310 95 26 b6 be ca 86 5d 3e e3 4e 9c bd 5d 1d 5a bd
       -0.3557631 0.21633449 -0.07632234 -0.05325066
000320 a7 a3 99 bd 01 51 c9 bc 33 0f d8 bc 4b d4 a9 be
       -0.07501917 -0.024574758 -0.026374435 -0.3316978
000330 e2 75 28 be a3 27 a6 bd d6 c9 6c 3d 7a 42 c2 3d
       -0.16451219 -0.08113029 0.057809673 0.09485336
000340 49 ce 28 bf 89 8b fa 3e 86 ab 02 bd 3c 53 dd 3b
       -0.65939766 0.48934582 -0.03190186 0.006754307
000350 52 7e 4d 3c a9 b0 5c be 95 25 e2 3b 90 10 4f bd
       0.012542324 -0.21551766 0.006901453 -0.050552905
000360 5e d0 04 3d ee fc cf be 3c 33 2a 3f ca 3e 83 be
       0.032425277 -0.40622658 0.6648443 -0.25633842
000370 c1 54 b3 bd 04 45 d2 bd 9d 5f 0f 3e 5c 4f 08 bd
       -0.087564 -0.1026707 0.14001317 -0.033278808
000380 12 c2 12 bd 04 e7 0a be c2 cf 9e 3e 20 17 bc bb
       -0.03582961 -0.13564688 0.31017882 -0.0057400614
000390 38 04 5f bc 4f e1 ea be ab 37 17 3e 1e 66 36 bc
       -0.013611846 -0.45875022 0.1476733 -0.011132745
0003a0 11 9c bb 3c 84 42 d3 3d 8b f4 29 3e 69 91 c1 be
       0.022901567 0.10315421 0.16597192 -0.37806252
0003b0 d0 5b a4 bd fd 6f ab 3c 14 e2 80 3c 4b ac e7 be
       -0.08025324 0.020927424 0.015732802 -0.45248637
0003c0 39 fb 18 3d 52 f2 99 be 9c 8a 4d 3c 84 ef 81 bc
       0.03734896 -0.30067688 0.012545254 -0.01586128
0003d0 7b c8 2e be ac 27 a0 bd 05 bf 0d be 5b 9e e5 bc
       -0.17068665 -0.07820067 -0.138424 -0.028029611
0003e0 39 b5 e0 ba b7 49 81 3e a3 75 cc 3e f8 79 0c 3e
       -0.0017143852 0.25251552 0.399335 0.13718402
0003f0 e8 6d c5 be 94 50 d4 3d da 76 3a be 1a d6 b8 bd
       -0.38560414 0.103669316 -0.18209401 -0.09025212

fc3.weight f4 [5, 256]
000000 01 13 23 40 32 e6 20 3d cf 25 0a bd ce 11 18 3d
       2.548035 0.03928203 -0.033727463 0.037126355
000010 ab 74 0b 40 9a 48 d4 3e 44 57 68 bd 8e 59 b5 3f
       2.1789958 0.4146164 -0.056723848 1.4167955
000020 00 02 cf 3b 86 00 d4 bc 8c 35 38 bd d4 55 e5 3b
       0.006317377 -0.025879156 -0.04497294 0.006998757
000030 c4 1a 9b bd bc 68 d7 3c a9 b8 dc 3b 9c cd fb 3c
       -0.075734645 0.026295058 0.0067358804 0.03073769
000040 44 17 68 bd c2 f3 06 3d 14 02 32 bd 00 b8 fd bc
       -0.056662813 0.03294731 -0.043459013 -0.030971527
000050 4a 75 2c 40 6c 14 37 bd 80 d6 1c 3c be 54 73 40
       2.6946588 -0.04469721 0.009572625 3.8020473
000060 1b 31 1f be 33 23 5c 40 fb 86 74 40 09 0f 8d bf
       -0.15546076 3.4396484 3.8207386 -1.1020213
000070 ad 73 6b bb 07 b2 34 bc d3 fe 1e bf da 5f 63 3d
       -0.0035927102 -0.011028773 -0.6210758 0.055511333
000080 f8 de c6 bc ff a5 39 3e 42 55 97 3e 56 27 c6 bc
       -0.024276242 0.18129729 0.29557234 -0.024188679
000090 64 8e 2d 40 04 ed 34 3e f4 c2 4c 3d cc c0 45 40
       2.7118158 0.1766854 0.04999061 3.0898924
0000a0 bb 19 3f c0 42 21 33 3f 5a d5 db bf b2 dc 66 3f
       -2.9859455 0.6997262 -1.7174485 0.90180504
0000b0 e8 ee 98 3d 47 be a2 40 a4 9c 30 3d 30 36 2c 3d
       0.07467443 5.085727 0.043118134 0.042043865
0000c0 3d 42 42 40 34 07 bf bc b8 07 97 40 12 df 94 bb
       3.0352929 -0.023318864 4.719692 -0.0045431936
0000d0 5d c2 2a 40 0e 67 5f 40 06 b2 06 c0 0d 01 76 40
       2.668113 3.490665 -2.1046157 3.8438141
0000e0 c0 be 92 3f 3a ad 07 bf 68 a7 0c 40 3c 41 d3 3c
       1.1464462 -0.529987 2.1977177 0.025787942
0000f0 bb 0a 5d 3f 13 83 53 bd 1f 4f f7 bc 57 70 15 bd
       0.863445 -0.051638674 -0.030189095 -0.03648409
000100 3b 87 e7 bc cf 00 51 3c b3 c0 a9 bd b4 5a 23 bf
       -0.028262725 0.01275654 -0.082887076 -0.63810277
000110 7a 16 07 3d 78 0f f3 bc 14 f0 d6 3b ce 77 cb 40
       0.03298042 -0.029670462 0.0065593813 6.3583746
000120 82 a1 22 3d 0f a3 ff bc 00 a1 5f 3b b4 42 0c 40
       0.039704807 -0.031205682 0.0034123063 2.1915712
000130 97 07 71 bd 59 ac c5 3f 80 62 ec 3c 36 78 bd bc
       -0.05884513 1.5443221 0.028855562 -0.02312861
000140 46 e3 c8 3f 85 d2 bf bc 0c c1 b7 39 84 04 25 bd
       1.5694358 -0.023415813 0.0003504831 -0.04028751
000150 40 77 9d 3c 43 ef 80 40 ae 8b 64 bc 5c 9b 7d be
       0.019221902 4.0292068 -0.013949318 -0.24766296
000160 a1 61 65 bf ed fd d6 3f e8 d4 84 bc 22 5a a3 3c
       -0.89602095 1.6796242 -0.016214803 0.01994044
000170 e4 5c 56 bd b2 91 18 40 85 73 0e bd 8c 2f 12 bd
       -0.05233468 2.3838925 -0.034778137 -0.035689875
000180 ca 64 f4 bf be 4c 09 bc c2 54 1b 3b 12 d1 73 40
       -1.9093258 -0.008380113 0.0023701643 3.8096356
000190 b5 81 a1 3c 7f d1 c4 bf a1 0b a5 3d 0a 92 0f 40
       0.01971517 -1.5376433 0.08058859 2.2432885
0001a0 83 dd 70 40 db 3d a3 3d 71 c1 c5 3c aa d2 86 40
       3.76352 0.07970782 0.024140092 4.213216
0001b0 c0 86 d6 bb c5 57 3a 3b f2 18 6e 3d b5 64 0c bd
       -0.006546825 0.0028433662 0.05812926 -0.03427573
0001c0 a9 0d 28 40 ed f5 f1 3c 96 ee 57 bd e1 ff fa 3c
       2.6258337 0.029536212 -0.052717768 0.03063959
0001d0 46 8d 88 40 f6 15 07 3d bb da f0 bf 09 07 de 3f
       4.2672453 0.032979928 -1.8816751 1.7345897
0001e0 39 50 5a bd db 94 3a bc ce d5 b5 bd a5 1f 89 40
       -0.053299163 -0.011388029 -0.08878671 4.285113
0001f0 0e 65 d3 bb ef 0c 3f bf ca af a5 bb f9 89 aa 3f
       -0.0064512556 -0.7462911 -0.005056356 1.3323356
000200 f8 55 07 3d e2 fa 93 bc d8 5e 79 40 8c 7e 39 bd
       0.03304097 -0.018063966 3.8964138 -0.0452867
000210 34 05 9a 3c 60 8a 03 3d c7 47 06 3f 93 16 1b 3d
       0.01880131 0.032114387 0.52453274 0.037863325
000220 56 21 0c 3d 46 2c 4d 40 81 05 cb bc 04 15 31 bd
       0.03421148 3.2058272 -0.024782898 -0.043232933
000230 ae 2d 0d 40 34 10 14 3d 45 24 a3 3d d9 ef 02 bd
       2.205913 0.036148265 0.07965902 -0.031967018
000240 67 80 6c bf 40 e3 5a 3c 2e 7b ce bf 52 74 24 bd
       -0.92383426 0.013359845 -1.6131341 -0.040149994
000250 14 80 39 3d 3e a2 23 40 c9 31 ad bb 07 21 09 c0
       0.04528816 2.5567775 -0.005285476 -2.1426408
000260 06 b2 50 3d 2b 8c 1d bc 6f aa b5 3c 0d 97 84 3f
       0.050951026 -0.009615938 0.022175996 1.0358597
000270 d9 83 6c 3b dc da 73 40 74 cd 24 40 13 37 29 be
       0.003608933 3.810233 2.5750399 -0.16524915
000280 54 47 ff bc 6f aa 70 40 bf f0 39 bd 8e d4 95 ba
       -0.031161942 3.7604024 -0.04539561 -0.0011431144
000290 0d d0 ad bc 3f 28 b1 bc 52 b8 17 bd b2 68 23 3c
       -0.02121737 -0.021625636 -0.037041016 0.009973692
0002a0 c4 6e bf bc 3f cf 95 3b a3 5c 37 3b 53 2d d8 3f
       -0.023368247 0.004571825 0.00279788 1.6888832
0002b0 27 76 f8 bc 83 d3 5f bc 4f ad a4 3c 71 3c 0c 3d
       -0.030329777 -0.013661268 0.020102171 0.03423733
0002c0 4e ab b5 3c 35 37 1c 40 66 4e 4f 40 db bd a1 bb
       0.022176411 2.4408696 3.23916 -0.0049359626
0002d0 2f 43 3e bd 16 a3 6b bd 79 a7 a7 3c 75 0b 73 40
       -0.04645079 -0.057528578 0.0204656 3.7975743
0002e0 d4 fd 27 3d 1d 94 4b c0 24 d6 18 bf 6d 6c 28 bd
       0.041013554 -3.180915 -0.5970175 -0.041119028
0002f0 e3 e9 3c 40 93 de f7 bc 83 71 71 40 71 07 2c bd
       2.9517753 -0.030257499 3.7725532 -0.041999284
000300 f0 87 a7 bb 28 99 54 3c d4 f6 cd bc 61 12 b8 3c
       -0.0051126406 0.012975968 -0.02514211 0.022469701
000310 c5 8c 94 40 f7 82 a4 40 35 04 5a bc cb 43 fa 3b
       4.642184 5.140987 -0.013306667 0.007637476
000320 00 1f d1 3b f5 c0 1f bb fc 61 1c 3d 8f 48 1f 40
       0.0063818693 -0.0024376486 0.038179383 2.4888036
000330 d6 4f 3e 3f 7b 09 fc bc dd 70 05 3f dd ba fc bf
       0.7434057 -0.03076624 0.5212534 -1.9744526
000340 5f be 90 bf 37 57 b5 3f 91 77 97 3b 97 5d 07 bc
       -1.1308097 1.4167241 0.0046224077 -0.00826206
000350 ca 9a 4b 3d 44 bf 00 40 3e 0c 9c bc 25 66 b9 bb
       0.049708165 2.011674 -0.019048806 -0.0056579285
000360 30 80 42 40 0c 42 97 40 e6 3e c3 bf 8e 99 2b 40
       3.039074 4.7268124 -1.525357 2.6812472
000370 72 ea 04 bc ff 12 bb 3f 78 f3 0e c0 af ac 89 be
       -0.008112537 1.4615172 -2.2336102 -0.2688956
000380 3c 69 33 bd 4d 8c 5b 40 15 4a 84 40 d0 9f 88 3c
       -0.04380153 3.4304383 4.134043 0.016677767
000390 bc ce 86 be 7e 31 34 40 1e 01 43 40 9f 63 4b bd
       -0.263296 2.8155208 3.0469432 -0.049655553
0003a0 e2 42 3c 3c 1a 44 a3 40 ea 11 40 40 77 5d 86 40
       0.0114905555 5.102063 3.0010934 4.1989093
0003b0 85 0e be ba 32 b3 8e 3d 27 09 36 bd 34 53 97 40
       -0.0014500177 0.069677725 -0.044442322 4.7289066
0003c0 4d 33 0b 40 31 48 4d 40 57 a8 84 bb f9 38 96 bb
       2.1750062 3.2075312 -0.004048388 -0.0045844284
0003d0 9e f1 70 40 27 b0 92 bb 18 a4 1d 40 15 46 4a 40
       3.7647471 -0.0044765654 2.4631405 3.1605275
0003e0 b5 94 28 3a b6 9b 1c bf 41 cc 86 bf 06 56 de bf
       0.00064308505 -0.61175096 -1.0531083 -1.7370002
0003f0 a4 d7 25 40 24 90 6b 40 3f 3f 97 bf f4 f6 b5 3c
       2.5912867 3.6806726 -1.1816176 0.022212483

fc3.bias f4 [5]
000000 d9 25 7e 3e bb 0d 5b bf 78 dd 22 bf dc 8e c3 be
       0.24819125 -0.85567826 -0.63619184 -0.3819493
000010 84 16 29 3e
       0.16512495
