other_model/dqn_team_b_ep190.pth (torch, 286849 bytes, 6 tensors)

fc1.weight f4 [256, 14]
0.2621186 -0.9945378 0.2247714 0.20322862 0.44022053 -1.1938399 -0.06925389 -0.8819696
0.5513189 -0.29427898 2.1609871 -2.066586 0.20800637 -0.0552529 -0.24266438 -0.4795665
-0.07749384 0.15746275 -0.11402029 -0.022004794 -0.038458645 -0.27047312 0.32485068 0.04607981
-0.32613868 0.102794684 -0.16426343 -0.08632246 -0.5568232 -1.0445061 -0.09874911 0.020538049
0.2459049 0.38208258 -0.022452153 -0.03563435 -0.59586686 0.60096127 -1.1762512 0.9611868
0.27029082 -0.13296905 -0.24234253 0.09704951 -0.23640867 0.1069619 -0.20273112 -0.26035237
0.03501461 -0.05426173 0.15389045 -0.10411173 0.02890526 0.19809867 -0.062564 -0.06057839
-0.20839585 0.12389674 -0.011764755 0.20264708 0.12182164 -0.20593117 -0.19342758 0.14171734
-0.11147272 0.20204139 -0.13906872 -0.2118954 -0.17722723 -0.2631674 -0.64357257 -0.16031897
-0.6002407 0.015095497 -0.23121627 -0.14742662 0.014504301 -0.4181018 -0.3341299 0.28692237
0.46397695 -1.162906 0.26215026 -0.13885845 -0.21086837 0.22496657 -0.22631921 -0.01304305
-0.24127339 -0.26593807 0.1712232 -0.093175635 0.14162068 -0.23780002 -0.027436348 0.13062023
-0.05928119 0.1445206 0.16086046 -0.1740675 0.046779413 -0.47739023 0.09044337 -0.19874263
0.36410534 -0.23369795 -0.32002667 -0.2222434 0.5542649 -0.41874978 -0.1121328 -0.21642327
0.035977755 -0.76138556 0.118328534 -0.34002972 0.04115383 -0.22415337 -0.19431525 0.1875495
-1.2127068 -0.27741352 -4.4723883 0.019896783 0.1704827 0.09852949 -0.19417004 -0.102302246
-0.12643181 0.10486086 -0.09447815 0.04379912 -0.20564026 0.08689945 -0.25134787 -0.17923693
0.20521416 -0.01101608 -0.15817033 -0.241106 -0.2100278 -0.21869987 0.164113 -0.03153194
-0.035223853 -0.26791206 0.27421907 -0.014779901 0.77046055 0.96428394 2.0472283 4.1309547
0.110774405 -0.033259593 -0.69977415 0.43760034 -0.6769453 0.2538819 -0.84991133 0.49399313
-0.93104017 -0.055577956 0.3391001 -0.18924548 -1.761156 1.4490156 0.09916281 0.077253394
0.02962986 -0.31304437 -0.057405684 -0.16540653 -0.21894932 -0.78234595 -0.2465187 0.16576008
0.3142165 0.7860862 0.66128653 4.094431 0.27163443 0.027494662 0.17652231 -0.048774652
-0.100951865 -0.2735515 -0.40787125 -0.0755788 -0.13239294 0.27460128 0.25395632 0.3447524
0.4620418 3.4680836 0.13033997 0.1140065 -0.8622639 -0.45469475 -0.80711114 0.2945879
-0.31919745 0.4831311 -0.46328208 0.32884267 0.25211674 -0.1029685 -0.3423862 -0.31639624
0.24747926 0.16720401 -0.092490666 0.05089698 -0.26267794 0.095207654 0.19873805 0.10438987
-0.15414417 -0.14394408 0.04139766 0.029382136 -0.18466648 -0.17906342 -0.2480611 0.11888337
0.1862526 -0.54275095 -0.016864065 -0.46575615 0.27203682 0.35514036 0.35409412 0.4833953
-0.25514677 0.13956186 0.3355235 1.8304378 -0.16730551 0.0049209055 0.13605015 0.12776576
-0.30013308 -0.31734687 0.15930422 -0.43382466 -0.31928158 -0.18654846 0.324517 0.16241364
0.004833947 0.50818974 -0.01541241 -0.33673364 -0.19133689 -0.017397642 0.035397887 -0.082452334
00000000: 6934 863e 079a 7ebf 792a 663e 2a1b 503e
00000010: 9664 e13e bfcf 98bf fcd4 8dbd c2c8 61bf
00000020: 3c23 0d3f bcab 96be 9d4d 0a40 f242 04c0
00000030: 9fff 543e dd50 62bd 037d 78be be89 f5be
00000040: 17b5 9ebd ea3d 213e 7883 e9bd 6643 b4bc
00000050: d086 1dbd 747b 8abe d452 a63e 2fbe 3c3d
00000060: a6fb a6be 0586 d23d ac34 28be d4c9 b0bd
00000070: f78b 0ebf 60b2 85bf f93c cabd 693f a83c
00000080: 7ece 7b3e 54a0 c33e 94ed b7bc 53f5 11bd
00000090: bb8a 18bf 99d8 193f 668f 96bf 5710 763f
000000a0: 8f63 8a3e 0a29 08be a428 78be e5c1 c63d
000000b0: 1d15 72be d70e db3d bf98 4fbe e84c 85be
000000c0: 7b6b 0f3d 8c41 5ebd 7595 1d3e 8838 d5bd
000000d0: b9ca ec3c 61da 4a3e 8e21 80bd 0c21 78bd
000000e0: b965 55be 93bd fd3d f5c0 40bc b782 4f3e
000000f0: a07d f93d 9fdf 52be e111 46be 5a1e 113e
00000100: cf4b e4bd f0e3 4e3e 0868 0ebe 1cfb 58be
00000110: 0e7b 35be e1bd 86be 2cc1 24bf a82a 24be
00000120: 60a9 19bf 1a53 773c f5c3 6cbe 01f7 16be
00000130: 73a3 6d3c 7011 d6be 1313 abbe 7de7 923e
00000140: 638e ed3e 1bda 94bf 8f38 863e e930 0ebe
00000150: e1ed 57be a35d 663e 39c0 67be 84b2 55bc
00000160: 5f10 77be 0929 88be 2255 2f3e ded2 bebd
00000170: 0305 113e d981 73be 31c2 e0bc 4fc1 053e
00000180: d5d0 72bd 35fd 133e 9bb8 243e c03e 32be
00000190: c59b 3f3d 7e6c f4be 603a b93d 3083 4bbe
000001a0: 046c ba3e 844e 6fbe 89da a3be c693 63be
000001b0: 4ee4 0d3f 5f66 d6be e2a5 e5bd 109e 5dbe
000001c0: 695d 133d 2aea 42bf 3b56 f23d 6018 aebe
000001d0: eb90 283d 7688 65be 94fa 46be fa0c 403e
000001e0: fa39 9bbf 2509 8ebe ce1d 8fc0 94fe a23c
000001f0: 0493 2e3e d4c9 c93d 83d4 46be d783 d1bd
00000200: 5777 01be 4ac1 d63d c37d c1bd b566 333d
00000210: 5c93 52be 57f8 b13d abb0 80be e389 37be
00000220: a923 523e ca7c 34bc 67f7 21be 7ee4 76be
00000230: 8711 57be dcf2 5fbe 3d0d 283e a327 01bd
00000240: e346 10bd c52b 89be 7166 8c3e 6627 72bc
00000250: e73c 453f 50db 763f ca05 0340 c830 8440
00000260: b1dd e23d 363b 08bd 6624 33bf 270d e03e
00000270: 4a4c 2dbf cffc 813e ca93 59bf abec fc3e
00000280: a658 6ebf b6a5 63bd 879e ad3e 91c9 41be
00000290: 8f6d e1bf 5879 b93f df15 cb3d 0737 9e3d
000002a0: 52ba f23c 5a47 a0be 3922 6bbd 5460 29be
000002b0: 4034 60be d347 48bf 666f 7cbe 03bd 293e
000002c0: fce0 a03e f23c 493f 134a 293f 9405 8340
000002d0: ab13 8b3e 7c3c e13c 44c2 343e eec7 47bd
000002e0: dabf cebd f10e 8cbe 80d4 d0be 0fc9 9abd
000002f0: 0492 07be 8a98 8c3e 9006 823e 6383 b03e
00000300: be90 ec3e 15f5 5d40 d777 053e 3d7c e93d
00000310: 54bd 5cbf c0cd e8be d69e 4ebf 3ad4 963e
00000320: d96d a3be f65c f73e 4f33 edbe 115e a83e
00000330: 7215 813e 26e1 d2bd 3e4d afbe b0fe a1be
00000340: 346b 7d3e 8737 2b3e bf6b bdbd 5a79 503d
00000350: b97d 86be 3bfc c23d fd81 4b3e 5bca d53d
00000360: f8d7 1dbe 1466 13be 9890 293d ceb2 f03c
00000370: 3619 3dbe 675c 37be bb03 7ebe 2079 f33d
00000380: 00b9 3e3e baf1 0abf 8226 8abc 9777 eebe
00000390: 6948 8b3e f5d4 b53e d34b b53e 977f f73e
000003a0: 99a2 82be 4ee9 0e3e bcc9 ab3e c94b ea3f
000003b0: 2352 2bbe 8c3f a13b bb50 0b3e 07d5 023e
000003c0: 0bab 99be 4a7b a2be a520 233e 441e debe
000003d0: e078 a3be 8f06 3fbe 1827 a63e c34f 263e
000003e0: 1666 9e3b b918 023f 5584 7cbc 5a68 acbe
000003f0: d1ed 43be 8085 8ebc 60fd 103d c5dc a8bd

fc1.bias f4 [256]
0.007485926 -0.104695305 0.19504699 -0.06510732 -0.22312665 0.2546733 -0.21786042 0.02110571
0.23752822 0.12608571 0.33195552 -0.21393785 0.12111527 0.22282942 0.18581866 -0.13380401
0.11916815 -0.24201888 -0.18945734 -0.17534764 0.015774662 0.35571763 0.0920877 0.09766944
-0.056678336 0.222149 0.054916892 -0.11183763 0.030461937 0.27106237 0.04883002 0.26182988
-0.009045985 0.007633158 0.19208542 0.19817162 0.22897188 -0.23112248 -0.20493864 -0.1557514
0.2167726 -0.09529477 0.070374645 -0.14449014 0.06928347 -0.061379384 0.0067673875 -0.07630197
0.2092367 -0.16477248 0.0114240805 -0.2970689 0.068647034 -0.10527749 0.17953646 0.06378335
-0.06880646 -0.349179 -0.37837696 -0.004960924 -0.13341568 -0.24240428 0.13619442 -0.18375427
0.28347668 0.02069608 -0.040816955 0.020968826 0.07634063 -0.29311138 -0.011403066 -0.19050144
0.15638317 -0.14902264 0.0634319 0.09299646 -0.1471507 -0.21014725 0.105473325 -0.22389162
-0.05042433 0.078149416 0.11545817 -0.12010384 -0.2872445 -0.069808275 0.12218777 0.033529777
-0.1242071 0.33807337 -0.11336495 0.05069287 -7.15257e-05 -0.24917382 -0.27458817 0.0919443
-0.061389517 -0.012261806 0.026122056 0.16111241 -0.33715424 -0.5122814 -0.23623393 0.2688971
-0.26062608 0.29382035 0.021367434 0.050584566 -0.09352926 0.29006562 -0.15446003 0.023681007
-0.07694411 -0.2614912 -0.22321321 -0.111651264 -0.2415323 -0.277446 -0.15713684 0.041792013
0.040445916 0.22738926 0.03303343 -0.20753905 0.19451545 -0.0038461112 0.024215255 0.070217445
-0.01302061 -0.12495507 -0.16980194 -0.20813437 -0.20180985 -0.15755872 0.18352571 0.021032615
0.06582662 -0.06537629 -0.1963372 -0.06325802 -0.111111544 -0.0072720503 -0.21792328 0.060483925
-0.19091502 0.34475368 0.17298605 0.26487124 -0.009494685 0.1329473 -0.098276734 -0.024720669
-0.105246395 0.24151006 0.081609994 0.08464265 0.13687772 -0.11602321 0.10138812 0.07902966
-0.03406825 -0.1827403 0.098015636 0.0912047 0.1682682 -0.029916067 0.09658593 0.1437756
0.2691949 0.22299266 0.24756029 -0.11820081 -0.027318718 0.3044452 -0.13592613 -0.2257332
0.03336208 -0.2871602 0.0008661147 -0.1113524 -0.15233071 0.21125679 0.34050223 -0.032514043
0.32108173 0.06228433 -0.14380425 0.042712986 -0.18467158 0.22509556 0.38942704 -0.03241324
-0.24199376 -0.23012428 0.28355655 0.042886477 -0.07018832 -0.0585342 -0.022621278 -0.2906739
0.0054552644 0.026200602 -0.14787792 -0.07956358 0.14770846 0.12314923 0.13813889 0.22248533
0.13919297 0.11798471 0.14418247 0.055608183 -0.16937122 0.05698773 -0.00024691416 -0.3030113
-0.2012438 -0.041992433 -0.27073127 -0.21017864 0.050442144 0.16572861 0.049122814 -0.27229708
-0.2841577 -0.24265684 0.16226523 0.25797433 -0.17722864 -0.08037796 0.2784335 0.11488753
0.08679629 0.24140371 0.25194737 0.015477635 -0.024576731 -0.08350649 -0.3246251 -0.099872865
-0.3314748 -0.1253449 0.004321774 -0.15395942 0.22848617 0.078050174 0.34270138 0.16144055
0.018923996 -0.1862369 0.04873481 -0.09954294 -0.22421779 0.23750977 0.13413149 -0.18734752
00000000: 804c f53b 7e6a d6bd 66ba 473e fd56 85bd
00000010: 507b 64be 8a64 823e cd16 5fbe e2e5 ac3c
00000020: 993a 733e 9d1c 013e 13f6 a93e 8612 5bbe
00000030: 480b f83d 652d 643e 3f47 3e3e eb03 09be
00000040: 6e0e f43d ccd3 77be 1b01 42be 558e 33be
00000050: dd39 813c 9f20 b63e 7a98 bc3d ea06 c83d
00000060: 8b27 68bd 077b 633e 89f0 603d 210b e5bd
00000070: 508b f93c b0c8 8a3e fd01 483d 910e 863e
00000080: 9c35 14bc 921f fa3b 0ab2 443e 80ed 4a3e
00000090: 9b77 6a3e 5fab 6cbe 6fdb 51be 4c7d 1fbe
000000a0: a3f9 5d3e e829 c3bd 9520 903d 39f5 13be
000000b0: 7ee4 8d3d f368 7bbd f6c0 dd3b 3544 9cbd
000000c0: 2542 563e 1eba 28be 112c 3b3c 6a19 98be
000000d0: d196 8c3d ba9b d7bd 68d8 373e d8a0 823d
000000e0: 67ea 8cbd 97c7 b2be a0ba c1be 3f8f a2bb
000000f0: 1f9e 08be d438 78be 8d76 0b3e 142a 3cbe
00000100: db23 913e d38a a93c ae2f 27bd d1c6 ab3c
00000110: 7a58 9c3d b212 96be edd3 3abc cf12 43be
00000120: e922 203e 6499 18be 96e8 813d ee74 be3d
00000130: acae 16be d730 57be 6602 d83d d843 65be
00000140: be89 4ebd cd0c a03d 5575 ec3d 01f9 f5bd
00000150: b611 93be a4f7 8ebd 953d fa3d 8556 093d
00000160: 4b60 febd f417 ad3e e22b e8bd 54a3 4f3d
00000170: 1100 96b8 6c27 7fbe d296 8cbe 4b4d bc3d
00000180: 9373 7bbd bee5 48bc ecfd d53c a7fa 243e
00000190: 7b9f acbe e024 03bf 4fe7 71be e1ac 893e
000001a0: c870 85be 9f6f 963e c20a af3c c331 4f3d
000001b0: 458c bfbd 7b83 943e c52a 1ebe acfe c13c
000001c0: e094 9dbd 2de2 85be 0192 64be 6ba9 e4bd
000001d0: 3e54 77be 670d 8ebe 7be8 20be 1a2e 2b3d
000001e0: 9eaa 253d bbd8 683e 104e 073d 1e85 54be
000001f0: 0f2f 473e 0a0f 7cbb 125f c63c 2ace 8f3d
00000200: 6654 55bc 72e8 ffbd 8fe0 2dbe 2d21 55be
00000210: 3ea7 4ebe 1357 21be 2aee 3b3e 974c ac3c
00000220: 1bd0 863d 01e4 85bd 9e0c 49be 6c8d 81bd
00000230: 738e e3bd 614a eebb 4827 5fbe febd 773d
00000240: 3a7f 43be 8e83 b03e 4123 313e 349d 873e
00000250: 988f 1bbc 5623 083e 5045 c9bd 0083 cabc
00000260: 6c8b d7bd 6a4e 773e 2423 a73d 2059 ad3d
00000270: ac29 0c3e 949d edbd 93a4 cf3d 4dda a13d
00000280: 268b 0bbd 4620 3bbe 6cbc c83d 88c9 ba3d
00000290: 804e 2c3e 8a12 f5bc d8ce c53d e939 133e
000002a0: ead3 893e 3058 643e 7280 7d3e 4413 f2bd
000002b0: 81cb dfbc 3ee0 9b3e 3830 0bbe 9b26 67be
000002c0: ada6 083d a906 93be f90b 633a ba0c e4bd
000002d0: 95fc 1bbe b353 583e 4f56 ae3e 722d 05bd
000002e0: d364 a43e db1d 7f3d 6c41 13be d0f3 2e3d
000002f0: 8c1a 3dbe 737f 663e fb62 c73e bfc3 04bd
00000300: 36cd 77be b3a5 6bbe 532e 913e bba9 2f3d
00000310: e5be 8fbd 8fc1 6fbd 4250 b9bc 36d3 94be
00000320: 13c2 b23b a5a2 d63c 4f6d 17be 3bf2 a2bd
00000330: e340 173e aa35 fc3d 4874 0d3e 32d3 633e
00000340: 9a88 0e3e f8a1 f13d 92a4 133e 68c5 633d
00000350: a66f 2dbe f76b 693d 4274 81b9 4c24 9bbe
00000360: db12 4ebe 4200 2cbd 4a9d 8abe 1239 57be
00000370: 6c9c 4e3d c3b4 293e 0135 493d 866a 8bbe
00000380: 1e7d 91be 097b 78be db28 263e 3615 843e
00000390: 6d7b 35be 339d a4bd d68e 8e3e 274a eb3d
000003a0: 41c2 b13d 8932 773e 3fff 803e e895 7d3c
000003b0: 2455 c9bc 7305 abbd 4335 a6be 258a ccbd
000003c0: 11b7 a9be 6a5a 00be ab9d 8d3b 8aa7 1dbe
000003d0: 47f8 693e c5d8 9f3d 8e76 af3e ac50 253e
000003e0: 7f06 9b3c e3b4 3ebe 279e 473d 2bdd cbbd
000003f0: 5999 65be c335 733e c459 093e 07d8 3fbe

fc2.weight f4 [256, 256]
-1.5871155 -0.46023265 1.0860462 0.018479869 -0.01022641 -1.0903776 -0.047159642 -0.5890235
-1.3061981 0.030438222 0.0060830796 -1.7211198 1.037113 0.8379661 0.7599836 0.01681439
0.1500514 -0.87044597 0.026978023 0.6778239 0.0026563779 -0.62057984 0.0012124106 -0.46630663
-0.109082446 0.45308295 2.7164564 0.06195175 0.61062485 -0.28688988 0.019768527 0.6469672
-0.022133164 2.3769426 -0.0155186355 -0.028075466 -3.1601021 -0.020269055 -0.052667968 -1.4445336
-0.020170696 0.23770864 0.25829002 -0.014036283 -0.047815457 -0.0075515583 0.010521442 -0.05005127
-1.5473267 1.8412588 0.020050183 2.1919613 0.5999637 0.012502311 1.4096725 -0.017040715
0.03651204 0.02718427 -1.6931677 0.041389354 0.062182188 -1.2159292 -0.00025754422 -0.04963941
2.1449466 -0.12664838 -0.938127 0.3334348 -0.3520141 -0.784485 -0.03555847 0.7768895
0.034542568 0.007717356 0.038742535 0.013808683 0.032641202 -0.78982955 -3.1037605 0.007651959
0.29786247 0.045836024 0.50472444 0.06281519 1.6498413 -0.5082236 0.56807417 -0.2846207
-0.7265322 0.30119145 -1.8167771 -2.1144001 0.30577752 -0.06455022 -0.28005892 -1.8917731
-0.066097386 -0.13003464 -1.3668696 -0.044554852 -0.67824715 -1.8550984 -0.024388801 0.84478354
0.009273424 -1.0970422 0.024136104 -1.1253743 -0.039030258 1.0141249 0.35666463 -0.02181384
-0.040379792 0.117975704 0.5827312 -0.044932418 0.055493776 -1.4920248 -0.049355417 1.2374265
0.026670337 -0.10893732 -1.6680989 1.3921635 0.072429866 -0.30510396 2.171022 -1.4658332
-0.9623235 -0.014283279 -2.8996878 -3.394398 -0.88701856 0.005175027 -0.045543745 0.0561297
0.8727736 0.12281344 0.012916185 0.59865737 -0.0093178 -0.048530594 0.035864033 0.020437248
-0.13920769 0.55292636 -0.66577345 -0.0006436035 0.5371079 -1.2698072 -0.023530833 0.059503965
-0.0571808 0.21297924 -1.44507 0.035003945 0.5565566 -0.037832886 -0.0057650283 0.7721316
0.052787215 -0.14615262 -0.07024276 0.03329606 0.052299768 -0.10760524 -1.018036 -0.2189094
0.7784906 0.29447484 0.5148792 0.045294397 -2.1477275 -0.05867684 0.047892235 -0.03904754
-0.052032027 1.0954599 0.014079228 -0.9429251 -0.17918694 0.026998993 -1.7393259 0.03034731
-2.08907 -1.3553416 1.0526407 -0.16488343 -0.014868341 -0.75117534 -0.72976 -2.503264
-0.019158065 0.69468135 1.0439973 -0.23146737 0.06841851 0.332226 0.030855725 0.05633137
0.05043084 -1.4959875 0.03698042 0.110966705 -3.9539783 0.0028624488 1.7748128 -0.27130148
-0.03741567 -0.10979053 -0.035513386 0.012919933 -0.03272111 0.054556563 0.030485112 -0.01388012
-0.048624083 0.0041610375 -0.021023676 1.0405811 0.41079774 0.33858272 -3.0381494 -0.017270517
-0.57740897 0.06930205 -0.037404552 -0.27098754 0.021359295 -0.050834462 -0.38915992 0.014839873
0.011670202 -0.021353975 1.0954224 0.047790658 0.47631544 -0.042620882 -1.0341 0.002738313
0.47024396 0.90481544 1.1854331 0.34322554 2.0720327 0.0569702 1.835599 0.02069353
-1.2415198 -0.008254157 0.04206001 -0.7622363 -0.024543868 -2.2665672 -3.1383023 -0.014144039
00000000: 9a26 cbbf 9da3 ebbe 9003 8b3f 1863 973c
00000010: ac8c 27bc 7e91 8bbf 782a 41bd 3eca 16bf
00000020: 8031 a7bf 9459 f93c 9254 c73b a74d dcbf
00000030: 1ec0 843f f284 563f 498e 423f 55be 893c
00000040: 13a7 193e 8cd5 5ebf 0401 dd3c de85 2d3f
00000050: a016 2e3b 52de 1ebf c0e9 9e3a bebf eebe
00000060: 9e66 dfbd 7dfa e73e 6cda 2d40 1ec1 7d3d
00000070: e951 1c3f 3be3 92be 9bf1 a13c a49f 253f
00000080: 9c50 b5bc d41f 1840 e041 7ebc 85fe e5bc
00000090: 1d3f 4ac0 4a0b a6bc 5eba 57bd 7ae6 b8bf
000000a0: 043d a5bc e569 733e 973e 843e 70f8 65bc
000000b0: 24da 43bd 1073 f7bb 2062 2c3c 8f02 4dbd
000000c0: cd0e c6bf 5eae eb3f 4840 a43c 1849 0c40
000000d0: 3997 193f 7ed6 4c3c 2670 b43f f898 8bbc
000000e0: a68d 153d 8cb1 de3c b8b9 d8bf e287 293d
000000f0: c0b2 7e3d 91a3 9bbf 0007 87b9 b252 4bbd
00000100: ce46 0940 1db0 01be 1729 70bf f7b7 aa3e
00000110: 313b b4be 02d4 48bf c2a5 11bd 3be2 463f
00000120: 827c 0d3d e0e1 fc3b 7eb0 1e3d d03d 623c
00000130: c8b2 053d 4532 4abf 03a4 46c0 49bd fa3b
00000140: 6e81 983e 8ebe 3b3d 9f35 013f 40a5 803d
00000150: 002e d33f f11a 02bf 4f6d 113f ceb9 91be
00000160: 04fe 39bf c435 9a3e 278c e8bf 5552 07c0
00000170: df8e 9c3e e832 84bd e263 8fbe 9f25 f2bf
00000180: 115e 87bd cd27 05be 95f5 aebf 267f 36bd
00000190: 9ba1 2dbf dd73 edbf 06cb c7bc bc43 583f
000001a0: 8fef 173c e16b 8cbf 14b9 c53c 440c 90bf
000001b0: 31de 1fbd d8ce 813f bf9c b63e f0b2 b2bc
000001c0: 4865 25bd 3f9d f13d df2d 153f 0e0b 38bd
000001d0: 714d 633d abfa bebf e828 4abd fe63 9e3f
000001e0: c07b da3c 881a dfbd 4484 d5bf 6a32 b23f
000001f0: 1c56 943d 9636 9cbe 06f2 0a40 6ca0 bbbf
00000200: d55a 76bf 6a04 6abc 7c94 39c0 d13d 59c0
00000210: a613 63bf 4693 a93b 148c 3abd 42e8 653d
00000220: 176e 5f3f 9d85 fb3d 689e 533c 9c41 193f
00000230: b0a9 18bc 04c8 46bd 2ae6 123d 046c a73c
00000240: 768c 0ebe 958c 0d3f 2170 2abf 80b7 28ba
00000250: e77f 093f 0b89 a2bf bcc3 c0bc 6eba 733d
00000260: 6a36 6abd 3b17 5a3e 0ef8 b8bf 4c60 0f3d
00000270: 7e7a 0e3f a8f6 1abd 90e8 bcbb 6baa 453f
00000280: 6837 583d 08a9 15be 70db 8fbd 7361 083d
00000290: 4838 563d 2360 dcbd 014f 82bf c929 60be
000002a0: 294b 473f 68c5 963e 20cf 033f 9e86 393d
000002b0: 5e74 09c0 2057 70bd a62a 443d 50f0 1fbd
000002c0: 891f 55bd 0838 8c3f 90ac 663c 8a63 71bf
000002d0: c87c 37be fe2c dd3c 3ba2 debf ec9a f83c
000002e0: 53b3 05c0 d57b adbf eebc 863f 34d7 28be
000002f0: 589a 73bc 074d 40bf 8dd1 3abf 7a35 20c0
00000300: 60f1 9cbc a3d6 313f b4a1 853f c805 6dbe
00000310: 011f 8c3d 8719 aa3e 25c5 fc3c b9bb 663d
00000320: 9290 4e3d 857c bfbf c878 173d 8342 e33d
00000330: fb0d 7dc0 ec97 3b3b 112d e33f 07e8 8abe
00000340: 2c41 19bd dbd9 e0bd 7c76 11bd 20ae 533c
00000350: 9206 06bd b476 5f3d eabb f93c 7169 63bc
00000360: 0c2a 47bd 5059 883b d839 acbc c331 853f
00000370: 1554 d23e b75a ad3e 0a71 42c0 e67a 8dbc
00000380: 13d1 13bf 3cee 8d3d 8435 19bd e1be 8abe
00000390: b0f9 ae3c cc37 50bd f83f c7be f022 733c
000003a0: 6034 3f3c 88ee aebc cd36 8c3f 23c0 433d
000003b0: 9edf f33e 3c93 2ebd 645d 84bf 4575 333b
000003c0: d1c3 f03e fca1 673f 46bc 973f 42bb af3e
000003d0: 2f9c 0440 9659 693d e8f4 ea3f 7a85 a93c
000003e0: 1fea 9ebf 723c 07bc 1e47 2c3d eb21 43bf
000003f0: 3910 c9bc 700f 11c0 f2d9 48c0 66bc 67bc

fc2.bias f4 [256]
-0.09745841 0.001986175 -0.07432198 -0.09293559 0.05433302 -0.063276924 0.036184408 -0.22978579
0.02083526 -0.0027360097 -0.010491083 -0.05928407 -0.03652179 0.04111731 0.028206114 -0.048176724
0.013102564 -0.017946532 -0.00688827 -0.022445759 -0.1831432 0.026015926 -0.035664383 -0.04229062
0.39274323 0.13611542 -0.3620725 -0.14969504 -0.05590921 0.018125972 -0.06715216 -0.06157796
-0.028203776 0.26301113 -0.08712719 -0.030717231 0.11919583 -0.03183701 -0.011467235 -0.11862274
-0.19319196 -0.18950133 0.06334639 0.22649597 0.0031171273 -0.03538688 -0.011405265 0.04239352
-0.12008224 -0.04151255 0.5020975 -0.07367471 -0.13962083 0.26388198 0.026829645 -0.1294305
-0.08404657 -0.095341645 0.02026144 0.006086681 -0.17973813 -0.00088276697 -0.020093305 0.038871232
-0.012904961 -0.08171611 0.27426863 0.12895349 0.008223847 0.0059624864 -0.045112103 0.043670904
-0.05639594 -0.06098293 0.018140346 -0.11222347 -0.026997859 -0.044749442 0.0074223923 -0.048713263
-0.074155815 -0.039998975 -0.041974414 0.00060011365 -0.05316441 -0.033520985 -0.041313957 0.13595565
0.41200095 -0.229953 0.0005153429 0.0064689233 -0.09981125 -0.13568574 0.016830854 0.014680032
-0.098851204 -0.00702454 0.040371235 0.016871046 0.025881981 0.16665153 -0.0469487 -0.22893608
-0.14563107 -0.035398316 0.010085611 -0.07311031 0.028156415 -0.027422842 -0.024811516 -0.0056925225
-0.16314742 -0.010339747 -0.057171583 0.043161225 0.013104229 -0.044049483 -0.07860784 -0.101044066
-0.02499107 0.016606 -0.07889481 0.31720182 -0.03274944 -0.14683104 -0.007059171 -0.05562335
-0.021386676 -0.005327559 -0.22802806 0.028550755 -0.004701323 -0.057881247 0.54720235 -0.015323835
-0.0053591067 -0.048092935 0.03262896 0.014145463 -0.03595696 -0.00714722 -0.049947746 -0.055726834
-0.21889432 0.01413092 -0.094060324 -0.028605906 -0.07042943 -0.24648193 -0.010824982 0.16915508
-0.09228474 -0.08197222 -0.067441784 -0.03360106 -0.02449471 0.36062837 -0.08574644 -0.064381815
-0.1009211 -0.18492441 0.02226723 0.03154897 0.03224752 -0.0070249536 0.027539574 0.041104876
0.022461683 -0.0764172 -0.06893209 -0.0031208897 -0.024684245 0.004581505 -0.07552887 -0.05785227
-0.053941544 0.070088305 -0.066450626 0.0051553138 -0.011012435 0.021700475 -0.040583782 -0.0839763
0.03034266 0.35897404 -0.06455713 -0.024982588 0.07209108 -0.07744028 0.24501622 0.019028265
-0.069668375 -0.016935272 -0.0060211336 -0.059554107 0.090931416 0.3886291 -0.07632234 -0.05325066
-0.07501917 -0.024574758 -0.026374435 -0.18668588 -0.03715935 -0.08113029 -0.046758153 0.2948153
-0.020762002 0.010949985 -0.016018968 0.006754307 0.022977004 -0.16411342 0.02278435 -0.050552905
-0.009221873 -0.11089125 0.026387686 -0.10001449 -0.087564 0.19689184 -0.0072818436 -0.028361605
-0.03582961 -0.1119825 0.4028925 0.010142841 -0.013611846 -0.23523656 -0.092194125 0.0047501624
0.022901567 0.34251186 0.21608514 -0.0023602988 -0.06437032 0.020927424 0.015732802 -0.7103288
-0.06875277 -0.020911489 0.012545254 2.1624994e-05 -0.20504047 -0.06753574 -0.10303935 0.09733288
-0.0017143852 -0.02984981 0.24825516 0.028162228 -0.088652946 -0.16101749 -0.14590864 -0.09025212
00000000: 4698 c7bd 7d2a 023b 1f36 98bd 0455 bebd
00000010: 4d8c 5e3d 5597 81bd 1a36 143d f74c 6bbe
00000020: b5ae aa3c a04e 33bb cbe2 2bbc dad3 72bd
00000030: df97 15bd a06a 283d 8210 e73c f554 45bd
00000040: 23ac 563c 9b04 93bc ffb6 e1bb 2be0 b7bc
00000050: e489 3bbe 5a1f d53c d114 12bd ee38 2dbd
00000060: a415 c93e d761 0b3e 9161 b9be a849 19be
00000070: 0e01 65bd eb7c 943c 1287 89bd 2c39 7cbd
00000080: 9b0b e7bc 65a9 863e bd6f b2bd b4a2 fbbc
00000090: f11c f43d 8667 02bd 12e1 3bbc 7bf0 f2bd
000000a0: 1dd4 45be a30c 42be c1bb 813d 8fee 673e
000000b0: b848 4c3b d5f1 10bd 26dd 3abc d4a4 2d3d
000000c0: aded f5bd 1009 2abd 7689 003f c4e2 96bd
000000d0: c3f8 0ebe 8a1b 873e d8c9 db3c 6e89 04be
000000e0: 9c20 acbd 7b42 c3bd 52fb a53c c872 c73b
000000f0: 460d 38be 7d69 67ba b79a a4bc 7137 1f3d
00000100: 546f 53bc c75a a7bd f06c 8c3e 620c 043e
00000110: 50bd 063c f660 c33b 78c7 38bd 43e0 323d
00000120: 6eff 66bd 3dc9 79bd 109b 943c 6bd5 e5bd
00000130: 9d2a ddbc 314b 37bd 8a37 f33b 8f87 47bd
00000140: 01df 97bd f7d5 23bd 5ded 2bbd f250 1d3a
00000150: edc2 59bd 4d4d 09bd d338 29bd f537 0b3e
00000160: caf1 d23e cd78 6bbe 1418 073a 43f9 d33b
00000170: d769 ccbd 34f1 0abe dce0 893c 8484 703c
00000180: 8072 cabd 1d2e e6bb 4f5c 253d 2635 8a3c
00000190: 7306 d43c b3a6 2a3e 484d 40bd 386e 6abe
000001a0: 5020 15be d3fd 10bd 1e3e 253c dcba 95bd
000001b0: 48a8 e63c dea5 e0bc 8541 cbbc 5788 babb
000001c0: 1e10 27be 0b68 29bc c02c 6abd d3c9 303d
000001d0: 1fb3 563c 3b6d 34bd 26fd a0bd 31f0 cebd
000001e0: 13ba ccbc 4e09 883c 9a93 a1bd 4768 a23e
000001f0: 4724 06bd e05a 16be 9e50 e7bb 4fd5 63bd
00000200: 1c33 afbc ce92 aebb 3080 69be 46e3 e93c
00000210: 8e0d 9abb e314 6dbd 7415 0c3f d310 7bbc
00000220: 729b afbb 19fd 44bd f2a5 053d 5fc2 673c
00000230: 9b47 13bd 3a33 eabb 0296 4cbd d241 64bd
00000240: d525 60be 6085 673c b3a2 c0bd ef56 eabc
00000250: 4e3d 90bd c265 7cbe 445b 31bc fd36 2d3e
00000260: c8ff bcbd 0de1 a7bd eb1e 8abd 44a1 09bd
00000270: 21a9 c8bc 48a4 b83e d49b afbd 9dda 83bd
00000280: b9af cebd d35c 3dbe c469 b63c 7e39 013d
00000290: fa15 043d 9531 e6bb ac9a e13c 965d 283d
000002a0: 9001 b83c 9f80 9cbd 452c 8dbd d787 4cbb
000002b0: 9d36 cabc 7320 963b e1ae 9abd 80f6 6cbd
000002c0: cff1 5cbd 758a 8f3d 4417 88bd e8ed a83b
000002d0: 806d 34bc 32c5 b13c 2e3b 26bd c4fb abbd
000002e0: 2c91 f83c 72cb b73e 8736 84bd 49a8 ccbc
000002f0: 7da4 933d 0299 9ebd 88e5 7a3e 2ae1 9b3c
00000300: 4bae 8ebd d7bb 8abc ee4c c5bb 02ef 73bd
00000310: 403a ba3d 65fa c63e e34e 9cbd 5d1d 5abd
00000320: a7a3 99bd 0151 c9bc 330f d8bc 952a 3fbe
00000330: 6734 18bd a327 a6bd 7a85 3fbd 08f2 963e
00000340: 1315 aabc 9167 333c 363a 83bc 3c53 dd3b
00000350: 453a bc3c 590d 28be 3fa6 ba3c 9010 4fbd
00000360: 5717 17bc f41a e3bd fd2a d83c 66d4 ccbd
00000370: c154 b3bd 049e 493e 889c eebb 9956 e8bc
00000380: 12c2 12bd 1557 e5bd ed47 ce3e 292e 263c
00000390: 3804 5fbc dae1 70be 46d0 bcbd 40a7 9b3b
000003a0: 119c bb3c b75d af3e 6c45 5d3e 3eaf 1abb
000003b0: 96d4 83bd fd6f ab3c 14e2 803c 1cd8 35bf
000003c0: 41ce 8cbd 924e abbc 9c8a 4d3c 5267 b537
000003d0: 21f6 51be 2e50 8abd 4b06 d3bd 7656 c73d
000003e0: 39b5 e0ba 9787 f4bc 9a36 7e3e 79b4 e63c
000003f0: ad8f b5bd c5e1 24be 1369 15be 1ad6 b8bd

fc3.weight f4 [5, 256]
1.2386822 0.03928203 -0.033727463 0.037126355 1.3255286 -1.3178277 -0.056723848 0.89607793
0.006317377 -0.025879156 -0.04497294 0.006998757 -0.075734645 0.026295058 0.0067358804 0.03073769
-0.056662813 0.048830207 -0.043459013 -0.030971527 1.2027546 -0.04469721 0.009572625 1.3289056
0.56049186 -0.32378706 -0.7925791 -0.19691068 -0.0035927102 -0.011028773 -1.733082 0.055511333
-0.024276242 -1.385973 0.68974555 -0.024188679 1.405017 0.04741562 0.04999061 1.3195732
-1.9140103 1.2405349 -0.56824034 0.7749125 0.07467443 1.7973264 0.043118134 0.042043865
0.8582278 -0.023318864 2.1378133 -0.02042611 0.99708164 1.9139282 -0.8943125 3.0730047
1.3134245 0.082594894 0.006145522 0.004116578 0.8932458 -0.035756096 -0.030189095 -0.03648409
-0.01237982 -0.003126368 -0.5532102 0.027871601 0.03298042 -0.038618304 0.0065593813 5.653042
0.039704807 -0.031205682 0.0034123063 1.372627 -0.05884513 0.009290714 0.028855562 -0.02312861
-1.0426009 -0.023415813 0.0003504831 -0.04028751 0.019221902 3.3305414 -0.013949318 0.16785863
-1.4970511 0.9554132 -0.016214803 0.01994044 -0.05233468 1.1269646 -0.034778137 -0.035689875
-0.5119066 -0.008380113 0.0023701643 1.6519804 0.00899834 -0.6796325 0.001567136 0.99356306
2.7672112 0.06021496 0.024140092 1.7297496 -0.006546825 0.0028433662 0.05812926 -0.03427573
2.2114432 0.029536212 -0.052717768 0.03063959 1.145485 0.032979928 -0.036545884 0.7542507
-0.053299163 -0.011388029 -0.08878671 2.4898045 0.009431657 -1.1648233 -0.020939272 -0.014774876
0.03304097 -0.018063966 1.5209322 -0.0452867 0.01880131 0.032114387 0.47176695 0.019917808
0.03421148 1.9903705 -0.54789984 -0.043232933 1.7770089 0.036148265 0.07965902 -0.031967018
-0.63371325 0.013359845 -0.009031625 -0.040149994 0.04528816 0.919203 -0.005285476 -1.9033277
0.050951026 -0.009615938 0.022175996 0.27075484 0.003608933 1.8938333 1.0485452 -0.08874387
-0.031161942 1.0641273 -0.060655743 -0.0011431144 -0.02121737 -0.021625636 -0.037041016 0.009973692
-0.023368247 0.004571825 0.00279788 -0.23955889 -0.030329777 -0.013661268 0.020102171 0.03423733
0.022176411 1.0688459 1.6551515 -0.0049359626 -0.04645079 -0.057528578 0.0413771 1.9659996
0.024105934 -1.6023473 -0.0008160958 -0.041119028 2.3445003 -0.030257499 2.363543 -0.041999284
-0.0051126406 0.012975968 -0.02514211 0.022469701 3.9262888 3.1747797 -0.013306667 0.007637476
0.0063818693 -0.0024376486 0.038179383 0.8075134 1.8182793 -0.03076624 0.057269864 -0.86722517
-0.021067997 0.01459245 0.020505322 -0.00826206 0.049708165 0.8610284 -0.019048806 -0.0056579285
0.9123305 0.954672 -0.023921214 1.0156993 -0.008112537 1.2295073 -1.408481 -0.005882442
-0.04380153 1.3650999 2.8180232 0.016677767 -0.263296 1.4115024 0.030463748 -0.049655553
0.0114905555 3.9599538 1.9068716 -0.03934771 -0.0014500177 0.069677725 -0.044442322 3.2027955
1.1301734 1.4687027 -0.004048388 0.011298486 1.6033947 -0.02035948 1.2046857 1.7263241
0.00064308505 -0.045541137 -1.7277339 -1.5155327 1.2603226 1.2426207 -1.3048441 0.022212483
00000000: 238d 9e3f 32e6 203d cf25 0abd ce11 183d
00000010: ecaa a93f 94ae a8bf 4457 68bd 5d65 653f
00000020: 0002 cf3b 8600 d4bc 8c35 38bd d455 e53b
00000030: c41a 9bbd bc68 d73c a9b8 dc3b 9ccd fb3c
00000040: 4417 68bd 2f02 483d 1402 32bd 00b8 fdbc
00000050: ddf3 993f 6c14 37bd 80d6 1c3c 9419 aa3f
00000060: 657c 0f3f 6bc7 a5be 77e6 4abf f4a2 49be
00000070: ad73 6bbb 07b2 34bc a2d5 ddbf da5f 633d
00000080: f8de c6bc 9067 b1bf 2a93 303f 5627 c6bc
00000090: 99d7 b33f e236 423d f4c2 4c3d c6e7 a83f
000000a0: 4afe f4bf d9c9 9e3f 3378 11bf aa60 463f
000000b0: e8ee 983d cb0e e63f a49c 303d 3036 2c3d
000000c0: d1b4 5b3f 3407 bfbc efd1 0840 a854 a7bc
000000d0: be40 7f3f 99fb f43f aaf1 64bf 1cac 4440
000000e0: 4b1e a83f 8327 a93d 6060 c93b 5ce4 863b
000000f0: c2ab 643f fc74 12bd 1f4f f7bc 5770 15bd
00000100: bbd4 4abc c0e3 4cbb 2f9f 0dbf fc52 e43c
00000110: 7a16 073d 3a2e 1ebd 14f0 d63b b8e5 b440
00000120: 82a1 223d 0fa3 ffbc 00a1 5f3b 3eb2 af3f
00000130: 9707 71bd 1438 183c 8062 ec3c 3678 bdbc
00000140: f273 85bf 85d2 bfbc 0cc1 b739 8404 25bd
00000150: 4077 9d3c 9727 5540 ae8b 64bc 22e3 2b3e
00000160: 5f9f bfbf f695 743f e8d4 84bc 225a a33c
00000170: e45c 56bd 6040 903f 8573 0ebd 8c2f 12bd
00000180: 500c 03bf be4c 09bc c254 1b3b 1874 d33f
00000190: c66d 133c 65fc 2dbf 5c68 cd3a 265a 7e3f
000001a0: fd19 3140 f6a3 763d 71c1 c53c 6f68 dd3f
000001b0: c086 d6bb c557 3a3b f218 6e3d b564 0cbd
000001c0: 4988 0d40 edf5 f13c 96ee 57bd e1ff fa3c
000001d0: 419f 923f f615 073d 23b1 15bd 9316 413f
000001e0: 3950 5abd db94 3abc ced5 b5bd f558 1f40
000001f0: 3d87 1a3c ee18 95bf d688 abbc 5212 72bc
00000200: f855 073d e2fa 93bc e8ad c23f 8c7e 39bd
00000210: 3405 9a3c 608a 033d 708b f13e ac2a a33c
00000220: 5621 0c3d 76c4 fe3f 2a43 0cbf 0415 31bd
00000230: 0775 e33f 3410 143d 4524 a33d d9ef 02bd
00000240: 083b 22bf 40e3 5a3c 62f9 13bc 5274 24bd
00000250: 1480 393d e350 6b3f c931 adbb 3ea0 f3bf
00000260: 06b2 503d 2b8c 1dbc 6faa b53c 61a0 8a3e
00000270: d983 6c3b 2169 f23f bb36 863f 59bf b5bd
00000280: 5447 ffbc 5335 883f 2872 78bd 8ed4 95ba
00000290: 0dd0 adbc 3f28 b1bc 52b8 17bd b268 233c
000002a0: c46e bfbc 3fcf 953b a35c 373b ed4e 75be
000002b0: 2776 f8bc 83d3 5fbc 4fad a43c 713c 0c3d
000002c0: 4eab b53c f1cf 883f 01dc d33f dbbd a1bb
000002d0: 2f43 3ebd 16a3 6bbd 097b 293d e0a5 fb3f
000002e0: cf79 c53c b719 cdbf 43ef 55ba 6d6c 28bd
000002f0: 4b0c 1640 93de f7bc 4a44 1740 7107 2cbd
00000300: f087 a7bb 2899 543c d4f6 cdbc 6112 b83c
00000310: 5148 7b40 972f 4b40 3504 5abc cb43 fa3b
00000320: 001f d13b f5c0 1fbb fc61 1c3d 33b9 4e3f
00000330: 60bd e83f 7b09 fcbc ce93 6a3d 7802 5ebf
00000340: cb96 acbc 2c15 6f3c c7fa a73c 975d 07bc
00000350: ca9a 4b3d 5b6c 5c3f 3e0c 9cbc 2566 b9bb
00000360: 7e8e 693f 6265 743f 6cf6 c3bc 6f02 823f
00000370: 72ea 04bc 7f60 9d3f 1b49 b4bf 80c1 c0bb
00000380: 3c69 33bd 98bb ae3f 7e5a 3440 d09f 883c
00000390: bcce 86be 1cac b43f 1c8f f93c 9f63 4bbd
000003a0: e242 3c3c e26f 7d40 5e14 f43f 102b 21bd
000003b0: 850e beba 32b3 8e3d 2709 36bd 9afa 4c40
000003c0: 86a9 903f 73fe bb3f 57a8 84bb 491d 393c
000003d0: 0a3c cd3f edc8 a6bc 2433 9a3f 30f8 dc3f
000003e0: b594 283a 5889 3abd 6226 ddbf fafc c1bf
000003f0: 4052 a13f 320e 9f3f 2205 a7bf f4f6 b53c

fc3.bias f4 [5]
0.39088216 -0.35887536 -0.09611995 0.18806063 0.1959926
00000000: b521 c83e 83be b7be 89da c4bd f792 403e
00000010: 49b2 483e
