other_model/dqn_team_b_ep550.pth (torch, 286849 bytes, 6 tensors)

fc1.weight f4 [256, 14]
0.27157956 -0.57317203 0.20137341 0.439303 0.23378943 -1.8868366 -0.2886763 -1.1070099
1.0670401 -0.07446545 6.654393 -0.10570323 0.25413445 -0.009123719 -0.24266438 -0.4795665
-0.07749384 0.15746275 -0.11402029 -0.022004794 -0.038458645 -0.27047312 0.32485068 0.04607981
-0.32613868 0.102794684 -0.16426343 -0.08632246 -0.13092077 -2.1762772 0.32557586 -0.2515361
0.28532252 0.89970064 0.016082458 -0.068290904 -0.87405336 0.14412437 -3.655521 2.2618349
0.38571364 -0.017547276 -0.3822718 -0.05490085 -0.36458042 0.123755835 -0.32367748 -0.8778481
-0.08876881 -0.063543305 0.7329027 0.28334424 3.284343 -0.59042543 0.07933136 0.08131707
0.08269964 0.084860966 0.30113778 0.14812379 0.08849102 -0.32447806 -0.23160581 -0.050571024
-0.0018994139 1.1586504 0.045308348 5.764244 -0.36967185 -0.45561576 -0.64357257 -0.16031897
-0.6002407 0.015095497 -0.23121627 -0.14742662 0.014504301 -0.4181018 -0.3341299 0.28692237
0.46397695 -1.162906 0.26215026 -0.13885845 -0.36239782 0.4666909 -0.41713157 -0.035218846
-0.1432233 -2.0927937 0.27200073 -1.0084976 0.059487496 -0.3091406 -0.48555484 -0.48951828
-0.10702827 0.096773066 0.14016633 -0.195462 0.026085187 -0.49833477 0.06986052 -0.21824388
0.3435225 -0.25398502 -0.33952743 -0.24332216 0.57420516 -0.4396991 -0.13271566 -0.2370061
-0.03451183 -0.823172 0.04869265 -0.41152018 -0.031435944 -0.2903715 -0.26756734 0.12000644
-1.3077667 -0.3325188 -4.402202 -0.023905892 0.1029284 0.030974893 -0.19417004 -0.102302246
-0.12643181 0.10486086 -0.09447815 0.04379912 -0.20564026 0.08689945 -0.25134787 -0.17923693
0.20521416 -0.01101608 -0.15817033 -0.241106 -0.022183241 -0.026708385 0.26047122 -0.21866801
0.10238724 0.20473781 0.42105314 -0.10430558 1.0315939 1.6323037 6.283985 3.9256003
-0.026156275 -0.17019346 -0.67275345 0.5482588 -0.65031534 0.21742517 -1.0244633 0.39050543
-1.111413 -0.14380181 0.27098 -0.25736547 -1.761156 1.4490156 0.031042576 0.009133037
0.26713592 -0.62259686 0.13498679 -0.25943354 -0.03770365 -0.54286337 -0.074616 0.15764567
0.1723465 0.94511306 1.5320282 7.2726946 0.16787767 -0.07626795 0.012782238 -0.83808243
-0.30839506 -0.3998391 -0.26227984 -0.5897317 -0.009258483 0.17671992 0.010198794 0.661406
-0.46790493 8.033429 0.20273328 0.18640085 -0.9628059 -1.0587136 -0.9539053 0.11371422
0.082393974 0.20757851 -0.09346461 0.15096311 0.41367078 -0.71543425 1.7508401 -0.8386947
0.15683487 0.07656169 -0.092490666 0.05089698 -0.26267794 0.095207654 0.19873805 0.10438987
-0.15414417 -0.14394408 0.04139766 0.029382136 -0.18466648 -0.17906342 -0.2480611 0.11888337
0.50887936 -0.95287544 0.32980898 -0.7859422 0.1210659 0.54817486 0.1918242 0.7290075
-0.36618665 0.4020118 -2.0579317 -0.47649533 -0.43093085 -0.25871748 0.13605015 0.12776576
-0.30013308 -0.31734687 0.15930422 -0.43382466 -0.31928158 -0.18654846 0.324517 0.16241364
0.004833947 0.50818974 -0.01541241 -0.33673364 -0.19133689 -0.017397642 0.035397887 -0.082452334
00000000: 7a0c 8b3e 67bb 12bf d534 4e3e 53ec e03e
00000010: 7f66 6f3e dd83 f1bf 61cd 93be 80b2 8dbf
00000020: c594 883f 5881 98bd caf0 d440 ef7a d8bd
00000030: e91d 823e a77b 15bc 037d 78be be89 f5be
00000040: 17b5 9ebd ea3d 213e 7883 e9bd 6643 b4bc
00000050: d086 1dbd 747b 8abe d452 a63e 2fbe 3c3d
00000060: a6fb a6be 0586 d23d ac34 28be d4c9 b0bd
00000070: 1810 06be 2048 0bc0 e1b1 a63e 57c9 80be
00000080: cb15 923e c852 663f 5cbf 833c 1adc 8bbd
00000090: f6c1 5fbf 5795 133e 0ef4 69c0 e7c1 1040
000000a0: 427c c53e 4ebf 8fbc 21b9 c3be b7df 60bd
000000b0: 49aa babe b373 fd3d 0eb9 a5be a7ba 60bf
000000c0: 6ccc b5bd fe22 82bd 839f 3b3f 7f12 913e
000000d0: ad32 5240 1f26 17bf 7b78 a23d 9089 a63d
000000e0: 6e5e a93d 96cb ad3d bb2e 9a3e c3ad 173e
000000f0: c83a b53d fd21 a6be 132a 6dbe 9023 4fbd
00000100: c1f5 f8ba a84e 943f 3f95 393d b074 b840
00000110: a145 bdbe 7846 e9be 2cc1 24bf a82a 24be
00000120: 60a9 19bf 1a53 773c f5c3 6cbe 01f7 16be
00000130: 73a3 6d3c 7011 d6be 1313 abbe 7de7 923e
00000140: 638e ed3e 1bda 94bf 8f38 863e e930 0ebe
00000150: 358c b9be 1cf2 ee3e 4592 d5be a341 10bd
00000160: 21a9 12be 55f0 05c0 ae43 8b3e 7316 81bf
00000170: 29a9 733d ad47 9ebe a59a f8be 24a2 fabe
00000180: a331 dbbd f530 c63d c387 0f3e 3127 48be
00000190: 9ab0 d53c bc25 ffbe 0813 8f3d 537b 5fbe
000001a0: 2ee2 af3e 530a 82be 8ad6 adbe 7229 79be
000001b0: 1cff 123f 3e20 e1be 9de6 07be bab1 72be
000001c0: 475c 0dbd 66bb 52bf f271 473d c6b2 d2be
000001d0: fac2 00bd 93ab 94be 96fe 88be f0c5 f53d
000001e0: e664 a7bf e73f aabe d7de 8cc0 4ad6 c3bc
000001f0: 20cc d23d 0fbf fd3c 83d4 46be d783 d1bd
00000200: 5777 01be 4ac1 d63d c37d c1bd b566 333d
00000210: 5c93 52be 57f8 b13d abb0 80be e389 37be
00000220: a923 523e ca7c 34bc 67f7 21be 7ee4 76be
00000230: a1b9 b5bc 8bcb dabc 7c5c 853e 82ea 5fbe
00000240: 67b0 d13d caa6 513e 4794 d73e 2a9e d5bd
00000250: 450b 843f 54ef d03f 6816 c940 093d 7b40
00000260: af45 d6bc 3247 2ebe 9239 2cbf b05a 0c3f
00000270: 117b 26bf b4a4 5e3e 9d21 83bf 54f0 c73e
00000280: c842 8ebf c840 13be e4bd 8a3e 68c5 83be
00000290: 8f6d e1bf 5879 b93f 004d fe3c bca2 153c
000002a0: 0ac6 883e 8262 1fbf fa39 0a3e 79d4 84be
000002b0: 246f 1abd 18f9 0abf 46d0 98bd de6d 213e
000002c0: 9a7b 303e eef2 713f 8019 c43f eab9 e840
000002d0: 20e8 2b3e 5f32 9cbd 986c 513c 928c 56bf
000002e0: f5e5 9dbe b6b7 ccbe 8b49 86be a8f8 16bf
000002f0: e4b0 17bc 11f6 343e d818 273c e751 293f
00000300: 3c91 efbe ed88 0041 5099 4f3e dddf 3e3e
00000310: 737a 76bf ed83 87bf 2333 74bf 00e3 e83d
00000320: 2cbe a83d 768f 543e 606a bfbd 1396 1a3e
00000330: a8cc d33e b326 37bf 871b e03f b2b4 56bf
00000340: 5299 203e 60cc 9c3d bf6b bdbd 5a79 503d
00000350: b97d 86be 3bfc c23d fd81 4b3e 5bca d53d
00000360: f8d7 1dbe 1466 13be 9890 293d ceb2 f03c
00000370: 3619 3dbe 675c 37be bb03 7ebe 2079 f33d
00000380: eb45 023f a5ef 73bf b9dc a83e 8233 49bf
00000390: 66f1 f73d 3055 0c3f 906d 443e 3ca0 3a3f
000003a0: d17c bbbe 7ed4 cd3e 27b5 03c0 32f7 f3be
000003b0: f8a2 dcbe 9e76 84be bb50 0b3e 07d5 023e
000003c0: 0bab 99be 4a7b a2be a520 233e 441e debe
000003d0: e078 a3be 8f06 3fbe 1827 a63e c34f 263e
000003e0: 1666 9e3b b918 023f 5584 7cbc 5a68 acbe
000003f0: d1ed 43be 8085 8ebc 60fd 103d c5dc a8bd

fc1.bias f4 [256]
0.05361607 -0.104695305 0.31046805 0.07678785 -0.41557413 0.2546733 -0.26560667 0.00052282185
0.1699739 0.12608571 0.19502267 -0.28205806 0.017353997 0.29521573 0.095174834 -0.13380401
-0.14446941 -0.24201888 -0.18945734 -0.17440142 0.015774662 0.5268454 0.0920877 0.16281201
-0.056678336 0.13178472 -0.01105275 -0.11183763 0.036348585 0.22798505 0.03294712 0.15139256
-0.009045985 0.04098317 0.19208542 0.19817162 0.15043034 -0.23112248 -0.22082148 -0.34194013
0.29113376 -0.07169014 0.11499864 -0.15117612 0.06928347 -0.061379384 0.0067673875 -0.07630197
0.177471 -0.14929594 0.0114240805 -0.28162542 0.052764136 -0.10527749 0.13795881 0.06378335
-0.06290454 -0.349179 -0.31576407 -0.004960924 -0.13341568 -0.23825397 0.13619442 -0.18375427
0.21705155 0.024900591 -0.03259206 -0.08651681 0.011748971 -0.35467473 -0.011403066 -0.19050144
0.15638317 -0.14902264 0.0634319 0.09299646 -0.1471507 -0.21511774 -0.045342 -0.24423277
-0.06630725 0.078149416 -0.039103948 -0.12010384 -0.29373848 -0.0856912 0.10073229 0.030003486
-0.12105109 0.41016716 -0.13999793 0.50032717 0.05327378 -0.24917382 -0.27458817 0.3358034
-0.061389517 -0.012261806 -0.05113862 0.16111241 -0.33715424 -0.54867405 -0.23623393 0.22398321
-0.23102492 0.5026764 0.021367434 0.12259165 -0.09352926 0.3379075 -0.0306427 0.023681007
-0.07694411 -0.23406866 -0.24856491 0.042510223 -0.2415323 -0.30879197 -0.15713684 0.37397572
0.040445916 0.045466777 0.007986576 -0.29376593 0.19451545 -0.11329662 -0.09601644 0.11065886
-0.01302061 -0.14083792 -0.15062349 -0.20015423 -0.2240695 -0.15755872 0.18352571 0.021032615
0.0021594642 -0.08125921 -0.20005049 -0.2456136 -0.111111544 -0.023154957 -0.23380613 0.060483925
-0.19091502 0.40675247 0.108883984 0.26487124 -0.012321834 -0.10580227 -0.098276734 -0.024720669
-0.105246395 0.16653623 0.18945146 0.068759724 0.120994814 -0.15615909 0.10138812 0.08978748
-0.03406825 -0.19862315 0.098015636 0.076650664 0.1682682 -0.029916067 0.08728944 0.12505163
0.27341908 0.21880862 0.35155386 -0.11820081 0.053935144 0.07818529 -0.13592613 -0.23535666
0.03336208 -0.43433857 0.0008661147 -0.009219524 0.01730463 0.1169912 0.4626219 -0.032514043
0.6891448 0.03613083 -0.15102965 0.012636989 -0.18467158 0.07921096 0.19454254 -0.06634111
-0.24199376 -0.23345807 0.20307875 0.042886477 -0.084210895 -0.07441712 -0.03850405 -0.2906739
0.0054552644 0.15752521 -0.14787792 -0.07956358 0.3250836 0.12314923 0.085704744 0.39021745
0.13919297 0.11798471 0.14418247 0.055608183 -0.16937122 0.05698773 0.24967527 -0.3030113
-0.2012438 -0.041992433 -0.15038142 -0.146462 0.12530178 0.113561966 0.06510016 -0.27229708
-0.2841577 -0.26291537 0.16226523 0.12544532 -0.17722864 -0.08037796 0.2784335 0.099004604
0.08679629 0.24140371 0.22959854 0.0063985875 0.0057786666 -0.08350649 -0.3246251 -0.11575579
-0.3379145 -0.14361791 0.07415252 -0.004758203 0.14865656 0.078050174 0.47353846 0.16144055
-0.05417835 -0.1862369 0.04873481 -0.13753274 -0.2401005 0.24883525 -0.010008348 -0.18734752
00000000: 869c 5b3d 7e6a d6bd abf5 9e3e f342 9d3d
00000010: 22c6 d4be 8a64 823e 99fd 87be fb0d 093a
00000020: a30d 2e3e 9d1c 013e 06b4 473e ea69 90be
00000030: f829 8e3c 8426 973e 06eb c23d eb03 09be
00000040: caef 13be ccd3 77be 1b01 42be 4996 32be
00000050: dd39 813c 57df 063f 7a98 bc3d 31b8 263e
00000060: 8b27 68bd 93f2 063e 9816 35bc 210b e5bd
00000070: 41e2 143d ea74 693e 8ff3 063d a706 1b3e
00000080: 9c35 14bc f8dd 273d 0ab2 443e 80ed 4a3e
00000090: 690a 1a3e 5fab 6cbe 071f 62be c712 afbe
000000a0: 7c0f 953e 48d2 92bd 6884 eb3d eacd 1abe
000000b0: 7ee4 8d3d f368 7bbd f6c0 dd3b 3544 9cbd
000000c0: f5ba 353e 09e1 18be 112c 3b3c 3531 90be
000000d0: 351f 583d ba9b d7bd 1345 0d3e d8a0 823d
000000e0: 18d4 80bd 97c7 b2be d4ab a1be 3f8f a2bb
000000f0: 1f9e 08be d9f8 73be 8d76 0b3e 142a 3cbe
00000100: c342 5e3e 53fc cb3c 407f 05bd ba2f b1bd
00000110: c27e 403c ed97 b5be edd3 3abc cf12 43be
00000120: e922 203e 6499 18be 96e8 813d ee74 be3d
00000130: acae 16be d347 5cbe 88b8 39bd 2818 7abe
00000140: 18cc 87bd cd0c a03d 762b 20bd 01f9 f5bd
00000150: e464 96be de7e afbd bb4c ce3d dfc9 f53c
00000160: a2e9 f7bd 6e01 d23e 9e5b 0fbe 7115 003f
00000170: 9b35 5a3d 6c27 7fbe d296 8cbe 6cee ab3e
00000180: 9373 7bbd bee5 48bc bb76 51bd a7fa 243e
00000190: 7b9f acbe e775 0cbf 4fe7 71be db5b 653e
000001a0: cc91 6cbe 67af 003f c20a af3c 5511 fb3d
000001b0: 458c bfbd 3602 ad3e 6606 fbbc acfe c13c
000001c0: e094 9dbd b2af 6fbe cd87 7ebe 331f 2e3d
000001d0: 3e54 77be fb19 9ebe 7be8 20be bf79 bf3e
000001e0: 9eaa 253d 5f3b 3a3d 21da 023c 7d68 96be
000001f0: 0f2f 473e 0f08 e8bd 44a4 c4bd 1da1 e23d
00000200: 6654 55bc d137 10be 0b3d 1abe 3bf5 4cbe
00000210: 7a72 65be 1357 21be 2aee 3b3e 974c ac3c
00000220: cc85 0d3b 3b6b a6bd 09da 4cbe 2282 7bbe
00000230: 738e e3bd 77af bdbc e06a 6fbe febd 773d
00000240: 3a7f 43be dc41 d03e 91fe de3d 349d 873e
00000250: 85e1 49bc dcae d8bd 5045 c9bd 0083 cabc
00000260: 6c8b d7bd 7988 2a3e 90ff 413e e6d1 8c3d
00000270: 21cc f73d 2be8 1fbe 93a4 cf3d 80e2 b73d
00000280: 268b 0bbd de63 4bbe 6cbc c83d 06fb 9c3d
00000290: 804e 2c3e 8a12 f5bc cec4 b23d 890d 003e
000002a0: 96fd 8b3e 5e0f 603e defe b33e 4413 f2bd
000002b0: 19eb 5c3d 9c1f a03d 3830 0bbe 5601 71be
000002c0: ada6 083d a061 debe f90b 633a 7d0d 17bc
000002d0: 70c2 8d3c 1599 ef3d c7dc ec3e 722d 05bd
000002e0: cb6b 303f ecfd 133d 84a7 1abe 600b 4f3c
000002f0: 8c1a 3dbe 5b39 a23d 2936 473e d9dd 87bd
00000300: 36cd 77be a20f 6fbe e0f3 4f3e bba9 2f3d
00000310: c376 acbd 0168 98bd 6cb6 1dbd 36d3 94be
00000320: 13c2 b23b 4a4e 213e 4f6d 17be 3bf2 a2bd
00000330: 5c71 a63e aa35 fc3d f885 af3d 95ca c73e
00000340: 9a88 0e3e f8a1 f13d 92a4 133e 68c5 633d
00000350: a66f 2dbe f76b 693d e0aa 7f3e 4c24 9bbe
00000360: db12 4ebe 4200 2cbd 96fd 19be 22fa 15be
00000370: 1c4f 003e 2d93 e83d 3c53 853d 866a 8bbe
00000380: 1e7d 91be d89c 86be db28 263e bd74 003e
00000390: 6d7b 35be 339d a4bd d68e 8e3e edc2 ca3d
000003a0: 41c2 b13d 8932 773e e11b 6b3e 3eab d13b
000003b0: f85a bd3b 7305 abbd 4335 a6be 5f11 edbd
000003c0: 2103 adbe 9310 13be 47dd 973d b3ea 9bbb
000003d0: 6d39 183e c5d8 9f3d a273 f23e ac50 253e
000003e0: 1eea 5dbd e3b4 3ebe 279e 473d 62d5 0cbe
000003f0: e8dc 75be abce 7e3e 0efa 23bc 07d8 3fbe

fc2.weight f4 [256, 256]
-2.320565 -0.46023265 3.3686347 2.343082 2.4588554 -1.0903776 -1.0354749 -0.5890235
-1.3061981 0.030438222 0.24175909 -2.1066315 1.5775266 2.329234 1.6451178 0.01681439
0.5973703 -0.87044597 0.026978023 1.6283845 0.0026563779 -1.4584033 0.0012124106 -2.0434837
-0.109082446 2.704069 4.5252805 0.06195175 1.1140838 -0.7688937 0.035651427 0.74955624
-0.022133164 1.9816304 -0.0155186355 -0.028075466 -5.8623166 -0.020269055 -0.03678507 -2.941256
1.8740852 1.0839213 1.3924744 -0.013769812 -0.047815457 -0.0075515583 0.010521442 -0.05005127
-1.5473267 4.5967503 0.020050183 2.6593487 0.5840811 0.012502311 1.0940094 -0.017040715
0.12445304 0.02718427 -2.8431475 0.041389354 0.062182188 -1.1757247 -0.00025754422 -0.04963941
2.9438496 0.010498241 -0.3619961 0.76457244 0.73985344 -1.4198655 -0.03555847 0.7768895
0.034542568 0.007717356 0.038742535 0.013808683 0.032641202 -0.78982955 -4.295733 0.010256633
0.2819797 0.045836024 0.8769234 0.06281519 1.8356986 -0.49234095 2.8672438 -1.8398842
-1.4288977 0.40661275 -1.9092776 -4.234168 -0.7893287 -0.06455022 -0.28005892 -2.069638
-0.066097386 -0.13003464 -1.2815855 -0.044554852 -0.67824715 -1.800348 -0.024388801 0.66389847
-0.5013194 -3.3984778 0.024136104 -0.13508835 -0.039030258 1.8026057 1.9343622 -0.02181384
-0.040379792 0.29515314 3.0824347 0.7995156 0.055493776 -2.1671374 -0.049355417 1.6559771
0.026670337 1.7965126 -1.6370584 2.7504442 0.072429866 1.6805226 1.5626228 -2.350738
-0.9623235 -0.014283279 -10.976883 -6.7737103 -0.8581603 0.005175027 -0.045543745 0.0561297
0.80313516 0.10693052 -0.08340405 0.14505742 -0.0093178 -0.048530594 0.035864033 0.020437248
-0.13920769 2.104336 -0.61954784 -0.0006436035 0.35830384 -1.0515245 -0.023530833 0.059503965
-0.0571808 0.34628138 -1.6259539 0.050886847 0.5565566 -0.02194998 -0.0057650283 0.59501994
0.052787215 -0.13026977 -0.07024276 0.03329606 0.052299768 -0.10760524 -1.7281934 -0.24150108
2.2484848 0.5135039 1.6875708 0.045294397 -2.6690416 -1.5105548 0.047892235 -0.03904754
-0.052032027 0.8995061 0.014079228 -1.7882907 -0.3324803 0.013145135 -3.9694557 0.03034731
-2.3112652 -2.9053354 1.197135 -0.16488343 -0.014868341 -1.1410046 -0.9119766 -2.4758563
-0.019158065 0.8619059 1.977111 -0.23146737 0.05476514 0.332226 0.030855725 0.05633137
0.05043084 -3.110858 0.03698042 0.110966705 -3.645271 0.0028624488 1.4967641 -0.22708926
-0.03741567 -0.10979053 -0.035513386 0.012919933 -0.03272111 0.054556563 0.11919224 -0.01388012
-0.048624083 0.0041610375 -0.5386917 2.2710283 1.951079 1.8491583 -4.6722794 -0.017270517
-0.57740897 0.28979376 -0.037404552 -0.120236695 0.021359295 -0.050834462 -0.38915992 -0.0010430422
0.011670202 -0.021353975 1.8530873 0.04560005 0.46234992 -0.042620882 -1.0341 0.002738313
0.2957995 3.2924435 2.2528524 2.7077355 2.464201 0.0569702 2.677196 0.02069353
-1.576743 -0.008254157 0.04206001 -0.7173119 -0.008661079 -3.5411403 -3.623514 -0.014144039
00000000: 2384 14c0 9da3 ebbe b697 5740 0ef5 1540
00000010: e35d 1d40 7e91 8bbf 718a 84bf 3eca 16bf
00000020: 8031 a7bf 9459 f93c b28f 773e 0dd3 06c0
00000030: 64ec c93f 2b12 1540 3893 d23f 55be 893c
00000040: 43ed 183f 8cd5 5ebf 0401 dd3c e76e d03f
00000050: a016 2e3b f6ac babf c0e9 9e3a 70c8 02c0
00000060: 9e66 dfbd 770f 2d40 19cf 9040 1ec1 7d3d
00000070: 4c9a 8e3f 38d6 44bf 3b07 123d ebe2 3f3f
00000080: 9c50 b5bc 11a6 fd3f e041 7ebc 85fe e5bc
00000090: 1998 bbc0 4a0b a6bc f1ab 16bd 8a3d 3cc0
000000a0: 06e2 ef3f efbd 8a3f 9a3c b23f c79a 61bc
000000b0: 24da 43bd 1073 f7bb 2062 2c3c 8f02 4dbd
000000c0: cd0e c6bf 9418 9340 4840 a43c c532 2a40
000000d0: 5786 153f 7ed6 4c3c 8008 8c3f f898 8bbc
000000e0: 3ce1 fe3d 8cb1 de3c 21f6 35c0 e287 293d
000000f0: c0b2 7e3d 267e 96bf 0007 87b9 b252 4bbd
00000100: 0868 3c40 d000 2c3c 8e57 b9be 05bb 433f
00000110: 0967 3d3f 27be b5bf c2a5 11bd 3be2 463f
00000120: 827c 0d3d e0e1 fc3b 7eb0 1e3d d03d 623c
00000130: c8b2 053d 4532 4abf a576 89c0 700b 283c
00000140: a55f 903e 8ebe 3b3d 0d7e 603f 40a5 803d
00000150: 2cf8 ea3f 1d14 fcbe ec80 3740 5381 ebbf
00000160: 1fe6 b6bf 8c2f d03e 3563 f4bf 4e7e 87c0
00000170: 7211 4abf e832 84bd e263 8fbe f374 04c0
00000180: 115e 87bd cd27 05be fe0a a4bf 267f 36bd
00000190: 9ba1 2dbf ce71 e6bf 06cb c7bc 40f5 293f
000001a0: 7856 00bf a980 59c0 14b9 c53c 9a54 0abe
000001b0: 31de 1fbd c9bb e63f 2e99 f73f f0b2 b2bc
000001c0: 4865 25bd 501e 973e 9c46 4540 0ead 4c3f
000001d0: 714d 633d 61b2 0ac0 e828 4abd 0ff7 d33f
000001e0: c07b da3c 20f4 e53f 218b d1bf 4707 3040
000001f0: 1c56 943d 5d1b d73f 0604 c83f 7e72 16c0
00000200: d55a 76bf 6a04 6abc 50a1 2fc1 3cc2 d8c0
00000210: 65b0 5bbf 4693 a93b 148c 3abd 42e8 653d
00000220: 449a 4d3f 63fe da3d becf aabd ef89 143e
00000230: b0a9 18bc 04c8 46bd 2ae6 123d 046c a73c
00000240: 768c 0ebe 71ad 0640 b09a 1ebf 80b7 28ba
00000250: 9a73 b73e 5b98 86bf bcc3 c0bc 6eba 733d
00000260: 6a36 6abd cb4b b13e 421f d0bf ba6e 503d
00000270: 7e7a 0e3f 72d0 b3bc 90e8 bcbb 3a53 183f
00000280: 6837 583d 7065 05be 70db 8fbd 7361 083d
00000290: 4838 563d 2360 dcbd 7135 ddbf 0f4c 77be
000002a0: 2de7 0f40 fe74 033f 5202 d83f 9e86 393d
000002b0: 94d1 2ac0 dc59 c1bf a62a 443d 50f0 1fbd
000002c0: 891f 55bd 0846 663f 90ac 663c b6e6 e4bf
000002d0: dc3a aabe b15e 573c 900b 7ec0 ec9a f83c
000002e0: c5eb 13c0 04f1 39c0 b83b 993f 34d7 28be
000002f0: 589a 73bc 700c 92bf 4c77 69bf 6e74 1ec0
00000300: 60f1 9cbc dda5 5c3f f911 fd3f c805 6dbe
00000310: 6951 603d 8719 aa3e 25c5 fc3c b9bb 663d
00000320: 9290 4e3d 4c18 47c0 c878 173d 8342 e33d
00000330: 1f4c 69c0 ec97 3b3b f795 bf3f 168a 68be
00000340: 2c41 19bd dbd9 e0bd 7c76 11bd 20ae 533c
00000350: 9206 06bd b476 5f3d 101b f43d 7169 63bc
00000360: 0c2a 47bd 5059 883b b3e7 09bf 8758 1140
00000370: f5bc f93f 38b1 ec3f 5083 95c0 e67a 8dbc
00000380: 13d1 13bf d95f 943e 8435 19bd a83e f6bd
00000390: b0f9 ae3c cc37 50bd f83f c7be b0b6 88ba
000003a0: 6034 3f3c 88ee aebc f731 ed3f 1ec7 3a3d
000003b0: 21b9 ec3e 3c93 2ebd 645d 84bf 4575 333b
000003c0: 0873 973e 65b7 5240 bc2e 1040 8a4b 2d40
000003d0: 78b5 1d40 9659 693d 2e57 2b40 7a85 a93c
000003e0: b7d2 c9bf 723c 07bc 1e47 2c3d c1a1 37bf
000003f0: 33e7 0dbc 0ba2 62c0 a7e7 67c0 66bc 67bc

fc2.bias f4 [256]
-0.039888784 0.001986175 -0.07432198 -0.09293559 0.22195749 -0.55680764 0.036184408 -0.31197977
0.02083526 -0.0027360097 -0.010491083 -0.05928407 -0.05240456 0.025234615 0.028206114 -0.048176724
0.013102564 -0.030889226 -0.022771113 -0.022445759 -0.12333151 0.011731022 -0.05154728 0.1292117
1.0364472 -0.21270159 0.45536825 -0.5386051 -0.05590921 0.018125972 -0.43293348 -0.06157796
-0.044086665 0.6566208 -0.60468733 -0.030717231 -0.10242034 -0.19090931 -0.011467235 -0.047483537
-0.8906595 -0.5423736 -0.058630213 0.19530495 0.0031171273 -0.07942009 -0.011405265 0.025207091
0.027855076 -0.04151255 0.28478482 -0.08955763 -0.026859714 -0.26059556 -0.60490125 -0.4676044
-0.10441347 -0.054289155 0.47847778 0.0013410082 -0.1545341 -0.01676564 -0.020093305 0.038871232
-0.024460603 -0.09420082 0.13686578 0.14708175 0.008223847 -0.0040901317 -0.060993765 -0.07377519
-0.05639594 -0.06098293 0.006448976 -0.14051126 -0.026997859 0.32807314 0.0074223923 -0.048713263
-0.09546565 -0.056718927 -0.041974414 0.00060011365 -0.067155965 0.038022883 -0.041313957 -0.1444455
0.4518227 -0.32598895 -0.015367566 0.0064689233 -0.09981125 -0.10429502 0.016830854 0.014680032
-0.5639818 -0.00702454 0.040371235 0.00835048 0.010737951 0.28603768 0.23399456 -0.19342354
-0.2805731 -0.043795276 0.010085611 -0.465793 0.012273506 -0.027422842 -0.024811516 -0.019719925
-0.18414553 -0.010339747 -0.057171583 0.02727835 -0.09037897 -0.044049483 0.27484918 -0.47004122
-0.02499107 0.0058236048 -0.0931167 0.10402117 -0.048632327 0.29921696 -0.022942066 0.49125254
-0.021386676 -0.005327559 -0.3212537 0.028550755 -0.004701323 -0.057881247 1.1943768 -0.027781049
-0.0053591067 -0.38674065 -0.17434636 0.014145463 0.17874412 -0.00714722 -0.049947746 -0.055726834
-0.13067184 0.01413092 0.3295924 -0.04448879 -0.07042943 -0.43370995 -0.010824982 0.76311594
-0.09228474 -0.08197222 -0.067441784 -0.5234837 -0.02449471 0.14739342 -0.025052901 -0.2871247
-0.1009211 0.112673916 0.011905535 0.01566607 0.03224752 -0.0070249536 0.027539574 0.025221974
0.022461683 -0.0764172 -0.06893209 -0.24876583 -0.024684245 0.004581505 -0.07552887 -0.07373509
-0.06982446 -0.16293852 0.030538118 -0.010727577 -0.011012435 0.021700475 -0.054964885 0.01682799
0.024919197 -0.0047466387 -0.14545764 -0.024982588 0.022127531 -0.07744028 0.3311049 0.019028265
-0.069668375 -0.016935272 -0.0060211336 -0.075437024 -0.4007915 0.22466046 -0.07632234 -0.05325066
-0.07501917 -0.024574758 -0.026374435 -0.2866739 -0.21184346 -0.08113029 0.067117885 0.13236296
-0.65939766 0.49946716 -0.03190186 0.006754307 0.012542324 -0.2626035 0.006901453 -0.050552905
0.05842604 -0.38201347 0.54313004 -0.25733218 -0.087564 -0.13229549 0.11250276 0.043835077
-0.03582961 -0.17876485 0.264949 -0.0057400614 -0.013611846 -0.43972775 0.19357432 -0.011132745
0.022901567 -0.025673287 0.1383836 -0.54799646 -0.08025324 0.020927424 0.015732802 -0.37985817
-0.00022312722 -0.31449127 0.012545254 -0.01586128 -0.10148072 -0.07820067 -0.12571314 -0.030276835
-0.0017143852 0.37611237 0.3774856 0.25898656 -0.3746607 0.061738912 -0.13720055 -0.09025212
00000000: 6c62 23bd 7d2a 023b 1f36 98bd 0455 bebd
00000010: d348 633e f28a 0ebf 1a36 143d d0bb 9fbe
00000020: b5ae aa3c a04e 33bb cbe2 2bbc dad3 72bd
00000030: 2aa6 56bd d3b8 ce3c 8210 e73c f554 45bd
00000040: 23ac 563c 670b fdbc 7c8a babc 2be0 b7bc
00000050: 3b95 fcbd 7933 403c 3e23 53bd 1250 043e
00000060: 4daa 843f 72ce 59be 0726 e93e 06e2 09bf
00000070: 0e01 65bd eb7c 943c 75a9 ddbe 2c39 7cbd
00000080: 3894 34bd 4d18 283f cacc 1abf b4a2 fbbc
00000090: c1c1 d1bd bb7d 43be 12e1 3bbc 197e 42bd
000000a0: 4302 64bf ffd8 0abf 3c26 70bd 05fe 473e
000000b0: b848 4c3b 00a7 a2bd 26dd 3abc 1a7f ce3c
000000c0: 5430 e43c 1009 2abd 51cf 913e fe69 b7bd
000000d0: e708 dcbc c86c 85be cfda 1abf d869 efbe
000000e0: bbd6 d5bd 4e5e 5ebd 0afb f43e c5c4 af3a
000000f0: 303e 1ebe 1858 89bc b79a a4bc 7137 1f3d
00000100: 9a61 c8bc 5cec c0bd 8b26 0c3e 999c 163e
00000110: 50bd 063c 8306 86bb 99d4 79bd 7217 97bd
00000120: 6eff 66bd 3dc9 79bd ef51 d33b 2fe2 0fbe
00000130: 9d2a ddbc 34f9 a73e 8a37 f33b 8f87 47bd
00000140: 7f83 c3bd 1b52 68bd 5ded 2bbd f250 1d3a
00000150: 1189 89bd e2bd 1b3d d338 29bd 85e9 13be
00000160: 4e55 e73e 06e8 a6be 3ec8 7bbc 43f9 d33b
00000170: d769 ccbd a198 d5bd dce0 893c 8484 703c
00000180: 1c61 10bf 1d2e e6bb 4f5c 253d 74d0 083c
00000190: 3bee 2f3c 8873 923e 459c 6f3e d210 46be
000001a0: 47a7 8fbe ad62 33bd 1e3e 253c 6c7c eebe
000001b0: d116 493c dea5 e0bc 8541 cbbc ae8b a1bc
000001c0: a590 3cbe 0b68 29bc c02c 6abd d976 df3c
000001d0: 9c18 b9bd 3b6d 34bd 08b9 8c3e 3ea9 f0be
000001e0: 13ba ccbc f0d3 be3b f8b3 bebd 0d09 d53d
000001f0: b132 47bd f732 993e 00f1 bbbc 7485 fb3e
00000200: 1c33 afbc ce92 aebb 5d7b a4be 46e3 e93c
00000210: 8e0d 9abb e314 6dbd 57e1 983f 1595 e3bc
00000220: 729b afbb df02 c6be da87 32be 5fc2 673c
00000230: b308 373e 3a33 eabb 0296 4cbd d241 64bd
00000240: d7ce 05be 6085 673c 56c0 a83e e139 36bd
00000250: 4e3d 90bd 3b0f debe 445b 31bc 915b 433f
00000260: c8ff bcbd 0de1 a7bd eb1e 8abd 0703 06bf
00000270: 21a9 c8bc 4dee 163e be3b cdbc 0202 93be
00000280: b9af cebd 95c1 e63d 6f0f 433c 2156 803c
00000290: fa15 043d 9531 e6bb ac9a e13c 509e ce3c
000002a0: 9001 b83c 9f80 9cbd 452c 8dbd 78bc 7ebe
000002b0: 9d36 cabc 7320 963b e1ae 9abd 6c02 97bd
000002c0: 2000 8fbd 5bd9 26be 132b fa3c b8c2 2fbc
000002d0: 806d 34bc 32c5 b13c dc22 61bd dada 893c
000002e0: 5823 cc3c b189 9bbb d9f2 14be 49a8 ccbc
000002f0: cc44 b53c 0299 9ebd 9586 a93e 2ae1 9b3c
00000300: 4bae 8ebd d7bb 8abc ee4c c5bb ba7e 9abd
00000310: 8b34 cdbe 640d 663e e34e 9cbd 5d1d 5abd
00000320: a7a3 99bd 0151 c9bc 330f d8bc ecc6 92be
00000330: 7eed 58be a327 a6bd 1a75 893d 288a 073e
00000340: 49ce 28bf 29ba ff3e 86ab 02bd 3c53 dd3b
00000350: 527e 4d3c f773 86be 9525 e23b 9010 4fbd
00000360: 2550 6f3d 4597 c3be 920a 0b3f 0bc1 83be
00000370: c154 b3bd 7878 07be d967 e63d 698c 333d
00000380: 12c2 12bd 220e 37be 65a7 873e 2017 bcbb
00000390: 3804 5fbc ff23 e1be 5938 463e 1e66 36bc
000003a0: 119c bb3c c950 d2bc 6eb4 0d3e 7f49 0cbf
000003b0: d05b a4bd fd6f ab3c 14e2 803c c57c c2be
000003c0: 42f7 69b9 0005 a1be 9c8a 4d3c 84ef 81bc
000003d0: 20d5 cfbd ac27 a0bd f2ba 00be 2007 f8bc
000003e0: 39b5 e0ba cd91 c03e cb45 c13e e399 843e
000003f0: 87d3 bfbe f1e1 7c3d 4d7e 0cbe 1ad6 b8bd

fc3.weight f4 [5, 256]
2.557865 0.03928203 -0.033727463 0.037126355 2.243277 0.31903538 -0.056723848 1.4503996
0.006317377 -0.025879156 -0.04497294 0.006998757 -0.075734645 0.026295058 0.0067358804 0.03073769
-0.056662813 0.03294731 -0.043459013 -0.030971527 2.6613684 -0.04469721 0.009572625 4.1941814
0.038579363 5.544293 3.888343 -0.9586714 -0.0035927102 -0.011028773 -1.3142273 0.055511333
-0.024276242 -0.51550055 0.17625867 -0.024188679 2.6984057 0.27039146 0.04999061 3.0956478
-2.9859455 0.6976775 -1.8287457 0.74886864 0.07467443 5.038917 0.043118134 0.042043865
2.8796546 -0.023318864 4.8424416 -0.0045431936 2.6909044 3.329287 -2.0841975 3.8474822
0.9491226 -0.62836933 2.2315376 0.025787942 1.1574168 -0.051638674 -0.030189095 -0.03648409
-0.028262725 0.01275654 -0.14951575 -0.61631453 0.03298042 -0.029670462 0.0065593813 6.217374
0.039704807 -0.031205682 0.0034123063 3.168767 -0.05884513 1.3374281 0.028855562 -0.02312861
2.855675 -0.023415813 0.0003504831 -0.04028751 0.019221902 3.8665721 -0.013949318 -0.42427066
-0.89602095 1.5464976 -0.016214803 0.01994044 -0.05233468 2.5156412 -0.034778137 -0.035689875
-1.693241 -0.008380113 0.0023701643 3.777321 0.01971517 -1.5873787 0.76686627 2.2007985
3.6776013 0.07970782 0.024140092 4.218923 -0.006546825 0.0028433662 0.05812926 -0.03427573
2.611975 0.029536212 -0.052717768 0.03063959 4.257045 0.032979928 -1.3351057 1.7399486
-0.053299163 -0.011388029 -0.08878671 4.313866 -0.0064512556 -0.7715202 -0.005056356 1.4091693
0.03304097 -0.018063966 3.8964138 -0.0452867 0.01880131 0.032114387 0.5768456 0.037863325
0.03421148 2.76689 0.6793767 -0.043232933 2.252269 0.036148265 0.07965902 -0.031967018
-0.9825482 0.013359845 -1.5598363 -0.040149994 0.04528816 2.545155 -0.005285476 -1.7798108
0.050951026 -0.009615938 0.022175996 1.3508825 0.003608933 3.7395754 2.5665576 -0.19768474
-0.031161942 3.6357996 -0.04539561 -0.0011431144 -0.02121737 -0.021625636 -0.037041016 0.009973692
-0.023368247 0.004571825 0.00279788 1.6888832 -0.030329777 -0.013661268 0.020102171 0.03423733
0.022176411 2.3324306 3.25021 -0.0049359626 -0.04645079 -0.057528578 0.0204656 3.789343
0.041013554 -3.180915 -0.57523614 -0.041119028 2.993089 -0.030257499 3.585369 -0.041999284
-0.0051126406 0.012975968 -0.02514211 0.022469701 4.6199884 5.1500015 -0.013306667 0.007637476
0.0063818693 -0.0024376486 0.038179383 2.5158386 0.8419077 -0.03076624 0.4962189 -2.0040896
-1.1308097 1.4474521 0.0046224077 -0.00826206 0.049708165 1.9768851 -0.019048806 -0.0056579285
3.1507258 4.76266 -1.5861387 2.6957903 -0.008112537 1.5937303 -2.2164507 -0.3619149
-0.04380153 3.3829072 4.085757 0.016677767 -0.263296 2.704489 2.9566348 -0.049655553
0.0114905555 4.6911774 2.9554386 3.8600404 -0.0014500177 0.069677725 -0.044442322 5.7228923
2.19343 3.242051 -0.004048388 -0.0045844284 2.9460301 -0.0044765654 2.5473347 3.3346713
0.00064308505 -0.58088315 -1.0499156 -1.7553372 2.529246 3.69194 -1.1887301 0.022212483
00000000: 0fb4 2340 32e6 203d cf25 0abd ce11 183d
00000010: da91 0f40 9b58 a33e 4457 68bd b2a6 b93f
00000020: 0002 cf3b 8600 d4bc 8c35 38bd d455 e53b
00000030: c41a 9bbd bc68 d73c a9b8 dc3b 9ccd fb3c
00000040: 4417 68bd c2f3 063d 1402 32bd 00b8 fdbc
00000050: dc53 2a40 6c14 37bd 80d6 1c3c bc36 8640
00000060: 6505 1e3d d96a b140 9dda 7840 7d6b 75bf
00000070: ad73 6bbb 07b2 34bc 9a38 a8bf da5f 633d
00000080: f8de c6bc d8f7 03bf 277d 343e 5627 c6bc
00000090: aeb2 2c40 c070 8a3e f4c2 4c3d 181f 4640
000000a0: bb19 3fc0 fe9a 323f 5714 eabf dbb5 3f3f
000000b0: e8ee 983d cf3e a140 a49c 303d 3036 2c3d
000000c0: 434c 3840 3407 bfbc 48f5 9a40 12df 94bb
000000d0: c737 2c40 0a13 5540 7e63 05c0 263d 7640
000000e0: b3f9 723f d0dc 20bf 83d1 0e40 3c41 d33c
000000f0: 3c26 943f 1383 53bd 1f4f f7bc 5770 15bd
00000100: 3b87 e7bc cf00 513c a81a 19be cac6 1dbf
00000110: 7a16 073d 780f f3bc 14f0 d63b baf4 c640
00000120: 82a1 223d 0fa3 ffbc 00a1 5f3b 14cd 4a40
00000130: 9707 71bd d830 ab3f 8062 ec3c 3678 bdbc
00000140: 61c3 3640 85d2 bfbc 0cc1 b739 8404 25bd
00000150: 4077 9d3c eb75 7740 ae8b 64bc 013a d9be
00000160: a161 65bf a2f3 c53f e8d4 84bc 225a a33c
00000170: e45c 56bd 4400 2140 8573 0ebd 8c2f 12bd
00000180: 1fbc d8bf be4c 09bc c254 1b3b a1bf 7140
00000190: b581 a13c 3a2f cbbf 5951 443f e2d9 0c40
000001a0: d25d 6b40 db3d a33d 71c1 c53c 6b01 8740
000001b0: c086 d6bb c557 3a3b f218 6e3d b564 0cbd
000001c0: 992a 2740 edf5 f13c 96ee 57bd e1ff fa3c
000001d0: b639 8840 f615 073d bee4 aabf a3b6 de3f
000001e0: 3950 5abd db94 3abc ced5 b5bd 310b 8a40
000001f0: 0e65 d3bb 5982 45bf caaf a5bb a95f b43f
00000200: f855 073d e2fa 93bc d85e 7940 8c7e 39bd
00000210: 3405 9a3c 608a 033d 27ac 133f 9316 1b3d
00000220: 5621 0c3d ba14 3140 a2eb 2d3f 0415 31bd
00000230: 2d25 1040 3410 143d 4524 a33d d9ef 02bd
00000240: 4788 7bbf 40e3 5a3c b7a8 c7bf 5274 24bd
00000250: 1480 393d d2e3 2240 c931 adbb d7d0 e3bf
00000260: 06b2 503d 2b8c 1dbc 6faa b53c b8e9 ac3f
00000270: d983 6c3b 3455 6f40 7b42 2440 de6d 4abe
00000280: 5447 ffbc f1b0 6840 bff0 39bd 8ed4 95ba
00000290: 0dd0 adbc 3f28 b1bc 52b8 17bd b268 233c
000002a0: c46e bfbc 3fcf 953b a35c 373b 532d d83f
000002b0: 2776 f8bc 83d3 5fbc 4fad a43c 713c 0c3d
000002c0: 4eab b53c 8b46 1540 7103 5040 dbbd a1bb
000002d0: 2f43 3ebd 16a3 6bbd 79a7 a73c 9984 7240
000002e0: d4fd 273d 1d94 4bc0 ad42 13bf 6d6c 28bd
000002f0: c58e 3f40 93de f7bc b076 6540 7107 2cbd
00000300: f087 a7bb 2899 543c d4f6 cdbc 6112 b83c
00000310: f2d6 9340 d0cc a440 3504 5abc cb43 fa3b
00000320: 001f d13b f5c0 1fbb fc61 1c3d 8003 2140
00000330: 4387 573f 7b09 fcbc 6710 fe3e 0143 00c0
00000340: 5fbe 90bf 1c46 b93f 9177 973b 975d 07bc
00000350: ca9a 4b3d 920a fd3f 3e0c 9cbc 2566 b9bb
00000360: 7ea5 4940 b667 9840 9806 cbbf d487 2c40
00000370: 72ea 04bc 5bff cb3f 54da 0dc0 e94c b9be
00000380: 3c69 33bd 8d81 5840 85be 8240 d09f 883c
00000390: bcce 86be 5916 2d40 8139 3d40 9f63 4bbd
000003a0: e242 3c3c 201e 9640 e825 3d40 e70a 7740
000003b0: 850e beba 32b3 8e3d 2709 36bd ef21 b740
000003c0: 2861 0c40 c37d 4f40 57a8 84bb f938 96bb
000003d0: c28b 3c40 27b0 92bb 8807 2340 416b 5540
000003e0: b594 283a c2b4 14bf a263 86bf e4ae e0bf
000003f0: 2bdf 2140 bf48 6c40 4f28 98bf f4f6 b53c

fc3.bias f4 [5]
0.24333459 -0.8564052 -0.71229035 -0.3850794 0.094914325
00000000: b42c 793e 5f3d 5bbf a958 36bf 2129 c5be
00000010: 7162 c23d
