other_model/dqn_team_a_ep230.pth (torch, 286849 bytes, 6 tensors)

fc1.weight f4 [256, 14]
0.17527366 -0.94425875 0.039712425 -0.57758623 0.15948728 -0.3611184 0.48889005 0.09324789
-1.841803 1.4268898 -8.609074 1.7988093 0.18636444 0.43165734 -0.012381856 0.20510842
0.02348638 0.17080514 -0.2644489 0.16654658 -0.14679253 -0.19024877 -0.14159754 0.06245979
0.19472957 -0.16874518 -0.0870259 -0.089731045 -0.12494115 -0.24629706 0.19912492 -0.033888485
-0.20049328 0.18755017 -0.14023122 -0.17293377 0.10424695 -0.14650229 -0.22387983 -0.05020805
-0.0045527653 0.042311035 -0.04343773 -0.18330058 -0.18455137 0.07982564 -0.11700271 0.013190813
-0.24795254 0.1633909 -0.1988124 0.010831356 -0.17462054 0.18597189 0.02591424 -0.035558555
-0.9130527 -0.8729943 -0.7897854 -1.3757477 0.5027407 1.1127732 0.5169872 0.13529792
-0.8214601 0.7035036 -5.3455963 -1.8710666 0.15462263 0.11616339 -0.28075862 -0.44689497
0.21943736 -0.23094563 0.18324427 -0.035188366 0.051532507 -0.1402539 -0.25307325 -0.21340254
0.27371675 -0.031074315 -0.0021846471 -0.027253829 -0.1616783 -0.095357426 0.21864702 -0.25935337
-0.19046158 0.23884045 0.102639996 -0.21564864 -0.17198505 -0.0632014 -0.23732948 -0.017190106
0.057938214 -0.100603215 0.6263164 -0.3954791 0.28223377 -0.14577235 0.28372517 0.578862
0.23419483 0.4471672 -0.09005598 -0.2532203 1.7790873 2.29982 -0.06286983 0.11985649
-0.20700607 -0.26624444 0.14266808 0.21083568 0.14057392 0.03697249 0.20216833 -0.21798179
-0.23027223 -0.08262379 -0.018766388 0.017331498 -0.18151158 -0.26302794 0.22550492 0.23981838
0.23803683 0.20394647 -0.23944618 -0.5087468 -0.34597835 -0.15287359 0.22582789 -0.6953397
0.2828936 1.2593198 0.050621282 0.037148356 0.08833653 -0.85609204 -0.031524785 0.17714871
0.09016994 0.04594871 -0.027645294 0.090590425 0.123149924 0.055445455 3.2366664 2.045392
0.21128464 0.16536029 -0.11445468 0.2078579 0.0011921064 -0.22869392 -0.15390344 -0.11379129
-0.031787157 -0.10012859 0.073583044 0.13042168 -0.20081222 0.07641585 -0.1668669 0.16161525
0.30935243 -0.017485747 0.44690785 0.5072929 0.12957722 -0.45417553 0.48526257 0.25208595
-2.5622761 0.8492217 -3.2897377 -0.2811436 0.05808615 -0.08406003 0.14753939 0.33613923
0.11228989 0.22666174 -0.20207939 -0.45203093 -0.48914078 -0.52445257 0.0927132 -0.059728753
-1.1066914 0.6766835 0.09679431 0.101056404 0.047988787 -1.5291829 -0.03382919 -0.41367587
0.127659 0.27106586 -0.22090277 0.28597233 0.2886002 0.4064301 2.49927 4.9883137
0.035655975 0.1223136 0.42453504 0.5002983 0.76180786 0.07212486 -0.039600793 0.4745169
0.1412991 -0.017618885 0.21756616 -2.355649 0.27801308 -5.3251653 -0.06770006 0.11879003
-0.006950009 0.22135122 0.42223793 0.11059875 -0.53615934 0.30605796 -1.4915303 0.07035982
0.034738664 -0.07744505 -0.27540922 0.17327587 0.071385354 -0.24857809 -0.14928256 -0.18162535
0.14264834 -0.24854895 -0.114355594 -0.002412218 0.12450014 -0.21113439 0.009708099 -0.23615327
-0.09614654 0.0044282884 -0.17020315 -0.1782748 -0.16660628 -0.26342142 -0.050516296 0.12715866
00000000: f07a 333e f1ba 71bf 7fa9 223d b1dc 13bf
00000010: a250 233e 83e4 b8be cc4f fa3e c0f8 be3d
00000020: 33c0 ebbf 53a4 b63f c4be 09c1 623f e63f
00000030: 52d6 3e3e 3102 dd3e 45dd 4abc f107 523e
00000040: 8266 c03c 8be7 2e3e d965 87be 308b 2a3e
00000050: c850 16be 93d0 42be f2fe 10be d6d5 7f3d
00000060: 3067 473e 89cb 2cbe a33a b2bd e9c4 b7bd
00000070: 25e1 ffbd 4c35 7cbe 67e7 4b3e a7ce 0abd
00000080: 1c4e 4dbe 270d 403e c698 0fbe 8d15 31be
00000090: 6d7f d53d b204 16be c140 65be f5a6 4dbd
000000a0: 5d2f 95bb 564e 2d3d c3eb 31bd 26b3 3bbe
000000b0: 09fb 3cbe a07b a33d 1e9f efbd 481e 583c
000000c0: 45e7 7dbe f24f 273e 7a95 4bbe 0076 313c
000000d0: bacf 32be 6a6f 3e3e 1a4a d43c d9a5 11bd
000000e0: d2bd 69bf 8e7c 5fbf 602f 4abf 8018 b0bf
000000f0: 9db3 003f 5a6f 8e3f 4659 043f 8a8b 0a3e
00000100: 364b 52bf d018 343f 200f abc0 1c7f efbf
00000110: 6555 1e3e 12e7 ed3d 98bf 8fbe 6bcf e4be
00000120: 30b4 603e 037d 6cbe 63a4 3b3e ad21 10bd
00000130: c013 533d b89e 0fbe d192 81be 3286 5abe
00000140: 9a24 8c3e 908f febc 4c2c 0fbb 6c43 dfbc
00000150: ff8e 25be c14a c3bd 01e5 5f3e f7c9 84be
00000160: 5c08 43be 9792 743e eb34 d23d ffd2 5cbe
00000170: d91c 30be bc6f 81bd 8006 73be 44d2 8cbc
00000180: 9f50 6d3d 0f09 cebd 4656 203f 3d7c cabe
00000190: f280 903e 5945 15be 6d44 913e 4d30 143f
000001a0: c5d0 6f3e 19f3 e43e 456f b8bd 17a6 81be
000001b0: 22b9 e33f 4030 1340 e6c1 80bd 5277 f53d
000001c0: 66f9 53be 3151 88be 9517 123e 4fe5 573e
000001d0: 9cf2 0f3e 7770 173d 3705 4f3e 9e36 5fbe
000001e0: 7ccc 6bbe a936 a9bd f8bb 99bc c9fa 8d3c
000001f0: 2cde 39be 99ab 86be c3ea 663e f392 753e
00000200: edbf 733e 58d7 503e 6131 75be 3b3d 02bf
00000210: 1324 b1be e58a 1cbe 6d3f 673e c801 32bf
00000220: 6ed7 903e 6431 a13f 4358 4f3d e028 183d
00000230: c8e9 b43d d928 5bbf 2220 01bd 7966 353e
00000240: 04ab b83d b734 3c3d 6278 e2bc 7987 b93d
00000250: 0736 fc3d c61a 633d 8b25 4f40 b4e7 0240
00000260: 005b 583e 3554 293e 3767 eabd b4d8 543e
00000270: 7440 9c3a bd2e 6abe dd98 1dbe 680b e9bd
00000280: 4033 02bd 3810 cdbd b5b2 963d 438d 053e
00000290: b8a1 4dbe ea7f 9c3d 28df 2abe 787e 253e
000002a0: 7163 9e3e 453e 8fbc 1bd1 e43e f3dd 013f
000002b0: e4af 043e b289 e8be 5674 f83e 6911 813e
000002c0: 55fc 23c0 9866 593f 108b 52c0 0ef2 8fbe
000002d0: beeb 6d3d aa27 acbd 9114 173e 711a ac3e
000002e0: 3ef8 e53d 041a 683e e6ed 4ebe 9970 e7be
000002f0: a970 fabe 8642 06bf 6be0 bd3d 23a6 74bd
00000300: 10a8 8dbf 213b 2d3f 183c c63d a9f6 ce3d
00000310: e48f 443d 44bc c3bf 7a90 0abd 53cd d3be
00000320: 0ab9 023e 25c9 8a3e 5634 62be f76a 923e
00000330: 68c3 933e 9b17 d03e 0af4 1f40 44a0 9f40
00000340: 000c 123d 8d7f fa3d a85c d93e 8d13 003f
00000350: d705 433f 33b6 933d 7134 22bd e1f3 f23e
00000360: b6b0 103e 7b55 90bc aac9 5e3e f4c2 16c0
00000370: bb57 8e3e c167 aac0 54a6 8abd 3048 f33d
00000380: e7bc e3bb e5a9 623e 922f d83e 9981 e23d
00000390: bd41 09bf a1b3 9c3e 77ea bebf cf18 903d
000003a0: 214a 0e3d 839b 9ebd 7002 8dbe 3b6f 313e
000003b0: 7c32 923d 418b 7ebe 87dd 18be fffb 39be
000003c0: 6812 123e 9e83 7ebe 4433 eabd 4d16 1ebb
000003d0: eef9 fe3d 9d33 58be b80e 1f3c 2ad2 71be
000003e0: 7ae8 c4bd 2d1b 913b bc49 2ebe ab8d 36be
000003f0: d69a 2abe 2cdf 86be 2dea 4ebd e135 023e

fc1.bias f4 [256]
0.27821505 0.11003882 -0.2645276 -0.035628583 0.107742414 -0.3487655 -0.13087648 0.024030624
0.15532176 0.17685123 0.15247087 0.05768474 0.05784483 -0.2646943 0.12739111 0.14287733
-0.082332656 -0.041685496 -0.21466836 -0.16136123 -0.141724 0.16820474 -0.110358864 0.11161747
-0.23269327 0.09810526 -0.05355705 -0.22183688 0.17105839 0.20297761 -0.057135165 -0.19640322
-0.008363734 -0.078533284 -0.34925455 0.058431484 0.13467653 -0.046487063 -0.21082029 0.003739435
-0.2202332 0.14777224 -0.2594195 -0.0756909 -0.24119897 -0.25124487 -0.2975409 0.3183776
0.051880952 0.063425854 -0.23246433 -0.20041488 -0.04272637 0.012646167 -0.2686906 -0.025927432
-0.34972733 0.2093027 0.008772752 0.1346216 0.20414035 0.12001575 -0.055623684 -0.11744538
0.20150769 0.14490917 0.0096947 -0.17212613 0.036345858 0.062027194 0.09915072 -0.16466483
0.34738582 -0.10597837 -0.13760275 0.065447874 -0.022211827 -0.01650385 0.06596381 0.050222225
-0.20503189 -0.07079035 0.050221596 0.02621312 -0.17828424 0.08364166 -0.030846797 0.17978248
0.22504845 -0.3428309 -0.22909336 0.047352117 -0.21758491 0.023277696 0.07659191 -0.046695486
0.0031398793 0.118236475 -0.31554186 -0.013273877 -0.034955654 0.21205279 -0.05092617 0.025409352
0.051293615 0.003818146 0.09677746 0.251199 -0.07921928 -0.018816467 0.30675563 -0.25143668
-0.025625078 -0.30806303 -0.13700609 0.04139748 -0.07581525 0.056971762 -0.29199955 -0.20346028
-0.0063838176 0.042446446 -0.1303272 0.14588252 0.2142613 -0.18934764 0.032835543 -0.25811175
0.08252474 -0.2994683 0.15502273 -0.033896416 0.21522583 0.026499268 0.119641274 -0.015899807
0.09077388 0.10853931 -0.019230608 0.029920548 0.061341215 0.022531249 -0.2494587 0.22078127
0.049006674 0.34485522 -0.039943706 -0.09389852 -0.12450206 -0.24606924 -0.04166146 -0.09728823
0.036211774 0.06021984 -0.061477568 -0.23875849 0.026124204 0.26401815 -0.043763913 0.20050618
-0.22042458 0.17478654 0.04292619 -0.2474496 -0.453432 -0.26663175 0.21839592 0.102475055
0.28026676 -0.21733753 -0.17722963 -0.07219843 0.1273184 -0.20868194 -0.16924635 0.030744635
0.04529417 0.2504543 0.16917785 0.16323589 -0.1365818 -0.14513199 -0.20873338 0.20621862
-0.17417644 0.14072934 -0.01688301 0.23022076 -0.45180684 -0.18180913 0.041356586 -0.21319824
-0.03021959 0.31567162 -0.32063875 -0.20056461 -0.22489849 -0.017369062 -0.03298479 0.24311681
0.1474215 -0.4019165 0.19058016 -0.0042686006 0.0876449 0.047924485 -0.053829294 -0.04823537
-0.13805296 -0.3416191 -0.09990102 -0.11969464 -0.024107594 0.10933987 -0.28401572 -0.21731427
0.13864571 0.19903293 -0.09616856 0.09317521 0.0036736554 -0.18447635 -0.121194616 -0.031848416
-0.15102924 -0.0009583643 0.15429394 -0.06888344 0.042749483 -0.09035974 -0.1532762 0.019072704
0.10236245 0.14055267 -0.15665427 -0.23594032 -0.2206655 -0.26258153 0.1945184 0.21282281
-0.23193863 -0.32807067 0.1217525 0.059630115 -0.2102361 0.17582883 -0.22167099 -0.016848855
-0.39749026 -0.20965275 -0.18240513 -0.18331453 -0.3828679 -0.25053743 -0.33055705 -0.33326963
00000000: 3472 8e3e 085c e13d 2970 87be 47ef 11bd
00000010: 0ea8 dc3d 6491 b2be 7c04 06be dfdb c43c
00000020: ab0c 1f3e 7d18 353e 5321 1c3e d546 6c3d
00000030: b3ee 6c3d 0386 87be d172 023e 6f4e 123e
00000040: 069e a8bd 69be 2abd 06d2 5bbe e13b 25be
00000050: 1920 11be dd3d 2c3e d403 e2bd b397 e43d
00000060: 2547 6ebe 69eb c83d a35e 5bbd 3529 63be
00000070: ee29 2f3e 5dd9 4f3e 9006 6abd ed1d 49be
00000080: 0b08 09bc 0fd6 a0bd 7ed1 b2be da55 6f3d
00000090: a5e8 093e 3869 3ebd 46e1 57be 4f11 753b
000000a0: d084 61be 9b51 173e a2d2 84be d503 9bbd
000000b0: ddfc 76be 2ba3 80be 4857 98be 6402 a33e
000000c0: 1f81 543d 6ae5 813d 210b 6ebe 8f39 4dbe
000000d0: d901 2fbd de31 4f3c d091 89be c465 d4bc
000000e0: 760f b3be 7253 563e 97bb 0f3c 3fda 093e
000000f0: 2b0a 513e d1ca f53d a9d5 63bd 3487 f0bd
00000100: 0858 4e3e 1263 143e 85d6 1e3c d541 30be
00000110: 65df 143d 3a10 7e3d 880f cb3d e69d 28be
00000120: 8edc b13e 300b d9bd bce7 0cbe 8909 863d
00000130: 94f5 b5bc 1533 87bc 0918 873d d2b5 4d3d
00000140: e1f3 51be 88fa 90bd 29b5 4d3d e6bc d63c
00000150: 2590 36be 524c ab3d 6cb2 fcbc e618 383e
00000160: 1a73 663e 8887 afbe 7397 6abe 4bf4 413d
00000170: 94ce 5ebe deb0 be3c 38dc 9c3d c443 3fbd
00000180: 6fc6 4d3b f725 f23d b48e a1be ad7a 59bc
00000190: a92d 0fbd 5e24 593e f697 50bd 4627 d03c
000001a0: 4119 523d dc39 7a3b 4333 c63d 289d 803e
000001b0: b83d a2bd fe24 9abc 130f 9d3e 4fbc 80be
000001c0: afeb d1bc 70ba 9dbe 534b 0cbe 6790 293d
000001d0: 0745 9bbd 395b 693d f780 95be e457 50be
000001e0: 582f d1bb 53dc 2d3d 7e74 05be 3a62 153e
000001f0: 5067 5b3e 59e4 41be 907e 063d 3927 84be
00000200: bb02 a93d e953 99be 47be 1e3e f8d6 0abd
00000210: 2964 5c3e fe14 d93c 7c06 f53d 5040 82bc
00000220: a8e7 b93d dc49 de3d 8289 9dbc f01b f53c
00000230: ed40 7b3d 7493 b83c 1a72 7fbe 7c14 623e
00000240: 39bb 483d dd90 b03e 039c 23bd de4d c0bd
00000250: f0fa febd 93f9 7bbe 35a5 2abd 0d3f c7bd
00000260: cc52 143d 14a9 763d e7cf 7bbd 1b7d 74be
00000270: 6d02 d63c 632d 873e ca41 33bd 7e51 4d3e
00000280: fbb6 61be 3efb 323e 5fd3 2f3d 6e63 7dbe
00000290: 3d28 e8be f583 88be 2ea3 5f3e 71de d13d
000002a0: 207f 8f3e bb8d 5ebe af7b 35be c5dc 93bd
000002b0: c15f 023e b8b0 55be ea4e 2dbe 2cdc fb3c
000002c0: 6186 393d 8c3b 803e f53c 2d3e 4f27 273e
000002d0: 19dc 0bbe 7b9d 14be 34be 55be f92a 533e
000002e0: 4f5b 32be 5a1b 103e 3d4e 8abc febe 6b3e
000002f0: 3a53 e7be 2c2c 3abe 8665 293d a450 5abe
00000300: 138f f7bc b69f a13e c32a a4be cf60 4dbe
00000310: ca4b 66be 9049 8ebc 0f1b 07bd 9df3 783e
00000320: a9f5 163e 00c8 cdbe 7227 433e 9edf 8bbb
00000330: 2b7f b33d 774c 443d 1b7c 5cbd 7492 45bd
00000340: c15d 0dbe b3e8 aebe e898 ccbd 7722 f5bd
00000350: 4a7d c5bc 95ed df3d 826a 91be a287 5ebe
00000360: 24f9 0d3e 4acf 4b3e 06f4 c4bd a5d2 be3d
00000370: b6c1 703b 5ee7 3cbe e234 f8bd 7c73 02bd
00000380: 69a7 1abe bd3a 7bba 3bff 1d3e c312 8dbd
00000390: 151a 2f3d 870e b9bd 70f4 1cbe 5c3e 9c3c
000003a0: 67a3 d13d 0aed 0f3e fa69 20be 579a 71be
000003b0: 23f6 61be 1671 86be d52f 473e 39ee 593e
000003c0: 5281 6dbe e1f8 a7be 6059 f93d b53e 743d
000003d0: 2248 57be 790c 343e b8fd 62be 9c06 8abc
000003e0: d883 cbbe 36af 56be 69c8 3abe ceb6 3bbe
000003f0: 4307 c4be 7146 80be c63e a9be 51a2 aabe

fc2.weight f4 [256, 256]
-1.6046141 -0.01927936 0.019177683 0.055812255 -3.1158469 0.117387995 -0.044557206 0.7237922
0.01748497 1.1435852 0.67296064 0.028935045 -0.5132917 0.6902673 1.7126998 -3.1086757
-0.4039968 -0.031524755 0.03102006 -0.035099287 -0.10494293 1.1157669 -0.018849868 -0.7172706
0.5570608 1.9500656 -0.014366269 -0.026743867 0.36016962 -1.7136533 0.7736063 -0.5353439
-0.03733463 0.0111676585 -0.041070644 -0.03195374 0.0022961434 -0.0037821243 -0.004747331 0.69950706
-0.01054962 0.5011707 -0.047963087 -2.549715 -0.025101293 0.0005014315 -0.042523474 -1.6300874
0.042353142 0.9198653 -0.063621685 -0.004915501 0.15119137 0.02163963 -0.061560888 -0.02376397
-0.5693483 0.002562292 -0.034101337 0.20429808 0.026770338 -0.05625824 0.7688602 -0.023845367
0.060818173 -0.6139343 0.06088727 -1.0261749 -1.7457879 0.00069205463 -3.3672264 -0.013944103
1.350602 -0.07167367 1.6710327 0.04687839 0.046592843 -0.97890806 1.1211734 -0.5958221
0.26829103 0.056431316 -1.3145044 -2.6379664 -0.05074264 0.008355698 1.4618243 -0.004681751
-0.87526166 -0.19842753 -0.19731799 0.024912506 1.229248 0.028592221 -0.041538775 1.309376
1.6106395 0.026685625 -0.02311159 -0.066157326 -0.46762764 -0.3572027 -0.36154738 0.17235434
0.015761547 0.011573017 0.027463526 0.62347746 0.008746076 -0.023463175 -2.5648484 0.052819498
0.059860643 0.0051438995 -0.045305006 0.029636756 -0.0040479153 0.035682734 0.09562356 1.7744215
-0.21037047 -0.009276244 -2.3827055 -0.040614776 -0.05652017 -0.07650102 0.052938335 0.004499964
-0.021601755 -0.66521883 -0.36150345 0.03159123 0.29897806 1.9868526 1.5507443 0.020731285
0.045234624 0.68573767 -1.9997633 0.29499596 -0.01738187 -0.23446894 -0.024413768 0.2833198
0.06505814 -1.5477101 0.060548343 -1.5112195 0.0092204595 -0.51717424 -0.27659085 -0.0012951398
2.0191643 0.04635039 -0.17876682 -0.025962241 0.0950253 0.02127532 -0.007037744 -0.0036410552
0.05116355 -0.00468907 0.041733287 0.83159393 -1.1785926 0.037920527 0.7840337 0.027556434
-1.386343 -0.037121102 0.016931603 2.2672822 0.041049335 0.042913325 -0.021697959 -0.05419012
-0.16172945 -0.023547359 -0.04364449 -2.1398292 -0.11699458 2.4340534 0.43963328 -0.022117537
0.06296569 0.78043 1.7894316 0.01992735 1.1686045 -0.18819651 -1.1756246 -0.048300035
0.35623214 1.3705791 0.52225214 -0.00394623 0.04995031 2.1576872 -0.20290655 0.15423413
-2.651042 1.4207443 -0.045525648 2.3148086 -0.118605666 -1.1360569 1.2144507 0.010185726
-0.043846037 -0.07398257 0.6627929 0.58497494 0.033079058 0.04418116 0.4112553 1.3232878
0.04676254 0.027352057 -0.055297885 -0.03362149 -0.032081116 -0.10974988 0.38927794 -0.01237275
0.3579706 -2.899338 0.014607102 -0.022625364 0.18606387 0.027432537 0.7791993 0.35215858
0.040279463 2.9706275 -1.1535594 0.04601728 2.1211882 -0.24510318 -0.05159703 -0.7606459
0.115443304 0.9558769 -0.028386876 0.05380953 0.056233563 -1.3213854 0.04939749 -0.058775574
1.5078015 0.0018556201 0.06088391 -0.023064341 0.061599724 0.018755205 0.06846099 -0.08602527
00000000: ff63 cdbf c0ef 9dbc 841a 9d3c 649b 643d
00000010: 096a 47c0 1e69 f03d 9e81 36bd 724a 393f
00000020: a43c 8f3c 0061 923f 2647 2c3f 3009 ed3c
00000030: 1667 03bf 5cb5 303f bf39 db3f 8bf4 46c0
00000040: abd8 cebe 1a20 01bd c81d fe3c 45c4 0fbd
00000050: 52ec d6bd 73d1 8e3f 0a6b 9abc 0c9f 37bf
00000060: 899b 0e3f c09b f93f 8060 6bbc f415 dbbc
00000070: 2768 b83e fe58 dbbf 100b 463f 4c0c 09bf
00000080: 32ec 18bd 8ef8 363c b139 28bd ede1 02bd
00000090: e57a 163b 84dd 77bb 808f 9bbb e512 333f
000000a0: 50d8 2cbc b94c 003f f174 44bd 882e 23c0
000000b0: 3aa1 cdbc 8072 033a 182d 2ebd b4a6 d0bf
000000c0: 7d7a 2d3d 4b7c 6b3f 164c 82bd 3612 a1bb
000000d0: e9d1 1a3e 9845 b13c 4527 7cbd a8ac c2bc
000000e0: cfc0 11bf 20ec 273b d8ad 0bbd 8433 513e
000000f0: 784d db3c 0a6f 66bd 06d4 443f 5c57 c3bc
00000100: 7a1c 793d cc2a 1dbf ee64 793d b359 83bf
00000110: fa75 dfbf 006b 353a a380 57c0 cf75 64bc
00000120: 87e0 ac3f a5c9 92bd 66e4 d53f 8e03 403d
00000130: 23d8 3e3d b899 7abf 9c82 8f3f cc87 18bf
00000140: 715d 893e 8624 673d ae41 a8bf 71d4 28c0
00000150: 84d7 4fbd 56e6 083c 0f1d bb3f 6069 99bb
00000160: 2611 60bf 9630 4bbe ba0d 4abe 5015 cc3c
00000170: 0058 9d3f 3c3a ea3c 9024 2abd a299 a73f
00000180: 6f29 ce3f d09b da3c 8454 bdbc 7e7d 87bd
00000190: e46c efbe 46e3 b6be bd1c b9be a87d 303e
000001a0: 5c1e 813c c09c 3d3c 30fb e03c 389c 1f3f
000001b0: b44b 0f3c d835 c0bc 7a26 24c0 4259 583d
000001c0: 6f30 753d 288e a83b be91 39bd c8c8 f23c
000001d0: 60a4 84bb 0f28 123d 49d6 c33d 3e20 e33f
000001e0: 5b6b 57be 63fb 17bc 3f7e 18c0 ae5b 26bd
000001f0: b281 67bd 91ac 9cbd ded5 583d 6f74 933b
00000200: 2af6 b0bc c84b 2abf fb16 b9be ce65 013d
00000210: a713 993e 3051 fe3f ca7e c63f a8d4 a93c
00000220: f147 393d 818c 2f3f 3ef8 ffbf b609 973e
00000230: 6c64 8ebc a018 70be 62ff c7bc 4b0f 913e
00000240: 343d 853d 5d1b c6bf 8a01 783d a46f c1bf
00000250: 6911 173c 8865 04bf 519d 8dbe aec1 a9ba
00000260: fd39 0140 e8d9 3d3d a60e 37be c4ae d4bc
00000270: a09c c23d 9449 ae3c e09c e6bb c59e 6ebb
00000280: df90 513d c5a6 99bb 86f0 2a3d 57e3 543f
00000290: 1fdc 96bf 8e52 1b3d 6fb6 483f 08be e13c
000002a0: b073 b1bf 4c0c 18bd 25b4 8a3c 271b 1140
000002b0: 5923 283d e2c5 2f3d ebbf b1bc 76f6 5dbd
000002c0: 689c 25be 64e6 c0bc 91c4 32bd f6f2 08c0
000002d0: db9a efbd 88c7 1b40 9d17 e13e d62f b5bc
000002e0: 28f4 803d 43ca 473f 180c e53f af3e a33c
000002f0: d594 953f 96b6 40be de7a 96bf 42d6 45bd
00000300: 0f64 b63e 236f af3f 51b2 053f 604f 81bb
00000310: b298 4c3d 8c17 0a40 bcc6 4fbe 8def 1d3e
00000320: acaa 29c0 f3da b53f 1a79 3abd d325 1440
00000330: 87e7 f2bd 506a 91bf 1f73 9b3f 08e2 263c
00000340: e797 33bd 2c84 97bd ccac 293f ebc0 153f
00000350: e87d 073d 4ef7 343d 0e90 d23e 7f61 a93f
00000360: 148a 3f3d 6c11 e03c 0980 62bd b0b6 09bd
00000370: 7d67 03bd 8cc4 e0bd 704f c73e 13b7 4abc
00000380: ec47 b73e c18e 39c0 a052 6f3c d458 b9bc
00000390: 8787 3e3e 33ba e03c 9b79 473f 214e b43e
000003a0: 14fc 243d c31e 3e40 d6a7 93bf 9e7c 3c3d
000003b0: 8cc1 0740 54fc 7abe 6857 53bd b1b9 42bf
000003c0: 8a6d ec3d 59b4 743f 988b e8bc 6267 5c3d
000003d0: 2a55 663d 2823 a9bf 0655 4a3d a8be 70bd
000003e0: a4ff c03f 4738 f33a 6861 793d 6ef1 bcbc
000003f0: fe4f 7c3d 84a4 993c 4735 8c3d 042e b0bd

fc2.bias f4 [256]
0.002353926 0.0140878605 -0.024894511 -0.039670736 0.024690049 0.0813712 0.24935438 -0.032226108
-0.035189316 -0.040153123 0.013606865 -0.062112667 0.1317764 0.44236848 0.0777079 -0.042307083
0.0197554 -0.523498 0.037742212 0.021382578 -0.048764072 -0.039173476 0.0725018 -0.062995605
-0.09226346 -0.05948503 -0.027341658 0.0319135 -0.0708039 -0.047712658 -0.057197038 -0.13590352
-0.05036314 -0.008250897 0.014479997 -0.047665473 -0.05513009 0.0012790558 -0.018956935 -0.011945845
-0.034808602 -0.07570486 -0.004475625 -0.040690046 -0.02737067 0.06548954 -0.016460652 0.052188925
0.04387096 -0.1489289 -0.00755868 0.007488589 -0.03559407 -0.04131175 0.09698959 -0.060214426
0.3007014 -0.05055562 -0.07596256 -0.06474659 -0.028474607 -0.14311758 0.01784943 -0.06493166
-0.0065108715 0.03442041 -0.07038973 -0.034812894 -0.004217593 0.024167366 -0.093929835 0.108538
-0.063623555 -0.012129834 -0.083398774 0.011092942 -0.07291239 0.01044934 -0.024393985 -0.034146998
0.039398614 -0.07160047 -0.02589248 0.026283214 -0.042961866 -0.06386356 -0.089485385 0.031589106
-0.00048659177 -0.0057127345 0.12043632 0.001987184 -0.052554205 0.34815514 0.014331449 -0.07805203
-0.118111394 -0.057014793 0.0036933238 -0.034079216 -0.04541356 -0.017986784 -0.047194045 -0.03355848
0.010114548 -0.01100426 -0.0629052 -0.06081531 -0.042190906 -0.033230733 0.5922508 0.15979476
-0.012340975 -0.015979202 -0.049070843 -0.065076225 -0.07359816 -0.057392783 0.46391636 -0.07108187
-0.055236995 -0.2980555 0.014512122 -0.033139993 0.04239322 -0.025010528 0.16911142 -0.05156957
0.098702624 0.0435592 -0.03914266 0.120170295 -0.072083004 -0.06339072 -0.07859027 0.27018473
0.04340561 -0.03328311 -0.042190935 -0.026080688 0.025751742 0.01388074 -0.009485874 -0.08910331
-0.024306443 -0.026720755 0.39574254 -0.0052186754 -0.013522648 -0.03242151 -0.023954818 0.012093806
0.0077879955 0.257303 -0.06338926 0.54365164 -0.07678858 -0.012748966 -0.06443385 0.032751735
0.021585211 0.03052735 0.019429263 -0.027350683 0.097126245 0.19550322 -0.40962526 0.08990443
0.0014467654 -0.18859637 0.06686143 -0.05467883 -0.074235864 -0.03018096 -0.12690513 -0.04192727
-0.0794672 0.012688073 -0.023297178 -0.0286236 0.0031279135 0.07838025 -0.12860645 0.019922357
-0.07943974 -0.6028384 0.030636612 -0.13199063 -0.01569616 -0.069115914 -0.024527246 -0.074929036
-0.004640471 0.072132535 -0.06265987 -0.488706 0.067814484 -0.00024085642 0.11231627 -0.022893049
-0.07013952 -0.017097695 -0.037170652 -0.029116653 0.018661171 -0.08084166 -0.055539165 -0.0028343915
0.013417216 0.17802568 -0.3305673 -0.07152182 0.19341934 -0.025666758 0.032466535 0.010851533
0.02254971 -0.08147382 -0.011653995 0.009401622 -0.020566884 -0.058215454 0.025463931 -0.06538948
-0.018561032 0.03168736 -0.16559668 0.3739112 -0.03240566 0.024329858 0.07954393 0.025774587
-0.21077825 -0.2366695 0.2844648 0.023487853 -0.03401008 -0.07348724 0.07515368 0.010718871
-0.011043736 -0.08530172 -0.118899286 -0.00676798 0.19694568 0.09656309 -0.07735297 0.098038584
0.05803708 0.027476422 0.0010376273 -0.0077175624 -0.025615325 -0.05176104 0.011350244 0.20982043
00000000: 5344 1a3b c5d0 663c 93ef cbbc c87d 22bd
00000010: c942 ca3c f2a5 a63d c156 7f3e 86ff 03bd
00000020: ac22 10bd 9a77 24bd 54ef 5e3c da69 7ebd
00000030: 65f0 063e 1f7e e23e 5225 9f3d 314a 2dbd
00000040: 14d6 a13c f703 06bf 9497 1a3d 842a af3c
00000050: d6bc 47bd 5e74 20bd d37b 943d d703 81bd
00000060: a0f4 bcbd 93a6 73bd 9dfb dfbc bbb7 023d
00000070: a301 91bd 596e 43bd 7147 6abd 4b2a 0bbe
00000080: 9449 4ebd c52e 07bc 823d 6d3c df3c 43bd
00000090: 17d0 61bd fea5 a73a 934b 9bbc 81b8 43bc
000000a0: 7793 0ebd 260b 9bbd 44a8 92bb 9baa 26bd
000000b0: 7538 e0bc 611f 863d 7dd8 86bc 0ec4 553d
000000c0: 09b2 333d d180 18be ceae f7bb d662 f53b
000000d0: 16cb 11bd 8236 29bd 7aa2 c63d 67a3 76bd
000000e0: 89f5 993e 6913 4fbd 4292 9bbd dc99 84bd
000000f0: 9443 e9bc 6a8d 12be f838 923c e4fa 84bd
00000100: 2659 d5bb 6afc 0c3d 7e28 90bd f797 0ebd
00000110: bc33 8abb a4fa c53c 495e c0bd 2c49 de3d
00000120: 114d 82bd 36bc 46bc facc aabd 2cbf 353c
00000130: 1753 95bd b533 2b3c e5d5 c7bc b9dd 0bbd
00000140: 7160 213d 44a3 92bd 771c d4bc e54f d73c
00000150: c8f8 2fbd e6ca 82bd 1d44 b7bd 9463 013d
00000160: 3e1d ffb9 e431 bbbb 51a7 f63d 6a3b 023b
00000170: 1443 57bd 6441 b23e 74ce 6a3c bed9 9fbd
00000180: 63e4 f1bd 5888 69bd b10b 723b a696 0bbd
00000190: 9203 3abd 0559 93bc 8b4e 41bd 9e74 09bd
000001a0: 7db7 253c 364b 34bc 71d4 80bd 7919 79bd
000001b0: 5fd0 2cbd f31c 08bd c09d 173f 3da1 233e
000001c0: cd31 4abc d1e6 82bc 82fe 48bd af46 85bd
000001d0: a2ba 96bd b214 6bbd 7286 ed3e 5f93 91bd
000001e0: 3040 62bd bb9a 98be 40c4 6d3c cdbd 07bd
000001f0: 83a4 2d3d e1e2 ccbc 8b2b 2d3e 9d3a 53bd
00000200: 9a24 ca3d 226b 323d 0e54 20bd d81b f63d
00000210: 41a0 93bd fed2 81bd eff3 a0bd a755 8a3e
00000220: 15ca 313d df53 08bd 67d0 2cbd 2ba7 d5bc
00000230: 51f5 d23c 0b6c 633c a46a 1bbc cc7b b6bd
00000240: 4e1e c7bc 7ce5 dabc c49e ca3e 6c01 abbb
00000250: 198e 5dbc 6bcc 04bd e53c c4bc 1925 463c
00000260: 7132 ff3b 38bd 833e 3ad2 81bd c12c 0b3f
00000270: 5543 9dbd 0ae1 50bc e5f5 83bd af26 063d
00000280: 78d3 b03c 7e14 fa3c 1e2a 9f3c 8a0e e0bc
00000290: 20ea c63d ff31 483e 67ba d1be d01f b83d
000002a0: 64a1 bd3a 681f 41be a5ee 883d e9f6 5fbd
000002b0: f908 98bd 103e f7bc 6bf3 01be eebb 2bbd
000002c0: b3bf a2bd a3e1 4f3c b9d9 bebc 0a7c eabc
000002d0: aefd 4c3b d385 a03d 69b1 03be 3634 a33c
000002e0: 4db1 a2bd 9e53 1abf a2f9 fa3c 8d28 07be
000002f0: 3c95 80bc a58c 8dbd 5ded c8bc 6574 99bd
00000300: 180f 98bb 39ba 933d d153 80bd ac37 fabe
00000310: 52e2 8a3d 678e 7cb9 1306 e63d 348a bbbc
00000320: 4fa5 8fbd 7710 8cbc 4140 18bd 0c86 eebc
00000330: 50df 983c 5090 a5bd 097d 63bd 33c1 39bb
00000340: e2d3 5b3c 5d4c 363e 1e40 a9be 087a 92bd
00000350: b80f 463e 1843 d2bc a1fb 043d a1ca 313c
00000360: 2bba b83c bfdb a6bd 66f0 3ebc 4309 1a3c
00000370: e27b a8bc 5473 6ebd bc99 d03c ebea 85bd
00000380: 4e0d 98bc 9bca 013d 2d92 29be 4a71 bf3e
00000390: ccbb 04bd 694f c73c eee7 a23d 3a25 d33c
000003a0: 41d6 57be 7d59 72be 5fa5 913e 9969 c03c
000003b0: 274e 0bbd 7a80 96bd 2cea 993d 349e 2f3c
000003c0: c9f0 34bc abb2 aebd 7881 f3bd eec5 ddbb
000003d0: 21ac 493e dfc2 c53d 3c6b 9ebd 74c8 c83d
000003e0: 4ab8 6d3d 3c16 e13c ff00 883a 9be3 fcbb
000003f0: 3bd7 d1bc 6203 54bd 60f6 393c 2bdb 563e

fc3.weight f4 [5, 256]
1.1801344 0.034321852 0.030692793 -0.0009840308 -0.043253984 1.333192 1.69939 0.0051876176
0.026467057 0.0067554866 -0.012875122 -0.021829678 1.9249537 0.39347988 3.2558324 -0.042288728
1.3889959 1.4871578 2.397935 0.0151416585 -0.0060718786 -0.010239393 2.9361813 0.056544684
1.9460759 0.007167051 2.83363 -0.039887883 0.012225964 2.8898838 -0.055608533 2.4716218
-0.021738732 -0.015213193 -0.0020498536 0.01190156 -0.017146146 0.049623303 -0.04051078 -0.078071125
0.03502678 -0.02310696 2.5395534 -0.018964596 0.005210458 2.7978888 0.024382733 0.14662026
-0.00038819967 1.5536162 0.017808938 0.044988774 -0.0142189115 0.02713482 3.099895 -0.0063540097
-0.07285703 -0.035602085 0.94487476 0.01223433 -0.028929243 4.6339417 2.6116881 0.043756522
-0.0115877045 0.0020022988 -0.056691796 0.010060008 -0.006335772 -0.012831402 0.057233237 2.6395624
-0.038041897 -0.023452356 -0.0060389168 0.002704583 -0.008354448 0.01651293 0.003862956 0.049179118
0.031529266 -0.050015677 0.01197827 1.6362695 1.8536756 0.058328018 1.8197784 -0.03897143
-0.03512154 -0.05393969 2.090842 2.2459006 0.0018426894 -1.5014541 0.0051362664 0.031004444
0.8970062 -0.055465616 -0.0056871027 2.5431712 -0.026280468 1.718047 0.05795879 -0.059946455
-0.017600171 -0.04339273 -0.010435965 -0.016152304 -0.010717163 -0.05187256 2.2511628 2.7120492
-0.037340894 4.047551 2.9530337 -0.032698844 -0.02757754 -0.030282738 4.928745 -0.01747107
-0.018593987 3.6360285 1.2058281 0.051361702 -0.004404478 0.0012527849 2.4836528 -0.007329285
2.1561399 1.2892566 -0.004874468 2.6636796 0.022103077 -0.036261447 0.028513933 0.18580015
3.1593196 -0.03666657 -0.036729276 -0.004433766 0.005245631 -0.73139286 1.9498018 0.06637635
0.025101285 -0.8552257 -0.28585276 2.0165756 -0.0023382786 0.02641011 -0.013528595 0.0062055774
0.003881727 1.0688087 0.05988317 2.2985907 0.011521695 -0.041476924 0.0014619593 0.011250619
-0.037119016 -0.029277777 0.0093181245 0.017265698 0.44798794 2.9052277 0.60814905 -0.47297412
-0.036111474 0.3779537 2.4583886 0.0031024767 -0.023602648 -0.020128755 2.2369523 0.015914978
0.018611655 0.007870669 -0.031629775 1.4950238 3.5495133 4.098642 0.99091023 2.665095
-0.027406428 1.9446394 3.0682635 -2.5148878 -0.032487217 0.017594205 -0.045801304 0.03944827
0.0064849034 2.8456573 -0.00948843 1.1294132 -1.209915 -0.01633459 -0.9041721 -0.04434465
0.014589223 -0.028477766 0.0072980323 0.16134642 -0.04885216 3.082404 -0.014438027 0.007944249
1.5340247 -0.8095787 0.62547415 -0.05783336 4.1659436 0.027435258 -0.0014376972 0.011304826
-0.03700846 -0.03525339 0.045312703 -0.0023301742 -0.020208577 3.3803332 1.5235399 0.06235011
0.04388822 0.013128776 1.7269645 0.5401543 0.012350895 0.008652903 2.2747273 0.014888884
0.56756455 1.8042402 1.424188 -0.0671434 0.037526093 0.006825911 1.8199236 -0.033560462
-0.043521147 -0.03066404 -0.34825698 0.060823653 0.7369789 3.9608102 0.021641523 -0.6315957
0.060068414 -0.03743692 0.015203431 2.9198766 3.3368335 0.010249411 -0.048152983 1.7617886
00000000: a50e 973f 1295 0c3d 746f fb3c 98fa 80ba
00000010: 172b 31bd 09a6 aa3f 9d85 d93f e4fc a93b
00000020: 71d1 d83c 215d dd3b 2df2 52bc 27d4 b2bc
00000030: e264 f63f 3276 c93e 8f5f 5040 f236 2dbd
00000040: 9eca b13f 305b be3f c477 1940 b814 783c
00000050: 9cf6 c6bb 21c3 27bc 65ea 3b40 669b 673d
00000060: 0419 f93f 95d9 ea3b 325a 3540 7a61 23bd
00000070: 694f 483c dbf3 3840 c6c5 63bd 0d2f 1e40
00000080: 6d15 b2bc c240 79bc d656 06bb c3fe 423c
00000090: 1376 8cbc ce41 4b3d a2ee 25bd c1e3 9fbd
000000a0: 3e78 0f3d cf4a bdbc 0b88 2240 a45b 9bbc
000000b0: 7dbc aa3b 9c10 3340 4cbe c73c 9f23 163e
000000c0: 4787 cbb9 e5dc c63f 0de4 913c 2646 383d
000000d0: 70f6 68bc d849 de3c ae64 4640 4c35 d0bb
000000e0: 1136 95bd 7ed3 11bd 50e3 713f 8072 483c
000000f0: 05fd ecbc 4049 9440 e625 2740 0a3a 333d
00000100: 5bda 3dbc 0039 033b a835 68bd bbd2 243c
00000110: 4f9c cfbb cd3a 52bc 666d 6a3d 97ee 2840
00000120: d2d1 1bbd 281f c0bc 1be2 c5bb 603f 313b
00000130: 18e1 08bc 2046 873c a629 7d3b 0b70 493d
00000140: d524 013d 3ddd 4cbd 8140 443c 4771 d13f
00000150: 3e45 ed3f 5ce9 6e3d 80ee e83f 82a0 1fbd
00000160: 9bdb 0fbd ddef 5cbd 5bd0 0540 d6bc 0f40
00000170: 6586 f13a a62f c0bf 204e a83b 08fd fd3c
00000180: 33a2 653f ea2f 63bd e05a babb 51c3 2240
00000190: 234a d7bc f7e8 db3f 3266 6d3d 6a8a 75bd
000001a0: 3c2e 90bc 93bc 31bd 9cfb 2abc d651 84bc
000001b0: 0a97 2fbc 5278 54bd 0d13 1040 3792 2d40
000001c0: c4f2 18bd 8a85 8140 81fe 3c40 39ef 05bd
000001d0: 4bea e1bc 8113 f8bc 47b8 9d40 7d1f 8fbc
000001e0: 6b52 98bc b1b4 6840 9358 9a3f a660 523d
000001f0: 7053 90bb 7c34 a43a 2bf4 1e40 802a f0bb
00000200: 32fe 0940 5c06 a53f 00ba 9fbb ba79 2a40
00000210: 8311 b53c e286 14bd 0d96 e93c 6542 3e3e
00000220: 4b32 4a40 af2f 16bd 7071 16bd 2049 91bb
00000230: 8be3 ab3b 903c 3bbf 1b93 f93f 53f0 873d
00000240: 36a1 cd3c 12f0 5abf 4b5b 92be 930f 0140
00000250: ce3d 19bb 045a d83c 0aa7 5dbc 2858 cb3b
00000260: 9364 7e3b b9ce 883f 0e48 753d 1c1c 1340
00000270: 7ec5 3c3c b5e3 29bd 379f bf3a 8454 383c
00000280: 1c0a 18bd f3d7 efbc 0cab 183c cb70 8d3c
00000290: ad5e e53e 40ef 3940 a8af 1b3f aa29 f2be
000002a0: a0e9 13bd 2683 c13e 3d56 1d40 ec52 4b3b
000002b0: 575a c1bc 0fe5 a4bc 3a2a 0f40 2160 823c
000002c0: 7877 983c faf3 003c 398e 01bd f15c bf3f
000002d0: 3a2b 6340 1328 8340 4bac 7d3f eb90 2a40
000002e0: 7283 e0bc f2e9 f83f 6e5e 4440 ecf3 20c0
000002f0: 5111 05bd b921 903c 269a 3bbd 8294 213d
00000300: 507f d43b 401f 3640 5c75 1bbc 9d90 903f
00000310: 7fde 9abf 1ed0 85bc d377 67bf bca2 35bd
00000320: a307 6f3c 344a e9bc 5524 ef3b ff37 253e
00000330: 3419 48bd 1b46 4540 798d 6cbc 9828 023c
00000340: ec5a c43f 8d40 4fbf 131f 203f ace2 6cbd
00000350: 694f 8540 e8bf e03c 1d71 bcba e037 393c
00000360: 2f96 17bd dc65 10bd d099 393d d6b5 18bb
00000370: 758c a5bc 6157 5840 5b03 c33f d462 7f3d
00000380: 22c4 333d 141a 573c 2c0d dd3f 8d47 0a3f
00000390: 695b 4a3c e8c4 0d3c 2295 1140 81f0 733c
000003a0: e94b 113f 58f1 e63f cb4b b63f 7b82 89bd
000003b0: f6b4 193d e4ab df3b 42f3 e83f b276 09bd
000003c0: 3b43 32bd 2733 fbbc bd4e b2be 3922 793d
000003d0: a6aa 3c3f ea7d 7d40 9049 b13c 41b0 21bf
000003e0: 4c0a 763d 7557 19bd d017 793c 42df 3a40
000003f0: ae8e 5540 25ed 273c 103c 45bd 4a82 e13f

fc3.bias f4 [5]
0.016994033 0.074015595 0.3657755 0.10420351 -0.11164204
00000000: 1237 8b3c 7d95 973d ed46 bb3e a668 d53d
00000010: 95a4 e4bd
