other_model/dqn_team_b_ep140.pth (torch, 286849 bytes, 6 tensors)

fc1.weight f4 [256, 14]
0	0x3eecef50	0.4627633
1	0xbf7e0de0	-0.9923992
2	0x3ed9b350	0.42519617
3	0x3e2ed703	0.17074208
4	0x3ecc72a2	0.39931208
5	0xbf4657fd	-0.7747801
6	0xbde1e37e	-0.11029719
7	0xbf5e5835	-0.86853343
8	0x3efe5d7a	0.49680692
9	0xbe93c673	-0.28862342
10	0x4028eed0	2.639576
11	0xc00fdf18	-2.2479916
12	0x3e2670cd	0.16253968
13	0xbdce4574	-0.10071841
14	0xbe787d03	-0.24266438
15	0xbef589be	-0.4795665
16	0xbd9eb517	-0.07749384
17	0x3e213dea	0.15746275
18	0xbde98378	-0.11402029
19	0xbcb44366	-0.022004794
20	0xbd1d86d0	-0.038458645
21	0xbe8a7b74	-0.27047312
22	0x3ea652d4	0.32485068
23	0x3d3cbe2f	0.04607981
24	0xbea6fba6	-0.32613868
25	0x3dd28605	0.102794684
26	0xbe2834ac	-0.16426343
27	0xbdb0c9d4	-0.08632246
28	0xbec93fc0	-0.3930645
29	0xbf65d8e4	-0.89784074
30	0x3d79f8ed	0.06102841
31	0x3dd9f649	0.10642678
32	0x3e294050	0.1652844
33	0x3e8fd87a	0.28094846
34	0xbdd6dc79	-0.104912706
35	0xbd244e69	-0.04011384
36	0xbf1d2c29	-0.6139551
37	0x3f16c3dc	0.5889261
38	0x3e215986	0.15756807
39	0x3f4e18d9	0.80506665
40	0x3ea3fb32	0.32027584
41	0xbda9f300	-0.08298302
42	0xbe7828a4	-0.24234253
43	0x3dc6c1e5	0.09704951
44	0xbe72151d	-0.23640867
45	0x3ddb0ed7	0.1069619
46	0xbe4f98bf	-0.20273112
47	0xbe854ce8	-0.26035237
48	0x3d0f6b7b	0.03501461
49	0xbd5e418c	-0.05426173
50	0x3e1d9575	0.15389045
51	0xbdd53888	-0.10411173
52	0x3ceccab9	0.02890526
53	0x3e4ada61	0.19809867
54	0xbd80218e	-0.062564
55	0xbd78210c	-0.06057839
56	0xbe5565b9	-0.20839585
57	0x3dfdbd93	0.12389674
58	0xbc40c0f5	-0.011764755
59	0x3e4f82b7	0.20264708
60	0x3df97da0	0.12182164
61	0xbe52df9f	-0.20593117
62	0xbe4611e1	-0.19342758
63	0x3e111e5a	0.14171734
64	0xbde44bcf	-0.11147272
65	0x3e4ee3f0	0.20204139
66	0xbe0e6808	-0.13906872
67	0xbe58fb1c	-0.2118954
68	0xbe357b0e	-0.17722723
69	0xbe86bde1	-0.2631674
70	0xbf24c12c	-0.64357257
71	0xbe242aa8	-0.16031897
72	0xbf19a960	-0.6002407
73	0x3c77531a	0.015095497
74	0xbe6cc3f5	-0.23121627
75	0xbe16f701	-0.14742662
76	0x3c6da373	0.014504301
77	0xbed61170	-0.4181018
78	0xbeab1313	-0.3341299
79	0x3e92e77d	0.28692237
80	0x3eed8e63	0.46397695
81	0xbf94da1b	-1.162906
82	0x3e86388f	0.26215026
83	0xbe0e30e9	-0.13885845
84	0xbe57ede1	-0.21086837
85	0x3e665da3	0.22496657
86	0xbe67c039	-0.22631921
87	0xbc55b284	-0.01304305
88	0xbe77105f	-0.24127339
89	0xbe882909	-0.26593807
90	0x3e2f5522	0.1712232
91	0xbdbed2de	-0.093175635
92	0x3e110503	0.14162068
93	0xbe7381d9	-0.23780002
94	0xbce0c231	-0.027436348
95	0x3e05c14f	0.13062023
96	0xbd72d0d5	-0.05928119
97	0x3e13fd35	0.1445206
98	0x3e24b89b	0.16086046
99	0xbe323ec0	-0.1740675
100	0x3d3f9bc5	0.046779413
101	0xbef46c7e	-0.47739023
102	0x3db93a60	0.09044337
103	0xbe4b8330	-0.19874263
104	0x3eba6c04	0.36410534
105	0xbe6f4e84	-0.23369795
106	0xbea3da89	-0.32002667
107	0xbe6393c6	-0.2222434
108	0x3f0de44e	0.5542649
109	0xbed6665f	-0.41874978
110	0xbde5a5e2	-0.1121328
111	0xbe5d9e10	-0.21642327
112	0x3db6dfb0	0.08929384
113	0xbf378cea	-0.7169939
114	0x3e2fc3b6	0.17164502
115	0xbe95ff6f	-0.29296443
116	0x3d67af6e	0.056563787
117	0xbe4292c7	-0.19001304
118	0xbe3732f4	-0.17890531
119	0x3e692bcf	0.22770618
120	0xbf8a3a12	-1.0798972
121	0xbe9123d1	-0.28347638
122	0xc090b553	-4.5221343
123	0x3d8d885b	0.06910773
124	0x3e605a3c	0.21909422
125	0x3e16ac25	0.14714105
126	0xbe46d483	-0.19417004
127	0xbdd183d7	-0.102302246
128	0xbe017757	-0.12643181
129	0x3dd6c14a	0.10486086
130	0xbdc17dc3	-0.09447815
131	0x3d3366b5	0.04379912
132	0xbe52935c	-0.20564026
133	0x3db1f857	0.08689945
134	0xbe80b0ab	-0.25134787
135	0xbe3789e3	-0.17923693
136	0x3e5223a9	0.20521416
137	0xbc347cca	-0.01101608
138	0xbe21f767	-0.15817033
139	0xbe76e47e	-0.241106
140	0xbe83b135	-0.25721136
141	0xbd2660aa	-0.04061953
142	0x3d5d5c94	0.054043368
143	0x3dd3ec7a	0.10347839
144	0x3e140bd7	0.14457642
145	0xbe6c0523	-0.23048835
146	0x3edac9e7	0.42732164
147	0xbd303ca9	-0.0430266
148	0x3f3a1782	0.7269212
149	0x3f5d86f4	0.8653405
150	0x3ffb7e5c	1.9647937
151	0x4001e6a1	2.0297015
152	0x3dfa02c7	0.12207561
153	0xbcb3e3c4	-0.021959193
154	0xbf332466	-0.69977415
155	0x3ee00d27	0.43760034
156	0xbf2d4c4a	-0.6769453
157	0x3e81fccf	0.2538819
158	0xbf5993ca	-0.84991133
159	0x3efcecab	0.49399313
160	0xbf6e58a6	-0.93104017
161	0xbd63a5b6	-0.055577956
162	0x3ead9e87	0.3391001
163	0xbe41c991	-0.18924548
164	0xbfe16d8f	-1.761156
165	0x3fb97958	1.4490156
166	0x3dcb15df	0.09916281
167	0x3d9e3707	0.077253394
168	0x3e11894c	0.14212531
169	0xbe59cd17	-0.21269642
170	0x3d8a87ce	0.06764184
171	0xbe14ce60	-0.14531851
172	0xbe87df8e	-0.26537746
173	0xbf73b8c4	-0.95203805
174	0xbe919242	-0.28431898
175	0x3d7cbcaa	0.06170336
176	0x3ebbbc54	0.3666712
177	0x3f0f68dc	0.5601938
178	0x3f9b100a	1.211427
179	0x40765fff	3.8496091
180	0x3e84226e	0.25807518
181	0x3c645485	0.013936167
182	0x3c746bc9	0.014918276
183	0x3de45db0	0.11150682
184	0xbe715de2	-0.2357097
185	0xbe69d0b7	-0.22833525
186	0xbed29e92	-0.41136605
187	0xbe0af5c3	-0.13570313
188	0xbe0157e9	-0.12631191
189	0x3e4ee811	0.20205714
190	0x3e7a2eba	0.24431887
191	0x3e468aa5	0.19388826
192	0x3f46d874	0.7767403
193	0x40404acb	3.004565
194	0x3ddc72cf	0.107640855
195	0x3dbaffcf	0.09130823
196	0xbf6a17ed	-0.9144276
197	0xbe72fa3e	-0.23728272
198	0xbf5bf98b	-0.8592765
199	0x3eab759e	0.33488172
200	0xbecc2c47	-0.3987753
201	0x3e80992d	0.25116864
202	0xbf0af8d1	-0.54285914
203	0x3e7f9407	0.24958812
204	0x3e8e36ba	0.27776128
205	0xbde850fc	-0.113435715
206	0x3eb1c049	0.34717014
207	0x3dacb51c	0.08432981
208	0x3e666f41	0.22503377
209	0x3e143c0c	0.14476031
210	0xbdbd6bbf	-0.092490666
211	0x3d50795a	0.05089698
212	0xbe867db9	-0.26267794
213	0x3dc2fc3b	0.095207654
214	0x3e4b81fd	0.19873805
215	0x3dd5ca5b	0.10438987
216	0xbe1dd7f8	-0.15414417
217	0xbe136614	-0.14394408
218	0x3d299098	0.04139766
219	0x3cf0b2ce	0.029382136
220	0xbe3d1936	-0.18466648
221	0xbe375c67	-0.17906342
222	0xbe7e03bb	-0.2480611
223	0x3df37920	0.11888337
224	0x3dcfbf37	0.10143893
225	0xbf07c53d	-0.53035337
226	0xbdd0ddd1	-0.10198558
227	0xbeeb4593	-0.45951518
228	0x3e757916	0.23971972
229	0x3e75cc49	0.2400371
230	0x3ea4ba5c	0.3217343
231	0x3edd14a3	0.43179807
232	0xbe9b5fce	-0.3034653
233	0x3d950eda	0.07278223
234	0x3f30b598	0.6902709
235	0x3fcd163f	1.6022414
236	0xbe2360bc	-0.1595487
237	0x3c4fb46b	0.012677292
238	0x3e0b50bb	0.13605015
239	0x3e02d507	0.12776576
240	0xbe99ab0b	-0.30013308
241	0xbea27b4a	-0.31734687
242	0x3e2320a5	0.15930422
243	0xbede1e44	-0.43382466
244	0xbea378e0	-0.31928158
245	0xbe3f068f	-0.18654846
246	0x3ea62718	0.324517
247	0x3e264fc3	0.16241364
248	0x3b9e6616	0.004833947
249	0x3f0218b9	0.50818974
250	0xbc7c8455	-0.01541241
251	0xbeac685a	-0.33673364
252	0xbe43edd1	-0.19133689
253	0xbc8e8580	-0.017397642
254	0x3d10fd60	0.035397887
255	0xbda8dcc5	-0.082452334

fc1.bias f4 [256]
0	0xbd1b901b	-0.037979227
1	0xbdd66a7e	-0.104695305
2	0x3e7ae9f6	0.24503312
3	0xbd8556fd	-0.06510732
4	0xbe647b50	-0.22312665
5	0x3e82648a	0.2546733
6	0xbe5f16cd	-0.21786042
7	0x3cace5e2	0.02110571
8	0x3e9280e8	0.28613973
9	0x3e011c9d	0.12608571
10	0x3eafbf02	0.34325415
11	0xbe5b1286	-0.21393785
12	0x3ddc4612	0.10755552
13	0x3e4ceef2	0.20013025
14	0x3e274bb7	0.16337477
15	0xbe0903eb	-0.13380401
16	0x3e01f8b1	0.12692524
17	0xbe77d3cc	-0.24201888
18	0xbe42011b	-0.18945734
19	0xbe3d91e0	-0.18512678
20	0x3c8139dd	0.015774662
21	0x3ebdc3cc	0.37063444
22	0x3dbc987a	0.0920877
23	0x3da62a38	0.08113521
24	0xbd68278b	-0.056678336
25	0x3e3982d5	0.18116315
26	0x3e024bc8	0.12724221
27	0xbde50b21	-0.11183763
28	0xbd0f843e	-0.035038225
29	0x3ec970f1	0.3934398
30	0x3d4801fd	0.04883002
31	0x3e8312e6	0.25600356
32	0xbc14359c	-0.009045985
33	0xbbf8ff2b	-0.007598778
34	0x3e54f5a2	0.20796826
35	0x3e4aed80	0.19817162
36	0x3e4c9e91	0.19982363
37	0xbe6cab5f	-0.23112248
38	0xbe51db6f	-0.20493864
39	0xbe54fc62	-0.20799401
40	0x3e5df9a3	0.2167726
41	0xbdb6a016	-0.08917253
42	0x3da66f2e	0.081266746
43	0xbe13f539	-0.14449014
44	0x3d8de47e	0.06928347
45	0xbd7b68f3	-0.061379384
46	0x3bddc0f6	0.0067673875
47	0xbd9c4435	-0.07630197
48	0x3e564225	0.2092367
49	0xbe06f344	-0.13178736
50	0x3c3b2c11	0.0114240805
51	0xbe8f2f37	-0.2796571
52	0x3e02cf0f	0.12774299
53	0xbdd79bba	-0.10527749
54	0x3e56ba6c	0.20969552
55	0x3d82a0d8	0.06378335
56	0xbd8cea67	-0.06880646
57	0xbeb2c797	-0.349179
58	0xbeb158cf	-0.34638068
59	0xbba28f3f	-0.004960924
60	0xbe089e1f	-0.13341568
61	0xbe6e4cc8	-0.23271477
62	0x3e0b768d	0.13619442
63	0xbe3c2a14	-0.18375427
64	0x3e85ece1	0.26157287
65	0x3ca98ad3	0.02069608
66	0x3ac51023	0.0015034716
67	0xbc1beb65	-0.009516572
68	0x3dba0658	0.09083241
69	0xbe9612b2	-0.29311138
70	0xbc3ad3ed	-0.011403066
71	0xbe4312cf	-0.19050144
72	0x3e2022e9	0.15638317
73	0xbe189964	-0.14902264
74	0x3d81e896	0.0634319
75	0x3dc4fa15	0.09618012
76	0xbe16aeac	-0.1471507
77	0xbe5730d7	-0.21014725
78	0x3cbeb56f	0.023279874
79	0xbe6543d8	-0.22389162
80	0xbd4e89be	-0.05042433
81	0x3da00ccd	0.078149416
82	0x3e0f81ab	0.14014308
83	0xbdf5f901	-0.12010384
84	0xbe9007de	-0.28131002
85	0xbd8ef7a4	-0.069808275
86	0x3df96a84	0.12178519
87	0x3dbfb64b	0.093609415
88	0xbdfe604b	-0.1242071
89	0x3eab97ec	0.33514345
90	0xbdc57d4f	-0.09643041
91	0xbd4a4090	-0.049377978
92	0xbd03bc68	-0.0321621
93	0xbe7f276c	-0.24917382
94	0xbe8c96d2	-0.27458817
95	0x3e3487c2	0.17629912
96	0xbd0f7f22	-0.035033353
97	0xbc48e5be	-0.012261806
98	0x3d94f153	0.072725914
99	0x3e24faa7	0.16111241
100	0xbeac9f7b	-0.33715424
101	0xbefa6476	-0.4890477
102	0xbe71e74f	-0.23623393
103	0x3e9251e5	0.28578106
104	0xbe8570c8	-0.26062608
105	0x3ea7ebea	0.32797176
106	0x3caf0ac2	0.021367434
107	0x3d3b13c3	0.045673143
108	0xbdbf8c45	-0.09352926
109	0x3eaf4e4c	0.34239423
110	0xbe251cb6	-0.16124234
111	0x3cc1feac	0.023681007
112	0xbd9d94e0	-0.07694411
113	0xbe7c3758	-0.24630487
114	0xbe649201	-0.22321321
115	0xbde4a96b	-0.111651264
116	0xbe77543e	-0.2415323
117	0xbe1f6250	-0.15564847
118	0xbe20e87b	-0.15713684
119	0x3db2cebd	0.087308384
120	0x3d66b909	0.056328807
121	0x3e361407	0.17781077
122	0x3d074e10	0.03303343
123	0xbe5d3f8d	-0.21606274
124	0x3e5772a7	0.2103983
125	0xbd96383a	-0.07334943
126	0x3dde03cb	0.10840567
127	0x3d8fce2a	0.070217445
128	0xbc555466	-0.01302061
129	0xbdffe872	-0.12495507
130	0xbe1422ec	-0.14466447
131	0xbe3928d6	-0.18081984
132	0xbe4ea73e	-0.20180985
133	0xbe215713	-0.15755872
134	0x3e3bee2a	0.18352571
135	0x3cac4c97	0.021032615
136	0x3e034b0c	0.12821597
137	0x3c43d644	0.01195294
138	0xbe490c9e	-0.1963372
139	0xbd8f5922	-0.069994226
140	0xbde38e73	-0.111111544
141	0xbbee4a61	-0.0072720503
142	0xbe5f2748	-0.21792328
143	0x3d77bdfe	0.060483925
144	0xbe437f3a	-0.19091502
145	0x3e92e2ed	0.28688756
146	0x3e1841b1	0.1486881
147	0x3e879d34	0.26487124
148	0xbcf9108f	-0.030403404
149	0x3e30d176	0.17267403
150	0xbdc94550	-0.098276734
151	0xbcca8300	-0.024720669
152	0xbdd78b6c	-0.105246395
153	0x3e57ed3a	0.21086589
154	0x3d7335a7	0.05937734
155	0x3dad5920	0.08464265
156	0x3e0c29ac	0.13687772
157	0xbded9d94	-0.11602321
158	0x3dcfa493	0.10138812
159	0x3d34e2c0	0.04416156
160	0xbd0b8b26	-0.03406825
161	0xbe3b2046	-0.1827403
162	0x3dc8bc6c	0.098015636
163	0x3dbac988	0.0912047
164	0x3e2c4e80	0.1682682
165	0xbc65eb5b	-0.014033164
166	0x3de04a57	0.10951679
167	0x3e1339e9	0.1437756
168	0x3e6fe8a9	0.23428597
169	0x3e834514	0.2563864
170	0x3e641330	0.22272944
171	0xbdf21344	-0.11820081
172	0xbd2028df	-0.039101478
173	0x3eaac050	0.33349848
174	0xbe0b3038	-0.13592613
175	0xbe56e304	-0.20985037
176	0x3d08a6ad	0.03336208
177	0xbe97c8ee	-0.29645485
178	0x3a630bf9	0.0008661147
179	0xbe13d73e	-0.14437577
180	0xbdb05a95	-0.08611027
181	0x3e79930b	0.24372499
182	0x3ea5c2f7	0.3237531
183	0xbd052d72	-0.032514043
184	0x3ea464d3	0.32108173
185	0xbbdd296e	-0.0067493236
186	0xbe0409ae	-0.12894318
187	0x3d2ef3d0	0.042712986
188	0xbe3d1a8c	-0.18467158
189	0x3e3d4286	0.18482408
190	0x3ed5340e	0.41641277
191	0xbc6fe89e	-0.014642863
192	0xbe77cd36	-0.24199376
193	0xbe864634	-0.26225436
194	0x3eb1a535	0.34696355
195	0x3d2fa9bb	0.042886477
196	0xbd8fbee5	-0.07018832
197	0xbd6fc18f	-0.0585342
198	0xbcb95042	-0.022621278
199	0xbe94d336	-0.2906739
200	0x3bb2c213	0.0054552644
201	0xbd3be0aa	-0.045868553
202	0xbe176d4f	-0.14787792
203	0xbda2f23b	-0.07956358
204	0x3e1cea05	0.15323646
205	0x3e0f5ae5	0.13999517
206	0x3e6ae364	0.22938305
207	0x3e38cd03	0.18046956
208	0x3e0e889a	0.13919297
209	0x3df1a1f8	0.11798471
210	0x3e13a492	0.14418247
211	0x3d63c568	0.055608183
212	0xbe2d6fa6	-0.16937122
213	0x3d696bf7	0.05698773
214	0xb9817442	-0.00024691416
215	0xbe9b244c	-0.3030113
216	0xbe4e12db	-0.2012438
217	0xbd2c0042	-0.041992433
218	0xbe85f8ce	-0.26166385
219	0xbe2ef049	-0.17083849
220	0x3cc3951f	0.023874817
221	0x3e500da5	0.20317705
222	0x3dd5254e	0.10407506
223	0xbe8b6a86	-0.27229708
224	0xbe917d1e	-0.2841577
225	0xbe80d8ba	-0.2516535
226	0x3e2628db	0.16226523
227	0x3e37c9e0	0.17948103
228	0xbe357b6d	-0.17722864
229	0xbda49d33	-0.08037796
230	0x3e8e8ed6	0.2784335
231	0x3deb4a27	0.11488753
232	0x3db1c241	0.08679629
233	0x3e773289	0.24140371
234	0x3e5411db	0.20709936
235	0x3c7d95e8	0.015477635
236	0xbd43b96b	-0.04778425
237	0xbdab0573	-0.08350649
238	0xbea63543	-0.3246251
239	0xbdba757a	-0.09104438
240	0xbea9b711	-0.3314748
241	0xbe0d2011	-0.13781764
242	0x3cca424d	0.024689818
243	0xbe07b251	-0.13251616
244	0x3e8f306d	0.27966633
245	0x3d9fd8c5	0.078050174
246	0x3eaee719	0.3416069
247	0x3e2550ac	0.16144055
248	0xbc4dd49a	-0.012562895
249	0xbe3eb4e3	-0.1862369
250	0x3d479e27	0.04873481
251	0xbdcbdd2b	-0.09954294
252	0xbe659959	-0.22421779
253	0x3e1d7f9d	0.15380712
254	0x3d8face0	0.07015395
255	0xbe334d58	-0.17509973

fc2.weight f4 [256, 256]
0	0xbfc44a77	-1.5335225
1	0xbeeba39d	-0.46023265
2	0x3f5e9af7	0.8695521
3	0x3c976318	0.018479869
4	0xbc278cac	-0.01022641
5	0xbf8b917e	-1.0903776
6	0xbd412a78	-0.047159642
7	0xbf16ca3e	-0.5890235
8	0xbfb1dce8	-1.389554
9	0x3cf95994	0.030438222
10	0x3d3e3bd8	0.04644379
11	0xbfdc4da7	-1.7211198
12	0x3f6d5479	0.9270702
13	0x3f0a6805	0.5406497
14	0x3eeb345a	0.4593838
15	0x3c89be55	0.01681439
16	0x3e9346bd	0.28764907
17	0xbf5ed58c	-0.87044597
18	0x3cdd0104	0.026978023
19	0x3f21e3ac	0.63238025
20	0x3b2e16a0	0.0026563779
21	0xbed014b7	-0.40640804
22	0x3a9ee9c0	0.0012124106
23	0xbe9848e9	-0.29743126
24	0xbddf669e	-0.109082446
25	0x3e1fe8d6	0.15616164
26	0x400e637b	2.2248218
27	0x3d7dc11e	0.06195175
28	0x3f1f772c	0.62291217
29	0xbf5df0ad	-0.8669537
30	0x3ca1f19b	0.019768527
31	0x3f0ddad4	0.5541203
32	0xbcb5509c	-0.022133164
33	0x40234fe2	2.5517507
34	0xbc7e41e0	-0.0155186355
35	0xbce5fe85	-0.028075466
36	0xc003784b	-2.054217
37	0xbca60b4a	-0.020269055
38	0xbd57ba5e	-0.052667968
39	0xbf311487	-0.6917195
40	0xbca53d04	-0.020170696
41	0x3e037d8f	0.12840866
42	0x3f2b9176	0.6701883
43	0xbc65f870	-0.014036283
44	0xbd43da24	-0.047815457
45	0xbbf77310	-0.0075515583
46	0x3c2c6220	0.010521442
47	0xbd4d028f	-0.05005127
48	0xbfc60ecd	-1.5473267
49	0x3fa0c686	1.2560585
50	0x3ca44048	0.020050183
51	0x400b1947	2.1734178
52	0x3f22f072	0.6364814
53	0x3c4cd67e	0.012502311
54	0x3fba09ec	1.4534278
55	0xbc8b98f8	-0.017040715
56	0x3d158da6	0.03651204
57	0x3cdeb18c	0.02718427
58	0xbfb20865	-1.3908812
59	0x3d2987e2	0.041389354
60	0x3d7eb2c0	0.062182188
61	0xbf889109	-1.0669261
62	0xb9870700	-0.00025754422
63	0xbd4b52b2	-0.04963941
64	0x400c8b3a	2.1959977
65	0xbe01b01d	-0.12664838
66	0xbf156366	-0.58354795
67	0x3eea921c	0.45814598
68	0xbce94f9b	-0.028480342
69	0xbf48d402	-0.784485
70	0xbd11a5c2	-0.03555847
71	0x3f46e23b	0.7768895
72	0x3d0d7c82	0.034542568
73	0x3bfce1e0	0.007717356
74	0x3d1eb07e	0.038742535
75	0x3c623dd0	0.013808683
76	0x3d05b2c8	0.032641202
77	0xbf4a3245	-0.78982955
78	0xc02ef71d	-2.7338326
79	0x3bfabd49	0.007651959
80	0x3e98816e	0.29786247
81	0x3d3bbe8e	0.045836024
82	0x3f1c3d97	0.6103148
83	0x3d80a540	0.06281519
84	0x3fd17f10	1.6366901
85	0xbf021af1	-0.5082236
86	0x3ede750f	0.43448684
87	0xbe402082	-0.18762401
88	0xbf39fe04	-0.7265322
89	0x3ef06951	0.4695535
90	0xbfeb6eef	-1.8393229
91	0xbf8f57e1	-1.1198694
92	0x3ec7408e	0.3891644
93	0xbd8432e8	-0.06455022
94	0xbe8f63e2	-0.28005892
95	0xbff2259f	-1.8917731
96	0xbd3b950f	-0.04579645
97	0xbe0527cd	-0.13003464
98	0xbf9b207d	-1.211929
99	0xbd367f26	-0.044554852
100	0xbf2da19b	-0.67824715
101	0xbfeeee55	-1.8666483
102	0xbcc7cb06	-0.024388801
103	0x3f5d1004	0.8635256
104	0x3c17ef8f	0.009273424
105	0xbf9941eb	-1.1973242
106	0x3cc5b914	0.024136104
107	0xbf54265f	-0.8287105
108	0xbd1fde31	-0.039030258
109	0x3ea34248	0.31886506
110	0x3ebebfd5	0.3725573
111	0xbcb2b2f0	-0.02181384
112	0xbd256548	-0.040379792
113	0x3e7a9d94	0.24474174
114	0x3f152ddf	0.5827312
115	0xbd380b0e	-0.044932418
116	0x3d634d71	0.055493776
117	0xbfb3bbf1	-1.404173
118	0xbd4a28e8	-0.049355417
119	0x3f9cec33	1.2259582
120	0x3cda7bc0	0.026670337
121	0xbd669d7d	-0.056302536
122	0xbfd58444	-1.6680989
123	0x3ffc7350	1.972269
124	0x3d94561c	0.072429866
125	0x3d15a988	0.03653863
126	0x3fc7dd62	1.5614436
127	0xbfbba06c	-1.4658332
128	0xbf765ad5	-0.9623235
129	0xbc6a046a	-0.014283279
130	0xc005a878	-2.0884075
131	0xc0051150	-2.0791817
132	0xbf6313a6	-0.88701856
133	0x3ba99346	0.005175027
134	0xbd3a8c14	-0.045543745
135	0x3d65e842	0.0561297
136	0x3ef41229	0.47670105
137	0x3e6d04bb	0.23146336
138	0x3c539e68	0.012916185
139	0x3eaaa01f	0.33325288
140	0xbc18a9b0	-0.0093178
141	0xbd46c804	-0.048530594
142	0x3d12e62a	0.035864033
143	0x3ca76c04	0.020437248
144	0xbe0e8c76	-0.13920769
145	0x3f6b698c	0.91957927
146	0xbeb3db78	-0.3512838
147	0xba28b780	-0.0006436035
148	0x3f182542	0.5943185
149	0xbfc72bf2	-1.5560286
150	0xbcc0c3bc	-0.023530833
151	0x3d73ba6e	0.059503965
152	0xbd6a366a	-0.0571808
153	0x3e991107	0.29895803
154	0xbf137da7	-0.57613605
155	0x3d0f604c	0.035003945
156	0x3f0e7a7e	0.5565566
157	0xbd1af6a8	-0.037832886
158	0xbbbce890	-0.0057650283
159	0x3f569206	0.83816564
160	0x3d583768	0.052787215
161	0xbe15a908	-0.14615262
162	0xbd8fdb70	-0.07024276
163	0x3d086173	0.03329606
164	0x3d563848	0.052299768
165	0xbdfce75d	-0.123488165
166	0xbf3cbea1	-0.73728377
167	0xbe6029c9	-0.2189094
168	0x3f4e2a1f	0.8053302
169	0x3eeb9250	0.46010065
170	0xbd87e16b	-0.06634792
171	0x3d39869e	0.045294397
172	0xbf94cba9	-1.1624652
173	0x3de460e1	0.11151291
174	0x3d442aa6	0.047892235
175	0xbd1ff050	-0.03904754
176	0xbd551f89	-0.052032027
177	0x3f86d93c	1.0535045
178	0x3c66ac90	0.014079228
179	0xbf7089db	-0.9396035
180	0xbcf528eb	-0.029926738
181	0x3bdf05fb	0.006806133
182	0xbf1bbcc5	-0.60834914
183	0x3cf89aec	0.03034731
184	0xc005b353	-2.08907
185	0xbfc75231	-1.5571958
186	0x3f6b7b2b	0.91984814
187	0xbe28d734	-0.16488343
188	0xbc739a58	-0.014868341
189	0xbf307c50	-0.68939686
190	0xbe73979d	-0.23788305
191	0xc02136d2	-2.518971
192	0xbc9cf160	-0.019158065
193	0x3f005633	0.5013153
194	0x3fa99dcf	1.3251284
195	0xbe6d05c8	-0.23146737
196	0x3d8c1f01	0.06841851
197	0x3eaa1987	0.332226
198	0x3cfcc525	0.030855725
199	0x3d66bbb9	0.05633137
200	0x3d4e9092	0.05043084
201	0xbf2cdc17	-0.6752333
202	0x3d1778c8	0.03698042
203	0x3de34283	0.110966705
204	0xc02a14a5	-2.65751
205	0x3b74d82c	0.0037360294
206	0x3e8012cd	0.25014344
207	0xbe054c2a	-0.13017336
208	0xbd19412c	-0.03741567
209	0xbde0d9db	-0.10979053
210	0xbd11767c	-0.035513386
211	0x3c53ae20	0.012919933
212	0xbd060692	-0.03272111
213	0x3d5f76b4	0.054556563
214	0x3cf9bbea	0.030485112
215	0xbc636971	-0.01388012
216	0xbd472a0c	-0.048624083
217	0x3b885950	0.0041610375
218	0x3ca5daa0	0.02024585
219	0x3dc1a137	0.094545774
220	0x3f74f681	0.95688635
221	0x3ea07d6b	0.31345686
222	0xbff1c06a	-1.8886845
223	0xbc8d7ae6	-0.017270517
224	0xbf13d113	-0.57740897
225	0x3dbeb5f3	0.09312048
226	0xbd193584	-0.037404552
227	0xbe23950c	-0.15974826
228	0x3caef9b0	0.021359295
229	0xbd5037cc	-0.050834462
230	0xbec73ff8	-0.38915992
231	0x3c7322f0	0.014839873
232	0x3c3f3460	0.011670202
233	0xbcaeee88	-0.021353975
234	0x3fb59878	1.4187155
235	0x3d43c023	0.047790658
236	0x3ec7551d	0.38932124
237	0xbd2e933c	-0.042620882
238	0xbf845d64	-1.0341
239	0x3b337545	0.002738313
240	0x3ef0c3d1	0.47024396
241	0x3e067853	0.13131838
242	0x3f4dd7dd	0.80407506
243	0x3ead4743	0.3384343
244	0x3fdcc311	1.724703
245	0x3d695996	0.0569702
246	0x3f65cdbc	0.8976705
247	0x3ca9857a	0.02069353
248	0xbf76d04f	-0.96411604
249	0xbc073c72	-0.008254157
250	0x3d2c471e	0.04206001
251	0xbf4321eb	-0.7622363
252	0xbcc91039	-0.024543868
253	0xbfb5ec1e	-1.4212682
254	0xc01898d2	-2.3843274
255	0xbb82bb3d	-0.0039896057

fc2.bias f4 [256]
0	0xbcac7012	-0.021049533
1	0x3b022a7d	0.001986175
2	0xbd98361f	-0.07432198
3	0xbdbe5504	-0.09293559
4	0x3dcc4ef0	0.09975994
5	0xb99110ec	-0.00027669163
6	0x3d14361a	0.036184408
7	0xbe29801c	-0.16552776
8	0x3caaaeb5	0.02083526
9	0xbb334ea0	-0.0027360097
10	0xbb74c7e8	-0.0037350599
11	0xbd72d3da	-0.05928407
12	0xbd1597df	-0.03652179
13	0x3d286aa0	0.04111731
14	0x3ce71082	0.028206114
15	0xbd4554f5	-0.048176724
16	0x3c56ac23	0.013102564
17	0xbc93049b	-0.017946532
18	0xbbe1b6ff	-0.00688827
19	0xbcb7e02b	-0.022445759
20	0xbe08d69f	-0.13363121
21	0x3cd51f5a	0.026015926
22	0xbd1214d1	-0.035664383
23	0x3d18888a	0.03723959
24	0x3e8b56a5	0.27214542
25	0x3e74bdf4	0.23900586
26	0xbea52321	-0.32253364
27	0xbdc038f1	-0.09385861
28	0xbd65010e	-0.05590921
29	0x3c947ceb	0.018125972
30	0xbde62ed5	-0.11239401
31	0xbd7c392c	-0.06157796
32	0xbce70b9b	-0.028203776
33	0x3dd60cf1	0.10451687
34	0xbd02a802	-0.031898506
35	0xbc935926	-0.017986845
36	0x3e32f10a	0.17474762
37	0xbd026786	-0.03183701
38	0xbc3be112	-0.011467235
39	0xbd521702	-0.051291473
40	0x3ce206e0	0.027591169
41	0xbe557107	-0.20843898
42	0xbda6cbef	-0.08144366
43	0x3e832de5	0.25620952
44	0x3b4c48b8	0.0031171273
45	0xbcbad731	-0.02280769
46	0xbc3add26	-0.011405265
47	0x3d2da4d4	0.04239352
48	0xbd985c1d	-0.07439444
49	0xbd2a0910	-0.04151255
50	0x3f02ba02	0.51065075
51	0xbd96e2c4	-0.07367471
52	0xbd70972a	-0.05873791
53	0x3e21ab93	0.15788107
54	0x3d267dee	0.04064744
55	0xbdb3e5ab	-0.0878404
56	0xbdd65661	-0.10465694
57	0xbdc3427b	-0.095341645
58	0x3d140c16	0.03614434
59	0x3bc772c8	0.006086681
60	0xbdfd2581	-0.12360669
61	0xba67697d	-0.00088276697
62	0xbbc13fa3	-0.0058974787
63	0x3d1f3771	0.038871232
64	0xbc536f54	-0.012904961
65	0xbda75ac7	-0.08171611
66	0x3e65f145	0.22455318
67	0x3b8ec56c	0.0043570306
68	0x3c06bd50	0.008223847
69	0x3bc360f6	0.0059624864
70	0xbd38c778	-0.045112103
71	0xbe0431d2	-0.1290963
72	0xbd25f104	-0.040513054
73	0xbd79c93d	-0.06098293
74	0x3c949b10	0.018140346
75	0xbda30aac	-0.0796102
76	0xbcdd2a9d	-0.026997859
77	0xbd374b31	-0.044749442
78	0x3bf3378a	0.0074223923
79	0xbd47878f	-0.048713263
80	0xbe5030fd	-0.20331188
81	0xbd23d5f7	-0.039998975
82	0xbd2bed5d	-0.041974414
83	0x3a1d50f2	0.00060011365
84	0xbd59c2ed	-0.05316441
85	0x3b8ed9dd	0.0043594674
86	0xbd2938d3	-0.041313957
87	0x3e1e6aa1	0.15470363
88	0x3f0d978d	0.55309373
89	0xbe2ca20f	-0.16858695
90	0x3a071814	0.0005153429
91	0x3bd3f943	0.0064689233
92	0xbdcc69d7	-0.09981125
93	0xbe14377c	-0.1447429
94	0x3c89e0dc	0.016830854
95	0x3c708484	0.014680032
96	0xbcecc188	-0.028900877
97	0xbbe62e1d	-0.00702454
98	0x3d255c4f	0.040371235
99	0x3d94e15a	0.07269545
100	0x3cd40673	0.025881981
101	0xbd1c12b9	-0.038103793
102	0xbd404d48	-0.0469487
103	0xbe2bd656	-0.16780981
104	0xbe8007c5	-0.25005928
105	0xbd10fdd3	-0.035398316
106	0x3c253e1e	0.010085611
107	0xbd04162a	-0.0322477
108	0x3ce6a848	0.028156415
109	0xbce0a5de	-0.027422842
110	0xbccb4185	-0.024811516
111	0xbbba8857	-0.0056925225
112	0xbd8a18b8	-0.06742996
113	0xbc29680b	-0.010339747
114	0xbd6a2cc0	-0.057171583
115	0x3d30c9d3	0.043161225
116	0x3c03f25a	0.008053387
117	0xbd346d3b	-0.044049483
118	0xbda0fd26	-0.07860784
119	0xbd1b4093	-0.03790338
120	0xbcccba13	-0.02499107
121	0x3c88094e	0.016606
122	0xbda1939a	-0.07889481
123	0x3ea58671	0.32329133
124	0xbd062447	-0.03274944
125	0x3d664813	0.05622108
126	0xbbe7509e	-0.007059171
127	0xbd63d54f	-0.05562335
128	0xbcaf331c	-0.021386676
129	0xbbae92ce	-0.005327559
130	0xbe73f1fb	-0.23822777
131	0x3ce9e346	0.028550755
132	0xbb9a0d8e	-0.004701323
133	0xbd6d14e3	-0.057881247
134	0x3e25c7d0	0.16189504
135	0xbc7b10d3	-0.015323835
136	0xbbaf9b72	-0.0053591067
137	0xbd271c0b	-0.04079823
138	0x3e1a5548	0.15071595
139	0x3c67c25f	0.014145463
140	0xbc22692e	-0.009912772
141	0xbbea333a	-0.00714722
142	0xbd4c9602	-0.049947746
143	0xbd6441d2	-0.055726834
144	0xbe1a4bcc	-0.15067977
145	0x3cf5df7b	0.03001379
146	0xbdc0a2b3	-0.094060324
147	0xbcea56ef	-0.028605906
148	0xbd903d4e	-0.07042943
149	0xbe49e2f0	-0.19715476
150	0xbc315b44	-0.010824982
151	0x3e85040c	0.2597965
152	0xbdbcffc8	-0.09228474
153	0xbda7e10d	-0.08197222
154	0xbd8a1eeb	-0.067441784
155	0xbe4323f9	-0.19056691
156	0xbcc8a921	-0.02449471
157	0x3ed69d92	0.41917092
158	0xbcceb0cd	-0.02523079
159	0x3cbd1906	0.023083221
160	0xbdceafb9	-0.1009211
161	0xbe272ee9	-0.16326489
162	0x3cb669c4	0.02226723
163	0x3d01397e	0.03154897
164	0x3d0415fa	0.03224752
165	0x3c1120fb	0.008857961
166	0x3ce19aac	0.027539574
167	0x3d285d96	0.041104876
168	0x3d1d0f36	0.038344584
169	0xbd77f2e7	-0.060534384
170	0xbd8d2c45	-0.06893209
171	0xbcaeaf2a	-0.02132376
172	0xbcca369d	-0.024684245
173	0x3b962073	0.004581505
174	0xbd9aaee1	-0.07552887
175	0xbd6cf680	-0.05785227
176	0xbd5cf1cf	-0.053941544
177	0x3e01342b	0.12617557
178	0xbd5a94e5	-0.053364653
179	0x3ba8ede8	0.0051553138
180	0x3b9f9877	0.00487047
181	0x3cb1c532	0.021700475
182	0xbd263b2e	-0.040583782
183	0xbd3141d2	-0.04327566
184	0x3cf8912c	0.03034266
185	0x3ec376a6	0.3817646
186	0xbd843687	-0.06455713
187	0xbccca849	-0.024982588
188	0xbcd90b00	-0.026494503
189	0xbd9e9902	-0.07744028
190	0x3e9c9555	0.3058268
191	0x3c9be12a	0.019028265
192	0xbd8eae4b	-0.069668375
193	0xbc8abbd7	-0.016935272
194	0xbbc54cee	-0.0060211336
195	0xbd73ef02	-0.059554107
196	0x3d4728fb	0.048623066
197	0x3eb74d10	0.35800982
198	0xbd9c4ee3	-0.07632234
199	0xbd5a1d5d	-0.05325066
200	0xbd99a3a7	-0.07501917
201	0xbcc95101	-0.024574758
202	0xbcd80f33	-0.026374435
203	0xbe019466	-0.12654266
204	0xbceab9a5	-0.028652975
205	0xbda627a3	-0.08113029
206	0xbd3f857a	-0.046758153
207	0x3eb31fc9	0.34985188
208	0xbcaa1513	-0.020762002
209	0x3c336791	0.010949985
210	0xbc833a36	-0.016018968
211	0x3bdd533c	0.006754307
212	0x3cbc3a45	0.022977004
213	0xbdd0410e	-0.10168658
214	0x3cbaa63f	0.02278435
215	0xbd4f1090	-0.050552905
216	0x3d3d2579	0.046178315
217	0xbc8f417c	-0.01748728
218	0x3cd82afd	0.026387686
219	0xbd3752cb	-0.044756692
220	0xbdb354c1	-0.087564
221	0x3d7b45cf	0.06134587
222	0x3d9949b7	0.07484763
223	0xbce85699	-0.028361605
224	0xbd12c212	-0.03582961
225	0xbce5feaa	-0.028075535
226	0x3ded3d3a	0.11583944
227	0x3c262e29	0.010142841
228	0xbc5f0438	-0.013611846
229	0xbe31f435	-0.17378314
230	0xbdbcd046	-0.092194125
231	0x3b9ba740	0.0047501624
232	0x3cbb9c11	0.022901567
233	0x3ec2bcf9	0.380348
234	0x3e18dbab	0.14927547
235	0xbb1aaf3e	-0.0023602988
236	0xbd83d496	-0.06437032
237	0x3cab6ffd	0.020927424
238	0x3c80e214	0.015732802
239	0xbf1ce4ef	-0.61286825
240	0x3d01eb67	0.031718638
241	0xbb6e09e2	-0.0036321809
242	0x3c4d8a9c	0.012545254
243	0x37b56752	2.1624994e-05
244	0xbe39c53e	-0.18141648
245	0xbd8a502e	-0.06753574
246	0xbc83e3a3	-0.016099757
247	0x3d45ef66	0.04832401
248	0xbae0b539	-0.0017143852
249	0xbcf48797	-0.02984981
250	0x3ed2379e	0.41058058
251	0x3e920c8a	0.28525192
252	0xbd23abc4	-0.03995873
253	0xbe4a4265	-0.1975189
254	0xbe156913	-0.14590864
255	0xbdb8d61a	-0.09025212

fc3.weight f4 [5, 256]
0	0x3f89e6b0	1.0773525
1	0x3d20e632	0.03928203
2	0xbd0a25cf	-0.033727463
3	0x3d1811ce	0.037126355
4	0x3faf0cb3	1.367575
5	0xbf5f809a	-0.87305605
6	0xbd685744	-0.056723848
7	0x3f5fbac4	0.87394357
8	0x3bcf0200	0.006317377
9	0xbcd40086	-0.025879156
10	0xbd727f42	-0.059203394
11	0x3be555d4	0.006998757
12	0xbd9b1ac4	-0.075734645
13	0x3cd768bc	0.026295058
14	0x3bdcb8a9	0.0067358804
15	0x3cfbcd9c	0.03073769
16	0xbd681744	-0.056662813
17	0x3d48022f	0.048830207
18	0xbd320214	-0.043459013
19	0xbcfdb800	-0.030971527
20	0x3f98f410	1.1949482
21	0xbd37146c	-0.04469721
22	0x3c1cd680	0.009572625
23	0x3f9a14e9	1.2037631
24	0x3ef209dc	0.47273147
25	0xbe27a52f	-0.16371606
26	0xbf4ae677	-0.7925791
27	0x3dd6c439	0.10486645
28	0xbb6b73ad	-0.0035927102
29	0xbc34b207	-0.011028773
30	0xbfe5aeb6	-1.7943943
31	0x3d635fda	0.055511333
32	0xbcc6def8	-0.024276242
33	0xbf5d97ec	-0.8655994
34	0x3f51dbfc	0.81976295
35	0xbd242219	-0.04007158
36	0x3f9227d4	1.1418405
37	0x3d4236e2	0.04741562
38	0x3d4cc2f4	0.04999061
39	0x3f998139	1.1992561
40	0xbf29358c	-0.6609733
41	0x3fabe8b2	1.3430388
42	0xbe6ca553	-0.23109941
43	0x3f2b8164	0.6699431
44	0x3d98eee8	0.07467443
45	0x3fb1ec58	1.3900251
46	0x3d309ca4	0.043118134
47	0x3d2c3630	0.042043865
48	0x3f58c2b3	0.8467209
49	0xbcbf0734	-0.023318864
50	0x3ff44615	1.9083887
51	0xbca754a8	-0.02042611
52	0x3f61f157	0.8825888
53	0x3fc76928	1.5578966
54	0xbeb272d8	-0.34853244
55	0x40157839	2.3354628
56	0x3f21c29b	0.6318757
57	0x3da92783	0.082594894
58	0x3bc96060	0.006145522
59	0x3b86e45c	0.004116578
60	0x3f39cde0	0.72579765
61	0xbd1274fc	-0.035756096
62	0xbc5030c3	-0.012706938
63	0xbd157057	-0.03648409
64	0xbc4ad4bb	-0.01237982
65	0xbb4ce3c0	-0.003126368
66	0xbf12f03e	-0.5739783
67	0xbde49316	-0.11160867
68	0x3d07167a	0.03298042
69	0xbd1e2e3a	-0.038618304
70	0x3bd6f014	0.0065593813
71	0x4091f2b8	4.5608788
72	0x3d63aff0	0.05558771
73	0xbcffa30f	-0.031205682
74	0x3b5fa100	0.0034123063
75	0x3fa0de81	1.2567903
76	0xbd710797	-0.05884513
77	0x3c183814	0.009290714
78	0x3cec6280	0.028855562
79	0xbcbd7836	-0.02312861
80	0x3e08b2f0	0.13349509
81	0xbcbfd285	-0.023415813
82	0x39b7c10c	0.0003504831
83	0xbd250484	-0.04028751
84	0x3c9d7740	0.019221902
85	0x40653026	3.5810637
86	0xbc648bae	-0.013949318
87	0x3e06e357	0.13172661
88	0xbf97d48a	-1.1861737
89	0x3f6d326b	0.92655057
90	0xbc84d4e8	-0.016214803
91	0x3ca35a22	0.01994044
92	0xbd565ce4	-0.05233468
93	0x3f969a64	1.1765866
94	0xbd0e7385	-0.034778137
95	0xbd122f8c	-0.035689875
96	0xbd2fdf08	-0.04293731
97	0xbc094cbe	-0.008380113
98	0x3b1b54c2	0.0023701643
99	0x3fb7b0c6	1.4350822
100	0x3c136dc6	0.00899834
101	0xbedbb844	-0.4291402
102	0x3acd685c	0.001567136
103	0x3f6c6bb9	0.9235187
104	0x3fdabcdd	1.7088886
105	0x3d76a3f6	0.06021496
106	0x3cc5c171	0.024140092
107	0x3fc06e61	1.5033685
108	0xbbd686c0	-0.006546825
109	0x3b3a57c5	0.0028433662
110	0x3d6e18f2	0.05812926
111	0xbd0c64b5	-0.03427573
112	0x40103265	2.2530758
113	0x3cf1f5ed	0.029536212
114	0xbd57ee96	-0.052717768
115	0x3cfaffe1	0.03063959
116	0x3f8a966c	1.0827155
117	0x3d0715f6	0.032979928
118	0xbd15b123	-0.036545884
119	0x3f3f6547	0.7476391
120	0xbd5a5039	-0.053299163
121	0xbc3a94db	-0.011388029
122	0xbdb5d5ce	-0.08878671
123	0x40240f05	2.5634167
124	0x3c1a873d	0.009431657
125	0xbf3d24b8	-0.73884153
126	0xbcab88d6	-0.020939272
127	0xbc721252	-0.014774876
128	0x3d0755f8	0.03304097
129	0xbc93fae2	-0.018063966
130	0x3e5b205a	0.2139906
131	0xbd397e8c	-0.0452867
132	0x3c9a0534	0.01880131
133	0x3d038a60	0.032114387
134	0x3dc87c16	0.097892925
135	0x3ca32aac	0.019917808
136	0x3d0c2156	0.03421148
137	0x3ff692a2	1.9263499
138	0xbf7f9d4b	-0.99849385
139	0xbd311504	-0.043232933
140	0x3fc1348b	1.509416
141	0x3d141034	0.036148265
142	0x3da32445	0.07965902
143	0xbd02efd9	-0.031967018
144	0xbe62f00f	-0.22161888
145	0x3c5ae340	0.013359845
146	0xbc13f962	-0.009031625
147	0xbd247452	-0.040149994
148	0x3d398014	0.04528816
149	0x3f6710aa	0.902598
150	0xbbad31c9	-0.005285476
151	0xbfda002f	-1.7031306
152	0x3d50b206	0.050951026
153	0xbc1d8c2b	-0.009615938
154	0x3cb5aa6f	0.022175996
155	0x3e36e523	0.17860846
156	0x3b6c83d9	0.003608933
157	0x3ff0fae2	1.8826563
158	0x3f704a12	0.9386302
159	0xbd5c6cd9	-0.053814743
160	0xbcff4754	-0.031161942
161	0x3f80af81	1.005356
162	0xbd787228	-0.060655743
163	0xba95d48e	-0.0011431144
164	0xbcadd00d	-0.02121737
165	0xbcb1283f	-0.021625636
166	0xbd17b852	-0.037041016
167	0x3c2368b2	0.009973692
168	0xbcbf6ec4	-0.023368247
169	0x3b95cf3f	0.004571825
170	0x3b375ca3	0.00279788
171	0xbe96a005	-0.2941896
172	0xbcf87627	-0.030329777
173	0xbc5fd383	-0.013661268
174	0x3ca4ad4f	0.020102171
175	0x3d0c3c71	0.03423733
176	0x3cb5ab4e	0.022176411
177	0x3f989d42	1.1922991
178	0x3f7ce8ed	0.98792917
179	0xbba1bddb	-0.0049359626
180	0xbd3e432f	-0.04645079
181	0xbd6ba316	-0.057528578
182	0x3d297b09	0.0413771
183	0x3ffecb42	1.9905779
184	0x3cc579cf	0.024105934
185	0xbfd5174e	-1.6647737
186	0xba55ef43	-0.0008160958
187	0xbd286c6d	-0.041119028
188	0x3fe6e890	1.8039722
189	0xbcf7de93	-0.030257499
190	0x3f81b4ec	1.0133338
191	0xbd2c0771	-0.041999284
192	0xbba787f0	-0.0051126406
193	0x3c549928	0.012975968
194	0xbccdf6d4	-0.02514211
195	0x3cb81261	0.022469701
196	0x4045414d	3.0821106
197	0x404a37a3	3.1596458
198	0xbc5a0435	-0.013306667
199	0x3bfa43cb	0.007637476
200	0x3bd11f00	0.0063818693
201	0xbb1fc0f5	-0.0024376486
202	0x3d1c61fc	0.038179383
203	0x3f4918c3	0.7855341
204	0x3fb5a796	1.4191768
205	0xbcfc097b	-0.03076624
206	0x3d6a93ce	0.057269864
207	0xbec5984c	-0.38592756
208	0xbcac96cb	-0.021067997
209	0x3c6f152c	0.01459245
210	0x3ca7fac7	0.020505322
211	0xbc075d97	-0.00826206
212	0x3d4b9aca	0.049708165
213	0x3f5ddf3a	0.8666874
214	0xbc9c0c3e	-0.019048806
215	0xbbb96625	-0.0056579285
216	0x3f4dbf10	0.80369663
217	0x3f4d3484	0.8015826
218	0xbcc3f66c	-0.023921214
219	0x3f725083	0.946541
220	0xbc04ea72	-0.008112537
221	0x3f13bf12	0.57713425
222	0xbfb2932e	-1.3951166
223	0xbbc0c180	-0.005882442
224	0xbd33693c	-0.04380153
225	0x3fb37c5d	1.4022328
226	0x40326d86	2.7879348
227	0x3c889fd0	0.016677767
228	0xbe86cebc	-0.263296
229	0x3fa2db0d	1.2723099
230	0x3cf98f1c	0.030463748
231	0xbd4b639f	-0.049655553
232	0x3c3c42e2	0.0114905555
233	0x3ff684fc	1.9259334
234	0x3f5f1f9a	0.87157595
235	0xbd212b10	-0.03934771
236	0xbabe0e85	-0.0014500177
237	0x3d8eb332	0.069677725
238	0xbd360927	-0.044442322
239	0x401a9e0c	2.4158964
240	0x3f7bba54	0.9833119
241	0x3facfc8f	1.3514575
242	0xbb84a857	-0.004048388
243	0x3c391d49	0.011298486
244	0x3f89dd8d	1.0770737
245	0xbca6c8ed	-0.02035948
246	0x3f899cab	1.0750936
247	0x3f9de7f3	1.233641
248	0x3a2894b5	0.00064308505
249	0xbd3a8958	-0.045541137
250	0xc00bf797	-2.1869867
251	0xbf9ff2a8	-1.2495928
252	0x3f99794b	1.1990141
253	0x3f83a6b2	1.0285246
254	0xbfa70522	-1.3048441
255	0x3cb5f6f4	0.022212483

fc3.bias f4 [5]
0	0x3e8765db	0.26444897
1	0xbea5fb06	-0.32418078
2	0xbd6a64c4	-0.057225004
3	0x3e3b705b	0.18304579
4	0x3e9262ba	0.28590947
