other_model/dqn_team_a_ep740.pth (torch, 286849 bytes, 6 tensors)

fc1.weight f4 [256, 14]
0	0x3ec6fa86	0.3886301
1	0xbf786710	-0.9703226
2	0x3e8bbfb8	0.27294707
3	0xbeed1165	-0.46302333
4	0x3e59aab7	0.21256529
5	0xbe882d92	-0.26597267
6	0x3ef68982	0.48151785
7	0xbe98229a	-0.297139
8	0xc000b692	-2.0111432
9	0x3fb699bc	1.4265666
10	0xc19b7705	-19.433115
11	0x41038629	8.220254
12	0x3d865051	0.06558288
13	0x3e9f2b99	0.3108795
14	0xbc4add45	-0.012381856
15	0x3e5207f1	0.20510842
16	0x3cc06682	0.02348638
17	0x3e2ee78b	0.17080514
18	0xbe8765d9	-0.2644489
19	0x3e2a8b30	0.16654658
20	0xbe1650c8	-0.14679253
21	0xbe42d093	-0.19024877
22	0xbe10fef2	-0.14159754
23	0x3d7fd5d6	0.06245979
24	0x3e476730	0.19472957
25	0xbe2ccb89	-0.16874518
26	0xbdb23aa3	-0.0870259
27	0xbdb7c4e9	-0.089731045
28	0xbdffe125	-0.12494115
29	0xbe7c354c	-0.24629706
30	0x3e4be767	0.19912492
31	0xbd0acea7	-0.033888485
32	0xbe4d4e1c	-0.20049328
33	0x3e400d27	0.18755017
34	0xbe0f98c6	-0.14023122
35	0xbe31158d	-0.17293377
36	0x3dd57f6d	0.10424695
37	0xbe1604b2	-0.14650229
38	0xbe6540c1	-0.22387983
39	0xbd4da6f5	-0.05020805
40	0xbb952f5d	-0.0045527653
41	0x3d2d4e56	0.042311035
42	0xbd31ebc3	-0.04343773
43	0xbe3bb326	-0.18330058
44	0xbe3cfb09	-0.18455137
45	0x3da37ba0	0.07982564
46	0xbdef9f1e	-0.11700271
47	0x3c581e48	0.013190813
48	0xbe7de745	-0.24795254
49	0x3e274ff2	0.1633909
50	0xbe4b957a	-0.1988124
51	0x3c317600	0.010831356
52	0xbe32cfba	-0.17462054
53	0x3e3e6f6a	0.18597189
54	0x3cd44a1a	0.02591424
55	0xbd11a5d9	-0.035558555
56	0xbfc393fb	-1.5279535
57	0xbe475d61	-0.19469215
58	0xbfb42c7b	-1.4076074
59	0xbf9e8ea0	-1.2387276
60	0x3f0af343	0.5427744
61	0x3f5ea85f	0.86975664
62	0x3f0e5161	0.55592924
63	0xbe7fb7d2	-0.24972466
64	0xbf524970	-0.82143307
65	0x3fae4c69	1.3617069
66	0xc0a465a1	-5.137406
67	0x4036a578	2.8538494
68	0x3e4bed07	0.19914638
69	0x3e248bf8	0.16069019
70	0xbe97072e	-0.29497665
71	0xbeec1274	-0.4610783
72	0x3e5224fd	0.20521922
73	0xbe7b04e3	-0.24513583
74	0x3e2d1942	0.16904166
75	0xbd4d5b42	-0.05013586
76	0x3d18e736	0.037329875
77	0xbe1e366c	-0.15450448
78	0xbe88a0f8	-0.2668531
79	0xbe6961b0	-0.22791171
80	0x3e935d38	0.28782058
81	0xbd3a7578	-0.045522183
82	0xbc8624d4	-0.016374983
83	0xbd29c151	-0.041444127
84	0xbe258eff	-0.1616783
85	0xbdc34ac1	-0.095357426
86	0x3e5fe501	0.21864702
87	0xbe84c9f7	-0.25935337
88	0xbe43085c	-0.19046158
89	0x3e749297	0.23884045
90	0x3dd234eb	0.102639996
91	0xbe5cd2ff	-0.21564864
92	0xbe301cd9	-0.17198505
93	0xbd816fbc	-0.0632014
94	0xbe730680	-0.23732948
95	0xbc8cd244	-0.017190106
96	0x3d6d509f	0.057938214
97	0xbdce090f	-0.100603215
98	0x3f2af31d	0.6677721
99	0xbf0b5d43	-0.5443918
100	0x3eb794b4	0.3585564
101	0xbe555e49	-0.20836748
102	0x3e6c131b	0.23054163
103	0x3ec9660e	0.39335674
104	0x3e42d68d	0.19027157
105	0x3ef3e5cd	0.47636262
106	0xbea3dbe7	-0.3200371
107	0xbe92a5e3	-0.28642187
108	0x3f1ad6a0	0.6048374
109	0x3fb579a1	1.4177743
110	0xbe6e47de	-0.23269603
111	0xbd4cae6a	-0.04997102
112	0xbe5d7bda	-0.21629277
113	0xbe8d1cf2	-0.27561146
114	0x3e089521	0.13338138
115	0x3e4e5e6c	0.20153207
116	0x3e067a26	0.13132533
117	0x3ce2cd4f	0.02768579
118	0x3e458cc1	0.19291975
119	0xbe68905e	-0.22711322
120	0xbe74159d	-0.2383637
121	0xbdbc9a71	-0.09209145
122	0xbc1de3d2	-0.009636836
123	0x3c066ebd	0.008205113
124	0xbe4360a0	-0.19079828
125	0xbe8b6cd4	-0.27231467
126	0x3ebae8ca	0.3650573
127	0xbedb0f94	-0.42785323
128	0x3ee4eae5	0.4471046
129	0xbd4df703	-0.050284397
130	0xbee63048	-0.4495871
131	0xbf07df5e	-0.53075206
132	0xbf14b628	-0.5809045
133	0x3ee87890	0.45404482
134	0x3f2c296c	0.67250705
135	0xbf01bde7	-0.50680393
136	0x40225994	2.5367174
137	0xbffd5e18	-1.979434
138	0x3ea75651	0.32683042
139	0x3ea0704d	0.3133568
140	0x3e2f4dcd	0.17119522
141	0xbf81dc1b	-1.0145296
142	0x3d951398	0.07279128
143	0x3d8bda0e	0.068287
144	0x3e1de32c	0.1541869
145	0xbe91c19f	-0.28468034
146	0x3d1d5e04	0.03841974
147	0x3db15025	0.086578645
148	0x3be04b1e	0.006844892
149	0x3d4c2a5e	0.049845092
150	0x408879e9	4.2648816
151	0x3e55585e	0.2083449
152	0x3df53841	0.1197362
153	0x3d972995	0.07380978
154	0xbdea6737	-0.11445468
155	0x3e54d8b4	0.2078579
156	0x3a9c4074	0.0011921064
157	0xbe6a2ebd	-0.22869392
158	0xbe1d98dd	-0.15390344
159	0xbde90b68	-0.11379129
160	0xbd023340	-0.031787157
161	0xbdcd1038	-0.10012859
162	0x3d96b2b5	0.073583044
163	0x3e058d43	0.13042168
164	0xbe4da1b8	-0.20081222
165	0x3d9c7fea	0.07641585
166	0xbe2adf28	-0.1668669
167	0x3e257e78	0.16161525
168	0x3f2e04bd	0.6797598
169	0x3e7fbbe4	0.24974018
170	0x3f52359a	0.8211304
171	0x3f08e306	0.5347141
172	0xbd2e54cf	-0.04256135
173	0xbf0a6e62	-0.5407468
174	0x3e991f6b	0.29906783
175	0x3e085fb8	0.13317764
176	0xc017f5df	-2.3743818
177	0x3f0ec9fe	0.55776966
178	0xc16096a3	-14.036777
179	0xbe679ef1	-0.22619225
180	0x3de593bb	0.11209818
181	0xbcf62207	-0.030045522
182	0x3e4ece01	0.20195772
183	0x3e8b1c82	0.27170187
184	0x3e16ad3e	0.14714524
185	0x3e1172aa	0.14203897
186	0xbeae81fb	-0.34083542
187	0xbf37903c	-0.7170446
188	0xbf1f3617	-0.6219191
189	0xbf135f1c	-0.57567
190	0xba751419	-0.0009349003
191	0xbe21f826	-0.15817317
192	0xbf924503	-1.1427311
193	0x3f23f049	0.6403852
194	0xba064419	-0.00051218417
195	0x3b75c1d9	0.0037499575
196	0x3d8ed947	0.06975036
197	0xbfc3814a	-1.5273831
198	0xbd0dce41	-0.034620527
199	0xbea454fe	-0.32096094
200	0x3e8ee331	0.27907708
201	0x3d46f00d	0.048568774
202	0xbd022325	-0.031771798
203	0x3eba186a	0.3634675
204	0x3e96c28b	0.294453
205	0x3f2ada66	0.667395
206	0x40599069	3.399439
207	0x404c3baf	3.1911428
208	0x3d581910	0.052758276
209	0x3e0ec356	0.13941702
210	0x3e5ee425	0.21766718
211	0x3f75cd58	0.96016455
212	0x3ee4e70b	0.44707522
213	0x3e978691	0.29594854
214	0x3eb670e1	0.35632995
215	0xbef8e2ea	-0.48610622
216	0x3f0e4822	0.55578816
217	0xbece5b82	-0.4030419
218	0xbf20eecf	-0.62864393
219	0xbfea78da	-1.8318131
220	0xc04c9707	-3.196718
221	0xc1515362	-13.082857
222	0xbd554b0c	-0.052073523
223	0x3e09a3be	0.13441369
224	0x3e471072	0.19439867
225	0x3e733096	0.23749003
226	0x3f1fa347	0.62358516
227	0x3e063730	0.1310699
228	0xbfa9c7f0	-1.3264141
229	0x3e7ee8b3	0.24893455
230	0xc01208cc	-2.281787
231	0x3d9bcc6c	0.0760735
232	0x3de583bf	0.11206769
233	0xb8f3751e	-0.00011608958
234	0xbe8d0270	-0.27540922
235	0x3e316f3b	0.17327587
236	0x3e1848c6	0.14871511
237	0xbe2f5bc7	-0.17124854
238	0xbe18dd87	-0.14928256
239	0xbe39fbff	-0.18162535
240	0x3e121268	0.14264834
241	0xbe7e839e	-0.24854895
242	0xbdea3344	-0.114355594
243	0xbb1e164d	-0.002412218
244	0x3dfef9ee	0.12450014
245	0xbe58339d	-0.21113439
246	0x3c1f0eb8	0.009708099
247	0xbe71d22a	-0.23615327
248	0xbdc4e87a	-0.09614654
249	0x3b911b2d	0.0044282884
250	0xbe2e49bc	-0.17020315
251	0xbe368dab	-0.1782748
252	0xbe2a9ad6	-0.16660628
253	0xbe86df2c	-0.26342142
254	0xbd4eea2d	-0.050516296
255	0x3e0235e1	0.12715866

fc1.bias f4 [256]
0	0x3e213619	0.15743293
1	0x3de15c08	0.11003882
2	0xbe877029	-0.2645276
3	0xbd11ef47	-0.035628583
4	0x3e1bece4	0.15227085
5	0xbeb9d553	-0.36295566
6	0xbe06047c	-0.13087648
7	0xbe154b84	-0.14579588
8	0x3e158a37	0.14603506
9	0x3ee7f6e8	0.45305562
10	0x3d7985b0	0.06091851
11	0x3d6c46d5	0.05768474
12	0x3de514b8	0.111855924
13	0xbeb95814	-0.3620001
14	0x3e13f671	0.14449479
15	0x3e224e57	0.15850197
16	0xbba3f62c	-0.005003711
17	0xbd2abe69	-0.041685496
18	0xbe5bd206	-0.21466836
19	0x3e5293d6	0.20564207
20	0x3dea308f	0.11435043
21	0x3dbf0cb9	0.093285985
22	0xbde203d4	-0.110358864
23	0x3d7302ed	0.059328962
24	0xbe6e4725	-0.23269327
25	0x3e0a8c91	0.13530184
26	0xbd5b5ea3	-0.05355705
27	0xbe632935	-0.22183688
28	0x3e3bc7a1	0.18337871
29	0x3eeafdda	0.45896798
30	0xbe815679	-0.25261286
31	0xbe7128e8	-0.23550761
32	0xbc09080b	-0.008363734
33	0xbda0d60f	-0.078533284
34	0xbea58894	-0.32330763
35	0x3d81f483	0.06345465
36	0x3df34a13	0.11879363
37	0xbd7f77a3	-0.062369954
38	0xbe57e146	-0.21082029
39	0xbdde078f	-0.108412854
40	0xbe6184d0	-0.2202332
41	0x3e9ad1dd	0.30238238
42	0xbe8a087d	-0.269596
43	0x3ce0360b	0.02736952
44	0xbe76fcdd	-0.24119897
45	0xbe80a32b	-0.25124487
46	0xbe985748	-0.2975409
47	0x3f518491	0.81842905
48	0x3d54811f	0.051880952
49	0x3ddab88a	0.10679729
50	0xbe6e0b21	-0.23246433
51	0xbe4d398f	-0.20041488
52	0xbd92b5fd	-0.07163618
53	0xbb541f97	-0.0032367462
54	0xbe8991d0	-0.2686906
55	0xbcd465c4	-0.025927432
56	0xbebb313f	-0.3656101
57	0x3e460fda	0.19341984
58	0x3c0fbb97	0.008772752
59	0x3ec6a2e2	0.38796145
60	0x3e510a2b	0.20414035
61	0x3df5cad1	0.12001575
62	0x3d9d000f	0.07666027
63	0xbdf08734	-0.11744538
64	0x3e4e5808	0.20150769
65	0x3e3b9080	0.18316841
66	0x3c1ed685	0.0096947
67	0xbe48e7d5	-0.19619687
68	0x3d3068ad	0.043068577
69	0x3d7e103a	0.062027194
70	0x3ebcdebd	0.36888686
71	0xbcfc832c	-0.030824266
72	0x3e86f8b3	0.26361617
73	0x3e786329	0.24256577
74	0xbd995efe	-0.074888214
75	0x3d860989	0.065447874
76	0xbcb5f594	-0.022211827
77	0xbd993b1e	-0.07481979
78	0x3d435907	0.047692325
79	0x3dc1d06c	0.094635814
80	0xbe51f3e1	-0.20503189
81	0xbd90fa88	-0.07079035
82	0x3e50d142	0.20392326
83	0x3eacbbed	0.33737126
84	0xbe5234ca	-0.2052795
85	0x3dab4c52	0.08364166
86	0xbc3617fa	-0.011114115
87	0x3e3818e6	0.17978248
88	0x3edc409e	0.4301805
89	0xbf0f27fe	-0.559204
90	0xbdce4da7	-0.10073405
91	0x3d00e5de	0.03146922
92	0xbdf24776	-0.11830036
93	0x3cbeb0de	0.023277696
94	0x3d9cdc38	0.07659191
95	0xbde04663	-0.10950925
96	0xbd5ed832	-0.0544054
97	0x3df225f7	0.118236475
98	0xbea18eb4	-0.31554186
99	0x3e3628a8	0.17788947
100	0xbd503c17	-0.050838556
101	0x3f0439c0	0.5165062
102	0xbd5097f6	-0.05092617
103	0xbc6b5db6	-0.014365604
104	0x3d521941	0.051293615
105	0x3b7a39dc	0.003818146
106	0x3dc63343	0.09677746
107	0x3db4b2e6	0.08823185
108	0xbde34c2c	-0.11098513
109	0xbd0e20ee	-0.034699373
110	0x3eae876b	0.3408769
111	0xbe80bc4f	-0.25143668
112	0x3e39ac96	0.18132243
113	0xbe9dba70	-0.30806303
114	0xbe0c4b53	-0.13700609
115	0x3d299067	0.04139748
116	0x3d76c3c6	0.060245298
117	0x3d695b39	0.056971762
118	0xbe9580f7	-0.29199955
119	0xbe9986ec	-0.2998575
120	0xbccf82f8	-0.025331005
121	0x3d2ddc53	0.042446446
122	0xbe6b197f	-0.22958945
123	0x3e15623a	0.14588252
124	0x3e5b6750	0.2142613
125	0xbe594a59	-0.21219768
126	0x3d067e90	0.032835543
127	0xbe842739	-0.25811175
128	0x3f257f51	0.64647394
129	0xbe9953e9	-0.2994683
130	0x3edd3321	0.4320307
131	0xbd8679ea	-0.06566222
132	0x3f0b522d	0.54422265
133	0x3e6be00c	0.23034686
134	0x3dc8b7df	0.09800696
135	0xbc824050	-0.015899807
136	0x3db9e7a8	0.09077388
137	0x3e66f97b	0.22556107
138	0xbdd1d16b	-0.102450214
139	0x3cf51bf0	0.029920548
140	0x3d7b40ed	0.061341215
141	0x3cb89374	0.022531249
142	0xbe22f6cf	-0.15914463
143	0x3e386a9d	0.1800942
144	0x3d48bb39	0.049006674
145	0x3edb8cf3	0.42880973
146	0xbd8a06cc	-0.06739578
147	0x3e2c2d44	0.16814142
148	0xbdfefaf0	-0.12450206
149	0xbe1f5d16	-0.15562853
150	0xbd2aa535	-0.04166146
151	0xbdc73f0d	-0.09728823
152	0x3d6de3bf	0.058078524
153	0x3d359aa6	0.044336937
154	0xbd7bcfe7	-0.061477568
155	0xbe747d1b	-0.23875849
156	0xbe276e7d	-0.16350742
157	0x3e8463f9	0.25857523
158	0xbd745036	-0.059646808
159	0x3e3d0de6	0.18462333
160	0xbe61b6fb	-0.22042458
161	0x3e22b7a6	0.15890369
162	0x3cdd89e0	0.027043283
163	0xbd87415b	-0.066042624
164	0xbe1ec6d5	-0.15505536
165	0xbe848330	-0.25881338
166	0x3f38856b	0.7207858
167	0x3dd1de71	0.102475055
168	0x3d950c34	0.07277718
169	0xbe5e8dbb	-0.21733753
170	0xbe401088	-0.18756306
171	0xbe087649	-0.13326372
172	0x3e903f21	0.28173164
173	0xbe55b0b8	-0.20868194
174	0xbe3c631e	-0.18397185
175	0x3e237c0d	0.1596529
176	0x3d061597	0.032735433
177	0x3e803b8c	0.2504543
178	0x3e2d3cf5	0.16917785
179	0xbccd4963	-0.025059408
180	0xbe1c1fb1	-0.15246464
181	0xbe9cc945	-0.30622306
182	0xbe6601cc	-0.22461623
183	0x3e8867c4	0.26641667
184	0xbe5cdaef	-0.21567892
185	0x3de245c4	0.11048463
186	0x3e25bc41	0.16185094
187	0x3e6bbefe	0.23022076
188	0xbec8b9b5	-0.39204183
189	0xbe3a2c2c	-0.18180913
190	0xbc9e0910	-0.01929143
191	0xbe5a50a4	-0.21319824
192	0xbdb43729	-0.087995835
193	0x3f14a10a	0.58058226
194	0xbea42ac3	-0.32063875
195	0xbe4d60cf	-0.20056461
196	0xbe664bca	-0.22489849
197	0xbd652233	-0.055940818
198	0xbdb60304	-0.08887294
199	0x3e0fc0ce	0.14038393
200	0xbcf35e53	-0.029708063
201	0xbefa373c	-0.48870265
202	0x3e432772	0.19058016
203	0xbd33c5f8	-0.04388997
204	0x3d803424	0.06259945
205	0x3e9526b6	0.29131097
206	0x3d86d888	0.06584269
207	0xbd459274	-0.04823537
208	0xbe0d5dc1	-0.13805296
209	0xbeb70a7c	-0.35750186
210	0xbe31802e	-0.17334053
211	0xbe9645f1	-0.29350236
212	0xbcc57d4a	-0.024107594
213	0x3ddfed95	0.10933987
214	0xbe916a82	-0.28401572
215	0xbe9b8f3c	-0.30382717
216	0x3e0df924	0.13864571
217	0x3e4bcf4a	0.19903293
218	0xbdc4f406	-0.09616856
219	0x3dbed2a5	0.09317521
220	0x3e2d79bc	0.16940969
221	0xbeaebf86	-0.34130496
222	0xbdc5d484	-0.09659675
223	0xbd4381ea	-0.047731318
224	0xbeaf428b	-0.34230456
225	0x3e1987da	0.1499323
226	0x3e1dff3b	0.15429394
227	0xbc3d01b3	-0.01153605
228	0x3e0bec31	0.13664319
229	0xbdd54ab0	-0.10414636
230	0xbe3c238e	-0.18372938
231	0x3e0c54a5	0.13704164
232	0x3db11c2d	0.08647952
233	0x3de21085	0.11038307
234	0x3ea83262	0.3285094
235	0xbe80eef2	-0.251823
236	0xbe887432	-0.2665115
237	0xbe8e92df	-0.2784643
238	0x3e472fd5	0.1945184
239	0x3e626d35	0.22111972
240	0xbedb264f	-0.42802665
241	0xbeb01aaa	-0.34395343
242	0x3dd8d226	0.10586958
243	0x3d743eb5	0.059630115
244	0xbe574822	-0.2102361
245	0x3e340c79	0.17582883
246	0xbe62fdb8	-0.22167099
247	0xbc8a069c	-0.016848855
248	0xbe485bef	-0.1956632
249	0xbe63148f	-0.22175811
250	0xbd1ac862	-0.037788756
251	0xbe3bb6ce	-0.18331453
252	0xbe4eb07c	-0.20184511
253	0x3d414f21	0.047194604
254	0xbea93ec6	-0.33055705
255	0xbeaaa251	-0.33326963

fc2.weight f4 [256, 256]
0	0xbfcee3f4	-1.6163316
1	0xbc9defc0	-0.01927936
2	0x3c9d1a84	0.019177683
3	0x3d649b64	0.055812255
4	0xc0168241	-2.3517
5	0x3df0691e	0.117387995
6	0xbd36819e	-0.044557206
7	0x3ef7837a	0.48342496
8	0x3c8f3ca4	0.01748497
9	0x3faf2eb4	1.3686128
10	0x3f0d21c8	0.5512967
11	0x3ced0930	0.028935045
12	0xbebdb839	-0.37054613
13	0x3f924f7f	1.143051
14	0x3f989d3c	1.1922984
15	0xc1035590	-8.208389
16	0xbf224eb3	-0.63401335
17	0xbd01201a	-0.031524755
18	0x3cfe1dc8	0.03102006
19	0x40177067	2.3662355
20	0xbf82e248	-1.0225306
21	0x3ffb3c0e	1.9627702
22	0xbc9a6b0a	-0.018849868
23	0xbf720992	-0.94545853
24	0x3f0e9b89	0.5570608
25	0x40582fee	3.3779254
26	0xbc6b6080	-0.014366269
27	0xbcdb15f4	-0.026743867
28	0xbde59968	-0.112109005
29	0xc01abf88	-2.4179401
30	0x405ab90d	3.4175446
31	0xbf486bcc	-0.78289485
32	0xbd18ec32	-0.03733463
33	0x3c36f88e	0.0111676585
34	0xbe5a6c7b	-0.21330445
35	0xbfb34268	-1.400464
36	0x3c94ec3b	0.01817905
37	0x3c464261	0.012100787
38	0xbb9b8f80	-0.004747331
39	0x3fe5c8e3	1.7951931
40	0xbc2cd850	-0.01054962
41	0x3ee607b5	0.44927755
42	0x3e33cb5d	0.17558046
43	0xc07c4403	-3.941651
44	0xbccda13a	-0.025101293
45	0x3a037280	0.0005014315
46	0xbd2e2d18	-0.042523474
47	0xc0507ca8	-3.2576084
48	0x3d2d7a7d	0.042353142
49	0x3fc2f8f6	1.5232227
50	0xbd824c16	-0.063621685
51	0xbba11236	-0.004915501
52	0x402d5767	2.7084596
53	0x3cb14598	0.02163963
54	0xbd7c2745	-0.061560888
55	0xbcc2aca8	-0.02376397
56	0xbf0dafed	-0.55346566
57	0x3b27ec20	0.002562292
58	0xbd0badd8	-0.034101337
59	0xbf5ea6a4	-0.86973023
60	0x3cdb4d78	0.026770338
61	0xbd666f0a	-0.05625824
62	0x3f35b727	0.70982593
63	0xbcc3575c	-0.023845367
64	0x3d791c7a	0.060818173
65	0xbfe9e84c	-1.8274016
66	0x3d7964ee	0.06088727
67	0xbf8359b3	-1.0261749
68	0xc0013406	-2.0188003
69	0x3a356b00	0.00069205463
70	0xc0cf4942	-6.4776926
71	0xc040af48	-3.0106983
72	0x3fd4b966	1.6619079
73	0xc05a53a2	-3.4113545
74	0x4026c3db	2.605704
75	0x3d40038e	0.04687839
76	0x3d3ed823	0.046592843
77	0xc04900e1	-3.1406786
78	0x3f8de2f2	1.1084883
79	0xbf64fc4a	-0.8944746
80	0x3e895d71	0.26829103
81	0x3d672486	0.056431316
82	0xbff224b4	-1.8917451
83	0xc033670f	-2.8031652
84	0xbd7ac828	-0.06122604
85	0x3c08e656	0.008355698
86	0x4058875e	3.3832622
87	0xbb996960	-0.004681751
88	0xc0169910	-2.3530922
89	0xbf8181fa	-1.0117791
90	0xc0268405	-2.6018078
91	0x3ccc1550	0.024912506
92	0x401b6abe	2.42839
93	0x3cea3a3c	0.028592221
94	0xbd2a2490	-0.041538775
95	0x401a947d	2.415313
96	0x3fc97f92	1.5742056
97	0x3cda9bd0	0.026685625
98	0xbcbd5484	-0.02311159
99	0xbf4c6e69	-0.7985597
100	0xbeef6ce4	-0.46762764
101	0xc08d1fc3	-4.410127
102	0xbeb91cbd	-0.36154738
103	0x3fd21605	1.641297
104	0x3c811e5c	0.015761547
105	0x3c3d9cc0	0.011573017
106	0x3ce0fb30	0.027463526
107	0x3f75841f	0.95904726
108	0x3c0f4bb4	0.008746076
109	0xbd212958	-0.03934607
110	0xc0c1f946	-6.061679
111	0x3d585942	0.052819498
112	0x3f8a3621	1.0797769
113	0x3ba88e28	0.0051438995
114	0xbd3991be	-0.045305006
115	0x3cf2c8c8	0.029636756
116	0xbfd002a1	-1.6250802
117	0x3d12280f	0.035682734
118	0x3dc3d649	0.09562356
119	0x40497c4e	3.148212
120	0xbfa4da27	-1.2879075
121	0xbc17fb63	-0.009276244
122	0xc0156341	-2.334183
123	0xbd265bae	-0.040614776
124	0xbd6781b2	-0.05652017
125	0xbd9cac91	-0.07650102
126	0x3d58d5de	0.052938335
127	0x3b93746f	0.004499964
128	0xbe9956bc	-0.29948986
129	0xbf2a4bc8	-0.66521883
130	0xbed5a348	-0.41726136
131	0x3d0165ce	0.03159123
132	0x3fa103d1	1.257929
133	0x407e23f0	3.9709435
134	0x3ff36d02	1.9017642
135	0x3ca9d4a8	0.020731285
136	0x3d3947f1	0.045234624
137	0x3face585	1.3507544
138	0xbffff83e	-1.9997633
139	0x3e9709b6	0.29499596
140	0xbc8e646c	-0.01738187
141	0xbe7018a0	-0.23446894
142	0xc017593e	-2.364822
143	0x3e403c0e	0.18772909
144	0x3d853d34	0.06505814
145	0xc09b11a8	-4.8459053
146	0xbfa9fb57	-1.3279828
147	0xc0af5a10	-5.479744
148	0x3c171169	0.0092204595
149	0xbf433161	-0.7624722
150	0xbe8d9d51	-0.27659085
151	0xbaa9c1ae	-0.0012951398
152	0x40828584	4.0787983
153	0x3d7ee853	0.06223328
154	0xbe370ea6	-0.17876682
155	0xbcd4aec4	-0.025962241
156	0xbdfda3b7	-0.12384742
157	0x3cae4994	0.02127532
158	0x3c10eb51	0.008845166
159	0xbc9ff0b5	-0.019523958
160	0x3d5190df	0.05116355
161	0x3c37665e	0.01119384
162	0x3d6bfef4	0.05761619
163	0x3fc26e55	1.5189921
164	0xc06df963	-3.7183464
165	0x3be1403c	0.0068741124
166	0xbf5e0503	-0.867264
167	0x3ce1be08	0.027556434
168	0xc04abf6f	-3.1679342
169	0xbd180c4c	-0.037121102
170	0x3c8ab425	0.016931603
171	0x401ca9be	2.4478602
172	0x40650786	3.5785842
173	0x3d2fc5e2	0.042913325
174	0xbcbf3338	-0.023339853
175	0x401c5086	2.4424148
176	0xbe259c68	-0.16172945
177	0xbcc0e664	-0.023547359
178	0xbd32c491	-0.04364449
179	0xc0006e01	-2.006714
180	0xbe081106	-0.13287744
181	0x404d432d	3.207225
182	0x3ee1179d	0.43963328
183	0xbe14575c	-0.1448645
184	0xbec77b5c	-0.38961303
185	0x3fbf732e	1.4957025
186	0x400f9402	2.2434087
187	0x3ca33eaf	0.01992735
188	0x400944d1	2.1448252
189	0xbe40b696	-0.18819651
190	0xbf8d9963	-1.1062435
191	0xbd45d642	-0.048300035
192	0x403413f4	2.8137178
193	0x4022db6e	2.544643
194	0x3f05b251	0.52225214
195	0xbb814f60	-0.00394623
196	0x3d4c98b2	0.04995031
197	0x4009100e	2.141605
198	0xbf327b35	-0.6971925
199	0x3e621086	0.22076616
200	0xc0613e1c	-3.5194159
201	0x403d8956	2.9615073
202	0xbd3a791a	-0.045525648
203	0x3f8e6313	1.1123985
204	0xbdc50dc3	-0.096217655
205	0xbfdbc311	-1.7168905
206	0x3f8ecb92	1.1155875
207	0x3c26e208	0.010185726
208	0xbd3397e7	-0.043846037
209	0xbd6df9e9	-0.05809966
210	0x3fb461b2	1.4092314
211	0x402e6173	2.7246978
212	0x3d077de8	0.033079058
213	0x3d34f74e	0.04418116
214	0x3ed2900e	0.4112553
215	0x406631c5	3.5967877
216	0x3d3f8a14	0.04676254
217	0x3ce0116c	0.027352057
218	0xbd628009	-0.055297885
219	0xbd09b6b0	-0.03362149
220	0xbf096583	-0.5367052
221	0xbf020d0f	-0.50801176
222	0x3fb376c0	1.4020615
223	0xbc4ab713	-0.01237275
224	0x40114a1e	2.2701488
225	0xc0b40598	-5.625683
226	0x3c6f52a0	0.014607102
227	0xbeccf6f1	-0.4003215
228	0x3e899f40	0.2687931
229	0x3d3cefe1	0.046127204
230	0x40240055	2.5625203
231	0x408b91b3	4.3615355
232	0x3d24fc14	0.040279463
233	0x40549529	3.321604
234	0xbec54462	-0.38528734
235	0x3d3c7c9e	0.04601728
236	0x406d8b63	3.7116325
237	0xbe7afc54	-0.24510318
238	0xbd535768	-0.05159703
239	0xbfe10909	-1.7580882
240	0xbdf71e63	-0.12066343
241	0x3f70a377	0.9399943
242	0xbce88b98	-0.028386876
243	0x3d5c6762	0.05380953
244	0x3d66552a	0.056233563
245	0xbfa92328	-1.3213854
246	0x3d4a5506	0.04939749
247	0xbd70bea8	-0.058775574
248	0x405d3438	3.4563122
249	0x3af33847	0.0018556201
250	0x4027dcd1	2.6228526
251	0xbcbcf16e	-0.023064341
252	0x40bd6d82	5.9196177
253	0x3f4924f3	0.78572005
254	0x3d8c3547	0.06846099
255	0xbdb02e04	-0.08602527

fc2.bias f4 [256]
0	0xbdc9f547	-0.09861236
1	0x3c66d0c5	0.0140878605
2	0xbccbef93	-0.024894511
3	0xbd594eae	-0.05305355
4	0x3c104bd6	0.008807143
5	0xbde4afee	-0.111663684
6	0x3e487544	0.19575983
7	0xbd450df3	-0.048109006
8	0xbd891fbe	-0.066955075
9	0xbe7cceec	-0.2468831
10	0xbdee1cad	-0.11626563
11	0xbd9604fd	-0.0732517
12	0xbd884ce3	-0.0665529
13	0x3faff0f6	1.374541
14	0x3eb6f5e0	0.35734463
15	0xbd6e5467	-0.05818596
16	0x3e3b49f1	0.18289925
17	0x3ed7886a	0.42096263
18	0xbd16ac0f	-0.03678518
19	0x3caf2a84	0.021382578
20	0xbd8465a1	-0.06464697
21	0xbd6182c8	-0.055056363
22	0xbd97428e	-0.07385741
23	0xbda18b10	-0.07887852
24	0xbf4ff9cf	-0.8124055
25	0xbd73a693	-0.05948503
26	0x3e7c3ec4	0.24633318
27	0x3c83529c	0.016030602
28	0xbd9101a3	-0.0708039
29	0x3e42d8f4	0.19028074
30	0xbe8b7f1b	-0.2724541
31	0xbde1c78e	-0.1102439
32	0xbd4e4994	-0.05036314
33	0xbc072ec5	-0.008250897
34	0x3c6d3d82	0.014479997
35	0xbda2ace0	-0.079431295
36	0xbd61d017	-0.05513009
37	0xbc6f44eb	-0.014603834
38	0xbc9b4b93	-0.018956935
39	0xbc43b881	-0.011945845
40	0xbd0e9377	-0.034808602
41	0xbe2b7f81	-0.16747858
42	0xbe2eba57	-0.1706327
43	0xbdafcdf0	-0.08584201
44	0xbce03875	-0.02737067
45	0xbec78462	-0.38968188
46	0xbc86d87d	-0.016460652
47	0xbec198af	-0.378118
48	0x3e41574e	0.1888096
49	0xbea65e3c	-0.3249377
50	0xbd14690c	-0.036232993
51	0xbc098839	-0.008394294
52	0xbd52d980	-0.051476955
53	0xbd6a44e7	-0.057194617
54	0xbe544965	-0.20731123
55	0xbec96a51	-0.39338925
56	0x3fb7498e	1.4319322
57	0xbd4f1369	-0.05055562
58	0xbd9651e9	-0.07339842
59	0xbdc5a850	-0.09651244
60	0xbd35b037	-0.044357505
61	0x3e966b2f	0.2937865
62	0xbcf91d5b	-0.030409506
63	0xbd84fae4	-0.06493166
64	0xbbd55926	-0.0065108715
65	0x3c3c029a	0.01147523
66	0x3f2e0d5a	0.6798912
67	0xbd0e97f7	-0.034812894
68	0xbca4a9ce	-0.0201005
69	0x3c963c9f	0.018339453
70	0xbdc05e49	-0.093929835
71	0x3e8e7f5b	0.2783154
72	0xbd824d11	-0.063623555
73	0xbc46bc36	-0.012129834
74	0xbdcb5434	-0.0992817
75	0xbb9cf521	-0.004789964
76	0xbdb5da51	-0.08879531
77	0x3c2b33b5	0.01044934
78	0xbd0623e3	-0.032749068
79	0xbd0bddb9	-0.034146998
80	0x3cc0a410	0.023515731
81	0xbd92a344	-0.07160047
82	0xbd337e57	-0.04382166
83	0xbeb52999	-0.353833
84	0xbec22a96	-0.37923115
85	0x3f2b341d	0.66876394
86	0x3d5f2e05	0.054487247
87	0x3d016394	0.031589106
88	0xb9ff1d3e	-0.00048659177
89	0xbd4387f9	-0.047737096
90	0x3df35d6d	0.11883054
91	0xbf0e2817	-0.5552992
92	0xbd99f73f	-0.075178616
93	0x3ec5ffd8	0.38671756
94	0x3c6ace74	0.014331449
95	0xbd9fd9be	-0.07805203
96	0x3e6a7645	0.22896679
97	0xbd954b66	-0.07289772
98	0xbf257cf7	-0.64643806
99	0xbc018ef6	-0.00790762
100	0xbd7b11ff	-0.06129646
101	0x3e0686ff	0.13137434
102	0xbed25502	-0.4108048
103	0xbd09749e	-0.03355848
104	0xbc2e894a	-0.010652849
105	0xbc344b36	-0.01100426
106	0xbd80d471	-0.0629052
107	0xbd791979	-0.06081531
108	0xbd2cd05f	-0.042190906
109	0xbd081cf3	-0.033230733
110	0x3f297ffe	0.66210926
111	0x3d723320	0.059130788
112	0xbce735c3	-0.028223878
113	0xbe1a8997	-0.15091549
114	0x3ba7f703	0.0051258816
115	0xbd8546af	-0.065076225
116	0xbdb51c4c	-0.08843288
117	0xbd961192	-0.0732757
118	0x3edb276d	0.42803517
119	0xbd91935f	-0.07108187
120	0xbe7b1dd8	-0.24523103
121	0xbe553f53	-0.20824938
122	0xbf5a78e0	-0.8534069
123	0xbd07bdcd	-0.033139993
124	0x3cd92c2d	0.026510322
125	0xbd42989f	-0.047508832
126	0xbebb424f	-0.36574027
127	0xbd533a9d	-0.05156957
128	0x3ec5058c	0.38480794
129	0xbe3af067	-0.18255769
130	0xbd20540e	-0.03914266
131	0xbdac7f55	-0.08422724
132	0xbd93a041	-0.072083004
133	0xbd81d2fe	-0.06339072
134	0xbdc17b28	-0.09447318
135	0x3f335d88	0.7006459
136	0xbe105229	-0.14093842
137	0xbd0853df	-0.03328311
138	0xbd6dded3	-0.05807383
139	0xbee0c732	-0.43901974
140	0x3cd2f551	0.025751742
141	0xbf1334ea	-0.57502615
142	0x3e04050c	0.1289255
143	0xbdd214b6	-0.102578565
144	0xbcc71e4e	-0.024306443
145	0xbe753511	-0.23946024
146	0x3b841e31	0.0040319194
147	0x3e6c81cb	0.23096387
148	0xbd188406	-0.037235282
149	0xbd45dad7	-0.048304405
150	0xbd13c2e8	-0.03607455
151	0x3c462519	0.012093806
152	0xbe8cfc31	-0.27536157
153	0x3f4f9fb0	0.8110304
154	0xbd81d23a	-0.06338926
155	0x3eac7022	0.336793
156	0xbd9d4355	-0.07678858
157	0xbcea8d60	-0.028631866
158	0xbd83f5e5	-0.06443385
159	0x3c8a3083	0.016868835
160	0x3bbada4f	0.005702294
161	0x3cfa147e	0.03052735
162	0x3b686a64	0.0035463804
163	0xbd70a227	-0.05874839
164	0xbe26ef82	-0.16302302
165	0x3d32794a	0.0435727
166	0x3e62e20f	0.22156547
167	0xbf04e70f	-0.5191507
168	0xbc6c858e	-0.014436139
169	0xbe61ee56	-0.22063574
170	0x3dd2002e	0.102539405
171	0xbd5ff6e9	-0.05467883
172	0xbdb89022	-0.09011866
173	0xbd3cad73	-0.04606385
174	0xbf169d2d	-0.5883358
175	0xbd2bbbee	-0.04192727
176	0xbda2bfb3	-0.0794672
177	0xbb51604c	-0.0031948267
178	0xbcbed9b9	-0.023297178
179	0xbdd4eb12	-0.103963986
180	0x3e59819d	0.2124085
181	0x3f0a2860	0.5396786
182	0xbccfb9f7	-0.02535723
183	0x3ea85eeb	0.32884917
184	0xbdc33887	-0.09532266
185	0x3eef00be	0.46680254
186	0xbe2d2536	-0.16908726
187	0xbda5b2f5	-0.08090774
188	0xbd01590c	-0.031579062
189	0xbdae13df	-0.08499884
190	0xbd25851b	-0.040410142
191	0xbe34f925	-0.17673166
192	0xbb980f18	-0.004640471
193	0xbd418928	-0.047249943
194	0xbd8053d1	-0.06265987
195	0x3d0ab432	0.033863254
196	0x3e186003	0.14880376
197	0xbc8415f9	-0.016123759
198	0xbedd8547	-0.43265745
199	0xbcbb8a34	-0.022893049
200	0xbda39544	-0.079874545
201	0xbd0716a9	-0.032980595
202	0xbd184041	-0.037170652
203	0x3ef1c024	0.47216904
204	0x3c98df50	0.018661171
205	0x3db8a883	0.09016516
206	0xbd637d09	-0.055539165
207	0xbc23e8bf	-0.010004221
208	0x3dff96f1	0.12479962
209	0x3f364301	0.7119599
210	0xbf52e250	-0.82376575
211	0xbd927a08	-0.07152182
212	0x3ec6c951	0.38825467
213	0xbd4d3ee9	-0.050108824
214	0x3c87da66	0.016583633
215	0x3a6fb15f	0.0009143557
216	0x3cb8ba2b	0.02254971
217	0x3da89f29	0.082334824
218	0xbc3ef066	-0.011653995
219	0xbbd46107	-0.006481293
220	0xbd154c5f	-0.036449786
221	0xbec23a88	-0.3793528
222	0xbb9754a8	-0.004618246
223	0xbd9809ad	-0.074237205
224	0xbc980d4e	-0.018561032
225	0x3d01ca9b	0.03168736
226	0xbddf2f69	-0.10897715
227	0x3d11bfc1	0.03558326
228	0xbd45ca33	-0.048288535
229	0x3c0a6511	0.008446948
230	0xbde615a2	-0.11234595
231	0x3c2210b6	0.0098916795
232	0x3eb443bf	0.35207936
233	0x3daa58cc	0.08317718
234	0x3f928f13	1.1449913
235	0x3bf932db	0.0076049394
236	0xbd4c5c88	-0.049892932
237	0xbdb707b4	-0.08937016
238	0x3e0735b2	0.13204077
239	0x3d192501	0.037388805
240	0xbcdc9533	-0.026926612
241	0xbc646ad8	-0.013941489
242	0x3dd1509b	0.102204524
243	0xbc96751e	-0.018366393
244	0xbc0b1c9f	-0.0084907105
245	0x3e0792f4	0.13239652
246	0xbdbef273	-0.09323587
247	0x3ec99dd9	0.3937824
248	0x3cd736f2	0.026271317
249	0x3c2b575a	0.010457838
250	0xbc7339a0	-0.014845282
251	0xbe07f8f2	-0.13278559
252	0xbd87dac8	-0.06633526
253	0x3edf3fe2	0.43603426
254	0x37b87540	2.1989108e-05
255	0x3cae814b	0.021301886

fc3.weight f4 [5, 256]
0	0x404f2635	3.236707
1	0x3d0c9512	0.034321852
2	0x3cfb6f74	0.030692793
3	0xbc8a2c87	-0.016866935
4	0xbd312b17	-0.043253984
5	0x3fe7e99a	1.8118165
6	0x406f4a22	3.7388997
7	0x3ba9fce4	0.0051876176
8	0x3c2d6922	0.010584148
9	0x3fdb1cd5	1.7118174
10	0xc03c5830	-2.9428825
11	0xbbc2dd0f	-0.0059467624
12	0x41036847	8.212958
13	0x3f16b7d0	0.58874226
14	0x40dd3941	6.913239
15	0xbd2d36f2	-0.042288728
16	0x405a1bc1	3.407944
17	0x40719ba7	3.7751253
18	0x403f7d7e	2.9920344
19	0x3c7814b8	0.0151416585
20	0xbbc6f69c	-0.0060718786
21	0xbc27c321	-0.010239393
22	0x40be87b8	5.954067
23	0x3d679b66	0.056544684
24	0x409d6342	4.9183664
25	0x3bead995	0.007167051
26	0x40678aa7	3.6178377
27	0xbd23617a	-0.039887883
28	0x3c484f69	0.012225964
29	0x404a39e1	3.1597826
30	0xbec5031a	-0.3847893
31	0x3f44d11c	0.76881576
32	0xbcb2156d	-0.021738732
33	0xbc7940c2	-0.015213193
34	0xbb0656d6	-0.0020498536
35	0x3c42fec3	0.01190156
36	0xbc8c7613	-0.017146146
37	0x3d0a3364	0.033740416
38	0xbd25eea2	-0.04051078
39	0xbd9fe3c1	-0.078071125
40	0x3d0f783e	0.03502678
41	0x404310d2	3.0479016
42	0x409abb36	4.835353
43	0x4000ef96	2.0146232
44	0x3baabc7d	0.005210458
45	0x40b44e12	5.63453
46	0x3cc7be4c	0.024382733
47	0xbfe4f967	-1.7888612
48	0xbf8a4f2b	-1.080541
49	0x40a0e4a5	5.0279107
50	0x3d0a0076	0.033691846
51	0x3d384626	0.044988774
52	0x3ada1aaa	0.0016640027
53	0x3c3859ec	0.011251908
54	0x40d6341b	6.6938605
55	0xbf0d0ffa	-0.55102503
56	0xbfb11a99	-1.3836242
57	0xbd11d37e	-0.035602085
58	0x406140e7	3.5195863
59	0x3c487280	0.01223433
60	0xbcecfd05	-0.028929243
61	0x40d52dd2	6.6618433
62	0x407cafc7	3.9482286
63	0x3d333a0a	0.043756522
64	0xbc3dda5b	-0.0115877045
65	0x3c2a9541	0.0104115615
66	0xbfb504f5	-1.4142138
67	0x3c24d2bb	0.010060008
68	0xbbcf9c4f	-0.006335772
69	0x3c2a909e	0.010410456
70	0x3d6a6d66	0.057233237
71	0x40ac671a	5.3875856
72	0xbd1bd1d2	-0.038041897
73	0xbcc01f28	-0.023452356
74	0xbbc5e21b	-0.0060389168
75	0x3b313f60	0.002704583
76	0x3bf6b163	0.0075284704
77	0x3c874620	0.01651293
78	0x3ca1c211	0.019745858
79	0x3d49700b	0.049179118
80	0x3d0124d5	0.031529266
81	0xbd4cdd3d	-0.050015677
82	0xbc571d60	-0.013129562
83	0x409657f2	4.6982355
84	0x4068b5d7	3.6360986
85	0xbfb8205e	-1.4384878
86	0x40c775ed	6.233145
87	0xbd1fa082	-0.03897143
88	0xbd0fdb9b	-0.03512154
89	0xbd5cefdd	-0.05393969
90	0x405b102e	3.4228625
91	0x4095f111	4.685677
92	0x3d6d1ee9	0.057890806
93	0x3fb2d70d	1.3971878
94	0x3ba84e20	0.0051362664
95	0x3cfdfd08	0.031004444
96	0x4000b31a	2.0109315
97	0xbd22217d	-0.03958272
98	0xbe875be0	-0.26437283
99	0x4038f731	2.8900874
100	0xbc2a5a84	-0.010397557
101	0x400dfe98	2.2186642
102	0x3fa88617	1.3165921
103	0xbd758a6a	-0.059946455
104	0xbbab0706	-0.005219343
105	0xbd31bc93	-0.04339273
106	0xbc2afb9c	-0.010435965
107	0xbc8451d6	-0.016152304
108	0xbc2f970a	-0.010717163
109	0xbd547852	-0.05187256
110	0x408ae165	4.340014
111	0x409f6f14	4.9823093
112	0xbcafc8a7	-0.021457983
113	0x40eae1f7	7.3400836
114	0x40c639d7	6.1945605
115	0xbd05ef39	-0.032698844
116	0xbbef234f	-0.0072979103
117	0xbcf81381	-0.030282738
118	0x40fe20f8	7.9415245
119	0xbc8f1f7d	-0.01747107
120	0xbf10cc54	-0.5656178
121	0x4096333c	4.693754
122	0x408d2424	4.4106617
123	0x3d5260a6	0.051361702
124	0xbb905370	-0.004404478
125	0xbcb8a9d9	-0.022541927
126	0x40f52b92	7.6615686
127	0xbbf02a80	-0.007329285
128	0x405ae9e8	3.4205265
129	0x4097c685	4.7429833
130	0xbb9fba00	-0.004874468
131	0x40eb598d	7.3546815
132	0x3cb51183	0.022103077
133	0xbd1486e2	-0.036261447
134	0x3ce9960d	0.028513933
135	0xbe6c7585	-0.23091705
136	0x40e89556	7.2682295
137	0xbd162faf	-0.03666657
138	0xbd167170	-0.036729276
139	0xc00bfcb1	-2.187298
140	0x3babe38b	0.005245631
141	0xbfd4b91c	-1.6618991
142	0x40c12f50	6.0370255
143	0x3d616994	0.055032328
144	0x3ccda136	0.025101285
145	0x3e503d77	0.20335947
146	0xbe53b21d	-0.20673414
147	0x4003db42	2.0602574
148	0x3c5dea4e	0.013544632
149	0x3cd85a04	0.02641011
150	0x3b9ba03d	0.0047493265
151	0x3bcb5828	0.0062055774
152	0xbf8b9315	-1.0904261
153	0x40e66abd	7.2005296
154	0x3d75480e	0.05988317
155	0x4015899f	2.3365247
156	0x3c3cc57e	0.011521695
157	0xbd29e3b5	-0.041476924
158	0x3abf9f37	0.0014619593
159	0x3c385484	0.011250619
160	0xbcadf75c	-0.021236114
161	0xbcefd7f3	-0.029277777
162	0x3c18ab0c	0.0093181245
163	0xbca87998	-0.020565793
164	0x3da9b931	0.082872756
165	0x409a7d5f	4.827804
166	0x3e55237c	0.20814317
167	0xbf1bc82d	-0.6085232
168	0xbca5b661	-0.020228567
169	0x40962e70	4.6931686
170	0x40bd43fe	5.91455
171	0x3b4b52ec	0.0031024767
172	0xbcc15a57	-0.023602648
173	0xbb8b20b0	-0.00424584
174	0x40165695	2.3490345
175	0x3c826021	0.015914978
176	0x3c987778	0.018611655
177	0x3c00f3fa	0.007870669
178	0xbd018e39	-0.031629775
179	0x407fa2e1	3.9943163
180	0x405efbda	3.4841218
181	0x412f0cb2	10.940599
182	0x4004063c	2.0628805
183	0x40c64c7b	6.196836
184	0xbc3ccd20	-0.011523515
185	0x40a8a853	5.2705474
186	0x403f08be	2.9849086
187	0xc03de98a	-2.967379
188	0xbd051151	-0.032487217
189	0x3ae04d69	0.0017112914
190	0xbd3b9a26	-0.045801304
191	0x4028e50f	2.6389806
192	0x3bd47f50	0.0064849034
193	0x40a8fdee	5.2809973
194	0xbc1b755c	-0.00948843
195	0x40db037b	6.844175
196	0xbe779c6f	-0.24180768
197	0xbc85d01e	-0.01633459
198	0xbeabd66e	-0.33562034
199	0xbd35a2bc	-0.04434465
200	0xbb039815	-0.0020079662
201	0xbce94a34	-0.028477766
202	0x3bef2455	0.0072980323
203	0x408eecfe	4.4664297
204	0xbd481934	-0.04885216
205	0x40be03a4	5.9379444
206	0xbc6c8d79	-0.014438027
207	0x3c022898	0.007944249
208	0x408e33a1	4.4438024
209	0xbf4b02fe	-0.7930144
210	0x3fef4cf9	1.8695365
211	0xbd6ce2ac	-0.05783336
212	0x411f0ad0	9.94014
213	0x3d069c30	0.032863796
214	0xbabc711d	-0.0014376972
215	0x3c3937e0	0.011304826
216	0xbd17962f	-0.03700846
217	0xc037b78a	-2.8705773
218	0x3d3999d0	0.045312703
219	0xbb18b5d6	-0.0023301742
220	0xbca58c75	-0.020208577
221	0x4104efc3	8.308536
222	0x406f52b9	3.739424
223	0x3d466ae6	0.04844179
224	0x3d33c422	0.04388822
225	0x3c571a14	0.013128776
226	0x40acd853	5.401407
227	0xbeb11fbf	-0.34594533
228	0x3c4a5b69	0.012350895
229	0x3c0dc4e8	0.008652903
230	0x408b25ce	4.348365
231	0xba824a0b	-0.0009940279
232	0xbdd52a24	-0.10408428
233	0x40e6c969	7.212086
234	0x3fc0263f	1.5011672
235	0xbd89827b	-0.0671434
236	0x3d19b4f6	0.037526093
237	0x3bdfabe4	0.006825911
238	0x40a9b82a	5.303731
239	0xbc0847a5	-0.008317863
240	0xbd32433b	-0.043521147
241	0x401f8bcd	2.4929078
242	0x3f965799	1.1745483
243	0x3d3813cc	0.044940755
244	0x4057b16e	3.3702044
245	0x40bbd93f	5.8702693
246	0x3cb14990	0.021641523
247	0x40790d38	3.8914318
248	0x3d760a4c	0.060068414
249	0xbc9571b6	-0.018242698
250	0x3c7917d0	0.015203431
251	0x40a37cb7	5.108974
252	0x40974e28	4.7282906
253	0xbf23992e	-0.6390561
254	0xbcaab3ac	-0.020837627
255	0x405a00f4	3.4063082

fc3.bias f4 [5]
0	0xbf509341	-0.8147469
1	0xbf38ec95	-0.72235996
2	0xbea20aa7	-0.31648752
3	0xbf86d069	-1.0532352
4	0xbf4ab2fb	-0.7917935
