other_model/dqn_team_a_ep350.pth (torch, 286849 bytes, 6 tensors)

fc1.weight f4 [256, 14]
0	0x3eb7381a	0.3578499
1	0xbf658dde	-0.896696
2	0x3e76cfe0	0.24102736
3	0xbf19617b	-0.5991437
4	0xbcd26867	-0.025684549
5	0xbf0f4604	-0.5596621
6	0x3e94e382	0.29079825
7	0xbcb03202	-0.02150822
8	0xc00d1a7f	-2.2047422
9	0x3f87db7c	1.0613856
10	0xc133fef7	-11.249747
11	0x4076f956	3.8589683
12	0x3e8e37ff	0.27777097
13	0x3f05e781	0.5230637
14	0xbc4add45	-0.012381856
15	0x3e5207f1	0.20510842
16	0x3cc06682	0.02348638
17	0x3e2ee78b	0.17080514
18	0xbe8765d9	-0.2644489
19	0x3e2a8b30	0.16654658
20	0xbe1650c8	-0.14679253
21	0xbe42d093	-0.19024877
22	0xbe10fef2	-0.14159754
23	0x3d7fd5d6	0.06245979
24	0x3e476730	0.19472957
25	0xbe2ccb89	-0.16874518
26	0xbdb23aa3	-0.0870259
27	0xbdb7c4e9	-0.089731045
28	0xbdffe125	-0.12494115
29	0xbe7c354c	-0.24629706
30	0x3e4be767	0.19912492
31	0xbd0acea7	-0.033888485
32	0xbe4d4e1c	-0.20049328
33	0x3e400d27	0.18755017
34	0xbe0f98c6	-0.14023122
35	0xbe31158d	-0.17293377
36	0x3dd57f6d	0.10424695
37	0xbe1604b2	-0.14650229
38	0xbe6540c1	-0.22387983
39	0xbd4da6f5	-0.05020805
40	0xbb952f5d	-0.0045527653
41	0x3d2d4e56	0.042311035
42	0xbd31ebc3	-0.04343773
43	0xbe3bb326	-0.18330058
44	0xbe3cfb09	-0.18455137
45	0x3da37ba0	0.07982564
46	0xbdef9f1e	-0.11700271
47	0x3c581e48	0.013190813
48	0xbe7de745	-0.24795254
49	0x3e274ff2	0.1633909
50	0xbe4b957a	-0.1988124
51	0x3c317600	0.010831356
52	0xbe32cfba	-0.17462054
53	0x3e3e6f6a	0.18597189
54	0x3cd44a1a	0.02591424
55	0xbd11a5d9	-0.035558555
56	0xbfa7d2c1	-1.3111192
57	0xbef3553d	-0.4752597
58	0xbf980b7d	-1.1878506
59	0xbf984bce	-1.1898134
60	0x3f1097db	0.56481713
61	0x3f8efa87	1.1170205
62	0x3f143d85	0.5790637
63	0x3ddffa58	0.10936421
64	0xbefd2871	-0.49444917
65	0x3f7ab35f	0.9792995
66	0xc09ce3e4	-4.9028187
67	0xbec0ab41	-0.37630656
68	0x3e2ade94	0.1668647
69	0x3e037ce2	0.12840608
70	0xbe8fbf98	-0.28075862
71	0xbee4cf6b	-0.44689497
72	0x3e60b430	0.21943736
73	0xbe6c7d03	-0.23094563
74	0x3e3ba463	0.18324427
75	0xbd1021ad	-0.035188366
76	0x3d5313c0	0.051532507
77	0xbe0f9eb8	-0.1402539
78	0xbe8192d1	-0.25307325
79	0xbe5a8632	-0.21340254
80	0x3e8c249a	0.27371675
81	0xbcfe8f90	-0.031074315
82	0xbb0f2c4c	-0.0021846471
83	0xbcdf436c	-0.027253829
84	0xbe258eff	-0.1616783
85	0xbdc34ac1	-0.095357426
86	0x3e5fe501	0.21864702
87	0xbe84c9f7	-0.25935337
88	0xbe43085c	-0.19046158
89	0x3e749297	0.23884045
90	0x3dd234eb	0.102639996
91	0xbe5cd2ff	-0.21564864
92	0xbe301cd9	-0.17198505
93	0xbd816fbc	-0.0632014
94	0xbe730680	-0.23732948
95	0xbc8cd244	-0.017190106
96	0x3d6d509f	0.057938214
97	0xbdce090f	-0.100603215
98	0x3f1eb34f	0.61992353
99	0xbee7b23c	-0.4525317
100	0x3e833c89	0.25632122
101	0xbe2bd4fc	-0.16780466
102	0x3e8eebdf	0.2791433
103	0x3f104b8b	0.5636527
104	0x3e69b9ae	0.22824737
105	0x3ecb8c7b	0.39755616
106	0xbe1bcce4	-0.15214878
107	0xbe9dafe0	-0.30798244
108	0x3f8b3304	1.0874944
109	0x4006be8c	2.10538
110	0xbe0601e0	-0.13086653
111	0x3d54679d	0.051856626
112	0xbe53f966	-0.20700607
113	0xbe885131	-0.26624444
114	0x3e121795	0.14266808
115	0x3e57e54f	0.21083568
116	0x3e0ff29c	0.14057392
117	0x3d177077	0.03697249
118	0x3e4f0537	0.20216833
119	0xbe5f369e	-0.21798179
120	0xbe6bcc7c	-0.23027223
121	0xbda936a9	-0.08262379
122	0xbc99bbf8	-0.018766388
123	0x3c8dfac9	0.017331498
124	0xbe39de2c	-0.18151158
125	0xbe86ab99	-0.26302794
126	0x3ec1c9cc	0.3784927
127	0x3d0153ed	0.03157418
128	0x3ec565c8	0.38554215
129	0x3de8d892	0.113694325
130	0xbe9bd233	-0.30433807
131	0xbeb03dab	-0.3442205
132	0xbed02e91	-0.40660527
133	0x39b9ac5f	0.00035414376
134	0x3e1ed5df	0.15511273
135	0xbf4e6f03	-0.8063814
136	0x3c8c4c44	0.01712621
137	0x3ed637c9	0.41839436
138	0x3dc2e9d0	0.095172524
139	0x3da751e2	0.08169915
140	0x3e254014	0.16137725
141	0xbf6492ba	-0.89286387
142	0x3cb09a6c	0.02155801
143	0x3e27e25f	0.16394947
144	0x3dc0e4cd	0.0941864
145	0x3c090d0b	0.008364926
146	0xbcc6b54c	-0.024256371
147	0x3cf6efe1	0.03014368
148	0x3d8c5e70	0.0685395
149	0x3cc72cee	0.024313416
150	0x403ce8c0	2.951706
151	0x4005579c	2.0834723
152	0x3e20a1e9	0.15686764
153	0x3de33693	0.110943936
154	0xbdea6737	-0.11445468
155	0x3e54d8b4	0.2078579
156	0x3a9c4074	0.0011921064
157	0xbe6a2ebd	-0.22869392
158	0xbe1d98dd	-0.15390344
159	0xbde90b68	-0.11379129
160	0xbd023340	-0.031787157
161	0xbdcd1038	-0.10012859
162	0x3d96b2b5	0.073583044
163	0x3e058d43	0.13042168
164	0xbe4da1b8	-0.20081222
165	0x3d9c7fea	0.07641585
166	0xbe2adf28	-0.1668669
167	0x3e257e78	0.16161525
168	0x3ea6f9e7	0.32612535
169	0xbd675496	-0.05647715
170	0x3eed4b3a	0.46346456
171	0x3f05ded8	0.5229316
172	0x3d74c922	0.059762128
173	0xbf809fc3	-1.0048755
174	0x3ed6371c	0.4183892
175	0x3e6d72d4	0.23188335
176	0xc01a73a2	-2.4133077
177	0x3f4fd718	0.8118758
178	0xc0839706	-4.1121855
179	0x3fcc72f8	1.5972586
180	0x3e780a15	0.24222596
181	0x3dccf6fb	0.10008045
182	0x3e43c530	0.1911819
183	0x3e9bf5fe	0.30461115
184	0x3e086476	0.13319573
185	0x3e5154e0	0.20442533
186	0xbe85c2b4	-0.2612511
187	0xbf04930a	-0.51786864
188	0xbf0d18d6	-0.5511602
189	0xbf0f0a90	-0.5587549
190	0x3d92caca	0.07167585
191	0xbda568d1	-0.08076633
192	0xbf8da810	-1.1066914
193	0x3f2d3b21	0.6766835
194	0x3d9b266b	0.07575687
195	0x3da3e0fc	0.08001897
196	0xbd8e36c2	-0.06944038
197	0xbfb943a1	-1.4473764
198	0xbe2478ae	-0.1606166
199	0xbeafba06	-0.34321612
200	0x3e039866	0.12851104
201	0x3e905190	0.28187227
202	0xbe5c5a45	-0.2151881
203	0x3e96e0b8	0.29468322
204	0x3e9c82e1	0.30568603
205	0x3eebdf42	0.4606877
206	0x405dad0d	3.4636872
207	0x404672c1	3.100754
208	0x3d19c3b9	0.03754017
209	0x3dfe5adb	0.12419673
210	0x3dc580d2	0.09643711
211	0x3f721074	0.94556355
212	0x3ede0021	0.43359473
213	0x3e935b7e	0.2878074
214	0xbc7da37b	-0.015480871
215	0x3ee3368f	0.44377562
216	0x3e2a7973	0.16647892
217	0x3d0e6b39	0.034770224
218	0xbc8d3818	-0.017238662
219	0xc006561d	-2.099006
220	0x4048f7b9	3.1401198
221	0xc128be71	-10.5464945
222	0xbdd1b492	-0.10239519
223	0x3dac3a76	0.08409588
224	0xbbe3bce7	-0.006950009
225	0x3e62a9e5	0.22135122
226	0x3ed82f92	0.42223793
227	0x3de28199	0.11059875
228	0xbf0941bd	-0.53615934
229	0x3e9cb3a1	0.30605796
230	0xbfbeea77	-1.4915303
231	0x3d9018cf	0.07035982
232	0x3d0e4a21	0.034738664
233	0xbd9e9b83	-0.07744505
234	0xbe8d0270	-0.27540922
235	0x3e316f3b	0.17327587
236	0x3d92327c	0.071385354
237	0xbe7e8b41	-0.24857809
238	0xbe18dd87	-0.14928256
239	0xbe39fbff	-0.18162535
240	0x3e121268	0.14264834
241	0xbe7e839e	-0.24854895
242	0xbdea3344	-0.114355594
243	0xbb1e164d	-0.002412218
244	0x3dfef9ee	0.12450014
245	0xbe58339d	-0.21113439
246	0x3c1f0eb8	0.009708099
247	0xbe71d22a	-0.23615327
248	0xbdc4e87a	-0.09614654
249	0x3b911b2d	0.0044282884
250	0xbe2e49bc	-0.17020315
251	0xbe368dab	-0.1782748
252	0xbe2a9ad6	-0.16660628
253	0xbe86df2c	-0.26342142
254	0xbd4eea2d	-0.050516296
255	0x3e0235e1	0.12715866

fc1.bias f4 [256]
0	0x3ebd3f0f	0.36962172
1	0x3de15c08	0.11003882
2	0xbe877029	-0.2645276
3	0xbd11ef47	-0.035628583
4	0x3df5bb73	0.11998644
5	0xbeb29164	-0.3487655
6	0xbe06047c	-0.13087648
7	0xbd341838	-0.04396841
8	0x3e1f0cab	0.15532176
9	0x3e62b699	0.22139968
10	0x3dc8d081	0.09805394
11	0x3d6c46d5	0.05768474
12	0x3e77cab5	0.2419842
13	0xbe924b5d	-0.28573123
14	0x3e046087	0.12927447
15	0x3ddd8f52	0.10818352
16	0xbda89e06	-0.082332656
17	0xbd2abe69	-0.041685496
18	0xbe5bd206	-0.21466836
19	0xbe253be1	-0.16136123
20	0x3cc52270	0.024064273
21	0x3e0b6ffb	0.13616936
22	0xbde203d4	-0.110358864
23	0x3db79f23	0.089659
24	0xbe6e4725	-0.23269327
25	0x3e1cab7e	0.15299794
26	0xbd5b5ea3	-0.05355705
27	0xbe632935	-0.22183688
28	0x3e2f29ee	0.17105839
29	0x3e388b62	0.1802192
30	0xbe0abce0	-0.13548613
31	0xbe8c7883	-0.27435693
32	0xbc09080b	-0.008363734
33	0xbda0d60f	-0.078533284
34	0xbeb3cb4d	-0.35116044
35	0x3d5443fc	0.051822647
36	0x3e09e8a5	0.13467653
37	0xbd7f77a3	-0.062369954
38	0xbe57e146	-0.21082029
39	0xbd79bb9d	-0.060969938
40	0xbe6184d0	-0.2202332
41	0x3debe052	0.11517395
42	0xbe1d768d	-0.15377255
43	0x3c87dd85	0.01658512
44	0xbe76fcdd	-0.24119897
45	0xbe80a32b	-0.25124487
46	0xbe985748	-0.2975409
47	0x3f09c9df	0.53823656
48	0x3d54811f	0.051880952
49	0x3d2640c5	0.040589113
50	0xbe6e0b21	-0.23246433
51	0xbe4d398f	-0.20041488
52	0xbd610667	-0.054937746
53	0x3c4f31de	0.012646167
54	0xbe8991d0	-0.2686906
55	0xbcd465c4	-0.025927432
56	0xbeb30f76	-0.34972733
57	0x3e460fda	0.19341984
58	0x3c0fbb97	0.008772752
59	0x3c18f8ee	0.009336693
60	0x3e510a2b	0.20414035
61	0x3df5cad1	0.12001575
62	0xbd63d5a9	-0.055623684
63	0xbdf08734	-0.11744538
64	0x3e4e5808	0.20150769
65	0x3e179aa7	0.14805089
66	0x3c1ed685	0.0096947
67	0xbe3041d5	-0.17212613
68	0xbd155e8b	-0.036467116
69	0x3d7e103a	0.062027194
70	0x3de84297	0.11340826
71	0xbdc533d8	-0.09629029
72	0x3ea3d042	0.31994826
73	0xbd897e62	-0.06713559
74	0xbe0d7507	-0.13814174
75	0x3d860989	0.065447874
76	0xbcb5f594	-0.022211827
77	0xbe1de6c9	-0.15420069
78	0x3d871809	0.06596381
79	0x3d4db5d2	0.050222225
80	0xbe51f3e1	-0.20503189
81	0xbd90fa88	-0.07079035
82	0x3e1d0792	0.15334919
83	0x3e27a095	0.16369851
84	0xbe369025	-0.17828424
85	0x3dab4c52	0.08364166
86	0x3d11b4f1	0.03557295
87	0x3e3818e6	0.17978248
88	0x3e4353ca	0.19074932
89	0xbec43a19	-0.38325575
90	0xbe539652	-0.20662811
91	0x3d41f44b	0.047352117
92	0xbe8440ba	-0.25830632
93	0x3cbeb0de	0.023277696
94	0x3d9cdc38	0.07659191
95	0xbd24bd42	-0.040219553
96	0xbd1dc9c4	-0.038522497
97	0x3df225f7	0.118236475
98	0xbea18eb4	-0.31554186
99	0x3dcbaa29	0.09944565
100	0xbd0f2da9	-0.034955654
101	0x3e758184	0.23975188
102	0xbd5097f6	-0.05092617
103	0x3d695251	0.05696327
104	0x3d521941	0.051293615
105	0x3b7a39dc	0.003818146
106	0x3dc63343	0.09677746
107	0x3e3ce796	0.18447718
108	0xbda23db8	-0.07921928
109	0xbc9a24fe	-0.018816467
110	0x3eac3592	0.3363462
111	0xbe80bc4f	-0.25143668
112	0xbda054d4	-0.0782868
113	0xbe9dba70	-0.30806303
114	0xbe0c4b53	-0.13700609
115	0x3d299067	0.04139748
116	0xbdb22929	-0.08699257
117	0x3d695b39	0.056971762
118	0xbe9580f7	-0.29199955
119	0xbe90e8c3	-0.28302583
120	0xbda0cf01	-0.07851983
121	0x3d2ddc53	0.042446446
122	0xbe2d2a1f	-0.16910599
123	0x3e15623a	0.14588252
124	0x3e5b6750	0.2142613
125	0xbe594a59	-0.21219768
126	0x3d067e90	0.032835543
127	0xbe842739	-0.25811175
128	0x3da902bb	0.08252474
129	0xbe9953e9	-0.2994683
130	0x3e4664c2	0.19374374
131	0xbd0ad6f8	-0.033896416
132	0x3e99ca77	0.3003728
133	0x3e263958	0.16232812
134	0x3dfb1c16	0.12261216
135	0xbc824050	-0.015899807
136	0x3db9e7a8	0.09077388
137	0x3dbdc2a2	0.09265639
138	0xbd6c0b13	-0.05762775
139	0x3cf51bf0	0.029920548
140	0x3d7b40ed	0.061341215
141	0x3cb89374	0.022531249
142	0xbe991fad	-0.2990698
143	0x3e831b31	0.25606683
144	0x3d48bb39	0.049006674
145	0x3ed10ba9	0.40829208
146	0xbd15c684	-0.036566272
147	0x3d7f51d4	0.062333897
148	0xbdfefaf0	-0.12450206
149	0xbea0b052	-0.31384522
150	0xbd2aa535	-0.04166146
151	0xbdc73f0d	-0.09728823
152	0x3d900abb	0.07033297
153	0x3d76a914	0.06021984
154	0xbd7bcfe7	-0.061477568
155	0xbe747d1b	-0.23875849
156	0xbd2cd571	-0.04219574
157	0x3e872d63	0.26401815
158	0xbd3341ca	-0.043763913
159	0x3e4d517e	0.20050618
160	0xbe61b6fb	-0.22042458
161	0x3e22b7a6	0.15890369
162	0x3cdd89e0	0.027043283
163	0xbe7857a0	-0.24252176
164	0xbee3766a	-0.4442628
165	0xbe8883f5	-0.26663175
166	0x3e5fa32e	0.21839592
167	0x3dd1de71	0.102475055
168	0x3e9d440f	0.30715987
169	0xbe5e8dbb	-0.21733753
170	0xbe401088	-0.18756306
171	0xbd47168e	-0.048605494
172	0x3e809ee4	0.25121224
173	0xbe55b0b8	-0.20868194
174	0xbe2d4eea	-0.16924635
175	0x3cfbdc2c	0.030744635
176	0x3d398661	0.04529417
177	0x3e803b8c	0.2504543
178	0x3e2d3cf5	0.16917785
179	0x3d117e73	0.035520982
180	0xbe0bdc19	-0.1365818
181	0xbe80e428	-0.2517407
182	0xbe55be34	-0.20873338
183	0x3e532af9	0.20621862
184	0xbe3366d8	-0.175197
185	0x3e63d985	0.22250946
186	0x3d073ba7	0.033015873
187	0x3e6bbefe	0.23022076
188	0xbee7533a	-0.45180684
189	0xbe3a2c2c	-0.18180913
190	0x3cc98f2c	0.024604402
191	0xbe5a50a4	-0.21319824
192	0xbd024441	-0.031803373
193	0x3ec2b21c	0.38026512
194	0xbea42ac3	-0.32063875
195	0xbe4d60cf	-0.20056461
196	0xbe664bca	-0.22489849
197	0xbd2413c5	-0.040057916
198	0x3d4944df	0.049137946
199	0x3e7aae21	0.24480487
200	0x3d2c5778	0.042075604
201	0xbea608d3	-0.32428607
202	0x3e432772	0.19058016
203	0xbd205b65	-0.03914966
204	0x3df1f459	0.11814184
205	0xbd6d8524	-0.0579883
206	0xbe113eca	-0.14184108
207	0xbd459274	-0.04823537
208	0xbe0d5dc1	-0.13805296
209	0xbeaee8b3	-0.3416191
210	0xbe2e9c7f	-0.17051886
211	0xbe7c9466	-0.24665985
212	0xbcc57d4a	-0.024107594
213	0x3ddfed95	0.10933987
214	0xbe916a82	-0.28401572
215	0xbe484e2c	-0.1956107
216	0x3e0df924	0.13864571
217	0x3e4bcf4a	0.19903293
218	0xbdc4f406	-0.09616856
219	0x3dbed2a5	0.09317521
220	0x3dad29e8	0.084552586
221	0xbe6a8f7a	-0.22906294
222	0xbd9063e9	-0.07050306
223	0xbd02737c	-0.031848416
224	0xbe7c6603	-0.2464829
225	0xbc9899bd	-0.018627996
226	0x3e1dff3b	0.15429394
227	0xbd8d12c3	-0.06888344
228	0x3d2f1a15	0.042749483
229	0xbdd54ab0	-0.10414636
230	0xbddc1288	-0.10745722
231	0x3c9c3e5c	0.019072704
232	0x3dd1a367	0.10236245
233	0x3d2dbc44	0.042415872
234	0x3e0c16c9	0.13680567
235	0xbe719a57	-0.23594032
236	0xbeab6e06	-0.3348238
237	0xbe867116	-0.26258153
238	0x3e472fd5	0.1945184
239	0x3e59ee39	0.21282281
240	0xbe84dfdc	-0.2595204
241	0xbea7f8e1	-0.32807067
242	0x3df95960	0.1217525
243	0x3d743eb5	0.059630115
244	0xbe574822	-0.2102361
245	0x3e340c79	0.17582883
246	0xbe62fdb8	-0.22167099
247	0xbc8a069c	-0.016848855
248	0xbe28cafa	-0.1648368
249	0xbe56af36	-0.20965275
250	0xbe17c03c	-0.14819425
251	0xbe3bb6ce	-0.18331453
252	0xbeb0bc92	-0.34518868
253	0xbe804671	-0.25053743
254	0xbea93ec6	-0.33055705
255	0xbeaaa251	-0.33326963

fc2.weight f4 [256, 256]
0	0xbfb165f2	-1.3859236
1	0xbc9defc0	-0.01927936
2	0x3c9d1a84	0.019177683
3	0x3d649b64	0.055812255
4	0xc051aeb8	-3.276289
5	0x3df0691e	0.117387995
6	0xbd36819e	-0.044557206
7	0x3f228f83	0.6350023
8	0x3c8f3ca4	0.01748497
9	0x3f53ed7f	0.82784265
10	0x3ed68191	0.41895726
11	0x3ced0930	0.028935045
12	0xbe0a634c	-0.13514441
13	0x3f9a9c1b	1.207889
14	0x3f2066f9	0.62657124
15	0xc0690880	-3.6411438
16	0xbeced8ab	-0.4039968
17	0xbd01201a	-0.031524755
18	0x3cfe1dc8	0.03102006
19	0xbd0fc445	-0.035099287
20	0xbf361d96	-0.71138895
21	0x3f71e2c9	0.9448667
22	0xbc9a6b0a	-0.018849868
23	0xbf720992	-0.94545853
24	0x3f0e9b89	0.5570608
25	0x3ff370cc	1.9018798
26	0xbc6b6080	-0.014366269
27	0xbcdb15f4	-0.026743867
28	0x3eb86827	0.36016962
29	0xbfda30cc	-1.7046142
30	0x400db2c0	2.214035
31	0xbfaf9557	-1.371745
32	0xbd18ec32	-0.03733463
33	0x3c36f88e	0.0111676585
34	0xbdae89d7	-0.085223846
35	0xbc10db42	-0.008841338
36	0x3b167ae5	0.0022961434
37	0x3c464261	0.012100787
38	0xbb9b8f80	-0.004747331
39	0x3f5d82cc	0.86527705
40	0xbc2cd850	-0.01054962
41	0x3ef91caa	0.4865468
42	0xbee7d92c	-0.45282876
43	0xc022550c	-2.5364408
44	0xbccda13a	-0.025101293
45	0x3a037280	0.0005014315
46	0xbd2e2d18	-0.042523474
47	0xc02f0196	-2.7344718
48	0x3d2d7a7d	0.042353142
49	0x3f81f32e	1.0152338
50	0xbd824c16	-0.063621685
51	0xbba11236	-0.004915501
52	0x3f4ea912	0.8072673
53	0x3cb14598	0.02163963
54	0xbd7c2745	-0.061560888
55	0xbcc2aca8	-0.02376397
56	0xbf11c0cf	-0.5693483
57	0x3b27ec20	0.002562292
58	0xbd0badd8	-0.034101337
59	0xbf893c88	-1.0721598
60	0x3cdb4d78	0.026770338
61	0xbd666f0a	-0.05625824
62	0x3f44d406	0.7688602
63	0xbcc3575c	-0.023845367
64	0x3d791c7a	0.060818173
65	0xbfac5ab1	-1.3465177
66	0x3d7964ee	0.06088727
67	0xbf8359b3	-1.0261749
68	0xbfe0691f	-1.753208
69	0x3a356b00	0.00069205463
70	0xc06d9110	-3.711979
71	0xbf1731df	-0.5906047
72	0x3f2d1fae	0.67626464
73	0xbf3475b2	-0.7049209
74	0x3fbd42bc	1.4785991
75	0x3d40038e	0.04687839
76	0x3d3ed823	0.046592843
77	0xc00f479c	-2.2387457
78	0x3f8f829c	1.1211734
79	0xbf1887cc	-0.5958221
80	0x3e895d71	0.26829103
81	0x3d672486	0.056431316
82	0xc019a41a	-2.400641
83	0xc039140f	-2.8918493
84	0xbd4fd784	-0.05074264
85	0x3c08e656	0.008355698
86	0x3fb2ee84	1.3979039
87	0xbb996960	-0.004681751
88	0xc00762dd	-2.1154091
89	0xbe6c9479	-0.23103513
90	0xbfa058be	-1.2527082
91	0x3ccc1550	0.024912506
92	0x40294b37	2.6452157
93	0x3cea3a3c	0.028592221
94	0xbd2a2490	-0.041538775
95	0x3f9f9fc1	1.2470628
96	0x3fcb8806	1.5900886
97	0x3cda9bd0	0.026685625
98	0xbcbd5484	-0.02311159
99	0xbf5212e7	-0.8206009
100	0xbeef6ce4	-0.46762764
101	0xbf79b8d9	-0.9754768
102	0xbeb91cbd	-0.36154738
103	0x3f42e9c2	0.76137936
104	0x3c811e5c	0.015761547
105	0x3c3d9cc0	0.011573017
106	0x3ce0fb30	0.027463526
107	0x3f27b0bc	0.6550405
108	0x3c0f4bb4	0.008746076
109	0xbcc035d8	-0.023463175
110	0xc078f8ec	-3.890193
111	0x3d585942	0.052819498
112	0x3dce0ba3	0.10060813
113	0x3ba88e28	0.0051438995
114	0xbd3991be	-0.045305006
115	0x3cf2c8c8	0.029636756
116	0xbb84a460	-0.0040479153
117	0x3d12280f	0.035682734
118	0x3dc3d649	0.09562356
119	0x3f9c79f8	1.2224722
120	0xbeb33e5e	-0.3500852
121	0xbc17fb63	-0.009276244
122	0xc0156341	-2.334183
123	0xbd265bae	-0.040614776
124	0xbd6781b2	-0.05652017
125	0xbd9cac91	-0.07650102
126	0x3d58d5de	0.052938335
127	0x3b93746f	0.004499964
128	0xbcb0f62a	-0.021601755
129	0xbf2a4bc8	-0.66521883
130	0xbd9ae78a	-0.07563694
131	0x3d0165ce	0.03159123
132	0x3f18e2dc	0.5972116
133	0x402693c2	2.6027684
134	0x400a86dd	2.1644814
135	0x3ca9d4a8	0.020731285
136	0x3d3947f1	0.045234624
137	0x3f2b7b9f	0.66985506
138	0xbffff83e	-1.9997633
139	0x3e9709b6	0.29499596
140	0xbc8e646c	-0.01738187
141	0xbe7018a0	-0.23446894
142	0xbedeff3b	-0.435541
143	0x3e21f663	0.15816645
144	0x3d853d34	0.06505814
145	0xbfd48421	-1.6602823
146	0xbfae9334	-1.3638673
147	0xc03cc8cb	-2.9497554
148	0x3c171169	0.0092204595
149	0xbf37964c	-0.7171371
150	0xbe8d9d51	-0.27659085
151	0xbaa9c1ae	-0.0012951398
152	0x3f5f8da9	0.8732553
153	0x3d3dd9e8	0.04635039
154	0xbe370ea6	-0.17876682
155	0xbcd4aec4	-0.025962241
156	0x3f2f68e1	0.6851941
157	0x3cae4994	0.02127532
158	0xbbe69ce0	-0.007037744
159	0xbb6e9ec5	-0.0036410552
160	0x3d5190df	0.05116355
161	0x3c37665e	0.01119384
162	0x3d6bfef4	0.05761619
163	0x3f4be112	0.79640305
164	0xc0441e49	-3.0643485
165	0x3d1b528e	0.037920527
166	0x3f48b66f	0.7840337
167	0x3ce1be08	0.027556434
168	0xc014e29b	-2.326331
169	0xbd180c4c	-0.037121102
170	0x3c8ab425	0.016931603
171	0x3ffe4873	1.986586
172	0x3e22503e	0.15850922
173	0x3d2fc5e2	0.042913325
174	0xbcb1bfeb	-0.021697959
175	0xbd5df676	-0.05419012
176	0xbe259c68	-0.16172945
177	0xbcc0e664	-0.023547359
178	0xbd32c491	-0.04364449
179	0xc0067e0b	-2.101443
180	0xbdef9adb	-0.11699458
181	0x402153ec	2.5207472
182	0x3ee1179d	0.43963328
183	0xbcb52fd6	-0.022117537
184	0xbd1ead4a	-0.03873948
185	0x3f74a99d	0.9557131
186	0x3fd07061	1.6284295
187	0x3ca33eaf	0.01992735
188	0x3f9594d5	1.1686045
189	0xbe40b696	-0.18819651
190	0xbf967ade	-1.1756246
191	0xbd45d642	-0.048300035
192	0x3f49fcb5	0.78901225
193	0x405927b9	3.3930495
194	0x3f05b251	0.52225214
195	0xbb814f60	-0.00394623
196	0x3d4c98b2	0.04995031
197	0x4009100e	2.141605
198	0xbe8b0bed	-0.27157536
199	0x3dba5993	0.09099116
200	0xc060db5b	-3.5133884
201	0x3fcd8090	1.6054859
202	0xbd3a791a	-0.045525648
203	0x3fef6a9e	1.8704412
204	0xbf070486	-0.5274128
205	0xbfc3cf25	-1.529759
206	0x3f99004c	1.1953216
207	0x3c26e208	0.010185726
208	0xbd3397e7	-0.043846037
209	0xbd97842c	-0.07398257
210	0x3ee042bd	0.43800917
211	0x3f25d702	0.647812
212	0x3d077de8	0.033079058
213	0x3d34f74e	0.04418116
214	0x3ed2900e	0.4112553
215	0x4004e32d	2.0763657
216	0x3d3f8a14	0.04676254
217	0x3ce0116c	0.027352057
218	0xbd628009	-0.055297885
219	0xbd09b6b0	-0.03362149
220	0xbf7eec8a	-0.9957968
221	0xbf3ffdb5	-0.749965
222	0x3f34033b	0.7031743
223	0xbc4ab713	-0.01237275
224	0x3f903dec	1.1268897
225	0xc08fe7d8	-4.4970512
226	0x3c6f52a0	0.014607102
227	0xbcb958d4	-0.022625364
228	0x3e3e8787	0.18606387
229	0x3d3cefe1	0.046127204
230	0x3fd4c611	1.6622945
231	0x3eb44e21	0.35215858
232	0x3d24fc14	0.040279463
233	0x402c6633	2.6937377
234	0xbfa7c56e	-1.3107126
235	0x3d3c7c9e	0.04601728
236	0x4021beef	2.5272787
237	0xbe7afc54	-0.24510318
238	0xbd535768	-0.05159703
239	0xbf42b9b1	-0.7606459
240	0xbcd4f3b3	-0.025995111
241	0x3f74b459	0.9558769
242	0xbce88b98	-0.028386876
243	0x3d5c6762	0.05380953
244	0x3d66552a	0.056233563
245	0xbfa92328	-1.3213854
246	0x3d4a5506	0.04939749
247	0xbd70bea8	-0.058775574
248	0x402100ea	2.5156808
249	0x3af33847	0.0018556201
250	0x3d3e8e4e	0.04652243
251	0xbcbcf16e	-0.023064341
252	0x3ec8899a	0.39167482
253	0x3c99a484	0.018755205
254	0x3d8c3547	0.06846099
255	0xbdb02e04	-0.08602527

fc2.bias f4 [256]
0	0xbdd4f949	-0.1039911
1	0x3c66d0c5	0.0140878605
2	0xbccbef93	-0.024894511
3	0xbd594eae	-0.05305355
4	0x3c104bd6	0.008807143
5	0x3bc4bd7d	0.006004034
6	0x3e4f14c5	0.20222767
7	0xbd03ff86	-0.032226108
8	0xbd51310c	-0.051072165
9	0xbca13166	-0.019676875
10	0x3e230a5d	0.15921922
11	0xbd9604fd	-0.0732517
12	0x3df1c042	0.118042484
13	0x3f36e7f6	0.71447694
14	0xbc998787	-0.018741382
15	0xbd6e5467	-0.05818596
16	0x3da274ec	0.07932457
17	0xbecf63c2	-0.40505797
18	0x3d098a43	0.033579122
19	0x3caf2a84	0.021382578
20	0xbd47bcd6	-0.048764072
21	0xbd6182c8	-0.055056363
22	0x3b85567a	0.0040691467
23	0xbd8103d7	-0.062995605
24	0xbecbf5bf	-0.39835927
25	0xbd73a693	-0.05948503
26	0xbd5142cb	-0.05108909
27	0x3d02b7bb	0.0319135
28	0xbd9101a3	-0.0708039
29	0x3cf083b1	0.02935967
30	0xbd6a4771	-0.057197038
31	0xbe8b8273	-0.27247962
32	0xbd4e4994	-0.05036314
33	0xbc072ec5	-0.008250897
34	0x3c6d3d82	0.014479997
35	0xbd8225a6	-0.06354837
36	0xbd61d017	-0.05513009
37	0x3aa7a5fe	0.0012790558
38	0xbc9b4b93	-0.018956935
39	0xbc43b881	-0.011945845
40	0xbd0e9377	-0.034808602
41	0xbdbb9260	-0.09158778
42	0xbd83fd0f	-0.064447515
43	0xbd67b903	-0.056572925
44	0xbce03875	-0.02737067
45	0x3d97ac03	0.074058555
46	0xbc86d87d	-0.016460652
47	0xbeabcfe3	-0.33557042
48	0x3d33b209	0.04387096
49	0xbe28b0d2	-0.16473702
50	0xbbf7aece	-0.00755868
51	0x3bf562d6	0.007488589
52	0xbd52d980	-0.051476955
53	0xbd6a44e7	-0.057194617
54	0x3e3be821	0.18350269
55	0xbd76a367	-0.060214426
56	0x3f0f9d58	0.5609946
57	0xbd4f1369	-0.05055562
58	0xbe3e473f	-0.18581866
59	0xbd8499dc	-0.06474659
60	0xbce94394	-0.028474607
61	0xbe31ea87	-0.17374621
62	0x3d8fa3b9	0.070136495
63	0xbd84fae4	-0.06493166
64	0xbbd55926	-0.0065108715
65	0x3d0cfc6a	0.03442041
66	0xbd90287e	-0.07038973
67	0xbd0e97f7	-0.034812894
68	0xbb8a33bc	-0.004217593
69	0x3cc5faa4	0.024167366
70	0xbdc05e49	-0.093929835
71	0x3e12126c	0.1426484
72	0xbd824d11	-0.063623555
73	0xbc46bc36	-0.012129834
74	0xbdaaccfa	-0.083398774
75	0xbb9cf521	-0.004789964
76	0xbd955317	-0.07291239
77	0x3c2b33b5	0.01044934
78	0xbcc7d5e5	-0.024393985
79	0xbd0bddb9	-0.034146998
80	0x3d216071	0.039398614
81	0xbd92a344	-0.07160047
82	0xbcd41c77	-0.02589248
83	0xbdda60d2	-0.10662998
84	0xbdf5d94e	-0.12004338
85	0xbd82cae6	-0.06386356
86	0xbe1a85c9	-0.15090097
87	0x3d016394	0.031589106
88	0xb9ff1d3e	-0.00048659177
89	0xbbbb31e4	-0.0057127345
90	0xbc82d9e2	-0.015973035
91	0xbc3aab7b	-0.011393423
92	0xbd574314	-0.052554205
93	0x3f150f9c	0.58226943
94	0x3c6ace74	0.014331449
95	0xbd9fd9be	-0.07805203
96	0xbe82c2bb	-0.25539193
97	0xbd954b66	-0.07289772
98	0xbdc1364e	-0.09434186
99	0xbb2fefac	-0.0026845736
100	0xbd3a0392	-0.04541356
101	0xbd9ca518	-0.07648677
102	0xbd414e8b	-0.047194045
103	0xbd09749e	-0.03355848
104	0x3c25b77d	0.010114548
105	0xbc344b36	-0.01100426
106	0xbd80d471	-0.0629052
107	0xbd791979	-0.06081531
108	0xbd2cd05f	-0.042190906
109	0xbd081cf3	-0.033230733
110	0x3eef64b4	0.46756518
111	0xbd78433c	-0.060610995
112	0xbce735c3	-0.028223878
113	0x3e258629	0.1616446
114	0x3d64368b	0.05571608
115	0xbd8546af	-0.065076225
116	0xbdb51c4c	-0.08843288
117	0xbd6b14b2	-0.057392783
118	0x3ed97533	0.42472228
119	0xbd91935f	-0.07108187
120	0xbd624030	-0.055236995
121	0xbe137a6c	-0.14402169
122	0x3d801cc5	0.06255487
123	0xbd07bdcd	-0.033139993
124	0x3d2da483	0.04239322
125	0xbccce2e1	-0.025010528
126	0x3d81a2c1	0.06329871
127	0xbd533a9d	-0.05156957
128	0x3eb79a5e	0.3585996
129	0xbc930947	-0.01794876
130	0xbd20540e	-0.03914266
131	0xbc9b407a	-0.018951643
132	0xbd93a041	-0.072083004
133	0xbd81d2fe	-0.06339072
134	0xbda0f3ef	-0.07859027
135	0x3d8efd23	0.06981876
136	0x3d18d504	0.037312523
137	0xbd0853df	-0.03328311
138	0xbd2cd067	-0.042190935
139	0xbcd5a72b	-0.026080688
140	0x3cd2f551	0.025751742
141	0xbf193885	-0.59851867
142	0xbc82f99c	-0.015988164
143	0xbdb67bcc	-0.08910331
144	0xbcc71e4e	-0.024306443
145	0xbea0084a	-0.31256324
146	0x3ea180f4	0.31543696
147	0x3d85a3c9	0.0652538
148	0xbc5d8e19	-0.013522648
149	0xbd04cc6b	-0.03242151
150	0xbd13c2e8	-0.03607455
151	0x3c462519	0.012093806
152	0x3eaaefee	0.33386177
153	0x3f0d310e	0.55152977
154	0xbd81d23a	-0.06338926
155	0x3f296b2a	0.66179144
156	0xbd9d4355	-0.07678858
157	0xbc50e10a	-0.012748966
158	0xbd83f5e5	-0.06443385
159	0x3c8a3083	0.016868835
160	0x3cb0d378	0.021585211
161	0x3cfa147e	0.03052735
162	0x3b686a64	0.0035463804
163	0xbce00e8a	-0.027350683
164	0xbe647c54	-0.22313052
165	0x3d61a80f	0.055091914
166	0xbeb3bd12	-0.35105187
167	0xbd463291	-0.048388068
168	0x3abda164	0.0014467654
169	0x3e0c7f26	0.13720378
170	0xbdaf5726	-0.08561544
171	0xbd5ff6e9	-0.05467883
172	0xbd9808f9	-0.074235864
173	0xbcf73e10	-0.03018096
174	0xbef6e572	-0.48221928
175	0xbd2bbbee	-0.04192727
176	0xbda2bfb3	-0.0794672
177	0xbb51604c	-0.0031948267
178	0xbcbed9b9	-0.023297178
179	0xbdf0c3b5	-0.11756078
180	0xbd5b9f34	-0.053618625
181	0x3e1c0b12	0.15238598
182	0xbe341b27	-0.17588483
183	0xbd3d11c1	-0.04615951
184	0xbda2b14d	-0.07943974
185	0xbda944b8	-0.0826506
186	0x3dbc1bdc	0.09185001
187	0x3e250cd1	0.1611817
188	0xbc80953c	-0.01569616
189	0xbd8d8ca5	-0.069115914
190	0xbcc8ed5d	-0.024527246
191	0xbd997465	-0.074929036
192	0xbb980f18	-0.004640471
193	0x3d33d3b0	0.043903053
194	0xbd8053d1	-0.06265987
195	0xbe735c23	-0.23765616
196	0x3e6d73ff	0.2318878
197	0xb97c8e67	-0.00024085642
198	0xbe8ff9c3	-0.2812024
199	0xbcbb8a34	-0.022893049
200	0xbda39544	-0.079874545
201	0xbc8c1077	-0.017097695
202	0xbd184041	-0.037170652
203	0x3e82215e	0.25416082
204	0x3c98df50	0.018661171
205	0xbe7f3959	-0.2492422
206	0xbd637d09	-0.055539165
207	0xbb39c133	-0.0028343915
208	0x3b3d2619	0.002886182
209	0x3e04ca96	0.12967905
210	0xbf0fd8db	-0.5619027
211	0xbd927a08	-0.07152182
212	0x3e62ee68	0.22161257
213	0xbcd24318	-0.025666758
214	0x3d04fba1	0.032466535
215	0x3c31caa1	0.010851533
216	0x3cb8ba2b	0.02254971
217	0x3e54ac20	0.20768785
218	0xbc3ef066	-0.011653995
219	0x3c1a0943	0.009401622
220	0xbca87be2	-0.020566884
221	0xbe623417	-0.22090183
222	0xbd197996	-0.03746947
223	0xbd85eaeb	-0.06538948
224	0xbc980d4e	-0.018561032
225	0x3d01ca9b	0.03168736
226	0xbe5d318a	-0.21600929
227	0x3e1d0fd4	0.15338069
228	0xbd04bbcc	-0.03240566
229	0x3cc74f69	0.024329858
230	0x3db1f64d	0.08689556
231	0x3cd3253a	0.025774587
232	0xbd1f6829	-0.038917694
233	0xbd8e330e	-0.06943332
234	0x3de5efbd	0.11227367
235	0x3bf932db	0.0076049394
236	0xbd0b4e27	-0.03401008
237	0xbd96807a	-0.07348724
238	0xbc444893	-0.011980194
239	0x3c2f9e34	0.010718871
240	0xbcdc9533	-0.026926612
241	0xbdc58d63	-0.09646108
242	0xbd7a6286	-0.061129116
243	0xbbddc5ee	-0.00676798
244	0x3d900494	0.07032123
245	0x3dc39e7c	0.09551713
246	0xbd9e6b3c	-0.07735297
247	0x3e46481a	0.19363442
248	0x3d2ca9e0	0.042154193
249	0x3ce1163c	0.027476422
250	0x3a8800ff	0.0010376273
251	0xbdc97ebd	-0.098386265
252	0xbda13431	-0.07871283
253	0xbd540362	-0.05176104
254	0x37b87540	2.1989108e-05
255	0x3eade27e	0.33961862

fc3.weight f4 [5, 256]
0	0x3fa48e05	1.2855841
1	0x3d0c9512	0.034321852
2	0x3cfb6f74	0.030692793
3	0xbc8a2c87	-0.016866935
4	0xbd312b17	-0.043253984
5	0x3fa8cf25	1.3188215
6	0x3ffd3c04	1.978394
7	0x3ba9fce4	0.0051876176
8	0x3c2d6922	0.010584148
9	0x3e3b247a	0.18275633
10	0xc0068afd	-2.1022332
11	0xbbc2dd0f	-0.0059467624
12	0x40559478	3.3371868
13	0x3f7cc7fc	0.9874265
14	0x404f12b1	3.2355158
15	0xbd2d36f2	-0.042288728
16	0x3fc147fa	1.510009
17	0x3ff50b85	1.914414
18	0x4026d254	2.6065874
19	0x3c7814b8	0.0151416585
20	0xbbc6f69c	-0.0060718786
21	0xbc27c321	-0.010239393
22	0x404e076f	3.2192037
23	0x3d679b66	0.056544684
24	0x3ec40bbf	0.38290212
25	0x3bead995	0.007167051
26	0x404f856f	3.2425191
27	0xbd23617a	-0.039887883
28	0x3c484f69	0.012225964
29	0x3ffbbb7a	1.9666588
30	0xbd63c5c6	-0.055608533
31	0x3f6a06fc	0.9141691
32	0xbcb2156d	-0.021738732
33	0xbc7940c2	-0.015213193
34	0xbb0656d6	-0.0020498536
35	0x3c42fec3	0.01190156
36	0xbc8c7613	-0.017146146
37	0x3d4b41ce	0.049623303
38	0xbd25eea2	-0.04051078
39	0xbd9fe3c1	-0.078071125
40	0x3d0f783e	0.03502678
41	0xbcbd4acf	-0.02310696
42	0x404af5e3	3.1712577
43	0xbc9b5ba4	-0.018964596
44	0x3baabc7d	0.005210458
45	0x40816c1b	4.0444465
46	0x3cc7be4c	0.024382733
47	0x3ef7dd27	0.48410913
48	0xb9cb8747	-0.00038819967
49	0x4025ca10	2.590458
50	0x3c91e40d	0.017808938
51	0x3d384626	0.044988774
52	0x3ada1aaa	0.0016640027
53	0x3c3859ec	0.011251908
54	0x402658f8	2.5991802
55	0xbbd0354c	-0.0063540097
56	0xbf6cc0b7	-0.9248156
57	0xbd11d37e	-0.035602085
58	0x3f9e587b	1.2370752
59	0x3c487280	0.01223433
60	0xbcecfd05	-0.028929243
61	0x40976809	4.7314496
62	0x3fdc8f28	1.7231188
63	0x3d333a0a	0.043756522
64	0xbc3dda5b	-0.0115877045
65	0x3b033900	0.0020022988
66	0xbd6835a8	-0.056691796
67	0x3c24d2bb	0.010060008
68	0xbbcf9c4f	-0.006335772
69	0xbc523acd	-0.012831402
70	0x3d6a6d66	0.057233237
71	0x4087b035	4.2402596
72	0xbd1bd1d2	-0.038041897
73	0xbcc01f28	-0.023452356
74	0xbbc5e21b	-0.0060389168
75	0x3b313f60	0.002704583
76	0xbc08e118	-0.008354448
77	0x3c874620	0.01651293
78	0x3b7d29a6	0.003862956
79	0x3d49700b	0.049179118
80	0x3d0124d5	0.031529266
81	0xbd4cdd3d	-0.050015677
82	0x3c444081	0.01197827
83	0x405e0c10	3.4694862
84	0x401696ef	2.3529623
85	0x3d6ee95c	0.058328018
86	0x400d95ec	2.2122755
87	0xbd1fa082	-0.03897143
88	0xbd0fdb9b	-0.03512154
89	0xbd5cefdd	-0.05393969
90	0x40060f20	2.0946732
91	0x40222832	2.5337033
92	0x3af18665	0.0018426894
93	0xbf83c596	-1.0294673
94	0x3ba84e20	0.0051362664
95	0x3cfdfd08	0.031004444
96	0x3f95d993	1.1707023
97	0xbd22217d	-0.03958272
98	0xbecfbb48	-0.40572572
99	0x402198e8	2.5249577
100	0xbcd74a23	-0.026280468
101	0x401f5c25	2.489999
102	0x3d6d6632	0.05795879
103	0xbd758a6a	-0.059946455
104	0xbc902e3c	-0.017600171
105	0xbd31bc93	-0.04339273
106	0xbc2afb9c	-0.010435965
107	0xbc8451d6	-0.016152304
108	0xbc2f970a	-0.010717163
109	0xbd547852	-0.05187256
110	0x403d796c	2.960536
111	0x404a1d8a	3.158053
112	0xbcafc8a7	-0.021457983
113	0x4089830c	4.297247
114	0x407ac575	3.9183018
115	0xbd05ef39	-0.032698844
116	0xbbef234f	-0.0072979103
117	0xbcf81381	-0.030282738
118	0x40b2bca0	5.5855255
119	0xbc8f1f7d	-0.01747107
120	0xbc98526b	-0.018593987
121	0x40aba00e	5.363288
122	0x3fba6ef7	1.4565114
123	0x3d5260a6	0.051361702
124	0xbb905370	-0.004404478
125	0x3aa4347c	0.0012527849
126	0x40408a21	3.0084307
127	0xbbf02a80	-0.007329285
128	0x40130910	2.2974281
129	0x4007508a	2.1142907
130	0xbb9fba00	-0.004874468
131	0x4036350f	2.8469884
132	0x3cb51183	0.022103077
133	0xbd1486e2	-0.036261447
134	0x3ce9960d	0.028513933
135	0x3efdfd4f	0.49607322
136	0x404f7d6a	3.2420297
137	0xbd162faf	-0.03666657
138	0xbd167170	-0.036729276
139	0xbb914920	-0.004433766
140	0x3babe38b	0.005245631
141	0xbf993d99	-1.1971923
142	0x40268797	2.6020257
143	0x3d87f053	0.06637635
144	0x3ccda136	0.025101285
145	0xbff399de	-1.9031332
146	0xbed87791	-0.42278722
147	0x400762fa	2.115416
148	0xbb193dce	-0.0023382786
149	0x3cd85a04	0.02641011
150	0x3b9ba03d	0.0047493265
151	0x3bcb5828	0.0062055774
152	0xbeb29908	-0.3488238
153	0x40a2ed4b	5.0914664
154	0x3d75480e	0.05988317
155	0x4028ca5b	2.6373508
156	0x3c3cc57e	0.011521695
157	0xbd29e3b5	-0.041476924
158	0x3abf9f37	0.0014619593
159	0x3c385484	0.011250619
160	0xbd180a1c	-0.037119016
161	0xbcefd7f3	-0.029277777
162	0x3c18ab0c	0.0093181245
163	0x3c8d70cb	0.017265698
164	0x3e9ef651	0.310473
165	0x40698d54	3.649251
166	0x3f0ed6a0	0.5579624
167	0xbf464016	-0.7744154
168	0xbd13e9a0	-0.036111474
169	0x40240171	2.562588
170	0x40401136	3.0010505
171	0x3b4b52ec	0.0031024767
172	0xbcc15a57	-0.023602648
173	0xbca4e50f	-0.020128755
174	0x4018577c	2.3803396
175	0x3c826021	0.015914978
176	0x3c987778	0.018611655
177	0x3c00f3fa	0.007870669
178	0xbd018e39	-0.031629775
179	0x3fe29efb	1.7704767
180	0x40742db9	3.8152907
181	0x409df2e8	4.9359016
182	0x3f9c8928	1.2229357
183	0x403d7506	2.9602675
184	0xbce08372	-0.027406428
185	0x4081ace0	4.052353
186	0x403c0160	2.937584
187	0xc0322bde	-2.7839274
188	0xbd051151	-0.032487217
189	0x3c9021b9	0.017594205
190	0xbd3b9a26	-0.045801304
191	0x3d219482	0.03944827
192	0x3bd47f50	0.0064849034
193	0x403249e3	2.7857597
194	0xbc1b755c	-0.00948843
195	0x403561fc	2.8341055
196	0xc026acad	-2.6042893
197	0xbc85d01e	-0.01633459
198	0xbeab9997	-0.33515617
199	0xbd35a2bc	-0.04434465
200	0xbb039815	-0.0020079662
201	0xbce94a34	-0.028477766
202	0x3bef2455	0.0072980323
203	0x4030aa08	2.760378
204	0xbd481934	-0.04885216
205	0x40846e75	4.1384835
206	0xbc6c8d79	-0.014438027
207	0x3c022898	0.007944249
208	0x40054359	2.0822356
209	0xbf5a90cf	-0.8537721
210	0x3f7f7d3b	0.9980046
211	0xbd6ce2ac	-0.05783336
212	0x40a650d7	5.197368
213	0x3ce0bfe8	0.027435258
214	0xbabc711d	-0.0014376972
215	0x3c3937e0	0.011304826
216	0xbd17962f	-0.03700846
217	0xbfea3757	-1.8298138
218	0x3d3999d0	0.045312703
219	0xbb18b5d6	-0.0023301742
220	0xbca58c75	-0.020208577
221	0x407a6cb4	3.9128847
222	0x4011e998	2.2798824
223	0x3d7f62d4	0.06235011
224	0x3d33c422	0.04388822
225	0x3c571a14	0.013128776
226	0x40187cb0	2.3826103
227	0x3ed03995	0.40668932
228	0x3c4a5b69	0.012350895
229	0x3c0dc4e8	0.008652903
230	0x40143e66	2.3163085
231	0x3c73f081	0.014888884
232	0x3f3773c8	0.71661043
233	0x40400535	3.0003178
234	0x4000d43b	2.0129535
235	0xbd89827b	-0.0671434
236	0x3d19b4f6	0.037526093
237	0x3bdfabe4	0.006825911
238	0x3ff087d0	1.8791447
239	0xbd0976b2	-0.033560462
240	0xbd32433b	-0.043521147
241	0xbcfb3327	-0.03066404
242	0x3f41425c	0.7549188
243	0x3d792239	0.060823653
244	0x3fe59274	1.7935319
245	0x4075e259	3.8419402
246	0x3cb14990	0.021641523
247	0x3f655c55	0.8959401
248	0x3d760a4c	0.060068414
249	0xbd195775	-0.03743692
250	0x3c7917d0	0.015203431
251	0x40429500	3.0403442
252	0x40493240	3.143692
253	0x3c27ed25	0.010249411
254	0xbcaab3ac	-0.020837627
255	0x3fc569cd	1.5422913

fc3.bias f4 [5]
0	0xbced16b7	-0.028941495
1	0xbe8be452	-0.27322632
2	0x3ec492db	0.38393292
3	0xbe293610	-0.1652453
4	0xbe9af374	-0.30263865
