other_model/dqn_team_a_ep860.pth (torch, 286849 bytes, 6 tensors)

fc1.weight f4 [256, 14]
000000 e8 f7 df 3e 23 cb 53 bf f8 13 a3 3e b8 e3 08 bf
       0.43743825 -0.8273184 0.31851172 -0.5347247
000010 9f 6e e0 3e c3 61 cf be 6c 66 32 3f e0 c1 9d be
       0.43834397 -0.40504274 0.69687533 -0.30811977
000020 16 ba e1 bf 8e 6d aa 3f d6 e4 b2 c1 b1 45 21 41
       -1.7634914 1.3314683 -22.361736 10.0795145
000030 6e 97 6e 3c d2 0b 85 3e 80 c1 34 bd 36 87 31 3e
       0.014562471 0.2598558 -0.04412985 0.17336735
000040 be 5b 07 bc 98 67 0e 3e 36 a8 97 be 80 d4 0a 3e
       -0.008261619 0.13906705 -0.29620522 0.13557625
000050 91 d5 36 be ba 13 61 be e5 7e 31 be ec ab fb 3c
       -0.17854907 -0.21980181 -0.17333563 0.030721627
000060 30 67 47 3e 89 cb 2c be 93 3a f3 bd d9 c4 f8 bd
       0.19472957 -0.16874518 -0.118764065 -0.12146921
000070 25 e1 ff bd 4c 35 7c be 67 e7 4b 3e a7 ce 0a bd
       -0.12494115 -0.24629706 0.19912492 -0.033888485
000080 1c 4e 4d be 27 0d 40 3e c6 98 0f be 8d 15 31 be
       -0.20049328 0.18755017 -0.14023122 -0.17293377
000090 6d 7f d5 3d b2 04 16 be c1 40 65 be f5 a6 4d bd
       0.10424695 -0.14650229 -0.22387983 -0.05020805
0000a0 5d 2f 95 bb 56 4e 2d 3d 0b a9 56 bd ad f4 44 be
       -0.0045527653 0.042311035 -0.052407306 -0.19233961
0000b0 59 2a 46 be 88 f8 90 3d 13 11 01 be c4 88 86 3b
       -0.19352092 0.070786536 -0.1260417 0.004105659
0000c0 67 94 83 be 6b 0e 1e 3e 01 d7 54 be 4d ea ea 3a
       -0.2569916 0.15435188 -0.20785142 0.001792261
0000d0 ba cf 32 be 6a 6f 3e 3e bd 3d 8a 3c 03 ac 36 bd
       -0.17462054 0.18597189 0.016875142 -0.044597637
0000e0 2a eb e4 bf 4b 3f 12 bf 38 c1 d6 bf ab 2d ad bf
       -1.7884266 -0.5712783 -1.6777716 -1.3529562
0000f0 3e c8 13 3f 82 a8 69 3f d7 a3 16 3f f6 73 02 be
       0.5772742 0.9127275 0.5884375 -0.12739548
000100 ba e0 2e bf 96 c2 c2 3f b8 32 be c0 3c e0 6d 40
       -0.68311656 1.5215633 -5.9436913 3.7168112
000110 ab 62 9a 3e 1f b2 86 3e 2e 07 97 be 74 12 ec be
       0.30153403 0.2630777 -0.29497665 -0.4610783
000120 fd 24 52 3e e3 04 7b be 42 19 2d 3e 42 5b 4d bd
       0.20521922 -0.24513583 0.16904166 -0.05013586
000130 36 e7 18 3d 6c 36 1e be f8 a0 88 be b0 61 69 be
       0.037329875 -0.15450448 -0.2668531 -0.22791171
000140 38 5d 93 3e 78 75 3a bd d4 24 86 bc 51 c1 29 bd
       0.28782058 -0.045522183 -0.016374983 -0.041444127
000150 ff 8e 25 be c1 4a c3 bd 01 e5 5f 3e f7 c9 84 be
       -0.1616783 -0.095357426 0.21864702 -0.25935337
000160 5c 08 43 be 97 92 74 3e eb 34 d2 3d ff d2 5c be
       -0.19046158 0.23884045 0.102639996 -0.21564864
000170 d9 1c 30 be bc 6f 81 bd 80 06 73 be 44 d2 8c bc
       -0.17198505 -0.0632014 -0.23732948 -0.017190106
000180 9f 50 6d 3d 0f 09 ce bd 2d 55 3f 3f dd 64 0c bf
       0.057938214 -0.100603215 0.7473934 -0.54841405
000190 8c 8a d8 3e b8 b1 4f be 4f 4c 79 3e 96 05 e9 3e
       0.42293203 -0.20282638 0.24345516 0.45512074
0001a0 87 82 45 3e 75 03 04 3f 02 cb 83 be 6e 1f ab be
       0.19288073 0.51567775 -0.2574082 -0.33422416
0001b0 0f 4b 31 be c6 42 14 40 3f 46 3d be e4 40 0a bb
       -0.17313789 2.3165755 -0.18483828 -0.0021095807
0001c0 da 7b 5d be f2 1c 8d be 21 95 08 3e 6c 5e 4e 3e
       -0.21629277 -0.27561146 0.13338138 0.20153207
0001d0 26 7a 06 3e 4f cd e2 3c c1 8c 45 3e 5e 90 68 be
       0.13132533 0.02768579 0.19291975 -0.22711322
0001e0 9d 15 74 be 71 9a bc bd d2 e3 1d bc bd 6e 06 3c
       -0.2383637 -0.09209145 -0.009636836 0.008205113
0001f0 a0 60 43 be d4 6c 8b be 20 45 b8 3e ff 54 2b bf
       -0.19079828 -0.27231467 0.35990238 -0.6692657
000200 3f a8 da 3e 3e 97 75 be 83 fc d9 be 1e b4 c3 bd
       0.42706487 -0.23983476 -0.42575464 -0.09555839
000210 d5 76 13 bf 6d 5d 14 3f 72 f1 2b 3f 17 39 08 bf
       -0.576032 0.57955056 0.6716529 -0.5321211
000220 0e 92 aa 40 42 59 ee bf 83 85 5d 3e d3 b8 4f 3e
       5.330329 -1.8620989 0.21632962 0.20285349
000230 0f 96 e8 3d 6a d8 89 bf ee 6e 8c bc e6 2c de 3c
       0.113567464 -1.0769169 -0.01714274 0.027121019
000240 dd b3 4b 3e e2 11 82 be 2e ca 94 3d 9a a3 ab 3d
       0.19892831 -0.25404269 0.07265125 0.08380814
000250 56 20 8e 39 bd 06 94 3d d2 bb 8f 40 17 ab ac 3e
       0.00027108443 0.07227848 4.4916773 0.3372428
000260 cc e7 14 3e f9 c0 cb 3d 37 67 ea bd b4 d8 54 3e
       0.14541548 0.09948916 -0.11445468 0.2078579
000270 74 40 9c 3a bd 2e 6a be dd 98 1d be 68 0b e9 bd
       0.0011921064 -0.22869392 -0.15390344 -0.11379129
000280 40 33 02 bd 38 10 cd bd b5 b2 96 3d 43 8d 05 3e
       -0.031787157 -0.10012859 0.073583044 0.13042168
000290 b8 a1 4d be ea 7f 9c 3d 28 df 2a be 78 7e 25 3e
       -0.20081222 0.07641585 -0.1668669 0.16161525
0002a0 e4 03 63 3f cd 87 5e 3d e5 e0 82 3f f3 2d 98 3e
       0.8867781 0.05432873 1.0224882 0.29722556
0002b0 2f 9b b5 bd 31 1b 2a bf 0b 94 70 3e 8d 2f d9 3b
       -0.088674895 -0.6644774 0.23493974 0.006627983
0002c0 fd 5f 16 c0 20 4e 61 3f 0a 4e 89 c1 a4 0a 5d 40
       -2.3496087 0.88009834 -17.163105 3.4537745
0002d0 d8 96 c3 3d 9c 0c 3f bd c6 44 2e 3e 3b ae 58 3e
       0.095502555 -0.046642885 0.17018422 0.21160214
0002e0 27 48 ec 3d da de b0 3d 86 e9 4d ba 45 ec 83 bf
       0.115371995 0.086362556 -0.0007854927 -1.0306479
0002f0 72 51 90 be fc d2 5c bf a4 ea 89 bd 72 f8 65 be
       -0.28187138 -0.86259437 -0.06734207 -0.22458056
000300 03 45 92 bf 49 f0 23 3f fe 0c 89 bd 5f 52 80 bd
       -1.1427311 0.6403852 -0.06691931 -0.06265711
000310 8e ac b1 bd 9f 06 b9 bf c8 bd 71 be 2f 2d 91 be
       -0.0867549 -1.4455146 -0.23607552 -0.28354785
000320 c8 7a 92 3e 14 1f f9 3d 5a 07 4f bd fd ab b6 3e
       0.286093 0.12164131 -0.05054412 0.35678092
000330 a0 6d 92 3e 58 48 31 3f b8 61 45 40 a5 f7 5b 40
       0.28599262 0.6925101 3.0840893 3.43699
000340 f9 18 de 3d 13 ca 47 3e 4c 77 22 3d 01 85 9d 3f
       0.10844607 0.19510679 0.03966455 1.2306215
000350 1e 74 80 3e c1 0f d5 3e 12 84 9c 3e 11 d6 df be
       0.2508859 0.41613582 0.30569512 -0.43718007
000360 80 ab fc 3e a8 f6 f7 be 18 bb 0c bf 26 f9 13 c0
       0.49349594 -0.4843037 -0.5497298 -2.3120818
000370 0f d2 da bf 40 f7 4b c1 c0 94 97 bd 1f 58 e6 3d
       -1.7095355 -12.747864 -0.07401419 0.112472765
000380 0a 43 0b 3f f4 86 a1 3e da 9a 81 3f 53 3a 1a 3f
       0.5439917 0.31548274 1.0125382 0.60245246
000390 f6 8a 8b bf 23 60 00 3f 0a 26 ff bf 75 2f cb 3e
       -1.0901783 0.50146693 -1.9933484 0.39684644
0003a0 71 d4 ae 3e 29 76 96 3e 0a 0a e6 bf ce 40 f2 3f
       0.34146455 0.29387024 -1.7971814 1.8926027
0003b0 54 57 01 3f 56 b9 3d 3e 87 dd 18 be ff fb 39 be
       0.5052388 0.18527731 -0.14928256 -0.18162535
0003c0 68 12 12 3e 9e 83 7e be 44 33 ea bd 4d 16 1e bb
       0.14264834 -0.24854895 -0.114355594 -0.002412218
0003d0 ee f9 fe 3d 9d 33 58 be b8 0e 1f 3c 2a d2 71 be
       0.12450014 -0.21113439 0.009708099 -0.23615327
0003e0 7a e8 c4 bd 2d 1b 91 3b bc 49 2e be ab 8d 36 be
       -0.09614654 0.0044282884 -0.17020315 -0.1782748
0003f0 d6 9a 2a be 2c df 86 be 2d ea 4e bd e1 35 02 3e
       -0.16660628 -0.26342142 -0.050516296 0.12715866

fc1.bias f4 [256]
000000 76 ef d9 3d 18 5c a0 3d 29 70 87 be 71 f5 36 bd
       0.10641377 0.078300655 -0.2645276 -0.044667665
000010 9c 62 82 3e 53 d5 b9 be 7c 04 06 be 48 91 c8 bd
       0.25465858 -0.36295566 -0.13087648 -0.09793335
000020 37 8a 15 3e 0d 63 af 3e 3e 5a b1 3d d5 46 6c 3d
       0.14603506 0.34255257 0.086597905 0.05768474
000030 db 17 c3 3d 38 58 db be 3e fd 4c 3e 69 d6 0b 3e
       0.095260344 -0.42840743 0.20018479 0.1365601
000040 95 fa b3 3e 69 be 2a bd 06 d2 5b be f4 6f 98 3e
       0.35152116 -0.041685496 -0.21466836 0.29772913
000050 8a 1c 28 3e dc ec e9 3c d4 03 e2 bd e2 09 6c 3c
       0.16417137 0.028555326 -0.110358864 0.014406653
000060 25 47 6e be 29 5b f9 3d a3 5e 5b bd 35 29 63 be
       -0.23269327 0.121755905 -0.05355705 -0.22183688
000070 0d 56 c6 3d 2a 47 f8 3e 5c 94 91 be 66 53 77 be
       0.09684382 0.48491794 -0.28433502 -0.24152908
000080 0b 08 09 bc 0f d6 a0 bd d0 1d a4 be e1 25 09 3d
       -0.008363734 -0.078533284 -0.32053995 0.03348339
000090 13 4a f3 3d 01 b8 ab bd 46 e1 57 be 1a 46 b4 bd
       0.11879363 -0.08384705 -0.21082029 -0.08802433
0000a0 d0 84 61 be 25 01 b8 3e ee 13 da bc e8 45 32 bd
       -0.2202332 0.35938373 -0.026620831 -0.0435237
0000b0 dd fc 76 be 2b a3 80 be 48 57 98 be 48 91 77 3f
       -0.24119897 -0.25124487 -0.2975409 0.96706057
0000c0 1f 81 54 3d 60 a3 81 3e 21 0b 6e be 8f 39 4d be
       0.051880952 0.25319958 -0.23246433 -0.20041488
0000d0 64 dd 45 3c 97 1f 54 bb d0 91 89 be c4 65 d4 bc
       0.012076709 -0.0032367462 -0.2686906 -0.025927432
0000e0 3f 31 bb be da 0f 46 3e 97 bb 0f 3c 2d 11 a5 3e
       -0.3656101 0.19341984 0.008772752 0.32239667
0000f0 2b 0a 51 3e d1 ca f5 3d 4d 09 c9 3e 34 87 f0 bd
       0.20414035 0.12001575 0.39264908 -0.11744538
000100 08 58 4e 3e 87 4b cc 3e 85 d6 1e 3c 19 af 71 be
       0.20150769 0.39901373 0.0096947 -0.2360195
000110 38 15 06 3e 3a 10 7e 3d 8f 40 cc 3e f8 41 b5 3d
       0.13094032 0.062027194 0.39893004 0.08850473
000120 86 a0 91 3e 89 20 0d 3f 72 ad 85 bd 89 09 86 3d
       0.28442782 0.5512777 -0.06527223 0.065447874
000130 94 f5 b5 bc d3 a4 1e 3e 07 59 43 3d a8 ae ba bd
       -0.022211827 0.15492563 0.047692325 -0.09115344
000140 e1 f3 51 be 88 fa 90 bd a6 a6 ea 3d 8e 44 ce 3e
       -0.20503189 -0.07079035 0.11457567 0.40286678
000150 ca 34 52 be 52 4c ab 3d 9b 69 6e 3d e6 18 38 3e
       -0.2052795 0.08364166 0.058206182 0.17978248
000160 63 7a 07 3f 16 70 1c bf 00 19 7b be de e5 00 3d
       0.5292112 -0.6110853 -0.24521255 0.03146922
000170 26 47 94 bd de b0 be 3c 38 dc 9c 3d bd 0e 3f be
       -0.07240133 0.023277696 0.07659191 -0.18657966
000180 32 d8 5e bd bd 9e d1 3d b4 8e a1 be 76 8d 56 3e
       -0.0544054 0.10235355 -0.31554186 0.209524
000190 17 3c 50 bd d6 be cc 3e f6 97 50 bd f2 e6 86 bd
       -0.050838556 0.39989346 -0.05092617 -0.06587018
0001a0 41 19 52 3d dc 39 7a 3b 43 33 c6 3d 7a 2b d7 3d
       0.051293615 0.003818146 0.09677746 0.10506339
0001b0 2c 4c e3 bd 5b 2f 4f bd f3 6d 05 3f 4f bc 80 be
       -0.11098513 -0.05058227 0.52120894 -0.25143668
0001c0 f2 f4 8d 3e 70 ba 9d be 53 4b 0c be 67 90 29 3d
       0.2772594 -0.30806303 -0.13700609 0.04139748
0001d0 ea 94 8e b9 39 5b 69 3d f7 80 95 be 75 6f 5f be
       -0.000271953 0.056971762 -0.29199955 -0.21819861
0001e0 76 77 1c be 53 dc 2d 3d 7f 19 6b be 3a 62 15 3e
       -0.15279946 0.042446446 -0.22958945 0.14588252
0001f0 50 67 5b 3e 59 4a 59 be 90 7e 06 3d 39 27 84 be
       0.2142613 -0.21219768 0.032835543 -0.25811175
000200 e4 31 40 3f e9 53 99 be 79 6b af 3e ea 79 86 bd
       0.7507613 -0.2994683 0.34261683 -0.06566222
000210 e1 7d 21 3f d0 1b 83 3e 44 0b 98 3d 50 40 82 bc
       0.630827 0.25607157 0.07424024 -0.015899807
000220 a8 e7 b9 3d 67 94 30 3e 6b d1 d1 bd bd 4c 7b 3c
       0.09077388 0.17244111 -0.102450214 0.01533812
000230 ed 40 7b 3d 74 93 b8 3c e4 1f 53 bd d9 f8 5d 3e
       0.061341215 0.022531249 -0.051544085 0.21676959
000240 39 bb 48 3d 83 1b 85 3e cc 06 8a bd fb 30 89 3e
       0.049006674 0.25997552 -0.06739578 0.26795182
000250 f0 fa fe bd 98 7f 97 be 35 a5 2a bd 0d 3f c7 bd
       -0.12450206 -0.29589534 -0.04166146 -0.09728823
000260 72 8b f7 3a a6 9a 35 3d e7 cf 7b bd 1b 7d 74 be
       0.0018886162 0.044336937 -0.061477568 -0.23875849
000270 7d 6e 27 be f9 63 84 3e 36 50 74 bd e6 0d 3d 3e
       -0.16350742 0.25857523 -0.059646808 0.18462333
000280 fb b6 61 be 18 6d 95 3e e0 89 dd 3c 67 20 c0 bd
       -0.22042458 0.29184794 0.027043283 -0.0938118
000290 db f0 41 be be c1 aa be 50 ca 2f 3f 71 de d1 3d
       -0.18939535 -0.3335094 0.6866808 0.102475055
0002a0 58 2b 55 3d bb 8d 5e be 88 10 40 be bf b6 f8 bd
       0.05204329 -0.21733753 -0.18756306 -0.12144231
0002b0 9c 91 8f 3e b8 b0 55 be 1e 63 3c be b6 ec 4c 3e
       0.2804078 -0.20868194 -0.18397185 0.20012173
0002c0 50 0e 8a 3c 8c 3b 80 3e f5 3c 2d 3e 5e 1d 9c 3c
       0.016852528 0.2504543 0.16917785 0.019056972
0002d0 b1 1f 1c be 38 8d ab be 8a a2 21 be 92 73 df 3e
       -0.15246464 -0.3350618 -0.1578466 0.4364286
0002e0 89 48 02 be 97 26 4a 3e bd 46 6d 3e fe be 6b 3e
       -0.12722982 0.19741283 0.23171516 0.23022076
0002f0 77 5c a1 be 2c 2c 3a be f4 15 af bd a4 50 5a be
       -0.31515858 -0.18180913 -0.08549109 -0.21319824
000300 f9 11 00 be 8a 74 0b 3f c3 2a a4 be cf 60 4d be
       -0.12506856 0.544747 -0.32063875 -0.20056461
000310 ca 4b 66 be 33 22 65 bd a0 90 85 bd 26 0d 7e 3e
       -0.22489849 -0.055940818 -0.06521726 0.24809703
000320 53 5e f3 bc dc cf 04 bf 72 27 43 3e 9a d9 69 bd
       -0.029708063 -0.5187967 0.19058016 -0.057092287
000330 d1 4e f1 3d af 1c 79 3e fa a0 5b 3d 74 92 45 bd
       0.11782611 0.24327348 0.053620316 -0.04823537
000340 c1 5d 0d be 7c 0a b7 be 69 be bc bd da 7d 93 be
       -0.13805296 -0.35750186 -0.09216005 -0.28806955
000350 4a 7d c5 bc 95 ed df 3d 82 6a 91 be 33 46 ad be
       -0.024107594 0.10933987 -0.28401572 -0.3384262
000360 24 f9 0d 3e 4a cf 4b 3e 06 f4 c4 bd a5 d2 be 3d
       0.13864571 0.19903293 -0.09616856 0.09317521
000370 a7 c9 2a 3e 86 bf ae be 9e 47 07 bd ea 81 43 bd
       0.16678487 -0.34130496 -0.033027284 -0.047731318
000380 17 6b bc be ee 8c 19 3e 3b ff 1d 3e db 99 2c be
       -0.36800453 0.14995167 0.15429394 -0.16855566
000390 42 46 32 3e b0 4a d5 bd c5 a0 37 be 66 8c 80 3e
       0.17409614 -0.10414636 -0.17932422 0.25107116
0003a0 2d 1c b1 3d 7d c4 01 3e c1 fb ea 3e f2 ee 80 be
       0.08647952 0.1267261 0.45895198 -0.251823
0003b0 01 d0 33 be c7 b8 94 be d5 2f 47 3e 0e 0c c8 3e
       -0.17559816 -0.29047224 0.1945184 0.39071697
0003c0 f4 cf e2 be aa 1a b0 be 26 d2 d8 3d b5 3e 74 3d
       -0.4429928 -0.34395343 0.10586958 0.059630115
0003d0 22 48 57 be e1 c8 23 3e b8 fd 62 be bd 11 06 bd
       -0.2102361 0.15994598 -0.22167099 -0.03273176
0003e0 8d b7 1f be 8f 14 63 be f6 0c 85 3c c6 87 c4 bd
       -0.15597363 -0.22175811 0.016241532 -0.09596209
0003f0 ae d1 2e be 2c db c7 3a c6 3e a9 be 51 a2 aa be
       -0.17072174 0.0015247813 -0.33055705 -0.33326963

fc2.weight f4 [256, 256]
000000 13 ad 0a c0 0b 31 4c bc 84 1a 9d 3c 64 9b 64 3d
       -2.1668136 -0.012462865 0.019177683 0.055812255
000010 87 cb 4c c0 1e 69 f0 3d 9e 81 36 bd f1 bb 17 3f
       -3.1999223 0.117387995 -0.044557206 0.5927115
000020 a4 3c 8f 3c 6d 6c 01 40 d0 14 30 3f 30 09 ed 3c
       0.01748497 2.0222428 0.6878176 0.028935045
000030 89 c1 5b bf f3 0c 72 3f 14 cf b6 3f 7f 67 15 c1
       -0.85842186 0.9455101 1.4281945 -9.337768
000040 6a 44 58 bf 1a 20 01 bd c8 1d fe 3c f8 6b 71 40
       -0.8447939 -0.031524755 0.03102006 3.772215
000050 8b 26 5f bf 78 5d 02 40 0a 6b 9a bc 92 09 72 bf
       -0.87168187 2.0369549 -0.018849868 -0.94545853
000060 89 9b 0e 3f 29 29 5c 40 80 60 6b bc f4 15 db bc
       0.5570608 3.4400122 -0.014366269 -0.026743867
000070 bf d0 d2 be e7 71 0b c0 0d b9 5a 40 fd 7d 92 bf
       -0.41174886 -2.178827 3.4175446 -1.1444699
000080 32 ec 18 bd 8e f8 36 3c 97 1f c8 be fb 03 08 c0
       -0.03733463 0.0111676585 -0.390866 -2.125243
000090 3b ec 94 3c c1 a6 eb 3c 80 8f 9b bb a0 70 bd 3f
       0.01817905 0.028766038 -0.004747331 1.4799995
0000a0 50 d8 2c bc e2 0a 16 3f 17 b3 9c 3e 83 2e 7d c0
       -0.01054962 0.58610356 0.30605385 -3.9559639
0000b0 3a a1 cd bc 80 72 03 3a 18 2d 2e bd 83 0b b0 c0
       -0.025101293 0.0005014315 -0.042523474 -5.5014052
0000c0 7d 7a 2d 3d 46 83 bc 3f 16 4c 82 bd 36 12 a1 bb
       0.042353142 1.4727561 -0.063621685 -0.004915501
0000d0 e8 13 2b 40 98 45 b1 3c 45 27 7c bd a8 ac c2 bc
       2.67309 0.02163963 -0.061560888 -0.02376397
0000e0 ed af 0d bf 20 ec 27 3b d8 ad 0b bd 90 9e 21 bf
       -0.55346566 0.002562292 -0.034101337 -0.6313257
0000f0 78 4d db 3c 0a 6f 66 bd 7c d0 4f 3f 5c 57 c3 bc
       0.026770338 -0.05625824 0.81177497 -0.023845367
000100 7a 1c 79 3d a7 32 55 c0 ee 64 79 3d d2 94 7e bf
       0.060818173 -3.3312166 0.06088727 -0.9944583
000110 6d fb e0 bf 00 6b 35 3a e4 86 93 c0 3b af 5f c0
       -1.7576729 0.00069205463 -4.610216 -3.4950702
000120 2f 8e 04 40 f0 78 8a c0 3c 28 50 40 8e 03 40 3d
       2.0711782 -4.327263 3.2524557 0.04687839
000130 23 d8 3e 3d 12 5b 35 c0 f2 e2 8d 3f 44 1a a1 bf
       0.046592843 -2.8336835 1.1084883 -1.2586141
000140 71 5d 89 3e 86 24 67 3d b9 5f f6 bf b6 f4 67 c0
       0.26829103 0.056431316 -1.9247962 -3.624311
000150 28 c8 7a bd 56 e6 08 3c 49 b0 69 40 60 69 99 bb
       -0.06122604 0.008355698 3.6513846 -0.004681751
000160 38 aa 19 c0 6c 61 97 bf 88 f9 7f c0 50 15 cc 3c
       -2.4010143 -1.1826606 -3.9996052 0.024912506
000170 01 0b 09 40 3c 3a ea 3c 90 24 2a bd 4b 27 df 3f
       2.1412966 0.028592221 -0.041538775 1.7433866
000180 92 7f c9 3f d0 9b da 3c 84 54 bd bc 90 a2 47 bf
       1.5742056 0.026685625 -0.02311159 -0.77982426
000190 e4 6c ef be f4 03 b4 c0 bd 1c b9 be 43 c3 35 40
       -0.46762764 -5.6254826 -0.36154738 2.8400428
0001a0 5c 1e 81 3c c0 9c 3d 3c 30 fb e0 3c 01 26 93 3f
       0.015761547 0.011573017 0.027463526 1.1495973
0001b0 b4 4b 0f 3c c5 37 62 bd ef 1e f4 c0 42 59 58 3d
       0.008746076 -0.055228967 -7.628776 0.052819498
0001c0 60 97 00 3e 28 8e a8 3b be 91 39 bd c8 c8 f2 3c
       0.12557745 0.0051438995 -0.045305006 0.029636756
0001d0 08 1a 8d bf 0f 28 12 3d 49 d6 c3 3d 6f 6a 72 40
       -1.1023569 0.035682734 0.09562356 3.7877462
0001e0 bf 5b de bf 63 fb 17 bc 41 63 15 c0 ae 5b 26 bd
       -1.7371749 -0.009276244 -2.334183 -0.040614776
0001f0 b2 81 67 bd 91 ac 9c bd de d5 58 3d 6f 74 93 3b
       -0.05652017 -0.07650102 0.052938335 0.004499964
000200 1d 40 86 be c8 4b 2a bf 46 54 fc 3d ce 65 01 3d
       -0.2622079 -0.66521883 0.123207614 0.03159123
000210 0c f5 cf 3f b5 ec 69 40 e4 dc 11 40 a8 d4 a9 3c
       1.6246657 3.6550725 2.279107 0.020731285
000220 f1 47 39 3d aa 6c a6 3f 3e f8 ff bf ed e7 8e 3e
       0.045234624 1.3001912 -1.9997633 0.2791132
000230 6c 64 8e bc a0 18 70 be c0 92 79 c0 ac c1 2f 3e
       -0.01738187 -0.23446894 -3.899582 0.17163724
000240 34 3d 85 3d ac 16 9a c0 57 fb a9 bf 61 d2 cc c0
       0.06505814 -4.8152676 -1.3279828 -6.400681
000250 69 11 17 3c 9d e3 ce bf 51 9d 8d be ae c1 a9 ba
       0.0092204595 -1.6163212 -0.27659085 -0.0012951398
000260 84 85 82 40 53 e8 7e 3d a6 0e 37 be c4 ae d4 bc
       4.0787983 0.06223328 -0.17876682 -0.025962241
000270 b7 a3 fd bd 94 49 ae 3c 51 eb 10 3c b5 f0 9f bc
       -0.12384742 0.02127532 0.008845166 -0.019523958
000280 df 90 51 3d 85 9a e6 be f4 fe 6b 3d 26 bc 49 3f
       0.05116355 -0.45039764 0.05761619 0.78802717
000290 dc cf 80 c0 6c ce 3d bd 2c d6 3b bf 08 be e1 3c
       -4.0253735 -0.046339437 -0.73373675 0.027556434
0002a0 17 b6 41 c0 4c 0c 18 bd 25 b4 8a 3c 00 ca 31 40
       -3.026739 -0.037121102 0.016931603 2.777954
0002b0 9c 27 16 40 e2 c5 2f 3d 38 33 bf bc 5d 92 24 40
       2.3461676 0.042913325 -0.023339853 2.5714333
0002c0 68 9c 25 be 64 e6 c0 bc 91 c4 32 bd ab 2a d0 bf
       -0.16172945 -0.023547359 -0.04364449 -1.6263021
0002d0 06 11 08 be 2d 43 4d 40 2d 12 9c 3e a2 3b 74 3e
       -0.13287744 3.207225 0.30482617 0.23850873
0002e0 ec 6d f6 be 1f e7 b6 3f 82 80 18 40 af 3e a3 3c
       -0.4813074 1.4289283 2.3828435 0.01992735
0002f0 47 12 16 40 96 b6 40 be 96 21 ba bf 42 d6 45 bd
       2.3448656 -0.18819651 -1.45415 -0.048300035
000300 f4 13 34 40 b6 7f c0 3f 51 b2 05 3f 60 4f 81 bb
       2.8137178 1.5038974 0.52225214 -0.00394623
000310 b2 98 4c 3d 0e 10 09 40 d0 1d 1e bf f6 b6 1a bf
       0.04995031 2.141605 -0.6176424 -0.60435426
000320 1c 3e 61 c0 56 89 3d 40 1a 79 3a bd bf ae 5c 3e
       -3.5194159 2.9615073 -0.045525648 0.21551035
000330 7e 06 8e bf c8 5b 9f bf b9 cd c1 3f 08 e2 26 3c
       -1.1095731 -1.2449884 1.5140907 0.010185726
000340 e7 97 33 bd e9 f9 6d bd f7 6f 00 40 62 e0 10 40
       -0.043846037 -0.05809966 2.0068338 2.2636952
000350 e8 7d 07 3d 4e f7 34 3d 0e 90 d2 3e 4f dc 6b 40
       0.033079058 0.04418116 0.4112553 3.6853216
000360 14 8a 3f 3d 6c 11 e0 3c 09 80 62 bd b0 b6 09 bd
       0.04676254 0.027352057 -0.055297885 -0.03362149
000370 93 a5 51 be 0f 0d 02 bf b2 1b 29 3f 13 b7 4a bc
       -0.20473318 -0.50801176 0.66057885 -0.01237275
000380 1f e5 44 40 ae 16 9e c0 a0 52 6f 3c cd 89 7b bf
       3.0764844 -4.9402685 0.014607102 -0.9825714
000390 1f 36 3a 3f e1 ef 3c 3d 0a d6 18 40 1f fb b8 40
       0.7273883 0.046127204 2.388064 5.7806544
0003a0 14 fc 24 3d 6c 71 31 40 65 ea f4 bd 9e 7c 3c 3d
       0.040279463 2.7725477 -0.1195877 0.04601728
0003b0 6b ec 68 40 d6 5a 06 3e 68 57 53 bd d6 07 bd bf
       3.6394298 0.13120589 -0.05159703 -1.4768016
0003c0 8e cf 1e be 77 a3 70 3f 98 8b e8 bc 62 67 5c 3d
       -0.15508863 0.9399943 -0.028386876 0.05380953
0003d0 2a 55 66 3d 28 23 a9 bf 06 55 4a 3d 3b b0 2f bd
       0.056233563 -1.3213854 0.04939749 -0.042892676
0003e0 34 49 60 40 47 38 f3 3a 92 d3 15 40 42 5b 84 3e
       3.504468 0.0018556201 2.3410382 0.25850874
0003f0 1b 07 b2 40 2b a6 98 3f 47 35 8c 3d 04 2e b0 bd
       5.5633674 1.192571 0.06846099 -0.08602527

fc2.bias f4 [256]
000000 ed e8 b7 bc c5 d0 66 3c 93 ef cb bc 90 2e 8d bd
       -0.022449935 0.0140878605 -0.024894511 -0.06893647
000010 d6 4b 10 3c 78 85 ab be ee 39 87 3e f3 0d 45 bd
       0.008807143 -0.33500266 0.26411384 -0.048109006
000020 be 1f 89 bd 59 1f 83 be ad 1c ee bd fd 04 96 bd
       -0.066955075 -0.25609854 -0.11626563 -0.0732517
000030 48 a0 a1 3c 0b 99 f3 3f e1 57 d1 3e 67 54 6e bd
       0.019729748 1.903108 0.4088736 -0.05818596
000040 27 2b b5 3e 0e e1 12 3f 39 3a 6c 3d 84 2a af 3c
       0.35384485 0.57374656 0.057672713 0.021382578
000050 a1 65 84 bd c8 82 61 bd 3e df 93 3d 10 8b a1 bd
       -0.06464697 -0.055056363 0.072203144 -0.07887852
000060 6b 80 70 bf 93 a6 73 bd 05 38 a6 3e 9c 52 83 3c
       -0.9394595 -0.05948503 0.32464615 0.016030602
000070 a3 01 91 bd fe a7 82 3e d8 89 8e be 86 4b ce be
       -0.0708039 0.25518793 -0.2783954 -0.40291995
000080 94 49 4e bd c5 2e 07 bc 82 3d 6d 3c 74 0b 6d be
       -0.05036314 -0.008250897 0.014479997 -0.231489
000090 38 c9 88 bd eb 44 6f bc 93 4b 9b bc 81 b8 43 bc
       -0.066790044 -0.014603834 -0.018956935 -0.011945845
0000a0 77 93 0e bd 7a 34 06 be eb cc 90 be 68 cd 04 be
       -0.034808602 -0.13105956 -0.2828134 -0.12968981
0000b0 75 38 e0 bc 74 ca e7 be 7d d8 86 bc bd ca 18 bf
       -0.02737067 -0.45271647 -0.016460652 -0.59684354
0000c0 9a 45 04 3f 4e 0f 3b be 0c 69 14 bd 39 88 09 bc
       0.51668704 -0.18267557 -0.036232993 -0.008394294
0000d0 80 d9 52 bd 8e 4f 8f bd 3f f5 c2 be 13 18 4f bf
       -0.051476955 -0.06997596 -0.38077733 -0.8089611
0000e0 28 62 c0 3f 69 13 4f bd 6b ec 71 be 50 a8 c5 bd
       1.5029955 -0.05055562 -0.23625343 -0.09651244
0000f0 a2 be 76 bd ac a7 67 bd 5b 1d f9 bc 98 49 a0 bd
       -0.060240395 -0.05655639 -0.030409506 -0.07826537
000100 26 59 d5 bb 9a 02 3c 3c df bd 7c 3f 9e fc 8f 3d
       -0.0065108715 0.01147523 0.9872722 0.07030605
000110 ce a9 a4 bc 9f 3c 96 3c 49 5e c0 bd d5 b5 3e 3f
       -0.0201005 0.018339453 -0.093929835 0.74496204
000120 11 4d 82 bd 36 bc 46 bc 34 54 cb bd 21 f5 9c bb
       -0.063623555 -0.012129834 -0.0992817 -0.004789964
000130 51 da b5 bd b5 33 2b 3c 50 32 47 bd 24 ec 4c bd
       -0.08879531 0.01044934 -0.048631966 -0.05002989
000140 10 a4 c0 3c 44 a3 92 bd 57 7e 33 bd a2 a4 e0 be
       0.023515731 -0.07160047 -0.04382166 -0.43875605
000150 96 eb c5 be f9 3a b2 3e 7e d2 da 3e d5 aa 80 3c
       -0.386563 0.34810618 0.42738718 0.015706459
000160 65 99 08 bc 71 c6 01 be 54 ad 82 3e 5b 6d 9d be
       -0.008337353 -0.12673356 0.25522864 -0.30747494
000170 3f f7 99 bd d8 ff c5 3e ea 6d 8a bb be d9 9f bd
       -0.075178616 0.38671756 -0.0042245286 -0.07805203
000180 1a 00 96 3e a0 d2 b5 bd 3e 81 db be ee 99 bb be
       0.29296952 -0.08878064 -0.4287204 -0.36640877
000190 ff 11 7b bd d2 d8 d0 3e 7f 16 e6 be 9e 74 09 bd
       -0.06129646 0.4079042 -0.44939038 -0.03355848
0001a0 4a 89 2e bc 36 4b 34 bc a1 5b a1 bd 79 19 79 bd
       -0.010652849 -0.01100426 -0.07878805 -0.06081531
0001b0 5f d0 2c bd 31 6b 0f be f7 9e 38 3f df 5c 34 3e
       -0.042190906 -0.14005734 0.7211756 0.17613553
0001c0 4c a9 34 bd 82 9a 1d bb 17 9c ac 3d af 46 85 bd
       -0.044106767 -0.0024048393 0.08428209 -0.065076225
0001d0 4c 1c b5 bd cb 98 b6 bd 91 2c 04 3f 5f 93 91 bd
       -0.08843288 -0.08915862 0.516305 -0.07108187
0001e0 67 53 c2 be fe 12 b4 be 1c 41 24 bf cd bd 07 bd
       -0.37954256 -0.3517074 -0.6416185 -0.033139993
0001f0 a3 98 31 3c 9f 98 42 bd b8 15 01 bf 00 f6 a5 3d
       0.010839614 -0.047508832 -0.50423765 0.081035614
000200 66 80 83 3e e3 2d 04 be 0e 54 20 bd 63 e4 40 be
       0.25683898 -0.1290813 -0.03914266 -0.18837123
000210 7b 27 b4 bd fe d2 81 bd 28 7b c1 bd bf 12 63 3f
       -0.08796593 -0.06339072 -0.09447318 0.8870048
000220 13 85 a8 3d df 53 08 bd d3 de 6d bd 88 63 6e be
       0.08228507 -0.03328311 -0.05807383 -0.23280156
000230 51 f5 d2 3c ea 34 13 bf fb a5 a3 bd b6 14 d2 bd
       0.025751742 -0.57502615 -0.07990643 -0.102578565
000240 4e 1e c7 bc 11 35 75 be 6d 38 76 3d 30 e9 31 3e
       -0.024306443 -0.23946024 0.060112406 0.1737411
000250 8c fe 17 3e d7 da 45 bd e8 c2 13 bd 19 25 46 3c
       0.14843196 -0.048304405 -0.03607455 0.012093806
000260 3e 30 8e bd 2d 4d 86 3f 3a d2 81 bd 3d de 16 3f
       -0.06942795 1.0492302 -0.06338926 0.5893286
000270 55 43 9d bd 60 8d ea bc e5 f5 83 bd 83 30 8a 3c
       -0.07678858 -0.028631866 -0.06443385 0.016868835
000280 4f da ba 3b 69 35 e9 bc 64 6a 68 3b 27 a2 70 bd
       0.005702294 -0.02846785 0.0035463804 -0.05874839
000290 09 a4 2c bd 28 ae 95 be a7 ab 9f 3e 00 8a b1 be
       -0.042148624 -0.29234433 0.31185648 -0.34675598
0002a0 8e 85 6c bc 4d 47 5e be 6f b1 ff bc e9 f6 5f bd
       -0.014436139 -0.21706887 -0.031212537 -0.05467883
0002b0 22 90 b8 bd 73 ad 3c bd 2d 9d 16 bf 07 29 48 bd
       -0.09011866 -0.04606385 -0.5883358 -0.04886725
0002c0 b3 bf a2 bd 4c 60 51 bb 49 7b 20 bd cb 7a 1f 3e
       -0.0794672 -0.0031948267 -0.039180074 0.15574186
0002d0 0b 14 18 3e f9 f8 fb 3e 0c 29 a7 bc 63 47 4f 3e
       0.14851396 0.4921339 -0.020405315 0.20242076
0002e0 87 38 c3 bd 1b d8 e8 3e e5 d2 d3 3d c6 5e 61 bf
       -0.09532266 0.45477375 0.10342959 -0.8803524
0002f0 0c 59 01 bd df 13 ae bd 1b 85 25 bd 5b 60 93 bd
       -0.031579062 -0.08499884 -0.040410142 -0.07196113
000300 18 0f 98 bb 6a 47 d1 3d 0b db a0 bd 67 b8 51 3e
       -0.004640471 0.10218699 -0.07854279 0.204805
000310 81 97 6e 3e f9 15 84 bc 47 85 dd be 34 8a bb bc
       0.23299982 -0.016123759 -0.43265745 -0.022893049
000320 2c cd b4 bd a9 16 07 bd 41 40 18 bd 59 f1 d1 3e
       -0.08828196 -0.032980595 -0.037170652 0.41004446
000330 50 df 98 3c e9 3d a9 3e 09 7d 63 bd bf e8 23 bc
       0.018661171 0.33055046 -0.055539165 -0.010004221
000340 29 df 86 3e 05 ae d7 3e 87 2d b0 bb 08 7a 92 bd
       0.26342133 0.42124954 -0.005376521 -0.07152182
000350 ee 62 2e 3f e9 3e 4d bd 66 da 87 3c a9 3e 75 bc
       0.68119705 -0.050108824 0.016583633 -0.014968553
000360 2b ba b8 3c 78 bf 89 3d 66 f0 3e bc 07 61 d4 bb
       0.02254971 0.06725973 -0.011653995 -0.006481293
000370 5f 4c 15 bd 6b 38 28 be e2 ee e2 3c ad 09 98 bd
       -0.036449786 -0.16427772 0.027701799 -0.074237205
000380 4e 0d 98 bc 9b ca 01 3d 11 22 71 3d d9 26 0a 3e
       -0.018561032 0.03168736 0.05887038 0.13491382
000390 33 ca 45 bd 11 65 0a 3c 4e 0a 4f be b6 10 22 3c
       -0.048288535 0.008446948 -0.20218775 0.0098916795
0003a0 2f 2e f5 3e 56 43 26 3c 79 4a 82 3f db 32 f9 3b
       0.47886798 0.01014789 1.0178977 0.0076049394
0003b0 88 5c 4c bd 24 29 6c 3e 90 e8 17 bd 41 15 3f 3e
       -0.049892932 0.23062569 -0.037087023 0.18660451
0003c0 33 95 dc bc e1 48 13 3d 10 f8 9b 3d 1e 75 96 bc
       -0.026926612 0.035958175 0.076156735 -0.018366393
0003d0 90 4d c1 3e 7b 7a 8c 3d 7c 59 cf bd d5 2f 12 3f
       0.37754488 0.06859299 -0.1012449 0.57104236
0003e0 85 17 24 3c 5a 57 2b 3c a0 39 73 bc 55 03 e9 3c
       0.010015373 0.010457838 -0.014845282 0.028443972
0003f0 bf e2 0a bf 7e 03 89 3f 40 75 b8 37 15 ce 5a 3e
       -0.5425224 1.0704191 2.1989108e-05 0.21367677

fc3.weight f4 [5, 256]
000000 2c c9 84 40 12 95 0c 3d 74 6f fb 3c 4f fa 80 ba
       4.149557 0.034321852 0.030692793 -0.0009840223
000010 17 2b 31 bd 91 99 35 40 fc bd 8d 40 e4 fc a9 3b
       -0.043253984 2.837498 4.4294415 0.0051876176
000020 22 69 2d 3c 9a 18 83 40 30 58 3c c0 0f dd c2 bb
       0.010584148 4.096753 -2.9428825 -0.0059467624
000030 a2 51 18 41 76 f9 a2 be 7e 9e 1b 41 f2 36 2d bd
       9.51993 -0.3183095 9.726194 -0.042288728
000040 3a a2 40 40 ae c4 94 40 20 79 6d 40 b8 14 78 3c
       3.0099015 4.6490088 3.710518 0.0151416585
000050 9c f6 c6 bb 21 c3 27 bc 76 2f f9 40 66 9b 67 3d
       -0.0060718786 -0.010239393 7.7870436 0.056544684
000060 1e f8 9c 40 95 d9 ea 3b b1 b4 46 40 7a 61 23 bd
       4.9052877 0.007167051 3.1047785 -0.039887883
000070 69 4f 48 3c cc 16 4d 40 cb 37 43 be d0 a5 94 3f
       0.012225964 3.2045164 -0.19064252 1.1613102
000080 6d 15 b2 bc c2 40 79 bc d6 56 06 bb a9 13 54 3e
       -0.021738732 -0.015213193 -0.0020498536 0.20710625
000090 eb 81 fc bb 64 33 0a 3d a2 ee 25 bd c1 e3 9f bd
       -0.007705917 0.033740416 -0.04051078 -0.078071125
0000a0 3e 78 0f 3d a9 ab 72 40 22 74 9c 40 0b 9a 07 40
       0.03502678 3.7917273 4.8891764 2.118777
0000b0 7d bc aa 3b 12 4e b4 40 4c be c7 3c 5e a0 1e c0
       0.005210458 5.63453 0.024382733 -2.478538
0000c0 d2 93 02 c0 07 7c b4 40 76 00 0a 3d 26 46 38 3d
       -2.0402722 5.64014 0.033691846 0.044988774
0000d0 aa 1a da 3a ec 59 38 3c 6b 55 b6 40 5e 1c 8e bf
       0.0016640027 0.011251908 5.697927 -1.1102407
0000e0 c7 76 cc bf 7e d3 11 bd 4d f1 23 40 80 72 48 3c
       -1.5973748 -0.035602085 2.5616028 0.01223433
0000f0 4b c0 55 bc c0 d2 e5 40 c7 af 7c 40 0a 3a 33 3d
       -0.0130463345 7.1819763 3.9482286 0.043756522
000100 5b da 3d bc 41 95 2a 3c 57 43 e8 bf 85 e1 00 3f
       -0.0115877045 0.0104115615 -1.814555 0.50344115
000110 4f 9c cf bb 9e 90 2a 3c 66 6d 6a 3d e5 63 a2 40
       -0.006335772 0.010410456 0.057233237 5.074694
000120 d2 d1 1b bd 28 1f c0 bc 1b e2 c5 bb 60 3f 31 3b
       -0.038041897 -0.023452356 -0.0060389168 0.002704583
000130 63 b1 f6 3b 20 46 87 3c 11 c2 a1 3c 0b 70 49 3d
       0.0075284704 0.01651293 0.019745858 0.049179118
000140 d5 24 01 3d 3d dd 4c bd 60 1d 57 bc 03 6d d7 40
       0.031529266 -0.050015677 -0.013129562 6.732057
000150 a0 37 84 40 1a 1d c2 bf 8d 00 e2 40 82 a0 1f bd
       4.13179 -1.5165131 7.062567 -0.03897143
000160 b8 07 06 3c 15 e8 ac be 07 90 85 40 e7 93 8c 40
       0.008180551 -0.33770815 4.1738315 4.3930545
000170 e9 1e 6d 3d 0d d7 b2 3f c0 3b 4d 3f 08 fd fd 3c
       0.057890806 1.3971878 0.80169296 0.031004444
000180 8b d6 43 40 7d 21 22 bd e4 bf 51 bf 51 68 07 40
       3.0599697 -0.03958272 -0.81933427 2.115742
000190 84 5a 2a bc 3f af 57 40 15 f1 ca 3f 6a 8a 75 bd
       -0.010397557 3.3700712 1.5854822 -0.059946455
0001a0 06 07 ab bb 93 bc 31 bd 9c fb 2a bc d6 51 84 bc
       -0.005219343 -0.04339273 -0.010435965 -0.016152304
0001b0 0a 97 2f bc 2d 4e 00 bd 55 01 86 40 53 e0 a0 40
       -0.010717163 -0.031324554 4.1876626 5.0273833
0001c0 a7 c8 af bc d3 34 08 41 fa 05 9d 40 39 ef 05 bd
       -0.021457983 8.512897 4.9069796 -0.032698844
0001d0 4f 23 ef bb 81 13 f8 bc 82 8b 00 41 7d 1f 8f bc
       -0.0072979103 -0.030282738 8.03406 -0.01747107
0001e0 b8 28 a8 bf 81 23 96 40 7e e3 99 40 a6 60 52 3d
       -1.3137426 4.691834 4.80902 0.051361702
0001f0 08 10 3c 3c d9 a9 b8 bc 65 1d f3 40 a6 26 d5 3f
       0.0114784315 -0.022541927 7.597338 1.665242
000200 11 d2 5d 40 f1 a0 88 40 00 ba 9f bb d1 75 e4 40
       3.4659464 4.269646 -0.004874468 7.139382
000210 80 d2 cb 3b e2 86 14 bd 0d 96 e9 3c db 69 2d bf
       0.006220162 -0.036261447 0.028513933 -0.6773965
000220 b2 f2 2b 41 af 2f 16 bd 70 71 16 bd 39 9b ec bf
       10.746752 -0.03666657 -0.036729276 -1.848487
000230 8b e3 ab 3b 1c b9 d4 bf 3d 54 cd 40 94 69 61 3d
       0.005245631 -1.6618991 6.416533 0.055032328
000240 36 a1 cd 3c 77 3d 50 3e ab 9b 1e 3f 44 68 80 40
       0.025101285 0.20335947 0.6195628 4.0127277
000250 e6 00 c8 3f 04 5a d8 3c 3d a0 9b 3b 28 58 cb 3b
       1.5625274 0.02641011 0.0047493265 0.0062055774
000260 c1 ed 23 3f be 53 f3 40 0e 48 75 3d 45 86 06 40
       0.6403466 7.6039724 0.05988317 2.1019452
000270 7e c5 3c 3c b5 e3 29 bd 37 9f bf 3a 84 54 38 3c
       0.011521695 -0.041476924 0.0014619593 0.011250619
000280 5c f7 ad bc 1d 28 33 bf 0c ab 18 3c 98 79 a8 bc
       -0.021236114 -0.69983083 0.0093181245 -0.020565793
000290 1c d4 6a be 98 1c 70 40 42 00 d3 3e 3a f6 32 3f
       -0.22932476 3.7517452 0.41211134 0.6990696
0002a0 61 b6 a5 bc de c6 84 40 25 41 c9 40 ec 52 4b 3b
       -0.020228567 4.149276 6.289202 0.0031024767
0002b0 57 5a c1 bc b0 20 8b bb 95 56 16 40 21 60 82 3c
       -0.023602648 -0.00424584 2.3490345 0.015914978
0002c0 78 77 98 3c fa f3 00 3c 95 ff 80 bc 5a d0 55 40
       0.018611655 0.007870669 -0.015746871 3.3408418
0002d0 37 75 79 40 db 54 27 41 ad 29 b6 3f af 20 ca 40
       3.8977792 10.458217 1.4231468 6.3164897
0002e0 20 cd 3c bc 8c dd a7 40 43 f7 9b 40 55 dd 18 c0
       -0.011523515 5.2457943 4.8739333 -2.388509
0002f0 51 11 05 bd 69 4d e0 3a 26 9a 3b bd eb 85 2a 40
       -0.032487217 0.0017112914 -0.045801304 2.6644237
000300 50 7f d4 3b a8 c4 b9 40 5c 75 1b bc d9 cf 0d 41
       0.0064849034 5.805256 -0.00948843 8.863244
000310 9c 8b 5a 3f 1e d0 85 bc 6e d6 ab be bc a2 35 bd
       0.85369277 -0.01633459 -0.33562034 -0.04434465
000320 9c 03 6b bc 34 4a e9 bc 55 24 ef 3b 54 b6 8a 40
       -0.014344122 -0.028477766 0.0072980323 4.334757
000330 34 19 48 bd ce de ca 40 79 8d 6c bc 98 28 02 3c
       -0.04885216 6.339698 -0.014438027 0.007944249
000340 3b 5b 96 40 3b 02 a2 bf 1a 9e 75 40 ac e2 6c bd
       4.6986365 -1.2656931 3.8377748 -0.05783336
000350 26 7a 23 41 30 9c 06 3d 1d 71 bc ba e0 37 39 3c
       10.217321 0.032863796 -0.0014376972 0.011304826
000360 2f 96 17 bd f4 20 40 c0 d0 99 39 3d d6 b5 18 bb
       -0.03700846 -3.0020113 0.045312703 -0.0023301742
000370 75 8c a5 bc 53 dc 0c 41 21 e1 9a 40 e6 6a 46 3d
       -0.020208577 8.80379 4.8399816 0.04844179
000380 22 c4 33 3d 14 1a 57 3c 41 ed be 40 0d 85 36 bf
       0.04388822 0.013128776 5.9664617 -0.7129677
000390 69 5b 4a 3c e8 c4 0d 3c e3 b9 96 40 0b 4a 82 ba
       0.012350895 0.008652903 4.7101912 -0.0009940279
0003a0 64 0e 0e bf 94 e6 d4 40 09 ab d9 3f 7b 82 89 bd
       -0.5549071 6.6531467 1.7005321 -0.0671434
0003b0 f6 b4 19 3d 48 34 ae bf 35 2c a8 40 1b 16 ec bc
       0.037526093 -1.3609705 5.2553964 -0.028819134
0003c0 3b 43 32 bd cf 0c 69 40 61 a3 50 3f cc 13 38 3d
       -0.043521147 3.6414068 0.81499296 0.044940755
0003d0 22 62 b0 40 68 9c bc 40 b1 b2 bc 3b cb de 86 40
       5.511979 5.8940926 0.0057586064 4.2146964
0003e0 ed db ef 3c b6 71 95 bc d0 17 79 3c d8 20 cd 40
       0.029279673 -0.018242698 0.015203431 6.4102592
0003f0 1a 67 92 40 19 49 cc bf ac b3 aa bc 02 dd b8 40
       4.5750856 -1.5959808 -0.020837627 5.7769785

fc3.bias f4 [5]
000000 31 83 9d bf 11 50 45 bf ce e9 cc be 3d f2 97 bf
       -1.2305661 -0.77075297 -0.4002213 -1.18708
000010 cb f5 7a bf
       -0.980313
