other_model/dqn_team_a_ep250.pth (torch, 286849 bytes, 6 tensors)

fc1.weight f4 [256, 14]
00000000: c5e4 3a3e 27ff 69bf 7e50 403d 799b 15bf
00000010: a3d6 ab3d 6e60 e8be 349d d33e 38c2 153d
00000020: f5d5 e4bf a48c b03f 22d6 0dc1 487e 0540
00000030: 9aef 133e d18e c73e 45dd 4abc f107 523e
00000040: 8266 c03c 8be7 2e3e d965 87be 308b 2a3e
00000050: c850 16be 93d0 42be f2fe 10be d6d5 7f3d
00000060: 3067 473e 89cb 2cbe a33a b2bd e9c4 b7bd
00000070: 25e1 ffbd 4c35 7cbe 67e7 4b3e a7ce 0abd
00000080: 1c4e 4dbe 270d 403e c698 0fbe 8d15 31be
00000090: 6d7f d53d b204 16be c140 65be f5a6 4dbd
000000a0: 5d2f 95bb 564e 2d3d c3eb 31bd 26b3 3bbe
000000b0: 09fb 3cbe a07b a33d 1e9f efbd 481e 583c
000000c0: 45e7 7dbe f24f 273e 7a95 4bbe 0076 313c
000000d0: bacf 32be 6a6f 3e3e 1a4a d43c d9a5 11bd
000000e0: 293b 67bf 1177 55bf b7ac 47bf 0c51 adbf
000000f0: cd45 103f 6e83 8b3f 77eb 133f 290c 0e3e
00000100: 4d2f 4cbf 31ff 383f 5d19 acc0 bcae 03c0
00000110: 8ddf 333e af7d 0c3e 98bf 8fbe 6bcf e4be
00000120: 30b4 603e 037d 6cbe 63a4 3b3e ad21 10bd
00000130: c013 533d b89e 0fbe d192 81be 3286 5abe
00000140: 9a24 8c3e 908f febc 4c2c 0fbb 6c43 dfbc
00000150: ff8e 25be c14a c3bd 01e5 5f3e f7c9 84be
00000160: 5c08 43be 9792 743e eb34 d23d ffd2 5cbe
00000170: d91c 30be bc6f 81bd 8006 73be 44d2 8cbc
00000180: 9f50 6d3d 0f09 cebd 27f9 283f 2d54 d3be
00000190: b6ae 993e de17 24be 5ae6 943e 53ca 183f
000001a0: e943 743e 8210 e23e 45ec f0bd d728 8fbe
000001b0: bbe3 d33f 6070 1740 4a51 bcbd eee7 b93d
000001c0: 66f9 53be 3151 88be 9517 123e 4fe5 573e
000001d0: 9cf2 0f3e 7770 173d 3705 4f3e 9e36 5fbe
000001e0: 7ccc 6bbe a936 a9bd f8bb 99bc c9fa 8d3c
000001f0: 2cde 39be 99ab 86be 6219 5c3e b493 6a3e
00000200: 85ee 683e d5ec 453e c614 80be 7e10 05bf
00000210: 2fa0 b6be b88b 27be a473 5c3e 7ab7 34bf
00000220: 9b76 8b3e cfdd 9f3f d10e 243d e3be d93c
00000230: a138 0b3e 1d0d 5ebf c900 853a 048b 303e
00000240: ee9c d53d b9b0 923d ff6c 84bc 161d c83d
00000250: 6c35 e53d 8c40 393d 3d10 4840 d3f8 0740
00000260: 5700 4b3e 8cf9 1b3e 3767 eabd b4d8 543e
00000270: 7440 9c3a bd2e 6abe dd98 1dbe 680b e9bd
00000280: 4033 02bd 3810 cdbd b5b2 963d 438d 053e
00000290: b8a1 4dbe ea7f 9c3d 28df 2abe 787e 253e
000002a0: 595f 253e 525a afbc 721f 993e e673 fd3e
000002b0: caf4 e53c 6bda f9be da7b c43e 2429 653e
000002c0: e316 23c0 d661 4b3f 4f72 69c0 c069 9bbe
000002d0: 203f 0d3d 057e dcbd 1a4a 5d3e 9dfa a83e
000002e0: 60e9 213e 084c 6b3e 6f5d 71be 5dc6 fcbe
000002f0: d78e 06bf 0e8f 08bf 5f8c c63d 734e 63bd
00000300: 10a8 8dbf 213b 2d3f 00e8 ce3d 91a2 d73d
00000310: 162f 06bd ccb7 b9bf bca7 eabd 17d9 c2be
00000320: 02e5 163e 8ad0 933e 6808 4ebe c541 993e
00000330: a8ab 913e defa c93e f9f1 1840 1381 9c40
00000340: edf6 cd3c 39f7 e43d 4c28 693e d03e 043f
00000350: 7fa1 103f de6d aa3d cba1 c6bc 7bb0 aa3e
00000360: ab69 203e f303 d0bc 11f0 883e 5aef 0ec0
00000370: 5597 083f fea5 c4c0 ffbe 2ebd 9a47 133e
00000380: e7bc e3bb e5a9 623e 922f d83e 9981 e23d
00000390: bd41 09bf a1b3 9c3e 77ea bebf cf18 903d
000003a0: 214a 0e3d 839b 9ebd 7002 8dbe 3b6f 313e
000003b0: 7c32 923d 418b 7ebe 87dd 18be fffb 39be
000003c0: 6812 123e 9e83 7ebe 4433 eabd 4d16 1ebb
000003d0: eef9 fe3d 9d33 58be b80e 1f3c 2ad2 71be
000003e0: 7ae8 c4bd 2d1b 913b bc49 2ebe ab8d 36be
000003f0: d69a 2abe 2cdf 86be 2dea 4ebd e135 023e
0.18251331 -0.91404957 0.046951763 -0.5844036 0.08390548 -0.4538607 0.41330874 0.036562175
-1.7877795 1.379292 -8.8647785 2.0858326 0.1444687 0.38976148 -0.012381856 0.20510842
0.02348638 0.17080514 -0.2644489 0.16654658 -0.14679253 -0.19024877 -0.14159754 0.06245979
0.19472957 -0.16874518 -0.0870259 -0.089731045 -0.12494115 -0.24629706 0.19912492 -0.033888485
-0.20049328 0.18755017 -0.14023122 -0.17293377 0.10424695 -0.14650229 -0.22387983 -0.05020805
-0.0045527653 0.042311035 -0.04343773 -0.18330058 -0.18455137 0.07982564 -0.11700271 0.013190813
-0.24795254 0.1633909 -0.1988124 0.010831356 -0.17462054 0.18597189 0.02591424 -0.035558555
-0.90324646 -0.83384806 -0.77997917 -1.3540359 0.5635651 1.0899484 0.57781166 0.13871826
-0.79759675 0.7226439 -5.378096 -2.05754 0.17565747 0.1371982 -0.28075862 -0.44689497
0.21943736 -0.23094563 0.18324427 -0.035188366 0.051532507 -0.1402539 -0.25307325 -0.21340254
0.27371675 -0.031074315 -0.0021846471 -0.027253829 -0.1616783 -0.095357426 0.21864702 -0.25935337
-0.19046158 0.23884045 0.102639996 -0.21564864 -0.17198505 -0.0632014 -0.23732948 -0.017190106
0.057938214 -0.100603215 0.66005176 -0.4127516 0.30016106 -0.1602473 0.29081994 0.5968372
0.2385403 0.4415322 -0.11763815 -0.27960846 1.6553873 2.3662338 -0.09195192 0.0907744
-0.20700607 -0.26624444 0.14266808 0.21083568 0.14057392 0.03697249 0.20216833 -0.21798179
-0.23027223 -0.08262379 -0.018766388 0.017331498 -0.18151158 -0.26302794 0.21494058 0.22907907
0.22747238 0.19328626 -0.2501585 -0.5197829 -0.35669085 -0.16361892 0.21528488 -0.70592463
0.27238926 1.2489566 0.040053193 0.02658028 0.13595821 -0.8673876 0.0010147329 0.1724053
0.104303226 0.071626134 -0.016165255 0.09771173 0.1119183 0.045227572 3.125991 2.124562
0.19824348 0.15231913 -0.11445468 0.2078579 0.0011921064 -0.22869392 -0.15390344 -0.11379129
-0.031787157 -0.10012859 0.073583044 0.13042168 -0.20081222 0.07641585 -0.1668669 0.16161525
0.16149653 -0.021405373 0.29906803 0.49502486 0.028070826 -0.48799452 0.3837574 0.22378975
-2.548272 0.7944616 -3.6476018 -0.30354118 0.03448403 -0.10766224 0.21610299 0.33003703
0.15811682 0.22978222 -0.23570798 -0.4937009 -0.52561706 -0.53343284 0.096947424 -0.055494737
-1.1066914 0.6766835 0.10102844 0.10529054 -0.03275975 -1.4509215 -0.11457774 -0.3805625
0.14735797 0.2887004 -0.20120394 0.2993299 0.28451276 0.3944921 2.3897688 4.890756
0.025142157 0.111799665 0.22769278 0.51658344 0.56496423 0.08321737 -0.02424707 0.3333777
0.15665309 -0.025392508 0.26745656 -2.2333589 0.53355914 -6.1452627 -0.042662617 0.14382783
-0.006950009 0.22135122 0.42223793 0.11059875 -0.53615934 0.30605796 -1.4915303 0.07035982
0.034738664 -0.07744505 -0.27540922 0.17327587 0.071385354 -0.24857809 -0.14928256 -0.18162535
0.14264834 -0.24854895 -0.114355594 -0.002412218 0.12450014 -0.21113439 0.009708099 -0.23615327
-0.09614654 0.0044282884 -0.17020315 -0.1782748 -0.16660628 -0.26342142 -0.050516296 0.12715866

fc1.bias f4 [256]
00000000: 69fd 713e 085c e13d 2970 87be 47ef 11bd
00000010: 4bde 033e 6491 b2be 7c04 06be 0b89 a5bb
00000020: ab0c 1f3e 2146 2a3e a9c6 0e3e d546 6c3d
00000030: 0b42 0c3d fd5a 85be b85d ef3d f6f1 2b3e
00000040: 069e a8bd 69be 2abd 06d2 5bbe e13b 25be
00000050: 2066 a4bd c106 1d3e d403 e2bd cdd1 f53d
00000060: 2547 6ebe b41b d63d a35e 5bbd 3529 63be
00000070: ee29 2f3e 5dd9 4f3e 62b3 babd 2a32 6fbe
00000080: 0b08 09bc 0fd6 a0bd b50e 90be da55 6f3d
00000090: a5e8 093e 3869 3ebd 46e1 57be 7801 c5bc
000000a0: d084 61be 2f25 f63d a4e5 73be ecc8 a0bd
000000b0: ddfc 76be 2ba3 80be 4857 98be aa6e ae3e
000000c0: 1f81 543d b904 b23d 210b 6ebe 8f39 4dbe
000000d0: 3684 4dbd de31 4f3c d091 89be c465 d4bc
000000e0: 760f b3be 7253 563e 97bb 0f3c 1a3d e13d
000000f0: 2b0a 513e d1ca f53d a9d5 63bd 3487 f0bd
00000100: 0858 4e3e 1263 143e 85d6 1e3c d541 30be
00000110: 092a 6a3d 3a10 7e3d 9742 e83d e69d 28be
00000120: b88d aa3e 300b d9bd a9ae 38be 8909 863d
00000130: 94f5 b5bc 5333 87bc 0918 873d d2b5 4d3d
00000140: e1f3 51be 88fa 90bd 0cf1 9b3c 737b 573d
00000150: 2590 36be 524c ab3d 5e78 e7bc e618 383e
00000160: 5a90 693e 2463 89be 7397 6abe 4bf4 413d
00000170: d8c8 95be deb0 be3c 38dc 9c3d 11a1 94bd
00000180: 6348 52bc f725 f23d b48e a1be dd53 513d
00000190: a92d 0fbd 5e24 593e f697 50bd 23a7 1f3d
000001a0: 4119 523d dc39 7a3b 4333 c63d 4ae8 5a3e
000001b0: b83d a2bd fe24 9abc f8de a83e 4fbc 80be
000001c0: 2ac7 0ebc 70ba 9dbe 534b 0cbe 6790 293d
000001d0: 0745 9bbd 395b 693d f780 95be dae7 6ebe
000001e0: b69f ec3c 53dc 2d3d 1389 1abe 3a62 153e
000001f0: 5067 5b3e 59e4 41be 907e 063d 3927 84be
00000200: bb02 a93d e953 99be ad23 313e f8d6 0abd
00000210: 8b36 753e d754 d83c 161c fb3d 5040 82bc
00000220: a8e7 b93d dc49 de3d 8289 9dbc f01b f53c
00000230: ed40 7b3d 7493 b83c 2af9 40be 7431 6b3e
00000240: 39bb 483d 14d9 b83e 039c 23bd 40bf 68b9
00000250: f0fa febd e51f 8ebe 35a5 2abd 0d3f c7bd
00000260: 52de 913c 14a9 763d e7cf 7bbd 1b7d 74be
00000270: 99fe 18bc 632d 873e ca41 33bd 7e51 4d3e
00000280: fbb6 61be 3efb 323e 5fd3 2f3d a27e 59be
00000290: ba36 edbe f583 88be 2ea3 5f3e 71de d13d
000002a0: cd0c 5d3e bb8d 5ebe af7b 35be 9ec8 babd
000002b0: 033f 183e b8b0 55be ea4e 2dbe 2cdc fb3c
000002c0: 6186 393d 8c3b 803e f53c 2d3e 0929 f03d
000002d0: 19dc 0bbe 8ac5 50be 34be 55be f92a 533e
000002e0: 861e 14bd 488e 203e 134d 94bd febe 6b3e
000002f0: 3a53 e7be 2c2c 3abe 8665 293d a450 5abe
00000300: 9cd2 693d 643e 873e c32a a4be cf60 4dbe
00000310: ca4b 66be 9049 8ebc 66a6 263d befb 6f3e
00000320: 37c4 173e f7f7 adbe 7227 433e b909 9cbc
00000330: 416b f63d c93c 163d b861 bcbd 7492 45bd
00000340: c15d 0dbe b3e8 aebe ff46 f3bd 5afd 1cbe
00000350: 4a7d c5bc 95ed df3d 826a 91be 4adb 4bbe
00000360: 24f9 0d3e 4acf 4b3e 06f4 c4bd a5d2 be3d
00000370: b6c1 703b e726 45be 2957 e4bd 7c73 02bd
00000380: 3c25 3abe 65dc e23c 3bff 1d3e c312 8dbd
00000390: 151a 2f3d 870e b9bd 18f7 10be 5c3e 9c3c
000003a0: 67a3 d13d fda2 943d 7beb 6fbe 579a 71be
000003b0: 0ce6 6cbe 1671 86be d52f 473e 39ee 593e
000003c0: b9be 72be e1f8 a7be 6059 f93d b53e 743d
000003d0: 2248 57be 790c 343e b8fd 62be 9c06 8abc
000003e0: d883 cbbe 36af 56be 69c8 3abe ceb6 3bbe
000003f0: 4307 c4be 7146 80be c63e a9be 51a2 aabe
0.23631825 0.11003882 -0.2645276 -0.035628583 0.12877767 -0.3487655 -0.13087648 -0.005051737
0.15532176 0.16628315 0.1394297 0.05768474 0.03424267 -0.2604598 0.11687797 0.1679152
-0.082332656 -0.041685496 -0.21466836 -0.16136123 -0.08027291 0.15334608 -0.110358864 0.12002907
-0.23269327 0.10454503 -0.05355705 -0.22183688 0.17105839 0.20297761 -0.09116246 -0.2335898
-0.008363734 -0.078533284 -0.2813622 0.058431484 0.13467653 -0.046487063 -0.21082029 -0.024048552
-0.2202332 0.12018811 -0.2381807 -0.07850823 -0.24119897 -0.25124487 -0.2975409 0.34068805
0.051880952 0.08692307 -0.23246433 -0.20041488 -0.050174914 0.012646167 -0.2686906 -0.025927432
-0.34972733 0.2093027 0.008772752 0.10997982 0.20414035 0.12001575 -0.055623684 -0.11744538
0.20150769 0.14490917 0.0096947 -0.17212613 0.057168994 0.062027194 0.11340826 -0.16466483
0.33311248 -0.10597837 -0.18035378 0.065447874 -0.022211827 -0.016503965 0.06596381 0.050222225
-0.20503189 -0.07079035 0.019035839 0.052607965 -0.17828424 0.08364166 -0.028255638 0.17978248
0.22808972 -0.2683345 -0.22909336 0.047352117 -0.29254794 0.023277696 0.07659191 -0.072572835
-0.012834641 0.118236475 -0.31554186 0.05110537 -0.034955654 0.21205279 -0.05092617 0.038977753
0.051293615 0.003818146 0.09677746 0.21377674 -0.07921928 -0.018816467 0.32982612 -0.25143668
-0.008714477 -0.30806303 -0.13700609 0.04139748 -0.07581525 0.056971762 -0.29199955 -0.23330632
0.02888475 0.042446446 -0.15091352 0.14588252 0.2142613 -0.18934764 0.032835543 -0.25811175
0.08252474 -0.2994683 0.17298765 -0.033896416 0.23946588 0.026407642 0.12261216 -0.015899807
0.09077388 0.10853931 -0.019230608 0.029920548 0.061341215 0.022531249 -0.18845049 0.22968084
0.049006674 0.36103117 -0.039943706 -0.0002219649 -0.12450206 -0.2775871 -0.04166146 -0.09728823
0.017806206 0.06021984 -0.061477568 -0.23875849 -0.009338045 0.26401815 -0.043763913 0.20050618
-0.22042458 0.17478654 0.04292619 -0.21239713 -0.46330816 -0.26663175 0.21839592 0.102475055
0.21586914 -0.21733753 -0.17722963 -0.09120296 0.14867787 -0.20868194 -0.16924635 0.030744635
0.04529417 0.2504543 0.16917785 0.11726577 -0.1365818 -0.20387855 -0.20873338 0.20621862
-0.036161922 0.15679276 -0.07241263 0.23022076 -0.45180684 -0.18180913 0.041356586 -0.21319824
0.05708562 0.26414788 -0.32063875 -0.20056461 -0.22489849 -0.017369062 0.040686034 0.23435876
0.14820944 -0.33978245 0.19058016 -0.019047605 0.12032176 0.036679063 -0.09198326 -0.04823537
-0.13805296 -0.3416191 -0.11878776 -0.15331021 -0.024107594 0.10933987 -0.28401572 -0.19907871
0.13864571 0.19903293 -0.09616856 0.09317521 0.0036736554 -0.19253121 -0.11149437 -0.031848416
-0.18178266 0.027692983 0.15429394 -0.06888344 0.042749483 -0.09035974 -0.14156759 0.019072704
0.10236245 0.0725765 -0.23429672 -0.23594032 -0.23134631 -0.26258153 0.1945184 0.21282281
-0.23705567 -0.32807067 0.1217525 0.059630115 -0.2102361 0.17582883 -0.22167099 -0.016848855
-0.39749026 -0.20965275 -0.18240513 -0.18331453 -0.3828679 -0.25053743 -0.33055705 -0.33326963

fc2.weight f4 [256, 256]
00000000: 6abd 9fbf c0ef 9dbc 841a 9d3c 649b 643d
00000010: 02bf 51c0 1e69 f03d 9e81 36bd 661f 403f
00000020: a43c 8f3c 0061 923f 82e9 1a3f 3009 ed3c
00000030: 304c 7ebe 8620 9e3f b930 c23f b946 2bc0
00000040: abd8 cebe 1a20 01bd c81d fe3c 45c4 0fbd
00000050: 8c86 c6be 3444 8d3f 0a6b 9abc 5013 78bf
00000060: 899b 0e3f ceab ee3f 8060 6bbc f415 dbbc
00000070: 2768 b83e fe58 dbbf 9b55 3d3f 1ea5 07bf
00000080: 32ec 18bd 8ef8 363c 40db 01be ede1 02bd
00000090: e57a 163b 84dd 77bb 808f 9bbb 9dc0 463f
000000a0: 50d8 2cbc 9e37 ee3e 6a90 76bd 451d 42c0
000000b0: 3aa1 cdbc 8072 033a 182d 2ebd 603a b6bf
000000c0: 7d7a 2d3d b588 8f3f 164c 82bd 3612 a1bb
000000d0: d0ce aa3e 9845 b13c 4527 7cbd a8ac c2bc
000000e0: cfc0 11bf 20ec 273b d8ad 0bbd fd97 733e
000000f0: 784d db3c 0a6f 66bd 06d4 443f 5c57 c3bc
00000100: 7a1c 793d cc2a 1dbf ee64 793d b359 83bf
00000110: d70d d6bf 006b 353a 1091 6dc0 cf75 64bc
00000120: a2a6 673f a5c9 92bd 3b38 d83f 8e03 403d
00000130: 23d8 3e3d 13c4 6fbf 9c82 8f3f cc87 18bf
00000140: 715d 893e 8624 673d bbbf 9ebf 9f35 1fc0
00000150: 84d7 4fbd 56e6 083c c468 c53f 6069 99bb
00000160: cdc2 5abf 1be6 4fbe ba0d 4abe 5015 cc3c
00000170: cccb e33f 3c3a ea3c 9024 2abd e0fe af3f
00000180: ba19 cc3f d09b da3c 8454 bdbc ecf2 e4be
00000190: e46c efbe 46e3 b6be bd1c b9be db1a ce3e
000001a0: 5c1e 813c c09c 3d3c 30fb e03c db97 183f
000001b0: b44b 0f3c d835 c0bc 3490 33c0 4259 583d
000001c0: e1d7 9d3c 288e a83b be91 39bd c8c8 f23c
000001d0: 60a4 84bb 0f28 123d 49d6 c33d 99cd df3f
000001e0: cd09 6ebe 63fb 17bc 4163 15c0 ae5b 26bd
000001f0: b281 67bd 91ac 9cbd ded5 583d 6f74 933b
00000200: 2af6 b0bc c84b 2abf cec5 d0be ce65 013d
00000210: d7d0 0e3f 3051 fe3f dd86 0a40 a8d4 a93c
00000220: f147 393d 818c 2f3f 3ef8 ffbf b609 973e
00000230: 6c64 8ebc a018 70be f673 ecbc 68fd c33e
00000240: 343d 853d 32b0 c7bf 8a01 783d cc71 0bc0
00000250: 6911 173c f17e dabe 519d 8dbe aec1 a9ba
00000260: 6dfa 0340 e8d9 3d3d a60e 37be c4ae d4bc
00000270: 7eea e13e 9449 ae3c e09c e6bb c59e 6ebb
00000280: df90 513d c5a6 99bb 86f0 2a3d 0667 683f
00000290: 0635 5dbf 8e52 1b3d 6fb6 483f 08be e13c
000002a0: 4d81 06c0 4c0c 18bd 25b4 8a3c 2841 0a40
000002b0: 8195 e23d e2c5 2f3d ebbf b1bc 76f6 5dbd
000002c0: 689c 25be 64e6 c0bc 91c4 32bd b5a2 0bc0
000002d0: db9a efbd 825a 1940 9d17 e13e d62f b5bc
000002e0: 99fb 073d 1e1e a53f fb9b 0840 af3e a33c
000002f0: d594 953f 96b6 40be de7a 96bf 42d6 45bd
00000300: 2b12 323f 4715 c73f 51b2 053f 604f 81bb
00000310: b298 4c3d 8c17 0a40 2aa9 87be c697 173e
00000320: b59d 24c0 6006 d43f 1a79 3abd 1d85 1640
00000330: ee03 84be b100 88bf 737c 9d3f 08e2 263c
00000340: e797 33bd 2c84 97bd 7c6d 2c3f 3a53 163f
00000350: e87d 073d 4ef7 343d 0e90 d23e 73c1 a73f
00000360: 148a 3f3d 6c11 e03c 0980 62bd b0b6 09bd
00000370: 7d67 03bd 15a1 26be 5df8 5b3f 13b7 4abc
00000380: d68b 083f d1d2 34c0 a052 6f3c d458 b9bc
00000390: 8787 3e3e 33ba e03c 370e 2d3f 214e b43e
000003a0: 14fc 243d 6577 4040 c45e 5dbf 9e7c 3c3d
000003b0: 02f2 1240 54fc 7abe 6857 53bd b1b9 42bf
000003c0: 6a97 cc3d 59b4 743f 988b e8bc 6267 5c3d
000003d0: 2a55 663d 2823 a9bf 0655 4a3d a8be 70bd
000003e0: a4ff c03f 4738 f33a 6861 793d 6ef1 bcbc
000003f0: fe4f 7c3d 84a4 993c 4735 8c3d 042e b0bd
-1.247968 -0.01927936 0.019177683 0.055812255 -3.2772832 0.117387995 -0.044557206 0.7504791
0.01748497 1.1435852 0.60512555 0.028935045 -0.2483375 1.2353675 1.5171119 -2.6761916
-0.4039968 -0.031524755 0.03102006 -0.035099287 -0.38774526 1.1036439 -0.018849868 -0.9690447
0.5570608 1.8646181 -0.014366269 -0.026743867 0.36016962 -1.7136533 0.7395875 -0.52986324
-0.03733463 0.0111676585 -0.12681293 -0.03195374 0.0022961434 -0.0037821243 -0.004747331 0.77637655
-0.01054962 0.46526808 -0.060196318 -3.0330365 -0.025101293 0.0005014315 -0.042523474 -1.4236565
0.042353142 1.1213595 -0.063621685 -0.004915501 0.3336091 0.02163963 -0.061560888 -0.02376397
-0.5693483 0.002562292 -0.034101337 0.23788448 0.026770338 -0.05625824 0.7688602 -0.023845367
0.060818173 -0.6139343 0.06088727 -1.0261749 -1.6722974 0.00069205463 -3.711979 -0.013944103
0.90488636 -0.07167367 1.689216 0.04687839 0.046592843 -0.9365856 1.1211734 -0.5958221
0.26829103 0.056431316 -1.2402261 -2.4876478 -0.05074264 0.008355698 1.5422597 -0.004681751
-0.8545349 -0.20302622 -0.19731799 0.024912506 1.7796569 0.028592221 -0.041538775 1.3749657
1.5945351 0.026685625 -0.02311159 -0.44716585 -0.46762764 -0.3572027 -0.36154738 0.40254864
0.015761547 0.011573017 0.027463526 0.59606713 0.008746076 -0.023463175 -2.8056765 0.052819498
0.019267978 0.0051438995 -0.045305006 0.029636756 -0.0040479153 0.035682734 0.09562356 1.7484618
-0.23245926 -0.009276244 -2.334183 -0.040614776 -0.05652017 -0.07650102 0.052938335 0.004499964
-0.021601755 -0.66521883 -0.40775913 0.03159123 0.55787414 1.9868526 2.1644814 0.020731285
0.045234624 0.68573767 -1.9997633 0.29499596 -0.01738187 -0.23446894 -0.028863888 0.3827927
0.06505814 -1.5600646 0.060548343 -2.1788206 0.0092204595 -0.42674974 -0.27659085 -0.0012951398
2.0621598 0.04635039 -0.17876682 -0.025962241 0.44124216 0.02127532 -0.007037744 -0.0036410552
0.05116355 -0.00468907 0.041733287 0.907822 -0.8640903 0.037920527 0.7840337 0.027556434
-2.101642 -0.037121102 0.016931603 2.1602268 0.11063672 0.042913325 -0.021697959 -0.05419012
-0.16172945 -0.023547359 -0.04364449 -2.1818058 -0.11699458 2.3961492 0.43963328 -0.022117537
0.033198927 1.2899816 2.1345203 0.01992735 1.1686045 -0.18819651 -1.1756246 -0.048300035
0.6955897 1.5553368 0.52225214 -0.00394623 0.04995031 2.1576872 -0.2649625 0.1480399
-2.5721257 1.6564445 -0.045525648 2.3518746 -0.25784248 -1.0625211 1.2303604 0.010185726
-0.043846037 -0.07398257 0.6735456 0.58720744 0.033079058 0.04418116 0.4112553 1.3105911
0.04676254 0.027352057 -0.055297885 -0.03362149 -0.032081116 -0.16272385 0.8592585 -0.01237275
0.5333837 -2.8253672 0.014607102 -0.022625364 0.18606387 0.027432537 0.67599815 0.35215858
0.040279463 3.0072873 -0.86472726 0.04601728 2.296021 -0.24510318 -0.05159703 -0.7606459
0.099898174 0.9558769 -0.028386876 0.05380953 0.056233563 -1.3213854 0.04939749 -0.058775574
1.5078015 0.0018556201 0.06088391 -0.023064341 0.061599724 0.018755205 0.06846099 -0.08602527

fc2.bias f4 [256]
00000000: 59e0 0dbd c5d0 663c 93ef cbbc c87d 22bd
00000010: c942 ca3c 2487 b23d 4c1f 993e 86ff 03bd
00000020: ac22 10bd 762b c6bd 54ef 5e3c da69 7ebd
00000030: fc31 473e 23ae dc3e a56a b13d 314a 2dbd
00000040: 6d20 68bb f703 06bf b184 d93c 842a af3c
00000050: d6bc 47bd 5e74 20bd b37c 563c d703 81bd
00000060: db45 efbd 93a6 73bd 13d7 6b3c bbb7 023d
00000070: a301 91bd c186 e6bd 7147 6abd c787 2ebe
00000080: 9449 4ebd c52e 07bc 823d 6d3c df3c 43bd
00000090: 17d0 61bd fea5 a73a 934b 9bbc 81b8 43bc
000000a0: 7793 0ebd 260b 9bbd a3eb 013d 9baa 26bd
000000b0: 7538 e0bc e9ef 013e 7dd8 86bc 9ea4 1c3c
000000c0: 09b2 333d 7e65 f6bd ceae f7bb d662 f53b
000000d0: 80d9 52bd 8236 29bd de14 573d 67a3 76bd
000000e0: 6058 103f 6913 4fbd 3ae6 0cbe dc99 84bd
000000f0: 9443 e9bc 332d 52be cbc9 aebd e4fa 84bd
00000100: 2659 d5bb 6afc 0c3d 7e28 90bd f797 0ebd
00000110: bc33 8abb a4fa c53c 495e c0bd 7d0d a13d
00000120: 114d 82bd 36bc 46bc facc aabd 2cbf 353c
00000130: 1753 95bd b533 2b3c e5d5 c7bc b9dd 0bbd
00000140: 7160 213d 44a3 92bd 771c d4bc 6eae d83d
00000150: 9ff4 09bd e6ca 82bd aba7 abbd 9463 013d
00000160: 3e1d ffb9 e431 bbbb cb02 3b3d 3a36 a9bd
00000170: 1443 57bd 0e7e a43e 74ce 6a3c bed9 9fbd
00000180: c34e 4bbe 5888 69bd b10b 723b 01a8 ffbc
00000190: 9203 3abd 9c34 b5bc 8b4e 41bd 9e74 09bd
000001a0: 7db7 253c 364b 34bc 71d4 80bd 7919 79bd
000001b0: 5fd0 2cbd f31c 08bd 7b4f 023f 85a4 e33d
000001c0: cd31 4abc 3867 f4bd 58bf e9bd af46 85bd
000001d0: a2ba 96bd b214 6bbd 7290 e23e 5f93 91bd
000001e0: 3040 62bd dbaa 79be f7ce 493c cdbd 07bd
000001f0: 83a4 2d3d e1e2 ccbc 95c7 073e 9d3a 53bd
00000200: ed02 1b3e f6dc 553c 0e54 20bd f590 983d
00000210: 41a0 93bd fed2 81bd eff3 a0bd 5912 843e
00000220: 320a 373e df53 08bd 67d0 2cbd 2ba7 d5bc
00000230: 51f5 d23c 1ee4 53bc af65 9ebd cc7b b6bd
00000240: 4e1e c7bc f0ce 5cbd 47a0 983e bf15 acbc
00000250: 198e 5dbc 6bcc 04bd e53c c4bc 1925 463c
00000260: 7132 ff3b aee6 b83e 3ad2 81bd cfe3 0f3f
00000270: 5543 9dbd 0ae1 50bc e5f5 83bd af26 063d
00000280: 78d3 b03c 7e14 fa3c 1e2a 9f3c 8a0e e0bc
00000290: 3efe dcbc 0613 3d3e 67ba d1be bbf7 b4bc
000002a0: 64a1 bd3a 4a81 09be bd36 98bc e9f6 5fbd
000002b0: f908 98bd 103e f7bc df1f 02be eebb 2bbd
000002c0: b3bf a2bd a3e1 4f3c b9d9 bebc b819 113d
000002d0: 3560 343b b985 2c3e 3760 3dbe e434 3bba
000002e0: 4db1 a2bd 9e53 1abf 6fc6 88bc 9a74 92be
000002f0: 3c95 80bc a58c 8dbd 5ded c8bc 6574 99bd
00000300: 180f 98bb 3172 023e d153 80bd ac37 fabe
00000310: f8c3 523e 678e 7cb9 2976 843d 348a bbbc
00000320: 4fa5 8fbd 7710 8cbc 4140 18bd 20e0 29bd
00000330: 50df 983c 7405 f6bd 097d 63bd 33c1 39bb
00000340: 726f 4a3d 401a 8f3e 462e b6be 087a 92bd
00000350: 05b4 4f3e 1843 d2bc a1fb 043d a1ca 313c
00000360: 2bba b83c bfdb a6bd 66f0 3ebc 4309 1a3c
00000370: e27b a8bc 561e eebd 774c cd3c ebea 85bd
00000380: 4e0d 98bc 9bca 013d 5a74 4bbe 31a0 033f
00000390: ccbb 04bd 694f c73c 33e0 e63d 3a25 d33c
000003a0: 6664 3cbe 8d9e 9abe 0824 8d3e 9969 c03c
000003b0: 274e 0bbd 7a80 96bd 5084 24bd 349e 2f3c
000003c0: c9f0 34bc 638d c5bd 7174 b9bd eec5 ddbb
000003d0: c15b 483e f2c4 1e3e 3c6b 9ebd d972 bf3d
000003e0: e0a9 2c3d 3c16 e13c ff00 883a 6a92 8cbd
000003f0: 9d36 b8bd 6203 54bd 60f6 393c 4178 283e
-0.034637783 0.0140878605 -0.024894511 -0.039670736 0.024690049 0.08717182 0.2990669 -0.032226108
-0.035189316 -0.09676258 0.013606865 -0.062112667 0.19452661 0.43101606 0.08662919 -0.042307083
-0.0035419718 -0.523498 0.02655253 0.021382578 -0.048764072 -0.039173476 0.013091254 -0.062995605
-0.11683246 -0.05948503 0.014394539 0.0319135 -0.0708039 -0.11256171 -0.057197038 -0.17043982
-0.05036314 -0.008250897 0.014479997 -0.047665473 -0.05513009 0.0012790558 -0.018956935 -0.011945845
-0.034808602 -0.07570486 0.03171886 -0.040690046 -0.02737067 0.12689175 -0.016460652 0.009560732
0.04387096 -0.12031077 -0.00755868 0.007488589 -0.051476955 -0.04131175 0.052510135 -0.060214426
0.5638485 -0.05055562 -0.137597 -0.06474659 -0.028474607 -0.20525055 -0.08534583 -0.06493166
-0.0065108715 0.03442041 -0.07038973 -0.034812894 -0.004217593 0.024167366 -0.093929835 0.07863901
-0.063623555 -0.012129834 -0.083398774 0.011092942 -0.07291239 0.01044934 -0.024393985 -0.034146998
0.039398614 -0.07160047 -0.02589248 0.10580145 -0.033680554 -0.06386356 -0.083815895 0.031589106
-0.00048659177 -0.0057127345 0.04565696 -0.08262296 -0.052554205 0.32127422 0.014331449 -0.07805203
-0.19854264 -0.057014793 0.0036933238 -0.03120804 -0.04541356 -0.022119813 -0.047194045 -0.03355848
0.010114548 -0.01100426 -0.0629052 -0.06081531 -0.042190906 -0.033230733 0.5090253 0.11115364
-0.012340975 -0.1193375 -0.11413449 -0.065076225 -0.07359816 -0.057392783 0.44250828 -0.07108187
-0.055236995 -0.24381582 0.012317411 -0.033139993 0.04239322 -0.025010528 0.13259728 -0.05156957
0.15137835 0.0130531695 -0.03914266 0.07449523 -0.072083004 -0.06339072 -0.07859027 0.25795248
0.17874983 -0.03328311 -0.042190935 -0.026080688 0.025751742 -0.012932805 -0.07734238 -0.08910331
-0.024306443 -0.05390829 0.29809782 -0.021006463 -0.013522648 -0.03242151 -0.023954818 0.012093806
0.0077879955 0.36113495 -0.06338926 0.56206983 -0.07678858 -0.012748966 -0.06443385 0.032751735
0.021585211 0.03052735 0.019429263 -0.027350683 -0.0269767 0.18464288 -0.40962526 -0.022090783
0.0014467654 -0.13428226 -0.018580789 -0.05467883 -0.074235864 -0.03018096 -0.1270747 -0.04192727
-0.0794672 0.012688073 -0.023297178 0.035424918 0.0027523164 0.16847886 -0.18493734 -0.0007141365
-0.07943974 -0.6028384 -0.016696183 -0.28604585 -0.01569616 -0.069115914 -0.024527246 -0.074929036
-0.004640471 0.12738873 -0.06265987 -0.488706 0.20582569 -0.00024085642 0.0646785 -0.022893049
-0.07013952 -0.017097695 -0.037170652 -0.041473508 0.018661171 -0.12012759 -0.055539165 -0.0028343915
0.04942269 0.27949715 -0.3558218 -0.07152182 0.20283516 -0.025666758 0.032466535 0.010851533
0.02254971 -0.08147382 -0.011653995 0.009401622 -0.020566884 -0.1162688 0.025060875 -0.06538948
-0.018561032 0.03168736 -0.19868603 0.5141631 -0.03240566 0.024329858 0.11273231 0.025774587
-0.18397674 -0.3019909 0.27566552 0.023487853 -0.03401008 -0.07348724 -0.040165246 0.010718871
-0.011043736 -0.09646108 -0.090554126 -0.00676798 0.19566251 0.15504816 -0.07735297 0.09348077
0.042154193 0.027476422 0.0010376273 -0.06863864 -0.08994792 -0.05176104 0.011350244 0.16452123

fc3.weight f4 [5, 256]
00000000: 5006 873f 1295 0c3d 746f fb3c 98fa 80ba
00000010: 172b 31bd ede8 b33f ec52 0540 e4fc a93b
00000020: 71d1 d83c ca70 413d 2df2 52bc 27d4 b2bc
00000030: 5093 3540 60b4 d63e 554c 3e40 f236 2dbd
00000040: d74a a63f 305b be3f a607 1340 b814 783c
00000050: 9cf6 c6bb 21c3 27bc 43d0 3f40 669b 673d
00000060: 8daa 0340 95d9 ea3b dcdc 3840 7a61 23bd
00000070: 694f 483c 4024 2d40 c6c5 63bd 7d40 2640
00000080: 6d15 b2bc c240 79bc d656 06bb c3fe 423c
00000090: 1376 8cbc ce41 4b3d a2ee 25bd c1e3 9fbd
000000a0: 3e78 0f3d cf4a bdbc ea1d 2c40 a45b 9bbc
000000b0: 7dbc aa3b 2f3f 6f40 4cbe c73c c6c9 2e3e
000000c0: 4787 cbb9 8a08 ec3f 0de4 913c 2646 383d
000000d0: aa1a da3a d849 de3c 260c 4340 4c35 d0bb
000000e0: 463a 62bf 7ed3 11bd dda6 8d3f 8072 483c
000000f0: 05fd ecbc 9b19 9640 22de 3240 0a3a 333d
00000100: 5bda 3dbc 0039 033b a835 68bd bbd2 243c
00000110: 4f9c cfbb cd3a 52bc 666d 6a3d f7a2 3640
00000120: d2d1 1bbd 281f c0bc 1be2 c5bb 603f 313b
00000130: 18e1 08bc 2046 873c a629 7d3b 0b70 493d
00000140: d524 013d 3ddd 4cbd 8140 443c a53b 2040
00000150: 0dcd f33f 5ce9 6e3d 73fb d23f 82a0 1fbd
00000160: 9bdb 0fbd ddef 5cbd 75de 0440 a7b4 0b40
00000170: 6586 f13a b8f4 cbbf 204e a83b 08fd fd3c
00000180: d865 7f3f ea2f 63bd e05a babb 3f34 1940
00000190: 234a d7bc 254e f93f 3266 6d3d 6a8a 75bd
000001a0: 3c2e 90bc 93bc 31bd 9cfb 2abc d651 84bc
000001b0: 0a97 2fbc 5278 54bd e67c 2f40 75f2 3540
000001c0: c4f2 18bd 56e5 8640 2904 3340 39ef 05bd
000001d0: 4bea e1bc 8113 f8bc 6a9f 9e40 7d1f 8fbc
000001e0: 6b52 98bc a9e9 9f40 95a2 a23f a660 523d
000001f0: 7053 90bb 7c34 a43a 5af7 2440 802a f0bb
00000200: 734e 3540 fb20 e73f 00ba 9fbb ab3d 2940
00000210: 8311 b53c e286 14bd 0d96 e93c 8b18 0f3e
00000220: aab2 6a40 af2f 16bd 7071 16bd 2049 91bb
00000230: 8be3 ab3b 3dcd 85bf a979 0240 53f0 873d
00000240: 36a1 cd3c 0f52 83bf 34dc b9be 1f24 f83f
00000250: ce3d 19bb 045a d83c 0aa7 5dbc 2858 cb3b
00000260: 9364 7e3b 0f3b 8140 0e48 753d b83e 1640
00000270: 7ec5 3c3c b5e3 29bd 379f bf3a 8454 383c
00000280: 1c0a 18bd f3d7 efbc 0cab 183c cb70 8d3c
00000290: e1d0 a33e ad54 4240 a8af 1b3f ca0e 3abf
000002a0: a0e9 13bd b974 bf3e bac5 2e40 ec52 4b3b
000002b0: 575a c1bc 0fe5 a4bc bdf6 0d40 2160 823c
000002c0: 7877 983c faf3 003c 398e 01bd 7080 d23f
000002d0: 6c35 6d40 fc39 8440 4e63 863f a1fb 3640
000002e0: 7283 e0bc f2e9 f83f 6e3b 5f40 1ed4 35c0
000002f0: 5111 05bd b921 903c 269a 3bbd 8294 213d
00000300: 507f d43b 2070 4040 5c75 1bbc 9d90 903f
00000310: ef9a d2bf 1ed0 85bc ae5a 73bf bca2 35bd
00000320: a307 6f3c 344a e9bc 5524 ef3b f499 283e
00000330: 3419 48bd b0c4 4140 798d 6cbc 9828 023c
00000340: b400 d23f 1a80 43bf 3aa4 eb3d ace2 6cbd
00000350: bb7b 9840 e8bf e03c 1d71 bcba e037 393c
00000360: 2f96 17bd dc65 10bd d099 393d d6b5 18bb
00000370: 758c a5bc f982 4340 7411 cc3f d462 7f3d
00000380: 22c4 333d 141a 573c 29d9 fc3f 00b3 bf3e
00000390: 695b 4a3c e8c4 0d3c e28a 1140 81f0 733c
000003a0: c717 4a3f 0808 0140 c356 0140 7b82 89bd
000003b0: f6b4 193d e4ab df3b 7f8b ec3f b276 09bd
000003c0: 3b43 32bd 2733 fbbc eb10 dc3e 3922 793d
000003d0: ad95 2f3f 8662 7640 9049 b13c 0677 88be
000003e0: 4c0a 763d 7557 19bd d017 793c a546 4340
000003f0: 26f5 4840 25ed 273c 103c 45bd 0c45 be3f
1.0548801 0.034321852 0.030692793 -0.0009840308 -0.043253984 1.4055458 2.0831861 0.0051876176
0.026467057 0.047226705 -0.012875122 -0.021829678 2.8371162 0.4193449 2.973409 -0.042288728
1.2991589 1.4871578 2.2973418 0.0151416585 -0.0060718786 -0.010239393 2.9970863 0.056544684
2.0572846 0.007167051 2.8884802 -0.039887883 0.012225964 2.7053375 -0.055608533 2.597686
-0.021738732 -0.015213193 -0.0020498536 0.01190156 -0.017146146 0.049623303 -0.04051078 -0.078071125
0.03502678 -0.02310696 2.6893258 -0.018964596 0.005210458 3.7382314 0.024382733 0.17069158
-0.00038819967 1.8440106 0.017808938 0.044988774 0.0016640027 0.02713482 3.0476165 -0.0063540097
-0.8837017 -0.035602085 1.1066548 0.01223433 -0.028929243 4.6906257 2.794808 0.043756522
-0.0115877045 0.0020022988 -0.056691796 0.010060008 -0.006335772 -0.012831402 0.057233237 2.8536966
-0.038041897 -0.023452356 -0.0060389168 0.002704583 -0.008354448 0.01651293 0.003862956 0.049179118
0.031529266 -0.050015677 0.01197827 2.5036404 1.9046952 0.058328018 1.6482986 -0.03897143
-0.03512154 -0.05393969 2.0760777 2.1829011 0.0018426894 -1.5934057 0.0051362664 0.031004444
0.99764776 -0.055465616 -0.0056871027 2.3938138 -0.026280468 1.9476973 0.05795879 -0.059946455
-0.017600171 -0.04339273 -0.010435965 -0.016152304 -0.010717163 -0.05187256 2.7419982 2.8429234
-0.037340894 4.215495 2.797129 -0.032698844 -0.02757754 -0.030282738 4.9569597 -0.01747107
-0.018593987 4.997273 1.2705866 0.051361702 -0.004404478 0.0012527849 2.5775971 -0.007329285
2.8329132 1.805694 -0.004874468 2.644389 0.022103077 -0.036261447 0.028513933 0.13974206
3.6671548 -0.03666657 -0.036729276 -0.004433766 0.005245631 -1.0453259 2.0386755 0.06637635
0.025101285 -1.0259417 -0.36300814 1.9386023 -0.0023382786 0.02641011 -0.013528595 0.0062055774
0.003881727 4.0384593 0.05988317 2.347578 0.011521695 -0.041476924 0.0014619593 0.011250619
-0.037119016 -0.029277777 0.0093181245 0.017265698 0.319953 3.0364182 0.60814905 -0.72678816
-0.036111474 0.3739374 2.7308183 0.0031024767 -0.023602648 -0.020128755 2.2181847 0.015914978
0.018611655 0.007870669 -0.031629775 1.6445446 3.7063856 4.132078 1.0499055 2.8591082
-0.027406428 1.9446394 3.4880023 -2.8410716 -0.032487217 0.017594205 -0.045801304 0.03944827
0.0064849034 3.0068436 -0.00948843 1.1294132 -1.6453532 -0.01633459 -0.9506024 -0.04434465
0.014589223 -0.028477766 0.0072980323 0.16464978 -0.04885216 3.0276299 -0.014438027 0.007944249
1.6406465 -0.7636734 0.11505933 -0.05783336 4.765104 0.027435258 -0.0014376972 0.011304826
-0.03700846 -0.03525339 0.045312703 -0.0023301742 -0.020208577 3.054869 1.5942826 0.06235011
0.04388822 0.013128776 1.9753772 0.37441254 0.012350895 0.008652903 2.2741017 0.014888884
0.7894253 2.0161152 2.0209205 -0.0671434 0.037526093 0.006825911 1.8480071 -0.033560462
-0.043521147 -0.03066404 0.42981657 0.060823653 0.6858776 3.8497634 0.021641523 -0.26653308
0.060068414 -0.03743692 0.015203431 3.0511868 3.1399627 0.010249411 -0.048152983 1.4864821

fc3.bias f4 [5]
00000000: 96f2 0cbd 4b28 043c df6c 7f3e 699d 303e
00000010: a2c6 9ebd
-0.034411035 0.008066247 0.24943875 0.17247547 -0.0775273
