other_model/dqn_team_a_ep70.pth (torch, 286773 bytes, 6 tensors)

fc1.weight f4 [256, 14]
000000 e0 8c ce bc aa 8b 64 bf 6c 43 1f be d4 ca b0 be
       -0.025213659 -0.8927561 -0.15553063 -0.34529746
000010 d6 28 a2 3c d2 e7 9c be 86 26 b3 3e 32 29 71 bd
       0.019794863 -0.30645615 0.3499033 -0.058877178
000020 36 07 d1 bf b8 fe 35 bd 32 37 98 c0 56 eb a0 be
       -1.6330326 -0.04443237 -4.7567377 -0.31429547
000030 3f 65 6d 3e f7 49 f4 3e 45 dd 4a bc f1 07 52 3e
       0.23183154 0.4771268 -0.012381856 0.20510842
000040 82 66 c0 3c 8b e7 2e 3e d9 65 87 be 30 8b 2a 3e
       0.02348638 0.17080514 -0.2644489 0.16654658
000050 c8 50 16 be 93 d0 42 be f2 fe 10 be d6 d5 7f 3d
       -0.14679253 -0.19024877 -0.14159754 0.06245979
000060 30 67 47 3e 89 cb 2c be a3 3a b2 bd e9 c4 b7 bd
       0.19472957 -0.16874518 -0.0870259 -0.089731045
000070 25 e1 ff bd 4c 35 7c be 67 e7 4b 3e a7 ce 0a bd
       -0.12494115 -0.24629706 0.19912492 -0.033888485
000080 1c 4e 4d be 27 0d 40 3e c6 98 0f be 8d 15 31 be
       -0.20049328 0.18755017 -0.14023122 -0.17293377
000090 6d 7f d5 3d b2 04 16 be c1 40 65 be f5 a6 4d bd
       0.10424695 -0.14650229 -0.22387983 -0.05020805
0000a0 5d 2f 95 bb 56 4e 2d 3d c3 eb 31 bd 26 b3 3b be
       -0.0045527653 0.042311035 -0.04343773 -0.18330058
0000b0 09 fb 3c be a0 7b a3 3d 1e 9f ef bd 48 1e 58 3c
       -0.18455137 0.07982564 -0.11700271 0.013190813
0000c0 45 e7 7d be f2 4f 27 3e 7a 95 4b be 00 76 31 3c
       -0.24795254 0.1633909 -0.1988124 0.010831356
0000d0 ba cf 32 be 6a 6f 3e 3e 1a 4a d4 3c d9 a5 11 bd
       -0.17462054 0.18597189 0.02591424 -0.035558555
0000e0 83 60 45 bf 5a f1 33 bf 63 d1 25 bf f4 7e 4d bf
       -0.7710039 -0.7029015 -0.64772624 -0.8027184
0000f0 a9 eb b3 3e 5d 05 09 3f d3 36 bb 3e 1c 42 f0 bd
       0.35140732 0.5352381 0.36565265 -0.11731359
000100 9f 80 36 bf c5 2e a5 bd ca 5a cd be e8 12 d0 bf
       -0.7129001 -0.08065561 -0.4010833 -1.625577
000110 f5 0d 79 3d 17 0e b7 3c 98 bf 8f be 6b cf e4 be
       0.060804326 0.022345586 -0.28075862 -0.44689497
000120 30 b4 60 3e 03 7d 6c be 63 a4 3b 3e ad 21 10 bd
       0.21943736 -0.23094563 0.18324427 -0.035188366
000130 c0 13 53 3d b8 9e 0f be d1 92 81 be 32 86 5a be
       0.051532507 -0.1402539 -0.25307325 -0.21340254
000140 9a 24 8c 3e 90 8f fe bc 4c 2c 0f bb 6c 43 df bc
       0.27371675 -0.031074315 -0.0021846471 -0.027253829
000150 ff 8e 25 be c1 4a c3 bd 01 e5 5f 3e f7 c9 84 be
       -0.1616783 -0.095357426 0.21864702 -0.25935337
000160 5c 08 43 be 97 92 74 3e eb 34 d2 3d ff d2 5c be
       -0.19046158 0.23884045 0.102639996 -0.21564864
000170 d9 1c 30 be bc 6f 81 bd 80 06 73 be 44 d2 8c bc
       -0.17198505 -0.0632014 -0.23732948 -0.017190106
000180 9f 50 6d 3d 0f 09 ce bd 1f 31 cd 3e 86 a4 42 be
       0.057938214 -0.100603215 0.4007654 -0.19008073
000190 a7 bf fb 3d e7 88 96 be f4 7a 31 3e db a6 bf 3e
       0.12292414 -0.29401323 0.17332059 0.37431988
0001a0 c2 29 15 3e 53 4b 61 3e 42 3f 1b be ca c9 a8 be
       0.1456671 0.2200139 -0.1516085 -0.32966453
0001b0 2e 8d 81 3e 1f bd 9d 3f 40 0e 92 bd b1 29 e4 3d
       0.25303024 1.232334 -0.07131624 0.111407645
0001c0 66 f9 53 be 31 51 88 be 95 17 12 3e 4f e5 57 3e
       -0.20700607 -0.26624444 0.14266808 0.21083568
0001d0 9c f2 0f 3e 77 70 17 3d 37 05 4f 3e 9e 36 5f be
       0.14057392 0.03697249 0.20216833 -0.21798179
0001e0 7c cc 6b be a9 36 a9 bd f8 bb 99 bc c9 fa 8d 3c
       -0.23027223 -0.08262379 -0.018766388 0.017331498
0001f0 2c de 39 be 99 ab 86 be b3 4c 79 3e 93 a0 10 3e
       -0.18151158 -0.26302794 0.24345665 0.14123754
000200 23 3e 83 3e ca 05 f9 3d da 8a 03 be 26 50 c1 be
       0.25633344 0.12159307 -0.12845936 -0.3775646
000210 a5 57 70 be f4 44 42 be 86 51 6d bc 7d 88 b9 be
       -0.23470934 -0.18971616 -0.014484769 -0.36236945
000220 20 5d 79 3e f4 70 87 3f c1 25 c6 bc 7f 42 1a bd
       0.2435193 1.0581346 -0.024187924 -0.037661072
000230 ac cf bc be 34 b1 51 bf 57 0b e5 be e7 7c 7a 3d
       -0.3687719 -0.81911016 -0.44735214 0.061154272
000240 83 0f 88 3d f4 30 0b be 66 69 1e bd b9 ed ad bc
       0.066435836 -0.13592893 -0.038674735 -0.021231519
000250 26 89 39 3e 66 8d a9 3d 4a 71 d0 3f 0a 8e 6f 3f
       0.18118724 0.08278923 1.6284573 0.9357611
000260 7f be 4c 3e c4 b7 1d 3e 37 67 ea bd b4 d8 54 3e
       0.19994543 0.15402132 -0.11445468 0.2078579
000270 74 40 9c 3a bd 2e 6a be dd 98 1d be 68 0b e9 bd
       0.0011921064 -0.22869392 -0.15390344 -0.11379129
000280 40 33 02 bd 38 10 cd bd b5 b2 96 3d 43 8d 05 3e
       -0.031787157 -0.10012859 0.073583044 0.13042168
000290 b8 a1 4d be ea 7f 9c 3d 28 df 2a be 78 7e 25 3e
       -0.20081222 0.07641585 -0.1668669 0.16161525
0002a0 56 38 3a 3e 3b d6 e1 3c e8 4d 99 3e 5c b5 b0 3e
       0.18185553 0.027567973 0.2994225 0.34513366
0002b0 22 6f 3d be 48 b5 9c bd 12 cf 1f 3e ad 06 82 3e
       -0.18499425 -0.07651764 0.15606335 0.25395718
0002c0 2a 18 a5 bf ad d6 6a 3e 9a f2 9c bf 54 27 8e 3e
       -1.2897999 0.22933455 -1.2261536 0.2776438
0002d0 42 ce 25 bd 92 02 3b be cc 45 e0 3c 85 1a c5 3d
       -0.040479906 -0.18262699 0.027377032 0.09624199
0002e0 63 6f 35 bc 04 ed aa 3d b8 9f d7 3c 16 2d 5b 3d
       -0.01107392 0.083459884 0.026321277 0.053509794
0002f0 2b 7f 88 be 1b 8a 5e be fc 29 5d 3c ec e6 ec 3c
       -0.2665952 -0.2173237 0.013498779 0.028918706
000300 0d ca 1b 3e f1 be 32 bd b4 43 e4 3c fb 96 03 3d
       0.15213795 -0.043639127 0.027864315 0.032126408
000310 bf 98 c6 bd b1 14 3c bf 27 63 33 be 0e cc 23 bd
       -0.09697103 -0.7346907 -0.17518292 -0.039989524
000320 d2 bd ea 3d f3 e5 03 bf 37 17 75 be f0 7d 58 be
       0.114619866 -0.5152275 -0.23934637 -0.21141791
000330 2d ac fb 3e 29 9f 68 3e f4 d9 f7 3f f6 48 1d 40
       0.49154797 0.22716965 1.9363389 2.4575782
000340 98 0b 4a 3d 09 40 0b 3e 41 ef 1d 3d 24 f5 26 3e
       0.049327463 0.13598646 0.03855825 0.16304451
000350 73 37 b1 3e c4 33 82 3e 64 bc c2 ba 7d fe 89 be
       0.34612617 0.2543012 -0.001485717 -0.26951972
000360 21 67 24 3e b3 0c c8 bd d3 e3 35 bd ab 1a c1 bf
       0.16054966 -0.09768047 -0.044406723 -1.5086263
000370 24 fc b3 3e 35 90 14 c0 e4 aa 6a 3b 76 a2 42 3e
       0.35153306 -2.3213017 0.0035807425 0.19007286
000380 25 4a 2a be 36 97 38 3d 2b 89 73 3e 12 9b e7 3d
       -0.16629846 0.04506608 0.23782794 0.11308874
000390 34 85 a4 be c5 87 6c 3e 5c bf 53 bf f6 f5 46 3d
       -0.32132876 0.23098667 -0.82713866 0.04857441
0003a0 dd 17 4e 3d 2d 69 7d bd 70 02 8d be 3b 6f 31 3e
       0.050315727 -0.06186788 -0.27540922 0.17327587
0003b0 4b 19 b2 3d e5 97 6e be 87 dd 18 be ff fb 39 be
       0.086962305 -0.2330013 -0.14928256 -0.18162535
0003c0 68 12 12 3e 9e 83 7e be 44 33 ea bd 4d 16 1e bb
       0.14264834 -0.24854895 -0.114355594 -0.002412218
0003d0 ee f9 fe 3d 9d 33 58 be b8 0e 1f 3c 2a d2 71 be
       0.12450014 -0.21113439 0.009708099 -0.23615327
0003e0 7a e8 c4 bd 2d 1b 91 3b bc 49 2e be ab 8d 36 be
       -0.09614654 0.0044282884 -0.17020315 -0.1782748
0003f0 d6 9a 2a be 2c df 86 be 2d ea 4e bd e1 35 02 3e
       -0.16660628 -0.26342142 -0.050516296 0.12715866

fc1.bias f4 [256]
000000 10 ba a5 3e 08 5c e1 3d 29 70 87 be 47 ef 11 bd
       0.32368517 0.11003882 -0.2645276 -0.035628583
000010 8f 24 64 3c 64 91 b2 be 7c 04 06 be 9e 4a 7f 3c
       0.013924732 -0.3487655 -0.13087648 0.015581755
000020 ab 0c 1f 3e 95 fb d0 3d 3f 85 10 3e d5 46 6c 3d
       0.15532176 0.102042355 0.1411333 0.05768474
000030 64 cb 26 bd fe d0 aa be fd 72 10 3e f1 4c 5b 3e
       -0.040721312 -0.33362573 0.14106365 0.2141607
000040 1e b7 88 bd 69 be 2a bd 06 d2 5b be e1 3b 25 be
       -0.06675552 -0.041685496 -0.21466836 -0.16136123
000050 11 d8 61 bd 29 cb 44 3e d4 03 e2 bd a9 f6 b0 b9
       -0.055137698 0.19218124 -0.110358864 -0.00033753112
000060 18 5a 68 be fb fd 6f 3d a3 5e 5b bd 35 29 63 be
       -0.22690618 0.058591824 -0.05355705 -0.22183688
000070 fc 26 4f 3e 0a 1a 9c 3e 11 f7 f9 bd 6b 26 06 be
       0.20229715 0.30488616 -0.12205327 -0.13100593
000080 0b 08 09 bc d5 4e 80 bd 18 92 49 be 24 32 98 3d
       -0.008363734 -0.06265036 -0.19684637 0.074314386
000090 f7 a1 0c 3e 9d af 0e bd 46 e1 57 be 53 07 94 3d
       0.1373366 -0.034835447 -0.21082029 0.072279595
0000a0 d0 84 61 be e0 1f 88 3e e6 f0 cb bd 8d aa 8d be
       -0.2202332 0.2658682 -0.09958057 -0.27669182
0000b0 e6 fd 53 be 2b a3 80 be b9 c9 8b be 1c b5 46 3e
       -0.20702323 -0.25124487 -0.2730234 0.19405025
0000c0 1f 81 54 3d fa 24 b4 3d 21 0b 6e be 8f 39 4d be
       0.051880952 0.08796115 -0.23246433 -0.20041488
0000d0 c8 1b f4 3c de 31 4f 3c 07 70 81 be c4 65 d4 bc
       0.029798403 0.012646167 -0.25280783 -0.025927432
0000e0 65 5a 66 be 72 53 56 3e 97 bb 0f 3c 82 0c e8 bc
       -0.2249542 0.2093027 0.008772752 -0.028326277
0000f0 2b 0a 51 3e d1 ca f5 3d 3b c7 22 bd 34 87 f0 bd
       0.20414035 0.12001575 -0.039740782 -0.11744538
000100 08 58 4e 3e 12 63 14 3e 85 d6 1e 3c 8f 6a 28 be
       0.20150769 0.14490917 0.0096947 -0.16446899
000110 7e 3e c9 3d 3a 10 7e 3d 19 88 04 be 4e 5a 18 be
       0.098263726 0.062027194 -0.12942542 -0.14878199
000120 bd a3 a7 3e 8c e2 ca bd 23 db bd bd 89 09 86 3d
       0.3274211 -0.09906492 -0.09270313 0.065447874
000130 dd 62 cf bb a2 de c1 bd 41 e0 8a bb 6c 83 80 3d
       -0.006328924 -0.09466292 -0.004238159 0.06275067
000140 77 d3 38 be 5a 7f 6f bd ec fd 28 3e 1f a4 92 3b
       -0.18049417 -0.05847106 0.16503114 0.004475131
000150 8d 4c 26 be 8c d3 cb 3d 82 b0 ee 3d e6 18 38 3e
       -0.1624014 0.09952459 0.1165476 0.17978248
000160 79 80 48 3e 76 7b 1e be 73 97 6a be 4b f4 41 3d
       0.19580258 -0.15476784 -0.22909336 0.047352117
000170 61 01 58 be de b0 be 3c 38 dc 9c 3d d5 a1 15 be
       -0.21094276 0.023277696 0.07659191 -0.14612515
000180 83 6b 83 bd 96 a1 08 3e b4 8e a1 be a8 b3 7d 3e
       -0.064169906 0.1334289 -0.31554186 0.24775565
000190 c2 a9 0a be 5e 24 59 3e f6 97 50 bd 3b 1b 2b 3e
       -0.1354132 0.21205279 -0.05092617 0.16709606
0001a0 41 19 52 3d 1d 64 a1 3c 43 33 c6 3d 5e 3f 93 3e
       0.051293615 0.019701058 0.09677746 0.28759283
0001b0 47 e2 8b bd fe 24 9a bc 5f 55 e7 bb 0f 35 71 be
       -0.06830268 -0.018816467 -0.0070597376 -0.23555396
0001c0 10 a2 fc 3d a7 98 95 be 53 4b 0c be 67 90 29 3d
       0.123355985 -0.29218027 -0.13700609 0.04139748
0001d0 07 45 9b bd 39 5b 69 3d 2e 5f 8d be 6a 36 3b be
       -0.07581525 0.056971762 -0.2761168 -0.18282476
0001e0 02 91 59 3d b7 ea 6e 3d e4 6b 0a be 3a 62 15 3e
       0.053116806 0.05832931 -0.1351772 0.14588252
0001f0 50 67 5b 3e 59 e4 41 be 90 7e 06 3d 39 27 84 be
       0.2142613 -0.18934764 0.032835543 -0.25811175
000200 26 15 b2 3d e9 53 99 be e1 08 1b 3c f8 d6 0a bd
       0.0869544 -0.2994683 0.009462566 -0.033896416
000210 71 b6 42 3e 43 2e 08 bd 04 ad 1f 3d 50 40 82 bc
       0.19014908 -0.033247244 0.03898336 -0.015899807
000220 e2 6e da 3d 0c e3 37 3e 33 fc 9d 3c f0 1b f5 3c
       0.106656805 0.17957705 0.019285297 0.029920548
000230 ed 40 7b 3d 29 58 1d 3d 18 2e 14 be 26 95 2d 3e
       0.061341215 0.038414154 -0.14470708 0.16951427
000240 a8 e2 8c 3d 75 ea a6 bc 03 9c 23 bd 13 00 c4 bc
       0.06879169 -0.02037547 -0.039943706 -0.023925817
000250 b6 73 de bd 91 10 32 be 68 21 22 bc 47 0c a7 bd
       -0.10861914 -0.17389132 -0.00989566 -0.081566386
000260 22 d7 04 3e 14 a9 76 3d 79 c1 3a bd 1b 7d 74 be
       0.12972692 0.06021984 -0.045594666 -0.23875849
000270 00 03 94 bd 63 2d 87 3e ca 41 33 bd 16 95 5d 3e
       -0.07227135 0.26401815 -0.043763913 0.21638903
000280 63 73 51 be 3e fb 32 3e 5f d3 2f 3d a7 54 ff bd
       -0.20454173 0.17478654 0.04292619 -0.12467318
000290 c1 21 97 be f5 83 88 be 2a 84 8b 3e 71 de d1 3d
       -0.2951794 -0.26663175 0.2724927 0.102475055
0002a0 d1 af 71 3e bb 8d 5e be 97 36 30 be 76 33 84 bd
       0.23602225 -0.21733753 -0.17208324 -0.06455128
0002b0 20 02 f0 3d b8 b0 55 be bc 48 28 be 2c dc fb 3c
       0.11719155 -0.20868194 -0.16433996 0.030744635
0002c0 61 86 39 3d 8c 3b 80 3e f5 3c 2d 3e c3 0d 8e 3e
       0.04529417 0.2504543 0.16917785 0.27744874
0002d0 19 dc 0b be 31 ac 66 be 34 be 55 be f9 2a 53 3e
       -0.1365818 -0.22526623 -0.20873338 0.20621862
0002e0 79 96 5a bd ac 80 89 3e 4b 0c 15 be fe be 6b 3e
       -0.05336616 0.2685598 -0.1455547 0.23022076
0002f0 3a 53 e7 be 2c 2c 3a be 8d 70 8e 3d a4 50 5a be
       -0.45180684 -0.18180913 0.06955061 -0.21319824
000300 fc 58 a0 3d a7 5a c1 3e c3 2a a4 be cf 60 4d be
       0.078294724 0.37764475 -0.32063875 -0.20056461
000310 ca 4b 66 be 54 94 6a 3d 86 05 e7 3d 4e b3 aa 3e
       -0.22489849 0.057270363 0.112803504 0.33339924
000320 87 88 82 bd 5e 18 83 be 72 27 43 3e a0 fc 8d bd
       -0.06373697 -0.25604528 0.19058016 -0.0693295
000330 03 ac b1 bd a6 aa 5b bd b9 c2 44 bd 74 92 45 bd
       -0.08675387 -0.05362954 -0.048037264 -0.04823537
000340 c1 5d 0d be ea c6 a6 be 86 09 f9 bd b2 08 7a be
       -0.13805296 -0.32573634 -0.121600196 -0.2441738
000350 e1 c0 06 bc 95 ed df 3d 52 f2 85 be 61 3a 1c be
       -0.008224697 0.10933987 -0.26161438 -0.15256645
000360 d6 04 26 3e 4a cf 4b 3e 06 f4 c4 bd df 59 df 3d
       0.16212782 0.19903293 -0.09616856 0.109058134
000370 19 f9 e5 3c fe c0 25 be d2 c2 24 be 7c 73 02 bd
       0.02807288 -0.16186902 -0.16089943 -0.031848416
000380 8b 4c 23 3d b6 ac 8e bd 3b ff 1d 3e c3 12 8d bd
       0.03986792 -0.06966536 0.15429394 -0.06888344
000390 15 1a 2f 3d 87 0e b9 bd 3d be 2e be 79 86 d9 bc
       0.042749483 -0.09035974 -0.17064758 -0.02655338
0003a0 67 a3 d1 3d fe b0 16 3e 1b ef 03 be 57 9a 71 be
       0.10236245 0.14715955 -0.1288418 -0.23594032
0003b0 c6 60 93 be 16 71 86 be d5 2f 47 3e 7b b6 96 3e
       -0.2878477 -0.26258153 0.1945184 0.29436097
0003c0 13 47 04 be e1 f8 a7 be 60 59 f9 3d ed aa 9f 3d
       -0.12917738 -0.32807067 0.1217525 0.077962734
0003d0 22 48 57 be b6 cd 68 3e b8 fd 62 be 9c 06 8a bc
       -0.2102361 0.22734722 -0.22167099 -0.016848855
0003e0 57 20 7e be 36 af 56 be 69 c8 3a be 36 73 2b be
       -0.24817024 -0.20965275 -0.18240513 -0.16743168
0003f0 7a e5 bb be 54 49 70 be 7f fb 9f be 88 80 a2 be
       -0.36698514 -0.23465472 -0.31246564 -0.31738687

fc2.weight f4 [256, 256]
000000 09 be 76 be c0 ef 9d bc 84 1a 9d 3c 64 9b 64 3d
       -0.2409593 -0.01927936 0.019177683 0.055812255
000010 11 cc 86 bf 1e 69 f0 3d 9e 81 36 bd 85 c8 8b 3e
       -1.0531026 0.117387995 -0.044557206 0.27301422
000020 a4 3c 8f 3c 79 6b 89 3e cd c3 88 3f 30 09 ed 3c
       0.01748497 0.26839808 1.0684754 0.028935045
000030 f5 2f 5c be 5d 2e 09 bb 74 45 0b 40 44 57 b0 bf
       -0.21502669 -0.0020932176 2.176114 -1.3776631
000040 9b 0d 02 be 1a 20 01 bd c8 1d fe 3c 45 c4 0f bd
       -0.12700503 -0.031524755 0.03102006 -0.035099287
000050 b6 1a 14 3e 11 6f 8a 3f 0a 6b 9a bc 85 1c f5 bd
       0.14463314 1.0815145 -0.018849868 -0.1196833
000060 49 df 0f 3f b2 9a 8b 3e 80 60 6b bc f4 15 db bc
       0.5620008 0.2726646 -0.014366269 -0.026743867
000070 48 7a c8 3e fd 3e 6f bf 2a 23 f8 3c bf 4f 14 3c
       0.39155793 -0.9345549 0.030290205 0.009052216
000080 32 ec 18 bd 64 82 9a bb 5d 44 85 3e 5a f0 43 bd
       -0.03733463 -0.004715251 0.2602872 -0.04783664
000090 5c d1 67 3c 76 b0 9f bc 80 8f 9b bb c4 c7 21 3f
       0.014149036 -0.019493323 -0.004747331 0.63195443
0000a0 50 d8 2c bc 6c a4 12 3e 68 3b 90 3d df 70 8b bf
       -0.01054962 0.14320534 0.07042581 -1.089382
0000b0 be f7 6e bc 80 72 03 3a 97 60 35 bd 7f c6 ac bf
       -0.0145854335 0.0005014315 -0.04428157 -1.3498076
0000c0 7d 7a 2d 3d c7 2e f1 3e 16 4c 82 bd 36 12 a1 bb
       0.042353142 0.47106 -0.063621685 -0.004915501
0000d0 a5 b4 01 3e 98 45 b1 3c d9 18 3b bd a8 ac c2 bc
       0.12666567 0.02163963 -0.045677993 -0.02376397
0000e0 fc ba 29 bf 20 ec 27 3b d8 ad 0b bd 69 d9 60 3d
       -0.6630094 0.002562292 -0.034101337 0.05489484
0000f0 78 4d db 3c 0a 6f 66 bd e8 e4 48 3f 5c 57 c3 bc
       0.026770338 -0.05625824 0.78474283 -0.023845367
000100 7a 1c 79 3d cc 2a 1d bf ee 64 79 3d 5f e2 83 bf
       0.060818173 -0.6139343 0.06088727 -1.0303458
000110 31 3c a3 be 00 6b 35 3a 5d 98 17 3d 9a 1f fe 3a
       -0.3188186 0.00069205463 0.03701054 0.001938808
000120 2f aa e7 3c b7 bf a0 bd f3 15 ea 3e 8e 03 40 3d
       0.028279392 -0.07849067 0.4571987 0.04687839
000130 6d 93 fb 3c 2d ff 31 bf 63 e3 8a 3e 13 c3 a8 be
       0.030709947 -0.6952999 0.27126607 -0.3296133
000140 c2 d9 76 3e ae 5f 46 3d bc d9 fd be 10 fd 39 bf
       0.24106506 0.04843109 -0.4958018 -0.7265177
000150 16 c9 0e bd dc a6 f6 bb 82 aa 8f 3f 60 69 99 bb
       -0.03485974 -0.0075272154 1.122391 -0.004681751
000160 c5 33 84 be cc 4e bc 3c ba 0d 4a be 50 15 cc 3c
       -0.25820747 0.022986792 -0.19731799 0.024912506
000170 d0 8e e1 3b 3c 3a ea 3c 90 24 2a bd 49 8f 0c 3e
       0.0068834797 0.028592221 -0.041538775 0.13726534
000180 4e e7 24 3f 37 60 03 3d 84 54 bd bc 0f 88 09 3e
       0.6441544 0.03207418 -0.02311159 0.13430808
000190 6b 6e 00 3d 46 e3 b6 be bd 1c b9 be 86 a9 92 3d
       0.031355303 -0.3572027 -0.36154738 0.0716124
0001a0 5c 1e 81 3c c0 9c 3d 3c 30 fb e0 3c 87 47 39 bd
       0.015761547 0.011573017 0.027463526 -0.04523423
0001b0 95 ce 96 3c d8 35 c0 bc ba 27 a1 bf d7 4a 17 3d
       0.018409053 -0.023463175 -1.2590249 0.036936607
0001c0 73 cc 2a 3e 6d 40 ac 3c be 91 39 bd c8 c8 f2 3c
       0.16679554 0.021026814 -0.045305006 0.029636756
0001d0 60 a4 84 bb 0f 28 12 3d 42 4f a3 3d 12 09 fb 3f
       -0.0040479153 0.035682734 0.079741016 1.9612143
0001e0 78 d8 2b 3e 51 1a ce bc fa 4f e0 be ae 5b 26 bd
       0.16781795 -0.025159033 -0.43811017 -0.040614776
0001f0 b2 81 67 bd 91 ac 9c bd de d5 58 3d 6f 74 93 3b
       -0.05652017 -0.07650102 0.052938335 0.004499964
000200 55 33 2a bc c8 4b 2a bf 23 be 17 3c ce 65 01 3d
       -0.010388215 -0.66521883 0.009261641 0.03159123
000210 76 a1 9d 3f ee 6f 2e 3f b3 9f 62 3e a8 d4 a9 3c
       1.2314899 0.6813954 0.22131233 0.020731285
000220 5f 56 7a 3d be c1 2c 3f 8c ca 95 bf b6 09 97 3e
       0.061117526 0.6748313 -1.1702437 0.29499596
000230 6c 64 8e bc 1c 2e 80 be 0e 66 c0 3d 45 8a 97 3e
       -0.01738187 -0.2503518 0.093944654 0.2959768
000240 b6 86 ab 3d fd c3 8f bf 8a 01 78 3d e1 ad 01 bf
       0.083753034 -1.1231686 0.060548343 -0.50655943
000250 b4 50 da bb 24 9c 21 3e 1a bf 95 be ae c1 a9 ba
       -0.0066624526 0.15782219 -0.2924736 -0.0012951398
000260 94 57 e5 3f e8 d9 3d 3d 3e 52 47 be c4 ae d4 bc
       1.7917352 0.04635039 -0.19464967 -0.025962241
000270 0c 54 7d 3e 94 49 ae 3c e0 9c e6 bb 12 92 48 3c
       0.24739093 0.02127532 -0.007037744 0.012241857
000280 72 82 10 3d c5 a6 99 bb 86 f0 2a 3d b6 c4 cc 3e
       0.035280652 -0.00468907 0.041733287 0.3999383
000290 70 39 e2 3d 8e 52 1b 3d 47 73 11 bf 08 be e1 3c
       0.110461116 0.037920527 -0.56816524 0.027556434
0002a0 78 6a 12 bf 4c 0c 18 bd 98 36 de 3c 8f 71 f4 3f
       -0.5719371 -0.037121102 0.027125642 1.9097155
0002b0 12 45 9a 3e e2 c5 2f 3d 14 54 fa bc 76 f6 5d bd
       0.3013082 0.042913325 -0.03055767 -0.05419012
0002c0 68 9c 25 be 64 e6 c0 bc 91 c4 32 bd 90 b7 b4 bf
       -0.16172945 -0.023547359 -0.04364449 -1.4118519
0002d0 db 9a ef bd d1 e7 0a 3f 9d 17 e1 3e d6 2f b5 bc
       -0.11699458 0.54259974 0.43963328 -0.022117537
0002e0 8c 7f 38 3e bb 3d a3 3e dc b0 28 3f af 3e a3 3c
       0.18017405 0.31883034 0.65894866 0.01992735
0002f0 d5 94 95 3f 96 b6 40 be 8d 85 9d bf 42 d6 45 bd
       1.1686045 -0.18819651 -1.2306381 -0.048300035
000300 d3 98 8f 3e 4b 10 8c 3f 51 b2 05 3f 60 4f 81 bb
       0.28046283 1.0942472 0.52225214 -0.00394623
000310 b2 98 4c 3d a8 bc ac 3f 94 95 20 3d 8c 7a 5c 3e
       0.04995031 1.3495073 0.03920515 0.21531123
000320 04 46 67 bf c2 6d e1 3d 1a 79 3a bd 0e b7 b4 3f
       -0.9034121 0.11007263 -0.045525648 1.4118364
000330 4b 08 21 be bd 5c c0 be 88 bb 57 3f 08 e2 26 3c
       -0.1572582 -0.37570754 0.84270525 0.010185726
000340 e7 97 33 bd 66 0b b8 bd a9 b4 d9 3e db 06 5f 3f
       -0.043846037 -0.08986549 0.42520645 0.87119836
000350 e8 7d 07 3d 4e f7 34 3d 07 d5 dd 3e 33 cd e5 3e
       0.033079058 0.04418116 0.4332659 0.44883117
000360 0f 47 c9 3c 6c 11 e0 3c 09 80 62 bd 85 50 91 bc
       0.024570016 0.027352057 -0.055297885 -0.01773859
000370 57 f0 54 bd 9e a2 1f 3e 1e 00 b2 3e 13 b7 4a bc
       -0.05198702 0.15589377 0.34765714 -0.01237275
000380 95 b8 36 bd 54 09 8d be a0 52 6f 3c d4 58 b9 bc
       -0.044609625 -0.2754618 0.014607102 -0.022625364
000390 87 87 3e 3e 33 ba e0 3c 71 8d 3c 3f fd 2d 5d 3c
       0.18606387 0.027432537 0.7365332 0.013499734
0003a0 14 fc 24 3d cf bc e6 3f f0 46 32 bf 9e 7c 3c 3d
       0.040279463 1.802637 -0.6963949 0.04601728
0003b0 ab 21 a6 3e 54 fc 7a be 68 57 53 bd 73 cb de bf
       0.32447562 -0.24510318 -0.05159703 -1.7405838
0003c0 60 f4 3b 3e 59 b4 74 3f 98 8b e8 bc 74 dd a4 3d
       0.1835494 0.9558769 -0.028386876 0.08050051
0003d0 2a 55 66 3d f3 ed 76 bf 06 55 4a 3d a8 be 70 bd
       0.056233563 -0.9645683 0.04939749 -0.058775574
0003e0 c4 c2 9d 3f 47 38 f3 3a 68 61 79 3d 6e f1 bc bc
       1.2325063 0.0018556201 0.06088391 -0.023064341
0003f0 91 41 3b 3d b0 e0 0d 3d 6c 2b 4a 3d 04 2e b0 bd
       0.045716826 0.034638107 0.049357817 -0.08602527

fc2.bias f4 [256]
000000 6f 5e 53 3e 95 84 f5 3c 93 ef cb bc c8 7d 22 bd
       0.20641492 0.029970447 -0.024894511 -0.039670736
000010 c9 42 ca 3c e2 eb 10 3d e0 6d 23 3e 86 ff 03 bd
       0.024690049 0.035381205 0.15959883 -0.032226108
000020 ac 22 10 bd 9a 77 24 bd 54 ef 5e 3c da 69 7e bd
       -0.035189316 -0.040153123 0.013606865 -0.062112667
000030 ad e1 27 3e 10 52 0a 3e 63 92 c5 bc 31 4a 2d bd
       0.16394682 0.13507867 -0.024117654 -0.042307083
000040 73 9c 6a 3e ca e9 35 bd 56 f1 c0 3d 84 2a af 3c
       0.22911243 -0.04441241 0.09421031 0.021382578
000050 d6 bc 47 bd 5e 74 20 bd e6 4e 37 3d d7 03 81 bd
       -0.048764072 -0.039173476 0.044752978 -0.062995605
000060 67 6c 87 bc 93 a6 73 bd 1c 4d 18 3c bb b7 02 3d
       -0.016531182 -0.05948503 0.009295728 0.0319135
000070 cb 2d 80 bd 26 e7 46 3c 09 39 29 bd 23 ed ac bc
       -0.06258734 0.012140071 -0.04131416 -0.02110917
000080 29 3b 0d bd 30 12 fa 3b a0 bb f8 3c df 3c 43 bd
       -0.034480248 0.0076315627 0.030362904 -0.047665473
000090 17 d0 61 bd 38 97 8c 3c ae 75 49 bb c7 67 a5 ba
       -0.05513009 0.01716195 -0.0030740309 -0.0012619429
0000a0 77 93 0e bd 26 0b 9b bd 91 f1 13 3d 9b aa 26 bd
       -0.034808602 -0.07570486 0.036119048 -0.040690046
0000b0 75 38 e0 bc 4f c4 56 3d 7d d8 86 bc d8 cd 11 3c
       -0.02737067 0.05243331 -0.016460652 0.008899175
0000c0 09 b2 33 3d ce b5 9c 3d ce ae f7 bb d6 62 f5 3b
       0.04387096 0.07651864 -0.00755868 0.007488589
0000d0 16 cb 11 bd 82 36 29 bd bb 68 65 3e 67 a3 76 bd
       -0.03559407 -0.04131175 0.22403233 -0.060214426
0000e0 f5 cd ff 3c 01 05 0e bd ac ad 0e bb c4 66 50 bd
       0.031226138 -0.03467274 -0.0021770997 -0.050879255
0000f0 94 43 e9 bc 53 2f 01 bc 4f 59 37 3e e4 fa 84 bd
       -0.028474607 -0.007884818 0.17905162 -0.06493166
000100 cc 66 fe 3b 6a fc 0c 3d 7e 28 90 bd 13 13 9b bc
       0.007763719 0.03442041 -0.07038973 -0.018929994
000110 bc 33 8a bb a4 fa c5 3c 10 d7 9f bd c8 7e 8a 3d
       -0.004217593 0.024167366 -0.07804692 0.06762463
000120 11 4d 82 bd 36 bc 46 bc fa cc aa bd 2c bf 35 3c
       -0.063623555 -0.012129834 -0.083398774 0.011092942
000130 17 53 95 bd b5 33 2b 3c 0d 72 0b bc 1b 74 af bc
       -0.07291239 0.01044934 -0.008511079 -0.021417668
000140 71 60 21 3d 44 a3 92 bd 77 1c d4 bc ff 99 36 3e
       0.039398614 -0.07160047 -0.02589248 0.17832182
000150 73 06 1b 3e e6 ca 82 bd 59 8a c4 bb 94 63 01 3d
       0.15139179 -0.06386356 -0.0059979376 0.031589106
000160 3e 1d ff b9 d1 a0 26 3c ff 91 4d 3e c6 00 ce 3b
       -0.00048659177 0.010170178 0.20075224 0.0062867133
000170 26 0c 16 bd 91 b6 88 3d 19 84 f7 3c be d9 9f bd
       -0.03663268 0.06675447 0.030214356 -0.07805203
000180 75 a5 ed 3d 58 88 69 bd b1 0b 72 3b 41 a4 16 3c
       0.11603824 -0.057014793 0.0036933238 0.009194435
000190 92 03 3a bd 7f 9b 30 3e 8b 4e 41 bd 9e 74 09 bd
       -0.04541356 0.17246817 -0.047194045 -0.03355848
0001a0 7d b7 25 3c 36 4b 34 bc 74 9a 40 bd 79 19 79 bd
       0.010114548 -0.01100426 -0.047022298 -0.06081531
0001b0 5f d0 2c bd f3 1c 08 bd ee cc 90 3c 1d 97 ef 3d
       -0.042190906 -0.033230733 0.017675843 0.116987444
0001c0 cd 31 4a bc df e6 4c 3e cf d0 36 3d af 46 85 bd
       -0.012340975 0.20009945 0.04463273 -0.065076225
0001d0 a2 ba 96 bd 48 06 2a bd 1c 85 5b 3e 4c 18 62 bd
       -0.07359816 -0.041509897 0.21437496 -0.055198953
0001e0 30 40 62 bd a1 f6 c7 bd 8f 22 22 3e cd bd 07 bd
       -0.055236995 -0.097638376 0.15833496 -0.033139993
0001f0 83 a4 2d 3d e1 e2 cc bc e7 f8 a5 3e 9d 3a 53 bd
       0.04239322 -0.025010528 0.3241646 -0.05156957
000200 d7 99 3e 3e b9 ee a3 3d 0e 54 20 bd 12 01 fd 3d
       0.18613373 0.08004517 -0.03914266 0.1235372
000210 41 a0 93 bd 8e 97 42 bd ef f3 a0 bd 17 19 af 3c
       -0.072083004 -0.047507815 -0.07859027 0.021374268
000220 fc 43 c3 3d df 53 08 bd 27 83 08 bd b0 14 27 bc
       0.09534451 -0.03328311 -0.0333282 -0.010197803
000230 f1 25 30 3d 09 70 73 be 47 78 d2 3d e0 cc 9e bd
       0.043004934 -0.23773207 0.10276847 -0.077539206
000240 4e 1e c7 bc e6 8a a5 bd 5f 2e 46 3e b7 34 97 3d
       -0.024306443 -0.080831334 0.19353627 0.073831014
000250 80 71 97 3a 6b cc 04 bd e5 3c c4 bc 19 25 46 3c
       0.0011554211 -0.03242151 -0.023954818 0.012093806
000260 71 32 ff 3b 7b 95 9d bd 3a d2 81 bd ff 82 e2 3c
       0.0077879955 -0.07694527 -0.06338926 0.027650354
000270 37 78 79 bd b4 62 4d 3b e5 f5 83 bd af 26 06 3d
       -0.06090566 0.003133935 -0.06443385 0.032751735
000280 78 d3 b0 3c ff 86 35 3d 1e 2a 9f 3c 1b 1b c3 bc
       0.021585211 0.044318195 0.019429263 -0.023816636
000290 3a 2e 53 3e ea 23 25 3e ac a3 b0 3b 08 ff 53 3e
       0.20623103 0.16126981 0.005390605 0.20702755
0002a0 64 a1 bd 3a d4 a7 c3 bd 59 f9 60 bd 5c 0d 1c bd
       0.0014467654 -0.09553495 -0.054925296 -0.038098678
0002b0 f9 08 98 bd 10 3e f7 bc 0c 99 04 bd ee bb 2b bd
       -0.074235864 -0.03018096 -0.03237252 -0.04192727
0002c0 b3 bf a2 bd a3 e1 4f 3c b9 d9 be bc b8 ca bd bd
       -0.0794672 0.012688073 -0.023297178 -0.09267181
0002d0 82 77 aa 3d d9 ee 0c 3e 08 71 04 3e b6 02 8b 3d
       0.083235756 0.13762988 0.12933743 0.067876264
0002e0 dc dd 84 bd fd af dd bd ac eb 3c 3e d4 3e 8a be
       -0.06487629 -0.10824583 0.18449277 -0.2700106
0002f0 3c 95 80 bc a5 8c 8d bd 5d ed c8 bc 65 74 99 bd
       -0.01569616 -0.069115914 -0.024527246 -0.074929036
000300 32 32 38 3c 14 7a bd 3d d1 53 80 bd d4 1c 90 3a
       0.011242436 0.092518 -0.06265987 0.001099492
000310 95 f7 ca bc 67 8e 7c b9 6b 16 2b bc 34 8a bb bc
       -0.02477626 -0.00024085642 -0.010442357 -0.022893049
000320 4f a5 8f bd 77 10 8c bc b5 63 ae bc cd 14 a1 bc
       -0.07013952 -0.017097695 -0.021287778 -0.019663239
000330 50 df 98 3c 74 b7 51 3e 9e 6e 22 bd 33 c1 39 bb
       0.018661171 0.20480138 -0.039656274 -0.0028343915
000340 73 22 61 3e 43 90 cf bc 5c 06 06 bd 08 7a 92 bd
       0.21985798 -0.025337344 -0.03272091 -0.07152182
000350 b9 0b 2f 3e 18 43 d2 bc a1 fb 04 3d a1 ca 31 3c
       0.17094316 -0.025666758 0.032466535 0.010851533
000360 2b ba b8 3c bf db a6 bd 66 f0 3e bc 43 09 1a 3c
       0.02254971 -0.08147382 -0.011653995 0.009401622
000370 e2 7b a8 bc d6 6d 32 3d 79 32 75 3e eb ea 85 bd
       -0.020566884 0.04356178 0.23945035 -0.06538948
000380 4e 0d 98 bc 06 d9 42 3d 32 5e 73 bc 04 6d 2c 3b
       -0.018561032 0.04757025 -0.014854001 0.0026310096
000390 cc bb 04 bd 21 b6 24 3d e7 67 58 3e d0 2d 12 3d
       -0.03240566 0.040212754 0.21133386 0.03568822
0003a0 14 17 56 3e d6 96 2f 3c 32 79 06 bd 99 69 c0 3c
       0.20907241 0.010717114 -0.032830425 0.023487853
0003b0 74 7f 94 bc 85 f2 6b bd 5f db 2f 3e 34 9e 2f 3c
       -0.01812718 -0.05760433 0.17173527 0.010718871
0003c0 c9 f0 34 bc ab b2 ae bd 94 fb 9d bd 5b 2f f3 3b
       -0.011043736 -0.08530172 -0.07714 0.0074214167
0003d0 cd d1 ae bc fb b2 db 3d 3c 6b 9e bd 7a ba f6 bb
       -0.021340275 0.10727497 -0.07735297 -0.007529554
0003e0 4a b8 6d 3d 3c 16 e1 3c ff 00 88 3a 09 73 ba ba
       0.05803708 0.027476422 0.0010376273 -0.0014224957
0003f0 03 4a ad 3d 62 03 54 bd 60 f6 39 3c 05 5a f8 3c
       0.08461382 -0.05176104 0.011350244 0.030316362

fc3.weight f4 [5, 256]
000000 46 67 1c 3f 12 95 0c 3d 74 6f fb 3c 98 fa 80 ba
       0.6109508 0.034321852 0.030692793 -0.0009840308
000010 17 2b 31 bd de d9 88 3f 91 0e c5 3f e4 fc a9 3b
       -0.043253984 1.0691488 1.539507 0.0051876176
000020 71 d1 d8 3c 21 5d dd 3b 2d f2 52 bc 27 d4 b2 bc
       0.026467057 0.0067554866 -0.012875122 -0.021829678
000030 76 eb ba 3f 56 38 15 3e 7f 34 50 3f f2 36 2d bd
       1.4603107 0.14572272 0.813301 -0.042288728
000040 af 93 2d 3f e3 8c bd 3e 35 36 9f 3f b8 14 78 3c
       0.6780347 0.3702155 1.2438418 0.0151416585
000050 9c f6 c6 bb 21 c3 27 bc 42 e2 37 3f 66 9b 67 3d
       -0.0060718786 -0.010239393 0.7182962 0.056544684
000060 5b 90 6e 3f 95 d9 ea 3b 99 b9 87 3f 7a 61 23 bd
       0.9318902 0.007167051 1.0603515 -0.039887883
000070 94 44 e6 3c f8 64 5c 3f c6 c5 63 bd d8 b9 6c 3f
       0.028108872 0.86091566 -0.055608533 0.92471075
000080 24 19 1a bd f4 8f 2f 3a d6 56 06 bb c3 fe 42 3c
       -0.037621632 0.0006697171 -0.0020498536 0.01190156
000090 13 76 8c bc ce 41 4b 3d a2 ee 25 bd c1 e3 9f bd
       -0.017146146 0.049623303 -0.04051078 -0.078071125
0000a0 3e 78 0f 3d cf 4a bd bc 14 98 79 3f a4 5b 9b bc
       0.03502678 -0.02310696 0.9749768 -0.018964596
0000b0 7d bc aa 3b 18 35 86 3f 4c be c7 3c 84 59 78 be
       0.005210458 1.0484953 0.024382733 -0.24252898
0000c0 47 87 cb b9 5a c8 45 3f 0d e4 91 3c 26 46 38 3d
       -0.00038819967 0.7725884 0.017808938 0.044988774
0000d0 70 f6 68 bc d8 49 de 3c b5 78 ad 3f 4c 35 d0 bb
       -0.0142189115 0.02713482 1.3552462 -0.0063540097
0000e0 96 91 8d 3c 7e d3 11 bd 61 a8 07 3f 80 72 48 3c
       0.017281335 -0.035602085 0.529913 0.01223433
0000f0 05 fd ec bc 5f 78 c2 3f e2 f4 a9 3f 0a 3a 33 3d
       -0.028929243 1.5192984 1.3277857 0.043756522
000100 94 11 d4 bc 00 39 03 3b a8 35 68 bd bb d2 24 3c
       -0.025887288 0.0020022988 -0.056691796 0.010060008
000110 4f 9c cf bb cd 3a 52 bc 66 6d 6a 3d 6b e4 83 3f
       -0.006335772 -0.012831402 0.057233237 1.0304083
000120 d2 d1 1b bd 28 1f c0 bc 1b e2 c5 bb 60 3f 31 3b
       -0.038041897 -0.023452356 -0.0060389168 0.002704583
000130 18 e1 08 bc 20 46 87 3c a6 29 7d 3b 2e fe 4c 3d
       -0.008354448 0.01651293 0.003862956 0.050047092
000140 d5 24 01 3d 3d dd 4c bd 81 40 44 3c 4b 2b 3e 3f
       0.031529266 -0.050015677 0.01197827 0.7428481
000150 9c 91 85 3f 5c e9 6e 3d 6f 45 6d 3f 82 a0 1f bd
       1.0435061 0.058328018 0.9268407 -0.03897143
000160 9b db 0f bd dd ef 5c bd 11 d2 2b 3f 9d 19 42 bc
       -0.03512154 -0.05393969 0.6711741 -0.011846927
000170 65 86 f1 3a e1 7e 4f 3d 20 4e a8 3b 08 fd fd 3c
       0.0018426894 0.05065811 0.0051362664 0.031004444
000180 25 73 19 3f ea 2f 63 bd e0 5a ba bb 29 f7 52 3f
       0.5994132 -0.055465616 -0.0056871027 0.82408386
000190 23 4a d7 bc ee ff 18 3f 32 66 6d 3d 6a 8a 75 bd
       -0.026280468 0.5976552 0.05795879 -0.059946455
0001a0 3c 2e 90 bc 93 bc 31 bd 4c 7c b2 3b d6 51 84 bc
       -0.017600171 -0.04339273 0.0054469462 -0.016152304
0001b0 0a 97 2f bc 52 78 54 bd 2f 18 a4 3e 1d e8 8e 3f
       -0.010717163 -0.05187256 0.320497 1.1164585
0001c0 c4 f2 18 bd 89 b0 80 40 ac 68 91 3f 39 ef 05 bd
       -0.037340894 4.0215497 1.1360068 -0.032698844
0001d0 4b ea e1 bc 81 13 f8 bc 43 47 03 40 2e 9e 08 bd
       -0.02757754 -0.030282738 2.0512245 -0.033353977
0001e0 6b 52 98 bc a9 f7 c1 3f ce 47 1f 3f a6 60 52 3d
       -0.018593987 1.5153705 0.6221894 0.051361702
0001f0 70 53 90 bb 7c 34 a4 3a 28 f6 4f 3f 80 2a f0 bb
       -0.004404478 0.0012527849 0.8123498 -0.007329285
000200 31 5b 49 3f fd 6a 05 3f 00 ba 9f bb 9a 1e 9f 3f
       0.7865477 0.52116376 -0.004874468 1.2431214
000210 83 11 b5 3c e2 86 14 bd 0d 96 e9 3c 76 ea b8 3c
       0.022103077 -0.036261447 0.028513933 0.022572737
000220 0f 04 4f 3d af 2f 16 bd dd 7f 57 bd 20 49 91 bb
       0.05054098 -0.03666657 -0.052612174 -0.004433766
000230 48 f3 93 3c 8b 88 1f bf 9c d1 64 3f 34 d2 4e 3d
       0.018060341 -0.62317723 0.8938234 0.050493434
000240 36 a1 cd 3c ed f2 c9 bb 58 39 2d bf c6 c6 97 3f
       0.025101285 -0.006162992 -0.67665625 1.1857536
000250 ee 29 2c bc 04 5a d8 3c 0a a7 5d bc 28 58 cb 3b
       -0.010508044 0.02641011 -0.013528595 0.0062055774
000260 93 64 7e 3b 14 c2 34 3d 0e 48 75 3d 4b 44 2a 3f
       0.003881727 0.0441304 0.05988317 0.66510457
000270 a0 7f e0 3c b5 e3 29 bd 37 9f bf 3a 84 54 38 3c
       0.027404606 -0.041476924 0.0014619593 0.011250619
000280 1c 0a 18 bd dc cd 39 bd 0c ab 18 3c cb 70 8d 3c
       -0.037119016 -0.04536234 0.0093181245 0.017265698
000290 2b ed 07 3f ad 49 c2 3f 33 28 93 be c3 e9 ad be
       0.53096265 1.5178734 -0.28741607 -0.3396741
0002a0 a0 e9 13 bd 13 5c a3 bd ad 08 8e 3f 80 4f 2d bb
       -0.036111474 -0.07976546 1.1096398 -0.002644509
0002b0 57 5a c1 bc 0f e5 a4 bc d3 f4 4c 3f 21 60 82 3c
       -0.023602648 -0.020128755 0.8006107 0.015914978
0002c0 78 77 98 3c fa f3 00 3c 39 8e 01 bd 78 71 90 3f
       0.018611655 0.007870669 -0.031629775 1.1284628
0002d0 a3 c7 fb 3f 63 4a 85 3f 92 fd 0a 3f fb 71 71 3f
       1.9670299 1.0413326 0.5429317 0.94314545
0002e0 36 07 4c bd 84 fb 05 3f cd 36 02 40 ed e5 72 bf
       -0.049811564 0.5233691 2.0345948 -0.9488209
0002f0 51 11 05 bd b9 21 90 3c 26 9a 3b bd 82 94 21 3d
       -0.032487217 0.017594205 -0.045801304 0.03944827
000300 50 7f d4 3b c8 e4 8b 3f 5c 75 1b bc 78 c7 14 3d
       0.0064849034 1.0929193 -0.00948843 0.03632304
000310 2d 9d 20 bd 1e d0 85 bc a8 9e 97 bc bc a2 35 bd
       -0.039212395 -0.01633459 -0.01850827 -0.04434465
000320 a3 07 6f 3c 34 4a e9 bc 9e a7 0c bc 5e 19 b2 3a
       0.014589223 -0.028477766 -0.008584885 0.0013587882
000330 34 19 48 bd f4 18 cc 3d 79 8d 6c bc 98 28 02 3c
       -0.04885216 0.09965697 -0.014438027 0.007944249
000340 41 e0 2f 3f 84 e2 c6 bc d2 e6 bc 3e ac e2 6c bd
       0.6870156 -0.024277933 0.36894852 -0.05783336
000350 b9 8c c7 3f e8 bf e0 3c 1d 71 bc ba e0 37 39 3c
       1.558982 0.027435258 -0.0014376972 0.011304826
000360 2f 96 17 bd dc 65 10 bd d0 99 39 3d d6 b5 18 bb
       -0.03700846 -0.03525339 0.045312703 -0.0023301742
000370 75 8c a5 bc e4 e3 0d 40 bd 77 3e 3f d4 62 7f 3d
       -0.020208577 2.2170343 0.74401456 0.06235011
000380 22 c4 33 3d 14 1a 57 3c b3 12 a0 3e 03 91 d3 be
       0.04388822 0.013128776 0.31264266 -0.41321573
000390 69 5b 4a 3c e8 c4 0d 3c 87 05 c7 3f 21 15 fc 3c
       0.012350895 0.008652903 1.5548562 0.030771794
0003a0 2b 3c 09 3e a4 12 a4 3e d4 21 3f 3d 7b 82 89 bd
       0.13401859 0.32045472 0.04666312 -0.0671434
0003b0 f6 b4 19 3d d6 63 14 bc 22 2f 10 3f b2 76 09 bd
       0.037526093 -0.009057006 0.5632192 -0.033560462
0003c0 3b 43 32 bd 27 33 fb bc a8 79 9f 3c cf 13 38 3d
       -0.043521147 -0.03066404 0.01946719 0.044940766
0003d0 85 9d d3 bf 6b 5a 6c 3f 90 49 b1 3c 79 53 36 bf
       -1.6532446 0.92325467 0.021641523 -0.7122112
0003e0 4c 0a 76 3d 75 57 19 bd d0 17 79 3c b3 6b 54 3f
       0.060068414 -0.03743692 0.015203431 0.82976836
0003f0 bc 6b bd 3f 25 ed 27 3c 10 3c 45 bd a3 e5 e4 3c
       1.4798503 0.010249411 -0.048152983 0.02794153

fc3.bias f4 [5]
000000 a2 de 9e 3d 30 25 84 3d 89 73 00 3f 8b 54 27 3d
       0.077573076 0.064524055 0.5017629 0.04085211
000010 c0 1b 8b 3e
       0.2716961
