other_model/dqn_team_b_ep920.pth (torch, 286849 bytes, 6 tensors)

fc1.weight f4 [256, 14]
0	0xbd334cab	-0.04377429
1	0xbec373ba	-0.3817423
2	0xbe1dbe36	-0.15404591
3	0x3f16c7fb	0.58898896
4	0x3ebd4931	0.36969903
5	0xc0238934	-2.5552492
6	0xbe6c94aa	-0.23103586
7	0xbfb65cb8	-1.4247046
8	0x3fa8be54	1.3183084
9	0x3e7d77ab	0.24752681
10	0x41108523	9.032504
11	0x3e4b4511	0.19850565
12	0x3ec24bfa	0.3794859
13	0x3dee07d7	0.11622589
14	0xbe787d03	-0.24266438
15	0xbef589be	-0.4795665
16	0xbd9eb517	-0.07749384
17	0x3e213dea	0.15746275
18	0xbde98378	-0.11402029
19	0xbcb44366	-0.022004794
20	0xbd1d86d0	-0.038458645
21	0xbe8a7b74	-0.27047312
22	0x3ea652d4	0.32485068
23	0x3d3cbe2f	0.04607981
24	0xbea6fba6	-0.32613868
25	0x3dd28605	0.102794684
26	0xbe2834ac	-0.16426343
27	0xbdb0c9d4	-0.08632246
28	0xbe816a38	-0.2527635
29	0xbfb9ff36	-1.4531009
30	0x3e3a5dd8	0.18199861
31	0x3e6e7c4f	0.23289607
32	0x3e4da2f6	0.20081696
33	0x3edc51e7	0.43031237
34	0xbd489c41	-0.04897714
35	0x3d249bb8	0.040187567
36	0xbfb8a71a	-1.4425995
37	0xbe7abd5f	-0.24486302
38	0xc107288b	-8.447398
39	0x3fbc3550	1.470377
40	0x3f333369	0.7000032
41	0x3e97f07f	0.2967567
42	0xbf154f32	-0.5832397
43	0xbe447934	-0.1918686
44	0xbf082bac	-0.5319164
45	0x3d2115a9	0.039327297
46	0xbed5ebe9	-0.41781548
47	0xbf201ef4	-0.6254723
48	0xbe43f136	-0.19134983
49	0xbd5095d1	-0.050924126
50	0x3fab02e0	1.3360252
51	0x3e35f07b	0.17767517
52	0x40dea7a8	6.957966
53	0x4041d497	3.0286005
54	0x3e4b7a47	0.19870864
55	0x3e4d82c7	0.20069419
56	0x3e36f2a5	0.17865999
57	0xbe881163	-0.26575765
58	0x3ec9e464	0.3943206
59	0xbb4dfd68	-0.003143156
60	0x3e50f0d9	0.20404376
61	0xbe56c28b	-0.2097265
62	0xbdb5c612	-0.088756695
63	0x3ccba65f	0.024859605
64	0xbe9af6be	-0.30266374
65	0x3fbbdf6f	1.4677562
66	0xbf63167c	-0.88706183
67	0x4103bd0f	8.233657
68	0xbed70443	-0.4199544
69	0xbf018263	-0.5058958
70	0xbf24c12c	-0.64357257
71	0xbe242aa8	-0.16031897
72	0xbf19a960	-0.6002407
73	0x3c77531a	0.015095497
74	0xbe6cc3f5	-0.23121627
75	0xbe16f701	-0.14742662
76	0x3c6da373	0.014504301
77	0xbed61170	-0.4181018
78	0xbeab1313	-0.3341299
79	0x3e92e77d	0.28692237
80	0x3eed8e63	0.46397695
81	0xbf94da1b	-1.162906
82	0x3e86388f	0.26215026
83	0xbe0e30e9	-0.13885845
84	0xbec00571	-0.3750415
85	0x3ee872ca	0.45400077
86	0xbedc0b81	-0.42977527
87	0xbd41fa31	-0.04735774
88	0xbe1f377d	-0.15548511
89	0xc006b332	-2.1046872
90	0x3e84fc7d	0.25973883
91	0xbf82a158	-1.0205488
92	0x3d41c103	0.04730321
93	0xbea484ad	-0.32132474
94	0xbef89aa5	-0.48555484
95	0xbefaa224	-0.48951828
96	0xbdf425b2	-0.11921252
97	0x3dad3ce6	0.08458881
98	0x3dfc0f8d	0.123076536
99	0xbe5acc83	-0.21367078
100	0x3c136180	0.008995414
101	0xbf03f8c6	-0.51551473
102	0x3d587ad0	0.052851498
103	0xbe70ed13	-0.23527937
104	0x3ea72ccd	0.32651368
105	0xbe8ad90c	-0.2711872
106	0xbeb7637e	-0.35818094
107	0xbe84e2d8	-0.25954318
108	0x3f1779bf	0.59170145
109	0xbee93943	-0.455515
110	0xbe19585e	-0.14975116
111	0xbe8211b8	-0.25404143
112	0x3f3e75e1	0.7439862
113	0xbf918c62	-1.1370966
114	0x3f52472d	0.82139856
115	0x3d40671e	0.04697334
116	0x3ec169fc	0.37776172
117	0xbdd02050	-0.10162413
118	0x3e2ff335	0.1718262
119	0x3e775652	0.24154022
120	0xc084b44e	-4.14701
121	0x3c3aeb66	0.011408662
122	0xc1110de1	-9.065888
123	0x3e4fe99a	0.20303956
124	0x3ecd4fab	0.40099844
125	0x3ea878ac	0.32904565
126	0xbe46d483	-0.19417004
127	0xbdd183d7	-0.102302246
128	0xbe017757	-0.12643181
129	0x3dd6c14a	0.10486086
130	0xbdc17dc3	-0.09447815
131	0x3d3366b5	0.04379912
132	0xbe52935c	-0.20564026
133	0x3db1f857	0.08689945
134	0xbe80b0ab	-0.25134787
135	0xbe3789e3	-0.17923693
136	0x3e5223a9	0.20521416
137	0xbc347cca	-0.01101608
138	0xbe21f767	-0.15817033
139	0xbe76e47e	-0.241106
140	0x3ca583a2	0.020204369
141	0x3e226862	0.15860131
142	0x3e9119d3	0.28340015
143	0xbe4af60b	-0.1982042
144	0xbdd24e51	-0.10268844
145	0x3e3aa46e	0.18226787
146	0x3e47cf53	0.19512682
147	0xbea1fd4d	-0.31638566
148	0x3f23251b	0.63728493
149	0x401f6ff5	2.4912083
150	0x40aa38e3	5.319444
151	0x4114aaa3	9.291659
152	0xbe57daf1	-0.21079613
153	0xbeb5ac82	-0.35483176
154	0xbf29fc63	-0.66400737
155	0x3f31612e	0.6928891
156	0xbf2489a3	-0.64272517
157	0x3eac8c8e	0.33700985
158	0xbfc8e6a0	-1.5695381
159	0x3e130cc8	0.14360344
160	0xbfd4257c	-1.6573939
161	0xbf1e5463	-0.61847514
162	0x3ea8a0e8	0.32935262
163	0xbe4bfe65	-0.19921263
164	0xbfe48a27	-1.7854661
165	0x3fb65cc0	1.4247055
166	0x3dba3f4d	0.09094105
167	0x3d8d607e	0.0690317
168	0xbcef9e78	-0.029250368
169	0xbd638c81	-0.055553917
170	0xbdf87657	-0.121319465
171	0xbead73af	-0.33877322
172	0xbe94817f	-0.29005048
173	0xbed640e9	-0.41846398
174	0xbe8d22da	-0.27565652
175	0x3ea65d58	0.3249309
176	0x3ea57411	0.32315114
177	0x3f9a9f6f	1.2079905
178	0x401d832d	2.4611313
179	0x4102b2b6	8.168631
180	0x3d99e618	0.0751459
181	0xbe2d0f28	-0.16900313
182	0x3eeddbbd	0.4645671
183	0xbf10e5ae	-0.56600463
184	0x3e24e2cf	0.16102146
185	0xbf62f754	-0.8865864
186	0xbee1e253	-0.44117984
187	0xbf44ee96	-0.76926553
188	0xbe23e24f	-0.16004299
189	0x3dbdf654	0.09275499
190	0x3eebb1e2	0.4603415
191	0x3f78d2d7	0.97196716
192	0x3f1358b0	0.575572
193	0x41099bfb	8.600581
194	0x3e9c4a5a	0.30525476
195	0x3e93edb5	0.28892294
196	0xbf72b39b	-0.94805306
197	0xbf9eb630	-1.2399349
198	0xbf706c4d	-0.93915254
199	0xbd2496d6	-0.04018291
200	0x3d03fbb2	0.032222457
201	0x3e32dcde	0.17467067
202	0xbe1315a8	-0.1436373
203	0x3cb928a0	0.02260238
204	0x3ebe3e94	0.37157118
205	0xbf64fc82	-0.89447796
206	0x40022eb8	2.0341015
207	0xbecbcfe1	-0.39807037
208	0x3d00b988	0.031426936
209	0xbd4812d1	-0.04884607
210	0xbdbd6bbf	-0.092490666
211	0x3d50795a	0.05089698
212	0xbe867db9	-0.26267794
213	0x3dc2fc3b	0.095207654
214	0x3e4b81fd	0.19873805
215	0x3dd5ca5b	0.10438987
216	0xbe1dd7f8	-0.15414417
217	0xbe136614	-0.14394408
218	0x3d299098	0.04139766
219	0x3cf0b2ce	0.029382136
220	0xbe3d1936	-0.18466648
221	0xbe375c67	-0.17906342
222	0xbe7e03bb	-0.2480611
223	0x3df37920	0.11888337
224	0x3f2e6d03	0.6813509
225	0xbf5e6ab3	-0.8688156
226	0x3efc7bef	0.49313304
227	0xbf822f87	-1.0170754
228	0x3e438581	0.19093896
229	0x3f01dbe3	0.50726146
230	0x3e93f1de	0.28895468
231	0x3f60942f	0.8772611
232	0xbe829ae1	-0.25508788
233	0x3ed42e1b	0.41441426
234	0xc060559b	-3.505225
235	0xbf8d5689	-1.1042033
236	0xbebf4cf6	-0.37363404
237	0xbe4e405c	-0.20141739
238	0x3df61a41	0.12016726
239	0x3de522d5	0.11188284
240	0xbea1ccd4	-0.31601584
241	0xbeaa9d13	-0.33322963
242	0x3e12dd0d	0.14342137
243	0xbee6400d	-0.44970742
244	0xbeab9aa9	-0.33516434
245	0xbe4f4a27	-0.2024313
246	0x3e9e054f	0.30863425
247	0x3e160c2b	0.14653079
248	0xbc3506b7	-0.011048964
249	0x3efc0fad	0.4923071
250	0xbd002f84	-0.031295314
251	0xbeb48a23	-0.3526164
252	0xbe43edd1	-0.19133689
253	0xbc8e8580	-0.017397642
254	0x3d10fd60	0.035397887
255	0xbda8dcc5	-0.082452334

fc1.bias f4 [256]
0	0x3e374387	0.17896853
1	0xbdd66a7e	-0.104695305
2	0x3f1ff064	0.6247618
3	0x3e48df7b	0.19616501
4	0xbeee84d9	-0.4658573
5	0x3e82648a	0.2546733
6	0xbe8e3a99	-0.2777908
7	0xbc874593	-0.016512668
8	0x3eefa385	0.46804443
9	0x3e011c9d	0.12608571
10	0x3c2a2947	0.010385818
11	0xbe637da8	-0.22215903
12	0xbd9a5f71	-0.07537735
13	0x3ecba4df	0.39774224
14	0xbcf7ab80	-0.030233145
15	0xbe0903eb	-0.13380401
16	0xbdb28725	-0.08717183
17	0xbe840bae	-0.2579016
18	0xbe42011b	-0.18945734
19	0xbe0ee137	-0.139531
20	0x3c8139dd	0.015774662
21	0x3efd9d0c	0.4953388
22	0x3ec5c603	0.38627633
23	0x3e4ed855	0.20199712
24	0x3e076e8d	0.13225766
25	0x3e0d9cb2	0.13829306
26	0xbb9e0210	-0.004822023
27	0xbde50b21	-0.11183763
28	0xbd16ec76	-0.0368466
29	0x3eb1124a	0.34584266
30	0x3d06f38f	0.03294712
31	0x3e1b06a7	0.15139256
32	0x3ef6eb96	0.48226613
33	0x3caf086e	0.021366324
34	0x3e831e33	0.25608978
35	0x3e4aed80	0.19817162
36	0x3e165687	0.14681445
37	0xbe6cab5f	-0.23112248
38	0xbe621f07	-0.22082148
39	0xbe7daf95	-0.2477401
40	0x3dfd0b8f	0.1235572
41	0xbe25a7d1	-0.16177298
42	0x3e1280dd	0.1430697
43	0xbe2b1182	-0.16705897
44	0x3d8de47e	0.06928347
45	0xbd7b68f3	-0.061379384
46	0x3bddc0f6	0.0067673875
47	0xbd9c4435	-0.07630197
48	0x3e35baf5	0.177471
49	0xbe7fb52f	-0.2497146
50	0x3c3b2c11	0.0114240805
51	0xbe0f23ad	-0.13978453
52	0x3e12efc2	0.14349273
53	0xbdf7144b	-0.120644175
54	0x3eef1007	0.46691915
55	0x3d82a0d8	0.06378335
56	0xbde04efc	-0.10952565
57	0xbebae960	-0.36506176
58	0xbea2ff6f	-0.31835505
59	0xbd0f8ad9	-0.035044525
60	0xbe089e1f	-0.13341568
61	0xbe853903	-0.2602006
62	0x3e0b768d	0.13619442
63	0xbe3c2a14	-0.18375427
64	0x3e6c3ddf	0.23070477
65	0x3ccbfc53	0.024900591
66	0x3ea02b93	0.31283244
67	0xbe3e71a9	-0.18598045
68	0xbb877605	-0.004133942
69	0xbef908b6	-0.48639458
70	0x3e3cbdbf	0.18431757
71	0xbe535667	-0.20638429
72	0x3e2022e9	0.15638317
73	0xbe189964	-0.14902264
74	0x3d81e896	0.0634319
75	0x3d9dedb4	0.07711354
76	0xbe26f244	-0.16303355
77	0xbe5c47d3	-0.21511774
78	0x3e6fb8d0	0.23410344
79	0xbe7a1828	-0.24423277
80	0xbda3864f	-0.07984602
81	0x3da00ccd	0.078149416
82	0xbd202b76	-0.039103948
83	0xbe02a161	-0.12756874
84	0xbea5c5b8	-0.3237741
85	0xbdaf7ede	-0.0856912
86	0x3c9b4bff	0.018957136
87	0xbde60da6	-0.11233072
88	0xbdf7e9a2	-0.12105109
89	0x3e9d302d	0.30700818
90	0xbe4142c8	-0.18873131
91	0x3ebbb73e	0.3666324
92	0x3e9756bb	0.29558358
93	0xbe7f276c	-0.24917382
94	0xbe8c96d2	-0.27458817
95	0x3edc8818	0.4307258
96	0xbd7b7393	-0.061389517
97	0x3dc8e36d	0.09809003
98	0xbd894296	-0.067021534
99	0x3e24faa7	0.16111241
100	0xbeac9f7b	-0.33715424
101	0xbf185d23	-0.59517115
102	0xbea3f392	-0.32021767
103	0x3dc2c579	0.09510321
104	0xbe800ce0	-0.25009823
105	0x3f1e02bb	0.61722916
106	0x3caf0ac2	0.021367434
107	0x3ec81435	0.39077917
108	0x3dcbe6b3	0.09956112
109	0x3f0b8b47	0.54509395
110	0x3d1ec2e1	0.03876007
111	0x3cc1feac	0.023681007
112	0xbd9d94e0	-0.07694411
113	0xbe94a7b8	-0.2903421
114	0xbe8c9e17	-0.27464363
115	0x3e847755	0.25872293
116	0xbe77543e	-0.2415323
117	0xbeb636b5	-0.35588613
118	0xbe20e87b	-0.15713684
119	0x3ee2cacc	0.44295347
120	0x3cc9385d	0.024563009
121	0x3dec6ebf	0.11544561
122	0xbc98976f	-0.018626897
123	0xbe9be972	-0.30451542
124	0x3e34b6ee	0.17647907
125	0xbdb3500e	-0.087555036
126	0xbcaec9f4	-0.021336533
127	0x3d595a19	0.05306444
128	0xbc555466	-0.01302061
129	0x3e7c0682	0.24611858
130	0xbe5131df	-0.2042918
131	0xbefaece4	-0.49008858
132	0xbe65727a	-0.2240695
133	0xbe215713	-0.15755872
134	0x3e2baa92	0.16764286
135	0x3cac4c97	0.021032615
136	0x3b0d85cc	0.0021594642
137	0xbdab29d8	-0.083575904
138	0x3e7c1a75	0.24619468
139	0xbe5fc660	-0.21853018
140	0xbde38e73	-0.111111544
141	0xbcbdaf77	-0.023154957
142	0xbe6f6ae0	-0.23380613
143	0x3d77bdfe	0.060483925
144	0xbe437f3a	-0.19091502
145	0x3f039ea8	0.51413965
146	0x3d2f28b2	0.04276342
147	0x3e879d34	0.26487124
148	0xbe5a8a57	-0.21341835
149	0xbdf93616	-0.12168519
150	0xbdc94550	-0.098276734
151	0xbcca8300	-0.024720669
152	0xbdd78b6c	-0.105246395
153	0x3ebd681d	0.36993495
154	0x3f051ef6	0.5200037
155	0x3d0f6444	0.03500773
156	0x3dccc35c	0.09998199
157	0xbe1fe82b	-0.15615909
158	0x3dcfa493	0.10138812
159	0x3d997e16	0.07494752
160	0xbd0b8b26	-0.03406825
161	0xbe4b63de	-0.19862315
162	0x3dc8bc6c	0.098015636
163	0x3d78e799	0.060767744
164	0x3e2c4e80	0.1682682
165	0xbd3b97b2	-0.045798965
166	0x3e123d0e	0.14281103
167	0x3e000d89	0.12505163
168	0x3d9dd345	0.07706312
169	0x3e6bcc9d	0.23027273
170	0x3ec848c1	0.39118007
171	0xbdf21344	-0.11820081
172	0xbdbe5f78	-0.09295553
173	0xbc53bbcc	-0.012923192
174	0xbe0b3038	-0.13592613
175	0xbe710156	-0.23535666
176	0x3d08a6ad	0.03336208
177	0xbf12acf9	-0.57295185
178	0x3a630bf9	0.0008661147
179	0xbd5fb875	-0.05461927
180	0x3e4d1d51	0.20030715
181	0x3e07b4ac	0.13252515
182	0x3f194335	0.59868175
183	0xbd052d72	-0.032514043
184	0x3f36d0c9	0.7141233
185	0x3d95bea3	0.07311752
186	0xbdb420af	-0.087952964
187	0x3c4f0b60	0.012636989
188	0xbe3d1a8c	-0.18467158
189	0x3dac64f3	0.08417692
190	0x3e335cbb	0.17515843
191	0x3d52e7a4	0.05149044
192	0xbe840863	-0.2578765
193	0xbea938cf	-0.33051154
194	0x3e02bc77	0.12767206
195	0x3d2fa9bb	0.042886477
196	0xbdccfdfd	-0.10009382
197	0x3ce8b3af	0.028405992
198	0xbd1db66c	-0.03850405
199	0xbe1cd9ea	-0.15317503
200	0x3bb2c213	0.0054552644
201	0x3e93d783	0.2887536
202	0xbe216b69	-0.1576363
203	0xbdc37975	-0.095446505
204	0x3ed10940	0.4082737
205	0x3e21235f	0.15736149
206	0x3d8b6630	0.068066
207	0x3f1a5e48	0.6030011
208	0x3e0e889a	0.13919297
209	0x3df1a1f8	0.11798471
210	0x3e13a492	0.14418247
211	0x3d63c568	0.055608183
212	0xbe2d6fa6	-0.16937122
213	0x3d696bf7	0.05698773
214	0x3eb94f4e	0.36193317
215	0xbe9b244c	-0.3030113
216	0xbe5e5673	-0.21712665
217	0xbd2c0042	-0.041992433
218	0xba0dc8c7	-0.00054086413
219	0xbe534a81	-0.2063389
220	0x3e49aa00	0.19693756
221	0x3dc80bf3	0.09767904
222	0x3dd83f21	0.10558916
223	0x3d03c2e0	0.03216827
224	0xbe999ee7	-0.30004045
225	0xbe142605	-0.14467628
226	0x3e2628db	0.16226523
227	0x3de34a9a	0.110982135
228	0xbe357b6d	-0.17722864
229	0xbda49d33	-0.08037796
230	0x3e38842a	0.18019167
231	0x3dcac2ed	0.099004604
232	0x3db1c241	0.08679629
233	0x3e773289	0.24140371
234	0x3eb210e9	0.34778526
235	0x3bd1ab3e	0.0063985875
236	0x3d141a09	0.03615764
237	0xbdab0573	-0.08350649
238	0xbe053d07	-0.13011561
239	0xbded115f	-0.11575579
240	0xbd22ad4c	-0.03971605
241	0xbdb43ae8	-0.08800298
242	0x3defb988	0.11705309
243	0x3d937098	0.0719921
244	0x3e18396d	0.14865656
245	0x3d9fd8c5	0.078050174
246	0x3ee390d6	0.4444644
247	0x3e2550ac	0.16144055
248	0xbdd8785c	-0.10569832
249	0xbe3eb4e3	-0.1862369
250	0x3d029892	0.031883784
251	0xbe1d18fa	-0.15341559
252	0xbe75dce8	-0.2401005
253	0x3eed77b9	0.46380404
254	0xbe486be0	-0.19572401
255	0xbd80cfb4	-0.06289616

fc2.weight f4 [256, 256]
0	0xc02ef7f5	-2.733884
1	0xbeeba39d	-0.46023265
2	0x404e3a1f	3.2222974
3	0x405df542	3.4680943
4	0x401ad044	2.4189615
5	0xbf8b917e	-1.0903776
6	0xbf80bc1a	-1.0057404
7	0xbf12b95c	-0.57314086
8	0xc00244cc	-2.035449
9	0x3cf95994	0.030438222
10	0xbe8ec1f1	-0.2788234
11	0xc00b5fc7	-2.1777208
12	0x3ff539fa	1.9158318
13	0x402d81ed	2.711055
14	0x3f2ecf32	0.68284905
15	0x3c89be55	0.01681439
16	0x403acea0	2.9188614
17	0xbf5ed58c	-0.87044597
18	0x3cdd0104	0.026978023
19	0x3fc544f8	1.5411673
20	0x3b2e16a0	0.0026563779
21	0xbf95560d	-1.1666886
22	0x4020d1a2	2.512795
23	0xc099c2f8	-4.80505
24	0xbef9390c	-0.48676336
25	0x402dbe93	2.7147567
26	0x40961a4f	4.6907115
27	0x3d7dc11e	0.06195175
28	0x3fb32167	1.3994569
29	0xbf18e697	-0.5972685
30	0x3d12073b	0.035651427
31	0x3f3fe2eb	0.74955624
32	0xbe01c1f1	-0.12671639
33	0x402e4f83	2.723603
34	0xbffea0f2	-1.9892867
35	0xbce5fe85	-0.028075466
36	0xc0a88178	-5.2658043
37	0xbca60b4a	-0.020269055
38	0xbd16abf1	-0.03678507
39	0xc0958468	-4.672413
40	0x403188ed	2.7739823
41	0x3f62d057	0.8859915
42	0x4087455f	4.227218
43	0xbcf2ea40	-0.029652715
44	0xbd43da24	-0.047815457
45	0xbbf77310	-0.0075515583
46	0x3c2c6220	0.010521442
47	0xbd4d028f	-0.05005127
48	0xbfc60ecd	-1.5473267
49	0x409093d8	4.5180473
50	0x3ca44048	0.020050183
51	0x404e3d75	3.222501
52	0x3f82daf4	1.0223069
53	0x3ca108bf	0.01965749
54	0x3f1be350	0.60893726
55	0xbc8b98f8	-0.017040715
56	0x3dfee13c	0.12445304
57	0x3c392955	0.011301358
58	0xc02a593b	-2.6616962
59	0x3d6a964e	0.057272248
60	0x3d7eb2c0	0.062182188
61	0xbf967e26	-1.1757247
62	0xb9870700	-0.00025754422
63	0xbd4b52b2	-0.04963941
64	0x401770c4	2.3662577
65	0x3c2c00d0	0.010498241
66	0xbf0da4a9	-0.55329376
67	0x3fdb8b1e	1.715183
68	0x3f3d6709	0.73985344
69	0xbfbb19c9	-1.4617244
70	0xbfbd89eb	-1.4807714
71	0x3f46e23b	0.7768895
72	0x3d0d7c82	0.034542568
73	0x3bfce1e0	0.007717356
74	0x3d1eb07e	0.038742535
75	0xbb07efd1	-0.0020742307
76	0x3c8948b4	0.0167583
77	0xbf4a3245	-0.78982955
78	0xc0a4f5c8	-5.1550026
79	0x3c280b70	0.010256633
80	0x3e905fa5	0.2819797
81	0x3d3bbe8e	0.045836024
82	0x3f607e0d	0.8769234
83	0x3d56d92f	0.052453216
84	0x404b3f90	3.1757545
85	0xbefc141d	-0.49234095
86	0x4094e05e	4.6523886
87	0xbfed963b	-1.8561472
88	0xbfb6e61f	-1.4288977
89	0xbe9ce5a8	-0.30643964
90	0xbfffa3ff	-1.9971923
91	0xc0f127fc	-7.536131
92	0xc035d0cf	-2.8408697
93	0xbd8432e8	-0.06455022
94	0xbe8f63e2	-0.28005892
95	0xbfc625ff	-1.5480345
96	0xbd875e11	-0.066097386
97	0x3f1edcd2	0.62055695
98	0xbfa40afe	-1.2815855
99	0xbd367f26	-0.044554852
100	0xbf2da19b	-0.67824715
101	0xbfe4695a	-1.7844651
102	0x3fd5344f	1.6656588
103	0x3ed22ba3	0.41048917
104	0xbefbf4ab	-0.49210104
105	0xc080944b	-4.018102
106	0x3cc5b914	0.024136104
107	0xc0034f9f	-2.0517347
108	0xbea6e2c2	-0.32594877
109	0x3f8898c4	1.067162
110	0x3ff4c12c	1.9121451
111	0xbcb2b2f0	-0.02181384
112	0xbd256548	-0.040379792
113	0x3fbc889d	1.4729191
114	0x404a62fb	3.1622913
115	0x3f4e56a9	0.8060098
116	0x3d634d71	0.055493776
117	0xbfd6ba31	-1.6775571
118	0xbd4a28e8	-0.049355417
119	0x40070e43	2.1102455
120	0x3cda7bc0	0.026670337
121	0x402c4d65	2.6922238
122	0xbfd18b21	-1.6370584
123	0x40c01106	6.002078
124	0x3d94561c	0.072429866
125	0x40062a0e	2.0963168
126	0x40109ddd	2.2596352
127	0xc014ea0d	-2.3267853
128	0xbf765ad5	-0.9623235
129	0xbf4c19ae	-0.79726684
130	0xc1424fab	-12.14445
131	0xc0ef5370	-7.4789352
132	0xbf5bb065	-0.8581603
133	0x3ba99346	0.005175027
134	0xbd3a8c14	-0.045543745
135	0x3d65e842	0.0561297
136	0x3f4d9a44	0.80313516
137	0x3dba7729	0.09104759
138	0xbd3875ec	-0.045034334
139	0x3fc67565	1.5504576
140	0xbc18a9b0	-0.0093178
141	0xbd46c804	-0.048530594
142	0x3d12e62a	0.035864033
143	0x3ca76c04	0.020437248
144	0xbe0e8c76	-0.13920769
145	0x408fe53b	4.496732
146	0xbf162cf2	-0.5866233
147	0xba28b780	-0.0006436035
148	0xbf832255	-1.0244852
149	0xbf848fe7	-1.0356416
150	0xbcc0c3bc	-0.023530833
151	0x3d73ba6e	0.059503965
152	0xbd6a366a	-0.0571808
153	0x3eae0c2e	0.33993667
154	0x3f10bc77	0.56537575
155	0x3d0f604c	0.035003945
156	0x3f0e7a7e	0.5565566
157	0xbcb3d072	-0.02194998
158	0xbbbce890	-0.0057650283
159	0x3ed19c44	0.40939534
160	0x3d583768	0.052787215
161	0xbe056570	-0.13026977
162	0xbd8fdb70	-0.07024276
163	0x3d086173	0.03329606
164	0x3d563848	0.052299768
165	0xbddc6023	-0.10760524
166	0xc0927e70	-4.5779343
167	0xbe774c0f	-0.24150108
168	0x40132405	2.2990735
169	0x4016f59b	2.3587406
170	0x4085731f	4.170303
171	0x3d39869e	0.045294397
172	0xc02f97f4	-2.7436495
173	0xbfc361a4	-1.5264173
174	0x3d442aa6	0.047892235
175	0xbd1ff050	-0.03904754
176	0xbd551f89	-0.052032027
177	0x400bb9d9	2.1832182
178	0x3c66ac90	0.014079228
179	0xbf8a8369	-1.0821353
180	0xbe2f2c9b	-0.1710686
181	0xbfb38feb	-1.4028295
182	0xc0228ee1	-2.5399706
183	0x3cf89aec	0.03034731
184	0xc028e180	-2.6387634
185	0xc04b7d02	-3.1795049
186	0x3fa4dc14	1.2879663
187	0xbe28d734	-0.16488343
188	0xbc739a58	-0.014868341
189	0xbf90e082	-1.1318514
190	0xc0206a67	-2.5064943
191	0xc03f7b55	-2.9919026
192	0xbc9cf160	-0.019158065
193	0x3f2ae9f3	0.6676323
194	0x3ffd11f9	1.977111
195	0xbe6d05c8	-0.23146737
196	0x3d605169	0.05476514
197	0x402f4dc3	2.7391212
198	0x3cfcc525	0.030855725
199	0x3f77e904	0.9683993
200	0x3d4e9092	0.05043084
201	0xbffa08e4	-1.9533963
202	0xbe7f083c	-0.24905485
203	0x3de34283	0.110966705
204	0xc0322a57	-2.7838342
205	0xbdb2eaf4	-0.0873622
206	0x3fbe1b35	1.4852053
207	0xbe9d6f9c	-0.30749214
208	0xbd19412c	-0.03741567
209	0xbde0d9db	-0.10979053
210	0xbd11767c	-0.035513386
211	0x3c53ae20	0.012919933
212	0xbd060692	-0.03272111
213	0x3d5f76b4	0.054556563
214	0x40497e42	3.1483312
215	0xbc636971	-0.01388012
216	0xbd841c3d	-0.064506985
217	0x3b885950	0.0041610375
218	0xbf08884c	-0.5333297
219	0x408b2b70	4.3490524
220	0x3fc0a1ad	1.504934
221	0x3fecb138	1.8491583
222	0xc0b1cce4	-5.556261
223	0xbeca0c43	-0.3946248
224	0xbf13d113	-0.57740897
225	0x3ddf6a15	0.109089054
226	0xbd193584	-0.037404552
227	0xbe626e91	-0.2211249
228	0x3caef9b0	0.021359295
229	0xbd5037cc	-0.050834462
230	0xc0105a24	-2.2555017
231	0xba88b6b0	-0.0010430422
232	0x3c3f3460	0.011670202
233	0xbcaeee88	-0.021353975
234	0x405b095a	3.4224458
235	0x3d3ac71e	0.04560005
236	0xbe398eb3	-0.18120842
237	0xbd2e933c	-0.042620882
238	0xbff8e989	-1.9446269
239	0x3b337545	0.002738313
240	0x3e62b91c	0.22140926
241	0x40399f80	2.90036
242	0x4034e4c0	2.8264618
243	0x40a8542b	5.2602744
244	0x401db578	2.464201
245	0x3d695996	0.0569702
246	0x4040b5cb	3.0110958
247	0x3ca9857a	0.02069353
248	0xbfc9d2b7	-1.576743
249	0xbc073c72	-0.008254157
250	0xbfe4344b	-1.7828459
251	0xbf3390df	-0.7014293
252	0xbc0de733	-0.008661079
253	0xc0b6a0b3	-5.7071166
254	0xc06899b4	-3.6343813
255	0x3fd6117c	1.6724086

fc2.bias f4 [256]
0	0xbe723b3b	-0.23655407
1	0x3b022a7d	0.001986175
2	0xbd98361f	-0.07432198
3	0xbddedc3d	-0.10881851
4	0x3ee98ae9	0.45613793
5	0xbf1a537e	-0.6028365
6	0x3d14361a	0.036184408
7	0xbeb5fb7a	-0.35543424
8	0x3caaaeb5	0.02083526
9	0xbb334ea0	-0.0027360097
10	0xbc2be2cb	-0.010491083
11	0xbd9b46e5	-0.075818814
12	0xbd56a62a	-0.05240456
13	0x3c1937e8	0.009351708
14	0x3c49e74a	0.01232321
15	0xbd4554f5	-0.048176724
16	0x3c56ac23	0.013102564
17	0xbcfd0b67	-0.030889226
18	0xbcba8a7c	-0.022771113
19	0xbd01cd7f	-0.031690117
20	0xbefaea56	-0.4900691
21	0x3c403379	0.011731022
22	0xbd8a18d8	-0.0674302
23	0x3e129e68	0.1431824
24	0x3fcaf8e1	1.5857202
25	0xbea0056e	-0.31254143
26	0x3ecc5fe5	0.39916912
27	0xbea85c5c	-0.32882965
28	0xbd65010e	-0.05590921
29	0x3c947ceb	0.018125972
30	0xbf1ac2f7	-0.6045374
31	0xbd7c392c	-0.06157796
32	0xbdc1ab1e	-0.09456466
33	0x3f3b5542	0.7317697
34	0xbf39d121	-0.7258473
35	0x3e35bc70	0.17747664
36	0xbd86f911	-0.065904744
37	0xbef5831d	-0.47951594
38	0xbce00d65	-0.027350137
39	0xbdf42194	-0.11920467
40	0xbf640243	-0.8906595
41	0xbf3c6f31	-0.73607165
42	0x3f044429	0.51666504
43	0x3e6df80b	0.23239152
44	0x3b4c48b8	0.0031171273
45	0xbefa5dd9	-0.48899725
46	0xbc3add26	-0.011405265
47	0x3cce7f1a	0.025207091
48	0x3e37f5f0	0.17964911
49	0xbd2a0910	-0.04151255
50	0x3be06441	0.0068478887
51	0xbdb769fe	-0.08955763
52	0xbdbb0546	-0.09131865
53	0xbee25d58	-0.4421184
54	0xbf5d5298	-0.86454153
55	0xbee0aa3f	-0.43879887
56	0xbecc89ed	-0.3994898
57	0xbc04c7d9	-0.008104288
58	0x3eb33f7e	0.35009378
59	0x3aafc4c5	0.0013410082
60	0xbf015162	-0.50514805
61	0xbc895818	-0.01676564
62	0xbca49ab7	-0.020093305
63	0x3d1f3771	0.038871232
64	0xbd253f39	-0.040343497
65	0xbdc0ec5c	-0.09420082
66	0x3dfc870a	0.12330444
67	0x3f6904ac	0.91022754
68	0x3c06bd50	0.008223847
69	0xbc374a35	-0.011187126
70	0xbd79d499	-0.060993765
71	0xbeabb6b3	-0.33537826
72	0xbd66ff6e	-0.05639594
73	0xbd79c93d	-0.06098293
74	0xbc1a9045	-0.009433811
75	0x3dfeba54	0.12437883
76	0xbcdd2a9d	-0.026997859
77	0xbf3ebcdb	-0.7450692
78	0x3bf3378a	0.0074223923
79	0xbd47878f	-0.048713263
80	0xbef53a24	-0.4789592
81	0xbd68521b	-0.056718927
82	0xbea2ca06	-0.31794757
83	0xbc76b0ba	-0.015056783
84	0xbdaa1040	-0.08303881
85	0xbe1d7103	-0.15375142
86	0xbd2938d3	-0.041313957
87	0xbe6c8f74	-0.23101598
88	0xbd49429c	-0.04913579
89	0xbede5d1d	-0.43430415
90	0xbc7bc83e	-0.015367566
91	0xbc1a3d08	-0.009413965
92	0xbdcc69d7	-0.09981125
93	0xbe9a6d2b	-0.30161414
94	0x3a787f17	0.0009479387
95	0x3c708484	0.014680032
96	0xbd8dd1eb	-0.06924804
97	0xbbe62e1d	-0.00702454
98	0x3d255c4f	0.040371235
99	0x3ee0c637	0.43901226
100	0x3c2fee3b	0.010737951
101	0x3f38b6d8	0.72154
102	0x3daa9650	0.08329451
103	0xbee15cb5	-0.44016042
104	0xbf0d66c4	-0.5523493
105	0xbd3362ad	-0.043795276
106	0x3c253e1e	0.010085611
107	0xbdbbd1d0	-0.09170878
108	0xbb6c8bc9	-0.003609406
109	0xbce0a5de	-0.027422842
110	0xbccb4185	-0.024811516
111	0xbca18bae	-0.019719925
112	0xbeac2c6c	-0.3362764
113	0xbc29680b	-0.010339747
114	0xbd6a2cc0	-0.057171583
115	0x3c689afc	0.014197107
116	0xbcbcb4c0	-0.023035407
117	0xbd346d3b	-0.044049483
118	0xbe370266	-0.17872009
119	0xbec7858e	-0.38969082
120	0xbcccba13	-0.02499107
121	0x3bbed3f0	0.0058236048
122	0xbdbeb3f8	-0.0931167
123	0x3e981387	0.29702398
124	0xbd4732b1	-0.048632327
125	0x3f17fcd4	0.5937016
126	0xbcbbf100	-0.022942066
127	0x3dccfb3e	0.10008858
128	0xbd1f5088	-0.03889516
129	0xbbae92ce	-0.005327559
130	0xbe63d1b8	-0.2224797
131	0x3ce9e346	0.028550755
132	0xbca8a029	-0.020584183
133	0xbd97119f	-0.07376408
134	0x3fea3ba7	1.8299454
135	0xbce39515	-0.027781049
136	0xbbaf9b72	-0.0053591067
137	0xbd766c06	-0.060161613
138	0x3e20c78b	0.1570112
139	0x3c67c25f	0.014145463
140	0x3d2bc5c3	0.041936647
141	0xbbea333a	-0.00714722
142	0xbd4c9602	-0.049947746
143	0xbd92a823	-0.07160976
144	0xbeb8f5a4	-0.3612491
145	0x3c678560	0.01413092
146	0x3e41e4fb	0.18935005
147	0xbd3639e1	-0.04448879
148	0xbd903d4e	-0.07042943
149	0xbf4f6c78	-0.81024885
150	0xbc315b44	-0.010824982
151	0x3f3075c9	0.68929726
152	0xbddd8701	-0.108167656
153	0xbda7e10d	-0.08197222
154	0xbdaaa624	-0.0833247
155	0xbebcb4a2	-0.36856562
156	0xbcc8a921	-0.02449471
157	0x3e1092b4	0.14118463
158	0xbe88285b	-0.2659329
159	0xbf0b13c0	-0.5432701
160	0xbdef36f3	-0.116804026
161	0xbda8b1bf	-0.082370274
162	0x3ec7f6fa	0.39055616
163	0x3c805621	0.01566607
164	0x3d0415fa	0.03224752
165	0xbbe63195	-0.0070249536
166	0x3ce19aac	0.027539574
167	0x3cce9e50	0.025221974
168	0x3cb80190	0.022461683
169	0xbd9c809f	-0.0764172
170	0xbd8d2c45	-0.06893209
171	0xbe7ebc78	-0.24876583
172	0xbcca369d	-0.024684245
173	0x3b962073	0.004581505
174	0xbd9aaee1	-0.07552887
175	0xbd97026c	-0.07373509
176	0xbd8f0020	-0.06982446
177	0x3c121bcb	0.008917759
178	0x3db4bea7	0.088254265
179	0xbcd9fe37	-0.026610477
180	0x3f49e57a	0.7886578
181	0x3cb1c532	0.021700475
182	0xbd9118a5	-0.07084779
183	0xbe1f53d4	-0.15559322
184	0x3c140cfa	0.009036297
185	0xbd357d0d	-0.04430871
186	0xbeb789da	-0.3584736
187	0xbccca849	-0.024982588
188	0xbed1e2e9	-0.4099343
189	0xbd9e9902	-0.07744028
190	0xbeb32539	-0.34989336
191	0x3c0149fe	0.007891176
192	0xbd8eae4b	-0.069668375
193	0xbc8abbd7	-0.016935272
194	0xbbc54cee	-0.0060211336
195	0xbdbb05f4	-0.09131995
196	0xbefce5d5	-0.49394098
197	0x3d921068	0.071320355
198	0xbd9c4ee3	-0.07632234
199	0xbd5a1d5d	-0.05325066
200	0xbd99a3a7	-0.07501917
201	0xbcc95101	-0.024574758
202	0xbcd80f33	-0.026374435
203	0xbec60598	-0.38676143
204	0xbe28478a	-0.1643354
205	0xbda627a3	-0.08113029
206	0xbec726e8	-0.3889687
207	0x3c606ae5	0.013697361
208	0xbf424c2e	-0.7589749
209	0x3f879c8d	1.059465
210	0xbd02ab86	-0.03190186
211	0xbc159025	-0.009128605
212	0xbb5aedad	-0.0033405826
213	0xbe930ebb	-0.28722176
214	0x3be22595	0.006901453
215	0xbd4f1090	-0.050552905
216	0x3dd55456	0.104164764
217	0xbf1adb55	-0.60490924
218	0x3f07cdf5	0.5304864
219	0xbf19570f	-0.59898466
220	0xbdb354c1	-0.087564
221	0xbf0efb42	-0.5585214
222	0x3e546b9d	0.20744176
223	0xbf71f073	-0.9450752
224	0xbd12c212	-0.03582961
225	0xbec09cd0	-0.37619638
226	0xbd95c88b	-0.07313641
227	0xbbbc1720	-0.0057400614
228	0xbc5f0438	-0.013611846
229	0xbf29ed68	-0.6637788
230	0xbf810c65	-1.0081908
231	0xbc36661e	-0.011132745
232	0x3cbb9c11	0.022901567
233	0x3e30b991	0.17258288
234	0x3ebb4007	0.36572286
235	0xbf0aedb0	-0.5426893
236	0xbda45bd0	-0.08025324
237	0x3cab6ffd	0.020927424
238	0xb91d6713	-0.00015011085
239	0xbf0eedf5	-0.55831844
240	0x3e10d7fc	0.14144892
241	0xbe941a73	-0.2892643
242	0x3c4d8a9c	0.012545254
243	0xbc81ef84	-0.01586128
244	0x3dadef42	0.084929004
245	0xbda027ac	-0.07820067
246	0xbe518a44	-0.204629
247	0xbf0746f4	-0.5284264
248	0xbc77edbc	-0.015132364
249	0x3ebcd77b	0.3688315
250	0x3e3eda01	0.1863785
251	0x3ee39da8	0.4445622
252	0xbf291b4b	-0.6605727
253	0xbeef39c4	-0.4672376
254	0xbeca0b0f	-0.39461562
255	0xbdb8d61a	-0.09025212

fc3.weight f4 [5, 256]
0	0x40225b17	2.5368097
1	0x3d20e632	0.03928203
2	0xbd0a25cf	-0.033727463
3	0x3d1811ce	0.037126355
4	0x40c93c75	6.28863
5	0x3fc67ffc	1.5507808
6	0xbd685744	-0.056723848
7	0x40863f27	4.195209
8	0x3bcf0200	0.006317377
9	0xbcd40086	-0.025879156
10	0xbd38358c	-0.04497294
11	0xbcd0c92c	-0.025486551
12	0xbd9b1ac4	-0.075734645
13	0x3c2a97b4	0.010412145
14	0x3bdcb8a9	0.0067358804
15	0x3cfbcd9c	0.03073769
16	0xbd681744	-0.056662813
17	0x3d06f3c2	0.03294731
18	0xbd320214	-0.043459013
19	0xbb923fa8	-0.004463155
20	0x4079c920	3.9029007
21	0xbd37146c	-0.04469721
22	0x3c1cd680	0.009572625
23	0x409c4dfb	4.884519
24	0xc06e0923	-3.7193077
25	0x41199518	9.5989
26	0x40f99803	7.799806
27	0xbfd503d6	-1.6641796
28	0xbb6b73ad	-0.0035927102
29	0xbc34b207	-0.011028773
30	0x40794ca1	3.895302
31	0x3d635fda	0.055511333
32	0xbe5127a3	-0.20425276
33	0x4082514e	4.072425
34	0x3eaff814	0.34368956
35	0xbe10b8ce	-0.14132997
36	0x40652cd0	3.5808601
37	0x40ba51c4	5.822481
38	0x3d0bb489	0.03410772
39	0x40d510e2	6.658311
40	0xc03f19bb	-2.9859455
41	0x3f592be7	0.84832615
42	0xbff274da	-1.894191
43	0x4081d5c0	4.0573425
44	0x3d98eee8	0.07467443
45	0x40b746a9	5.7273755
46	0x3d309ca4	0.043118134
47	0x3d2c3630	0.042043865
48	0x40aa7970	5.327324
49	0xbcbf0734	-0.023318864
50	0x40a677be	5.202117
51	0xbb94df12	-0.0045431936
52	0x405af47a	3.4211717
53	0x403d77ee	2.960445
54	0xbf60505d	-0.87622625
55	0x40a118c8	5.034275
56	0x3e30c468	0.17262423
57	0xbe56005f	-0.20898579
58	0x3fe7f8c3	1.8122791
59	0x3cd3413c	0.025787942
60	0x406076c4	3.5072489
61	0xbd538313	-0.051638674
62	0xbcf74f1f	-0.030189095
63	0xbd157057	-0.03648409
64	0xbc4ad4b4	-0.012379814
65	0x3c5100cf	0.01275654
66	0x3e63f766	0.22262344
67	0xbfdd1980	-1.7273407
68	0x3d07167a	0.03298042
69	0xbca3cf4d	-0.01999631
70	0x3bd6f014	0.0065593813
71	0x40dccca1	6.899979
72	0x3d22a182	0.039704807
73	0xbcffa30f	-0.031205682
74	0xbc4c5182	-0.012470605
75	0x407b9817	3.9311578
76	0xbd710797	-0.05884513
77	0x4022c81f	2.5434644
78	0x3cec6280	0.028855562
79	0xbcbd7836	-0.02312861
80	0x40930f36	4.595607
81	0xbcbfd285	-0.023415813
82	0xc00243a0	-2.0353775
83	0xbd250484	-0.04028751
84	0x3c9d7740	0.019221902
85	0x408c2e95	4.3806863
86	0xbc648bae	-0.013949318
87	0xbf5dc9a5	-0.8663581
88	0xbeeb3f5d	-0.4594678
89	0x3fda4a4d	1.7053925
90	0xbc84d4e8	-0.016214803
91	0x3ca35a22	0.01994044
92	0xbd565ce4	-0.05233468
93	0x4091cbac	4.5561123
94	0xbc9aca2e	-0.018895235
95	0xbd122f8c	-0.035689875
96	0xbfbdceb8	-1.482871
97	0xbc094cbe	-0.008380113
98	0x3b1b54c2	0.0023701643
99	0x407c7074	3.9443636
100	0x3ca181b5	0.01971517
101	0xc0844055	-4.132853
102	0xbf0e61cd	-0.5561798
103	0x4096c080	4.7109985
104	0x409b53e2	4.8539896
105	0x3da33ddb	0.07970782
106	0x3cc5c171	0.024140092
107	0x40be242f	5.941917
108	0xbbd686c0	-0.006546825
109	0x3b3a57c5	0.0028433662
110	0x3d6e18f2	0.05812926
111	0xbd0c64b5	-0.03427573
112	0x40cf0ace	6.470069
113	0x3cf1f5ed	0.029536212
114	0xbd57ee96	-0.052717768
115	0x3c5e8079	0.013580435
116	0x40aa0864	5.3135242
117	0x3d0715f6	0.032979928
118	0xbfa8fc6e	-1.3202035
119	0x4088e110	4.2774734
120	0xbd5a5039	-0.053299163
121	0xbc3a94db	-0.011388029
122	0xbdb5d5ce	-0.08878671
123	0x40abe399	5.371533
124	0xbbd3650e	-0.0064512556
125	0x402306a7	2.547281
126	0xbba5afca	-0.005056356
127	0x4067d6eb	3.6224926
128	0x3cca6a83	0.024708992
129	0xbc93fae2	-0.018063966
130	0x411a0a1e	9.62747
131	0xbd397e8c	-0.0452867
132	0x3c9a0534	0.01880131
133	0x3d038a60	0.032114387
134	0x3ea1f367	0.31631014
135	0x3d1b1693	0.037863325
136	0x3d0c2156	0.03421148
137	0x40b77cf6	5.734004
138	0x40774063	3.8633049
139	0xbd311504	-0.043232933
140	0x4020c0de	2.5117717
141	0x3d141034	0.036148265
142	0x3da32445	0.07965902
143	0xbc83c2d3	-0.01608411
144	0xbff97629	-1.9489185
145	0x3c5ae340	0.013359845
146	0xc0799c15	-3.9001515
147	0xbd247452	-0.040149994
148	0x3d398014	0.04528816
149	0x4022fb8f	2.546604
150	0xbbad31c9	-0.005285476
151	0xc06b0d5f	-3.672691
152	0x3d50b206	0.050951026
153	0xbc1d8c2b	-0.009615938
154	0x3cb5aa6f	0.022175996
155	0x401004b2	2.2502866
156	0x3b6c83d9	0.003608933
157	0x40b58f66	5.6737547
158	0x40657552	3.5852857
159	0xbf05ad8b	-0.5221793
160	0xbc7a54ea	-0.015279034
161	0x406ed8ba	3.731978
162	0xbf88a6d3	-1.0675911
163	0xba95d48e	-0.0011431144
164	0xbcadd00d	-0.02121737
165	0xbcb1283f	-0.021625636
166	0xbd17b852	-0.037041016
167	0x3c2368b2	0.009973692
168	0xbcbf6ec4	-0.023368247
169	0x3b95cf3f	0.004571825
170	0x3b375ca3	0.00279788
171	0x3fd82d53	1.6888832
172	0xbcf87627	-0.030329777
173	0xbc5fd383	-0.013661268
174	0x3ca4ad4f	0.020102171
175	0x3d0c3c71	0.03423733
176	0x3cb5ab4e	0.022176411
177	0x408c6959	4.38786
178	0x4079ae72	3.9012723
179	0xbba1bddb	-0.0049359626
180	0x3f8f59fb	1.1199335
181	0xbd6ba316	-0.057528578
182	0x3ca7a779	0.0204656
183	0x4079df9a	3.9042726
184	0x3d27fdd4	0.041013554
185	0xc04b941d	-3.180915
186	0xbf5295cf	-0.8225984
187	0xbd286c6d	-0.041119028
188	0x408cb15c	4.3966503
189	0xbcf7de93	-0.030257499
190	0x40911346	4.5336027
191	0xbcd5f209	-0.026116388
192	0xbba787f0	-0.0051126406
193	0x3c549928	0.012975968
194	0xbccdf6d4	-0.02514211
195	0x3cb81261	0.022469701
196	0x40a50c60	5.1577606
197	0x40c45c81	6.136292
198	0xbc5a0435	-0.013306667
199	0x3bfa43cb	0.007637476
200	0x3bd11f00	0.0063818693
201	0xbb1fc0f5	-0.0024376486
202	0x3d1c61fc	0.038179383
203	0x409ca4c6	4.895114
204	0xbf2ac750	-0.66710377
205	0xbcfc097b	-0.03076624
206	0x3f9d81ef	1.2305278
207	0xc0072958	-2.1118984
208	0xbf9744a2	-1.181782
209	0x3fb253ab	1.3931783
210	0x3b977791	0.0046224077
211	0xbc075d97	-0.00826206
212	0x3d4b9aca	0.049708165
213	0x40647d45	3.5701458
214	0xbc9c0c3e	-0.019048806
215	0xbbb96625	-0.0056579285
216	0x40702a04	3.7525644
217	0x40b9a2e1	5.8011327
218	0xbff6678c	-1.925035
219	0x40a1e275	5.0588937
220	0xbc04ea72	-0.008112537
221	0x40a93128	5.2872505
222	0xbf8cad69	-1.099042
223	0xbfbca5e8	-1.473813
224	0xbd33693c	-0.04380153
225	0x408df121	4.4356847
226	0x40932374	4.598078
227	0x3c889fd0	0.016677767
228	0xbe86cebc	-0.263296
229	0x40b74d8e	5.728217
230	0x40cec622	6.461686
231	0xbd4b639f	-0.049655553
232	0x3c3c42e2	0.0114905555
233	0x4114e68a	9.306284
234	0x408d0c73	4.4077697
235	0x40a4ca60	5.149704
236	0xbabe0e85	-0.0014500177
237	0x3d8eb332	0.069677725
238	0xbd360927	-0.044442322
239	0x40d3f788	6.623966
240	0x40a5ade4	5.177477
241	0x40a581e7	5.172107
242	0xbb84a857	-0.004048388
243	0xbb9638f9	-0.0045844284
244	0x40c3a507	6.113895
245	0xbb92b027	-0.0044765654
246	0x401bec53	2.436299
247	0x40c8cc90	6.274971
248	0x3cc25eff	0.023726938
249	0xbd70e349	-0.058810506
250	0xbf845b2e	-1.0340326
251	0xbfba70a6	-1.4565628
252	0x4077a0fb	3.8692005
253	0x409c9165	4.8927484
254	0xc02960d5	-2.6465352
255	0x3cb5f6f4	0.022212483

fc3.bias f4 [5]
0	0xbea1b6a2	-0.3158465
1	0xbf8be6e4	-1.0929837
2	0xbfc1d409	-1.5142833
3	0xbf796603	-0.9742128
4	0xbed49ad3	-0.41524372
