other_model/dqn_team_a_ep210.pth (torch, 286849 bytes, 6 tensors)

fc1.weight f4 [256, 14]
000000 1a 95 4e 3e be cb 7f bf c1 de 8e 3d 88 c6 0f bf
       0.20174065 -0.9992026 0.06976081 -0.5616231
000010 4b 93 c4 3d 16 c7 57 be c4 a0 da 3e 8c 68 59 3e
       0.095984064 -0.21072039 0.4270078 0.21231288
000020 aa dd 02 c0 da 5b a2 3f 8c ff e8 c0 84 a1 00 3f
       -2.0447793 1.2684281 -7.2811947 0.50246453
000030 76 d9 4d 3e 2b 84 e4 3e 45 dd 4a bc f1 07 52 3e
       0.20102486 0.44632086 -0.012381856 0.20510842
000040 82 66 c0 3c 8b e7 2e 3e d9 65 87 be 30 8b 2a 3e
       0.02348638 0.17080514 -0.2644489 0.16654658
000050 c8 50 16 be 93 d0 42 be f2 fe 10 be d6 d5 7f 3d
       -0.14679253 -0.19024877 -0.14159754 0.06245979
000060 30 67 47 3e 89 cb 2c be a3 3a b2 bd e9 c4 b7 bd
       0.19472957 -0.16874518 -0.0870259 -0.089731045
000070 25 e1 ff bd 4c 35 7c be 67 e7 4b 3e a7 ce 0a bd
       -0.12494115 -0.24629706 0.19912492 -0.033888485
000080 1c 4e 4d be 27 0d 40 3e c6 98 0f be 8d 15 31 be
       -0.20049328 0.18755017 -0.14023122 -0.17293377
000090 6d 7f d5 3d b2 04 16 be c1 40 65 be f5 a6 4d bd
       0.10424695 -0.14650229 -0.22387983 -0.05020805
0000a0 5d 2f 95 bb 56 4e 2d 3d c3 eb 31 bd 26 b3 3b be
       -0.0045527653 0.042311035 -0.04343773 -0.18330058
0000b0 09 fb 3c be a0 7b a3 3d 1e 9f ef bd 48 1e 58 3c
       -0.18455137 0.07982564 -0.11700271 0.013190813
0000c0 45 e7 7d be f2 4f 27 3e 7a 95 4b be 00 76 31 3c
       -0.24795254 0.1633909 -0.1988124 0.010831356
0000d0 ba cf 32 be 6a 6f 3e 3e 1a 4a d4 3c d9 a5 11 bd
       -0.17462054 0.18597189 0.02591424 -0.035558555
0000e0 35 ae 73 bf 18 9a 9b bf c3 1f 54 bf 8e 8f c0 bf
       -0.95187694 -1.2156401 -0.82860965 -1.504381
0000f0 ff 8e fe 3e 9c 5d 67 3f 21 ed 02 3f 24 05 4e bd
       0.49718472 0.9037721 0.5114308 -0.05029787
000100 ee 03 3e bf b9 9f 04 3f 79 5d a0 c0 9d 2d 2a c0
       -0.74224746 0.5180622 -5.01141 -2.659034
000110 69 af 34 3d e0 3e b9 3b 98 bf 8f be 6b cf e4 be
       0.044112597 0.0056532472 -0.28075862 -0.44689497
000120 30 b4 60 3e 03 7d 6c be 63 a4 3b 3e ad 21 10 bd
       0.21943736 -0.23094563 0.18324427 -0.035188366
000130 c0 13 53 3d b8 9e 0f be d1 92 81 be 32 86 5a be
       0.051532507 -0.1402539 -0.25307325 -0.21340254
000140 9a 24 8c 3e 90 8f fe bc 4c 2c 0f bb 6c 43 df bc
       0.27371675 -0.031074315 -0.0021846471 -0.027253829
000150 ff 8e 25 be c1 4a c3 bd 01 e5 5f 3e f7 c9 84 be
       -0.1616783 -0.095357426 0.21864702 -0.25935337
000160 5c 08 43 be 97 92 74 3e eb 34 d2 3d ff d2 5c be
       -0.19046158 0.23884045 0.102639996 -0.21564864
000170 d9 1c 30 be bc 6f 81 bd 80 06 73 be 44 d2 8c bc
       -0.17198505 -0.0632014 -0.23732948 -0.017190106
000180 9f 50 6d 3d 0f 09 ce bd 99 1c f9 3e f6 e2 a2 be
       0.057938214 -0.100603215 0.4865463 -0.31813782
000190 b4 3d 43 3e 76 7f 3d be 60 e3 57 3e dc e3 1e 3f
       0.19066507 -0.18505654 0.2108283 0.62066436
0001a0 f4 de 34 3e a3 17 f2 3e 9f 10 e0 bd de 25 5c be
       0.17663175 0.47283658 -0.1094067 -0.2149882
0001b0 be 7e e3 3f 75 9f 0d 40 b8 f6 cb bd 77 42 aa 3d
       1.7773054 2.2128575 -0.09959167 0.083134584
0001c0 66 f9 53 be 31 51 88 be 95 17 12 3e 4f e5 57 3e
       -0.20700607 -0.26624444 0.14266808 0.21083568
0001d0 9c f2 0f 3e 77 70 17 3d 37 05 4f 3e 9e 36 5f be
       0.14057392 0.03697249 0.20216833 -0.21798179
0001e0 7c cc 6b be a9 36 a9 bd f8 bb 99 bc c9 fa 8d 3c
       -0.23027223 -0.08262379 -0.018766388 0.017331498
0001f0 2c de 39 be 99 ab 86 be 19 2f a0 3e 24 fb 75 3e
       -0.18151158 -0.26302794 0.31285933 0.24021584
000200 51 bf a6 3e b0 7c 4f 3e c2 8a 34 be f3 26 ea be
       0.32567838 0.20262408 -0.17631057 -0.4573284
000210 cd a5 90 be d8 24 0e be 6b 2b 2c 3e ed 25 4f bf
       -0.28251496 -0.13881242 0.16813438 -0.80917245
000220 bc 0b 8a bf cb 54 b2 3e 9d 43 56 3d 37 14 1f 3d
       -1.0784831 0.34830317 0.052310575 0.038837638
000230 bf 30 60 3c 04 c5 5b bf d7 ff 92 bd 02 e0 c2 3d
       0.013683497 -0.85847497 -0.07177704 0.09515382
000240 ca 81 4f 3d e1 26 76 bc b0 24 60 bd f2 8c 8b 3d
       0.050660886 -0.015023918 -0.054722488 0.068139926
000250 6d 8c 10 3e 7e 81 18 3a 80 ad 46 40 77 22 18 40
       0.14116068 0.00058176357 3.1043396 2.3771036
000260 46 89 35 3e 73 82 06 3e 37 67 ea bd b4 d8 54 3e
       0.17728147 0.131357 -0.11445468 0.2078579
000270 74 40 9c 3a bd 2e 6a be dd 98 1d be 68 0b e9 bd
       0.0011921064 -0.22869392 -0.15390344 -0.11379129
000280 40 33 02 bd 38 10 cd bd b5 b2 96 3d 43 8d 05 3e
       -0.031787157 -0.10012859 0.073583044 0.13042168
000290 b8 a1 4d be ea 7f 9c 3d 28 df 2a be 78 7e 25 3e
       -0.20081222 0.07641585 -0.1668669 0.16161525
0002a0 f1 a9 b5 3e a4 55 b1 bd 9c d7 f5 3e 75 ab 11 3f
       0.35481218 -0.08658913 0.4801606 0.5690225
0002b0 59 6c 0a 3e be c1 b7 be 05 14 f8 3e 80 80 5c 3e
       0.13517894 -0.3589 0.48452774 0.21533394
0002c0 ca e5 25 c0 74 ff 29 3f 31 2e 28 c0 12 22 20 bf
       -2.5921502 0.66405416 -2.6278193 -0.6255199
0002d0 a3 cc be 3d cf a1 48 bd 7f 89 8f 3d 56 c9 23 3e
       0.09316375 -0.048982438 0.07008647 0.15994772
0002e0 4c 94 01 3d 48 8d d4 3d 5a 4c 8a 3c 5a 78 8f bd
       0.031635568 0.1037851 0.01688211 -0.07005377
0002f0 63 54 8d be a3 9e ac be 66 17 f2 3c 39 4a 56 3d
       -0.27603444 -0.3371478 0.029552173 0.052316878
000300 99 4e f7 3d e1 3a 3b bd 6f 7f 44 3d 95 f4 55 3d
       0.12075538 -0.04571045 0.047973093 0.052235205
000310 b8 cb 0f bd 4c 58 b2 bf 23 76 ef bd 5f 6a bc be
       -0.03510639 -1.3933196 -0.11692455 -0.36799905
000320 6c 0a 80 3d 6f a5 b7 3d f2 73 92 be ec 4d fe 3d
       0.06251988 0.08967101 -0.28604084 0.12417206
000330 86 2a b0 3e eb c0 c9 3e b5 86 2b 40 34 56 8d 40
       0.34407443 0.39404997 2.6800969 4.416773
000340 5c 33 bc 3d 9c d6 36 3e f3 02 3f 3e f6 4f e2 3e
       0.091894835 0.17855304 0.18653469 0.4420163
000350 b2 50 05 3f 76 6c e4 3c a6 7c e1 bc 5b 76 da 3e
       0.52076256 0.02788375 -0.027525257 0.42668423
000360 60 da 1a 3e 35 81 09 bd 75 a0 1c 3e 66 47 fd bf
       0.15122366 -0.033570487 0.15295584 -1.9787414
000370 c1 ed cc 3f 99 8e 8e c0 b1 73 65 bd 55 9a 05 3e
       1.6010057 -4.454907 -0.056018535 0.13047154
000380 e7 bc e3 bb e5 a9 62 3e 92 2f d8 3e 99 81 e2 3d
       -0.006950009 0.22135122 0.42223793 0.11059875
000390 bd 41 09 bf a1 b3 9c 3e 77 ea be bf cf 18 90 3d
       -0.53615934 0.30605796 -1.4915303 0.07035982
0003a0 21 4a 0e 3d 83 9b 9e bd 70 02 8d be 3b 6f 31 3e
       0.034738664 -0.07744505 -0.27540922 0.17327587
0003b0 7c 32 92 3d 41 8b 7e be 87 dd 18 be ff fb 39 be
       0.071385354 -0.24857809 -0.14928256 -0.18162535
0003c0 68 12 12 3e 9e 83 7e be 44 33 ea bd 4d 16 1e bb
       0.14264834 -0.24854895 -0.114355594 -0.002412218
0003d0 ee f9 fe 3d 9d 33 58 be b8 0e 1f 3c 2a d2 71 be
       0.12450014 -0.21113439 0.009708099 -0.23615327
0003e0 7a e8 c4 bd 2d 1b 91 3b bc 49 2e be ab 8d 36 be
       -0.09614654 0.0044282884 -0.17020315 -0.1782748
0003f0 d6 9a 2a be 2c df 86 be 2d ea 4e bd e1 35 02 3e
       -0.16660628 -0.26342142 -0.050516296 0.12715866

fc1.bias f4 [256]
000000 31 f4 95 3e 08 5c e1 3d 29 70 87 be 47 ef 11 bd
       0.29287866 0.11003882 -0.2645276 -0.035628583
000010 97 5f 35 bb 64 91 b2 be 7c 04 06 be 76 f0 4f bc
       -0.0027675384 -0.3487655 -0.13087648 -0.012691608
000020 ab 0c 1f 3e 6b d3 36 3e 62 9f f2 3d d5 46 6c 3d
       0.15532176 0.17854087 0.11846806 0.05768474
000030 20 4e be 3d 3e 85 a0 be a6 09 3c 3e d8 44 1e 3e
       0.09292245 -0.31351656 0.18363056 0.1545595
000040 06 9e a8 bd 69 be 2a bd 06 d2 5b be e1 3b 25 be
       -0.082332656 -0.041685496 -0.21466836 -0.16136123
000050 a8 f6 25 be 26 4d 15 3e d4 03 e2 bd a9 f6 b0 b9
       -0.16207373 0.14580211 -0.110358864 -0.00033753112
000060 25 47 6e be 8f b6 43 3d a3 5e 5b bd 35 29 63 be
       -0.23269327 0.047781523 -0.05355705 -0.22183688
000070 ee 29 2f 3e 5d d9 4f 3e de 65 e9 bd 3a ae 2c be
       0.17105839 0.20297761 -0.11396383 -0.16863337
000080 0b 08 09 bc 0f d6 a0 bd d5 78 a8 be da 55 6f 3d
       -0.008363734 -0.078533284 -0.32904688 0.058431484
000090 a5 e8 09 3e 38 69 3e bd 46 e1 57 be 31 4f 8b 3c
       0.13467653 -0.046487063 -0.21082029 0.017005535
0000a0 d0 84 61 be 2f 10 14 3e 2f 30 67 be ff 67 c8 bd
       -0.2202332 0.14459299 -0.22576974 -0.09785461
0000b0 45 b9 66 be 2b a3 80 be 48 57 98 be f9 18 44 3e
       -0.22531612 -0.25124487 -0.2975409 0.19150151
0000c0 1f 81 54 3d 9d 45 5b 3d 21 0b 6e be 8f 39 4d be
       0.051880952 0.053533185 -0.23246433 -0.20041488
0000d0 1c 18 5c bd de 31 4f 3c d0 91 89 be c4 65 d4 bc
       -0.05373393 0.012646167 -0.2686906 -0.025927432
0000e0 76 0f b3 be 72 53 56 3e 97 bb 0f 3c b0 50 c3 3d
       -0.34972733 0.2093027 0.008772752 0.09536874
0000f0 2b 0a 51 3e d1 ca f5 3d a9 d5 63 bd 34 87 f0 bd
       0.20414035 0.12001575 -0.055623684 -0.11744538
000100 08 58 4e 3e 12 63 14 3e 85 d6 1e 3c d5 41 30 be
       0.20150769 0.14490917 0.0096947 -0.17212613
000110 cf 4c 88 3d 3a 10 7e 3d 70 cd 2c 3d e6 9d 28 be
       0.06655275 0.062027194 0.042188108 -0.16466483
000120 23 8f bc 3e 30 0b d9 bd f9 04 da bd 89 09 86 3d
       0.36827955 -0.10597837 -0.1064548 0.065447874
000130 94 f5 b5 bc cb 9b 6f 3a 49 99 9a 3d d2 b5 4d 3d
       -0.022211827 0.00091403414 0.07548768 0.050222225
000140 49 b0 41 be 88 fa 90 bd 64 a6 d4 3d 62 d3 fd 3d
       -0.18914904 -0.07079035 0.10383299 0.12393834
000150 25 90 36 be 52 4c ab 3d 15 da 26 3c e6 18 38 3e
       -0.17828424 0.08364166 0.010183831 0.17978248
000160 8b 46 76 3e 8e 2e 98 be 73 97 6a be 4b f4 41 3d
       0.24050348 -0.29723018 -0.22909336 0.047352117
000170 c0 d2 66 be de b0 be 3c 38 dc 9c 3d 12 67 e7 bd
       -0.22541332 0.023277696 0.07659191 -0.11298956
000180 4e d6 9c bd f7 25 f2 3d b4 8e a1 be 95 c0 8b 3d
       -0.07658063 0.118236475 -0.31554186 0.068238415
000190 a9 2d 0f bd 5e 24 59 3e f6 97 50 bd 05 22 ca 3c
       -0.034955654 0.21205279 -0.05092617 0.024674425
0001a0 41 19 52 3d dc 39 7a 3b 43 33 c6 3d ff 11 64 3e
       0.051293615 0.003818146 0.09677746 0.2227249
0001b0 b8 3d a2 bd fe 24 9a bc 89 d2 2d 3e 4f bc 80 be
       -0.07921928 -0.018816467 0.16974844 -0.25143668
0001c0 44 b3 58 3b 70 ba 9d be 53 4b 0c be 67 90 29 3d
       0.0033065835 -0.30806303 -0.13700609 0.04139748
0001d0 07 45 9b bd 39 5b 69 3d f7 80 95 be 1b 89 5b be
       -0.07581525 0.056971762 -0.29199955 -0.2143902
0001e0 a0 00 c4 3d 53 dc 2d 3d f3 da c9 bd 3a 62 15 3e
       0.09570432 0.042446446 -0.098562144 0.14588252
0001f0 50 67 5b 3e 59 e4 41 be 90 7e 06 3d 39 27 84 be
       0.2142613 -0.18934764 0.032835543 -0.25811175
000200 bb 02 a9 3d e9 53 99 be 4d 22 24 3e f8 d6 0a bd
       0.08252474 -0.2994683 0.1602871 -0.033896416
000210 d0 19 eb 3d 5b 37 57 3d 58 e2 15 3d 50 40 82 bc
       0.11479533 0.052543025 0.03659281 -0.015899807
000220 a8 e7 b9 3d 74 9f 27 3e 27 65 5b bb f0 1b f5 3c
       0.09077388 0.1636942 -0.003347704 0.029920548
000230 ed 40 7b 3d 74 93 b8 3c 15 b2 5d be ea 71 5e 3e
       0.061341215 0.022531249 -0.21649964 0.21723142
000240 39 bb 48 3d fe a1 a6 3e 03 9c 23 bd 6d 49 ba bd
       0.049006674 0.32545465 -0.039943706 -0.09096036
000250 b6 73 de bd 70 17 89 be 35 a5 2a bd 0d 3f c7 bd
       -0.10861914 -0.26775694 -0.04166146 -0.09728823
000260 13 59 4b 3c 14 a9 76 3d e7 cf 7b bd 1b 7d 74 be
       0.012411374 0.06021984 -0.061477568 -0.23875849
000270 5e 38 e4 3c 63 2d 87 3e ca 41 33 bd 7e 51 4d 3e
       0.02785891 0.26401815 -0.043763913 0.20050618
000280 fb b6 61 be 3e fb 32 3e 5f d3 2f 3d f9 dc 72 be
       -0.22042458 0.17478654 0.04292619 -0.23717107
000290 af 30 e1 be f5 83 88 be 2e a3 5f 3e 71 de d1 3d
       -0.43982455 -0.26663175 0.21839592 0.102475055
0002a0 65 62 8a 3e bb 8d 5e be af 7b 35 be 84 12 d5 b9
       0.27028194 -0.21733753 -0.17722963 -0.0004064032
0002b0 74 a4 f9 3d b8 b0 55 be ea 4e 2d be 2c dc fb 3c
       0.1218957 -0.20868194 -0.16924635 0.030744635
0002c0 61 86 39 3d 8c 3b 80 3e f5 3c 2d 3e b3 ed 04 3e
       0.04529417 0.2504543 0.16917785 0.129813
0002d0 19 dc 0b be 00 d8 33 be 34 be 55 be f9 2a 53 3e
       -0.1365818 -0.17562866 -0.20873338 0.20621862
0002e0 1f 6f 2a be d1 1e 12 3e 2b 39 0a bd fe be 6b 3e
       -0.16643952 0.14269568 -0.033745926 0.23022076
0002f0 3a 53 e7 be 2c 2c 3a be 86 65 29 3d a4 50 5a be
       -0.45180684 -0.18180913 0.041356586 -0.21319824
000300 b1 ae 19 bd aa dc 95 3e c3 2a a4 be cf 60 4d be
       -0.037520114 0.29269916 -0.32063875 -0.20056461
000310 ca 4b 66 be 90 49 8e bc d1 19 82 bd 53 46 58 3e
       -0.22489849 -0.017369062 -0.0635258 0.21120577
000320 7a 8f bf 3d 31 6f c5 be 72 27 43 3e 99 4c 85 bd
       0.09353538 -0.38561395 0.19058016 -0.065087505
000330 45 2a 1e bd 0f 6f 49 bc 67 42 ec bd 74 92 45 bd
       -0.03861453 -0.012294545 -0.11536103 -0.04823537
000340 c1 5d 0d be b3 e8 ae be f1 36 ae bd 97 5d de bd
       -0.13805296 -0.3416191 -0.08506573 -0.108576946
000350 4a 7d c5 bc 95 ed df 3d 82 6a 91 be 80 fa 4f be
       -0.024107594 0.10933987 -0.28401572 -0.20310402
000360 bc 3c 1e 3e 4a cf 4b 3e 06 f4 c4 bd a5 d2 be 3d
       0.15452856 0.19903293 -0.09616856 0.09317521
000370 b6 c1 70 3b d6 ca 48 be 93 8c 2d be 7c 73 02 bd
       0.0036736554 -0.19608626 -0.16948156 -0.031848416
000380 7f be ee bd de ec 1c bd 3b ff 1d 3e c3 12 8d bd
       -0.11657428 -0.03831183 0.15429394 -0.06888344
000390 15 1a 2f 3d 87 0e b9 bd 8d 2c 1d be 5c 3e 9c 3c
       0.042749483 -0.09035974 -0.15349026 0.019072704
0003a0 67 a3 d1 3d dd 67 c5 3d ae 1f f7 bd 57 9a 71 be
       0.10236245 0.09638951 -0.12066589 -0.23594032
0003b0 5e 3b 47 be 16 71 86 be d5 2f 47 3e 39 ee 59 3e
       -0.1945624 -0.26258153 0.1945184 0.21282281
0003c0 05 a4 86 be e1 f8 a7 be 60 59 f9 3d b5 3e 74 3d
       -0.26297012 -0.32807067 0.1217525 0.059630115
0003d0 22 48 57 be 79 0c 34 3e b8 fd 62 be 9c 06 8a bc
       -0.2102361 0.17582883 -0.22167099 -0.016848855
0003e0 d8 83 cb be 36 af 56 be 69 c8 3a be ce b6 3b be
       -0.39749026 -0.20965275 -0.18240513 -0.18331453
0003f0 43 07 c4 be 71 46 80 be c6 3e a9 be 51 a2 aa be
       -0.3828679 -0.25053743 -0.33055705 -0.33326963

fc2.weight f4 [256, 256]
000000 4b b9 de bf c0 ef 9d bc 84 1a 9d 3c 64 9b 64 3d
       -1.7400297 -0.01927936 0.019177683 0.055812255
000010 18 2a 4a c0 1e 69 f0 3d 9e 81 36 bd b2 82 19 3f
       -3.1588192 0.117387995 -0.044557206 0.5996505
000020 a4 3c 8f 3c 49 65 90 3f 4e 66 09 3f 30 09 ed 3c
       0.01748497 1.128091 0.5367173 0.028935045
000030 95 da 1c bf 66 7e 8a 3d 2b 66 9f 3f 02 e9 46 c0
       -0.6127103 0.0676239 1.2453054 -3.1079717
000040 ab d8 ce be 1a 20 01 bd c8 1d fe 3c 45 c4 0f bd
       -0.4039968 -0.031524755 0.03102006 -0.035099287
000050 1c 26 28 be fe 31 59 3f 0a 6b 9a bc 85 1c f5 bd
       -0.16420788 0.8484191 -0.018849868 -0.1196833
000060 89 9b 0e 3f e3 66 0c 40 80 60 6b bc f4 15 db bc
       0.5570608 2.1937797 -0.014366269 -0.026743867
000070 27 68 b8 3e fe 58 db bf cf 3c 46 3f 3f 75 ef be
       0.36016962 -1.7136533 0.77436537 -0.4676914
000080 32 ec 18 bd 8e f8 36 3c 66 d1 12 3d ed e1 02 bd
       -0.03733463 0.0111676585 0.03584423 -0.03195374
000090 e5 7a 16 3b 84 dd 77 bb 80 8f 9b bb 91 29 2a 3f
       0.0022961434 -0.0037821243 -0.004747331 0.66469675
0000a0 50 d8 2c bc 20 8b 45 3e 59 33 00 be a0 23 28 c0
       -0.01054962 0.19291353 -0.12519588 -2.6271744
0000b0 3a a1 cd bc 80 72 03 3a 18 2d 2e bd e8 07 ca bf
       -0.025101293 0.0005014315 -0.042523474 -1.5783663
0000c0 7d 7a 2d 3d f9 70 6f 3f 16 4c 82 bd 36 12 a1 bb
       0.042353142 0.9353176 -0.063621685 -0.004915501
0000d0 14 48 b3 3e 98 45 b1 3c 45 27 7c bd a8 ac c2 bc
       0.3501593 0.02163963 -0.061560888 -0.02376397
0000e0 cf c0 11 bf 20 ec 27 3b d8 ad 0b bd c3 6a 8c 3d
       -0.5693483 0.002562292 -0.034101337 0.06856301
0000f0 78 4d db 3c 0a 6f 66 bd 06 d4 44 3f 5c 57 c3 bc
       0.026770338 -0.05625824 0.7688602 -0.023845367
000100 7a 1c 79 3d cc 2a 1d bf ee 64 79 3d b3 59 83 bf
       0.060818173 -0.6139343 0.06088727 -1.0261749
000110 c2 6d 49 bf 00 6b 35 3a fe e4 1d c0 cf 75 64 bc
       -0.786831 0.00069205463 -2.4671016 -0.013944103
000120 50 c3 c6 3f a5 c9 92 bd f9 db a9 3f 8e 03 40 3d
       1.5528355 -0.07167367 1.3270255 0.04687839
000130 23 d8 3e 3d df 4c 86 bf de 45 8e 3f cc 87 18 bf
       0.046592843 -1.0492209 1.1115072 -0.5958221
000140 a8 3b 81 3e 86 24 67 3d c1 7c 93 bf ff 71 1f c0
       0.25240827 0.056431316 -1.1522447 -2.4913328
000150 84 d7 4f bd 56 e6 08 3c a9 4f 9f 3f 60 69 99 bb
       -0.05074264 0.008355698 1.2446185 -0.004681751
000160 f4 b4 45 bf 62 c1 31 be ba 0d 4a be 50 15 cc 3c
       -0.7722924 -0.17358926 -0.19731799 0.024912506
000170 e2 e0 53 3f 3c 3a ea 3c 90 24 2a bd cb 68 8d 3f
       0.8276502 0.028592221 -0.041538775 1.1047605
000180 11 cb 9c 3f d0 9b da 3c 84 54 bd bc a8 08 83 bd
       1.2249471 0.026685625 -0.02311159 -0.063981354
000190 e4 6c ef be 46 e3 b6 be bd 1c b9 be 7f 6e a9 3e
       -0.46762764 -0.3572027 -0.36154738 0.33092114
0001a0 5c 1e 81 3c c0 9c 3d 3c 30 fb e0 3c 1a 2b 40 3f
       0.015761547 0.011573017 0.027463526 0.7506577
0001b0 b4 4b 0f 3c d8 35 c0 bc 93 7a c5 bf 42 59 58 3d
       0.008746076 -0.023463175 -1.5428032 0.052819498
0001c0 14 21 98 3c 28 8e a8 3b be 91 39 bd c8 c8 f2 3c
       0.01857046 0.0051438995 -0.045305006 0.029636756
0001d0 60 a4 84 bb 0f 28 12 3d 49 d6 c3 3d bb f4 e1 3f
       -0.0040479153 0.035682734 0.09562356 1.7652811
0001e0 ac 8f 39 be 63 fb 17 bc 92 86 1a c0 ae 5b 26 bd
       -0.18121213 -0.009276244 -2.4144635 -0.040614776
0001f0 b2 81 67 bd 91 ac 9c bd de d5 58 3d 6f 74 93 3b
       -0.05652017 -0.07650102 0.052938335 0.004499964
000200 2a f6 b0 bc c8 4b 2a bf 00 e4 15 be ce 65 01 3d
       -0.021601755 -0.66521883 -0.14637756 0.03159123
000210 a0 38 66 3f a9 02 f9 3f 8b f6 13 3f a8 d4 a9 3c
       0.8993015 1.9453937 0.5779807 0.020731285
000220 f1 47 39 3d dc b0 28 3f 56 00 01 c0 b6 09 97 3e
       0.045234624 0.65894866 -2.0156455 0.29499596
000230 6c 64 8e bc a0 18 70 be 8b f3 3f 3c 92 f0 96 3e
       -0.01738187 -0.23446894 0.01171578 0.29480416
000240 34 3d 85 3d 16 9c ce bf 8a 01 78 3d ba 38 82 bf
       0.06505814 -1.6141384 0.060548343 -1.0173562
000250 b4 50 da bb 43 ab 04 bf 51 9d 8d be ae c1 a9 ba
       -0.0066624526 -0.51823825 -0.27659085 -0.0012951398
000260 45 f9 f0 3f e8 d9 3d 3d a6 0e 37 be c4 ae d4 bc
       1.8826071 0.04635039 -0.17876682 -0.025962241
000270 d4 b2 fc 3e 94 49 ae 3c e0 9c e6 bb c5 9e 6e bb
       0.49355185 0.02127532 -0.007037744 -0.0036410552
000280 df 90 51 3d c5 a6 99 bb 86 f0 2a 3d 6e fc c2 3e
       0.05116355 -0.00468907 0.041733287 0.38083214
000290 4f ae 35 bf 8e 52 1b 3d 6f b6 48 3f 08 be e1 3c
       -0.709691 0.037920527 0.7840337 0.027556434
0002a0 70 e6 b1 bf 4c 0c 18 bd 25 b4 8a 3c 68 a9 13 40
       -1.3898449 -0.037121102 0.016931603 2.3072147
0002b0 f6 8c 1a 3e e2 c5 2f 3d eb bf b1 bc 76 f6 5d bd
       0.15092835 0.042913325 -0.021697959 -0.05419012
0002c0 68 9c 25 be 64 e6 c0 bc 91 c4 32 bd cf f9 03 c0
       -0.16172945 -0.023547359 -0.04364449 -2.062122
0002d0 db 9a ef bd 40 a5 19 40 9d 17 e1 3e d6 2f b5 bc
       -0.11699458 2.400711 0.43963328 -0.022117537
0002e0 b9 b8 7e 3d df 89 99 3e ec 3d c2 3f af 3e a3 3c
       0.062187884 0.29988 1.5175147 0.01992735
0002f0 d5 94 95 3f 96 b6 40 be de 7a 96 bf 42 d6 45 bd
       1.1686045 -0.18819651 -1.1756246 -0.048300035
000300 08 44 a5 3e 17 ae b2 3f 51 b2 05 3f 60 4f 81 bb
       0.32278466 1.3959378 0.52225214 -0.00394623
000310 b2 98 4c 3d 8c 17 0a 40 86 23 4f be 66 d9 dc 3d
       0.04995031 2.1576872 -0.20228395 0.10783653
000320 d7 d1 0a c0 79 71 ce 3f 1a 79 3a bd 91 a7 e6 3f
       -2.1690576 1.6128379 -0.045525648 1.8019887
000330 f2 06 13 be 04 4d f4 be 75 0c a7 3f 08 e2 26 3c
       -0.14358118 -0.47715008 1.3050677 0.010185726
000340 e7 97 33 bd 2c 84 97 bd df fd 35 3f 06 7f 4e 3f
       -0.043846037 -0.07398257 0.710905 0.8066257
000350 e8 7d 07 3d 4e f7 34 3d 0e 90 d2 3e 83 71 c0 3f
       0.033079058 0.04418116 0.4112553 1.5034641
000360 4c f7 fc 3c 6c 11 e0 3c 09 80 62 bd b0 b6 09 bd
       0.03087964 0.027352057 -0.055297885 -0.03362149
000370 7d 67 03 bd 3a 71 81 3d ad 04 75 3e 13 b7 4a bc
       -0.032081116 0.063204244 0.23927565 -0.01237275
000380 3e 9c 63 3e 7b 9e 45 c0 a0 52 6f 3c d4 58 b9 bc
       0.2222757 -3.0877979 0.014607102 -0.022625364
000390 87 87 3e 3e 33 ba e0 3c af 9d 3f 3f 21 4e b4 3e
       0.18606387 0.027432537 0.7484998 0.35215858
0003a0 14 fc 24 3d 10 0c 21 40 1a 7b ac bf 9e 7c 3c 3d
       0.040279463 2.5163612 -1.3475068 0.04601728
0003b0 b0 24 f2 3f 54 fc 7a be 68 57 53 bd b1 b9 42 bf
       1.8917446 -0.24510318 -0.05159703 -0.7606459
0003c0 06 2d b8 bd 59 b4 74 3f 98 8b e8 bc 62 67 5c 3d
       -0.089929625 0.9558769 -0.028386876 0.05380953
0003d0 2a 55 66 3d 28 23 a9 bf 06 55 4a 3d a8 be 70 bd
       0.056233563 -1.3213854 0.04939749 -0.058775574
0003e0 a4 ff c0 3f 47 38 f3 3a 68 61 79 3d 6e f1 bc bc
       1.5078015 0.0018556201 0.06088391 -0.023064341
0003f0 fe 4f 7c 3d 84 a4 99 3c 47 35 8c 3d 04 2e b0 bd
       0.061599724 0.018755205 0.06846099 -0.08602527

fc2.bias f4 [256]
000000 77 b0 a0 ba c5 d0 66 3c 93 ef cb bc c8 7d 22 bd
       -0.0012259622 0.0140878605 -0.024894511 -0.039670736
000010 c9 42 ca 3c c8 66 2e 3c bb 15 52 3e 86 ff 03 bd
       0.024690049 0.010644622 0.20516102 -0.032226108
000020 ac 22 10 bd 9a 77 24 bd 54 ef 5e 3c da 69 7e bd
       -0.035189316 -0.040153123 0.013606865 -0.062112667
000030 a0 45 0f 3e cd e6 c4 3e 57 7d 01 3e 31 4a 2d bd
       0.13991404 0.38457337 0.1264547 -0.042307083
000040 ef eb fe b9 95 dc d3 be 7f f8 4d bc 84 2a af 3c
       -0.0004862244 -0.41379228 -0.012571453 0.021382578
000050 d6 bc 47 bd 5e 74 20 bd 45 58 c3 bd d7 03 81 bd
       -0.048764072 -0.039173476 -0.095383205 -0.062995605
000060 70 82 9c bd 93 a6 73 bd ec d8 d5 bc bb b7 02 3d
       -0.076420665 -0.05948503 -0.026104413 0.0319135
000070 a3 01 91 bd df 6d 74 bb 09 39 29 bd 96 97 c8 bd
       -0.0708039 -0.0037296934 -0.04131416 -0.09794538
000080 94 49 4e bd c5 2e 07 bc a0 bb f8 3c df 3c 43 bd
       -0.05036314 -0.008250897 0.030362904 -0.047665473
000090 17 d0 61 bd fe a5 a7 3a 93 4b 9b bc 81 b8 43 bc
       -0.05513009 0.0012790558 -0.018956935 -0.011945845
0000a0 77 93 0e bd 26 0b 9b bd c4 00 5f bc 9b aa 26 bd
       -0.034808602 -0.07570486 -0.013611022 -0.040690046
0000b0 75 38 e0 bc c6 14 67 bc 7d d8 86 bc 31 3b 5a 3d
       -0.02737067 -0.014104074 -0.016460652 0.053279106
0000c0 09 b2 33 3d 3e ad 15 be ce ae f7 bb d6 62 f5 3b
       0.04387096 -0.14616868 -0.00755868 0.007488589
0000d0 16 cb 11 bd 82 36 29 bd 08 e9 22 3e 67 a3 76 bd
       -0.03559407 -0.04131175 0.15909207 -0.060214426
0000e0 ad a9 9c 3e 69 13 4f bd 95 a3 4f bd dc 99 84 bd
       0.30598202 -0.05055562 -0.050693113 -0.06474659
0000f0 94 43 e9 bc 6c 6f fb bd 0c 22 4d 3d e4 fa 84 bd
       -0.028474607 -0.122771114 0.050081298 -0.06493166
000100 26 59 d5 bb 6a fc 0c 3d 7e 28 90 bd 13 13 9b bc
       -0.0065108715 0.03442041 -0.07038973 -0.018929994
000110 bc 33 8a bb a4 fa c5 3c 49 5e c0 bd c4 66 29 3d
       -0.004217593 0.024167366 -0.093929835 0.04135777
000120 11 4d 82 bd 36 bc 46 bc fa cc aa bd 2c bf 35 3c
       -0.063623555 -0.012129834 -0.083398774 0.011092942
000130 17 53 95 bd b5 33 2b 3c 0d 72 0b bc 1b 74 af bc
       -0.07291239 0.01044934 -0.008511079 -0.021417668
000140 71 60 21 3d 44 a3 92 bd 77 1c d4 bc 06 1b 7e 3d
       0.039398614 -0.07160047 -0.02589248 0.06203749
000150 42 bc 42 3d e6 ca 82 bd 17 47 06 be 94 63 01 3d
       0.047542818 -0.06386356 -0.13113056 0.031589106
000160 3e 1d ff b9 d1 a0 26 3c fb a2 ec 3d 06 08 76 3d
       -0.00048659177 0.010170178 0.115545236 0.060066245
000170 14 43 57 bd 9a a9 a4 3e 19 84 f7 3c be d9 9f bd
       -0.052554205 0.32160646 0.030214356 -0.07805203
000180 4e 1a 04 be 58 88 69 bd b1 0b 72 3b e2 13 c8 bc
       -0.1290066 -0.057014793 0.0036933238 -0.024423543
000190 92 03 3a bd 17 7f 68 bc 8b 4e 41 bd 9e 74 09 bd
       -0.04541356 -0.014190457 -0.047194045 -0.03355848
0001a0 7d b7 25 3c 36 4b 34 bc 71 d4 80 bd 79 19 79 bd
       0.010114548 -0.01100426 -0.0629052 -0.06081531
0001b0 5f d0 2c bd f3 1c 08 bd ec 6e 15 3f 50 3d 18 3e
       -0.042190906 -0.033230733 0.5837238 0.14867139
0001c0 cd 31 4a bc 50 23 ba 3c 08 74 40 bd af 46 85 bd
       -0.012340975 0.022721916 -0.046985656 -0.065076225
0001d0 a2 ba 96 bd b2 14 6b bd 27 a5 c1 3e 5f 93 91 bd
       -0.07359816 -0.057392783 0.37821314 -0.07108187
0001e0 30 40 62 bd a0 50 0d be aa 3e 61 bc cd bd 07 bd
       -0.055236995 -0.13800287 -0.01374785 -0.033139993
0001f0 83 a4 2d 3d e1 e2 cc bc 3a b8 1a 3e 9d 3a 53 bd
       0.04239322 -0.025010528 0.1510934 -0.05156957
000200 14 76 37 3d 4b f3 d7 3d 0e 54 20 bd 62 5b b7 3d
       0.044790342 0.10544451 -0.03914266 0.08952977
000210 41 a0 93 bd fe d2 81 bd ef f3 a0 bd 21 9e 3a 3e
       -0.072083004 -0.06339072 -0.07859027 0.18224384
000220 71 a2 05 3e df 53 08 bd 67 d0 2c bd 2b a7 d5 bc
       0.13050248 -0.03328311 -0.042190935 -0.026080688
000230 51 f5 d2 3c d8 9b 36 3e 1f dc e1 bc e0 cc 9e bd
       0.025751742 0.17832887 -0.027570782 -0.077539206
000240 4e 1e c7 bc 18 dc db bc af 00 df 3e de 04 0b bd
       -0.024306443 -0.026838347 0.4355521 -0.03394019
000250 19 8e 5d bc 6b cc 04 bd e5 3c c4 bc 19 25 46 3c
       -0.013522648 -0.03242151 -0.023954818 0.012093806
000260 71 32 ff 3b cd 61 5b 3e 3a d2 81 bd 1b db 0b 3f
       0.0077879955 0.21424027 -0.06338926 0.54631203
000270 55 43 9d bd 0a e1 50 bc e5 f5 83 bd af 26 06 3d
       -0.07678858 -0.012748966 -0.06443385 0.032751735
000280 78 d3 b0 3c 7e 14 fa 3c 1e 2a 9f 3c 8a 0e e0 bc
       0.021585211 0.03052735 0.019429263 -0.027350683
000290 d7 50 31 3e c6 38 44 3e 82 06 92 be 6a e5 2a 3e
       0.17315994 0.19162282 -0.2852059 0.16689077
0002a0 64 a1 bd 3a 53 2c b5 be e6 37 83 bd e9 f6 5f bd
       0.0014467654 -0.3538538 -0.06407146 -0.05467883
0002b0 f9 08 98 bd 10 3e f7 bc 66 2e 08 be ee bb 2b bd
       -0.074235864 -0.03018096 -0.1329895 -0.04192727
0002c0 b3 bf a2 bd a3 e1 4f 3c b9 d9 be bc 5c 4d 87 3d
       -0.0794672 0.012688073 -0.023297178 0.06606552
0002d0 26 d3 77 3d 63 55 a0 3c c6 c9 d0 bd 81 30 8b 3c
       0.0605041 0.019571966 -0.10194735 0.016990902
0002e0 dc dd 84 bd 67 ac e3 be ac 47 18 3e 2a 5e 1b be
       -0.06487629 -0.4446747 0.1487109 -0.1517264
0002f0 3c 95 80 bc a5 8c 8d bd 5d ed c8 bc 65 74 99 bd
       -0.01569616 -0.069115914 -0.024527246 -0.074929036
000300 18 0f 98 bb 5c a7 1c 3d d1 53 80 bd ab a9 b5 be
       -0.004640471 0.038245544 -0.06265987 -0.3548101
000310 95 f7 ca bc 67 8e 7c b9 a0 18 72 bd 34 8a bb bc
       -0.02477626 -0.00024085642 -0.059105515 -0.022893049
000320 4f a5 8f bd 77 10 8c bc 41 40 18 bd cd 14 a1 bc
       -0.07013952 -0.017097695 -0.037170652 -0.019663239
000330 50 df 98 3c 0a 01 5d bd 09 7d 63 bd 33 c1 39 bb
       0.018661171 -0.05395607 -0.055539165 -0.0028343915
000340 41 39 01 3d b0 08 89 3d c2 f4 90 bd 08 7a 92 bd
       0.031548742 0.0669111 -0.07077934 -0.07152182
000350 2b f6 1a 3e 18 43 d2 bc a1 fb 04 3d a1 ca 31 3c
       0.15132968 -0.025666758 0.032466535 0.010851533
000360 2b ba b8 3c bf db a6 bd 66 f0 3e bc 43 09 1a 3c
       0.02254971 -0.08147382 -0.011653995 0.009401622
000370 e2 7b a8 bc b5 4f 90 3c 66 04 74 3c eb ea 85 bd
       -0.020566884 0.017616132 0.014893627 -0.06538948
000380 4e 0d 98 bc 9b ca 01 3d 06 64 c9 bd 68 d6 56 3e
       -0.018561032 0.03168736 -0.09833531 0.20980227
000390 cc bb 04 bd 69 4f c7 3c 89 7b b8 3d d0 2d 12 3d
       -0.03240566 0.024329858 0.090079375 0.03568822
0003a0 63 03 d1 bc f6 5d 35 be 9b 9c 8d bb 99 69 c0 3c
       -0.02551431 -0.17711625 -0.0043216473 0.023487853
0003b0 27 4e 0b bd 7a 80 96 bd 16 d4 f0 3d 34 9e 2f 3c
       -0.03401008 -0.07348724 0.11759202 0.010718871
0003c0 c9 f0 34 bc ab b2 ae bd 21 c3 07 be ee c5 dd bb
       -0.011043736 -0.08530172 -0.1325803 -0.00676798
0003d0 3f 4b 4f 3e 24 fc 4e 3d 3c 6b 9e bd 66 22 a8 3d
       0.20243548 0.05053343 -0.07735297 0.08209686
0003e0 4a b8 6d 3d 3c 16 e1 3c ff 00 88 3a 22 e1 14 3c
       0.05803708 0.027476422 0.0010376273 0.009086879
0003f0 82 dc bf bc 62 03 54 bd 60 f6 39 3c 73 46 8c 3e
       -0.023420576 -0.05176104 0.011350244 0.27397498

fc3.weight f4 [5, 256]
000000 d4 7b 95 3f 12 95 0c 3d 74 6f fb 3c 98 fa 80 ba
       1.1678414 0.034321852 0.030692793 -0.0009840308
000010 17 2b 31 bd bd 80 be 3f 1f f8 e1 3f e4 fc a9 3b
       -0.043253984 1.4883038 1.7653846 0.0051876176
000020 71 d1 d8 3c 21 5d dd 3b 2d f2 52 bc 27 d4 b2 bc
       0.026467057 0.0067554866 -0.012875122 -0.021829678
000030 15 6c 03 40 47 8a aa 3e 29 cc 47 40 f2 36 2d bd
       2.0534718 0.33308622 3.121836 -0.042288728
000040 35 67 b8 3f 30 5b be 3f 5b bb 0e 40 b8 14 78 3c
       1.4406496 1.4871578 2.2301853 0.0151416585
000050 9c f6 c6 bb 21 c3 27 bc c7 c9 35 40 66 9b 67 3d
       -0.0060718786 -0.010239393 2.8404405 0.056544684
000060 c8 33 ee 3f 95 d9 ea 3b f5 23 25 40 7a 61 23 bd
       1.8609552 0.007167051 2.5803196 -0.039887883
000070 69 4f 48 3c c8 69 35 40 c6 c5 63 bd 24 e4 12 40
       0.012225964 2.8345814 -0.055608533 2.2951746
000080 6d 15 b2 bc c2 40 79 bc d6 56 06 bb c3 fe 42 3c
       -0.021738732 -0.015213193 -0.0020498536 0.01190156
000090 13 76 8c bc ce 41 4b 3d a2 ee 25 bd c1 e3 9f bd
       -0.017146146 0.049623303 -0.04051078 -0.078071125
0000a0 3e 78 0f 3d cf 4a bd bc 41 02 16 40 a4 5b 9b bc
       0.03502678 -0.02310696 2.3438876 -0.018964596
0000b0 7d bc aa 3b 4c 60 2b 40 4c be c7 3c cc c5 24 3e
       0.005210458 2.6777525 0.024382733 0.16091079
0000c0 47 87 cb b9 16 fc b0 3f 0d e4 91 3c 26 46 38 3d
       -0.00038819967 1.382693 0.017808938 0.044988774
0000d0 70 f6 68 bc d8 49 de 3c af c2 22 40 4c 35 d0 bb
       -0.0142189115 0.02713482 2.5431325 -0.0063540097
0000e0 33 ac 32 3d 7e d3 11 bd 65 da 75 3f 80 72 48 3c
       0.043621253 -0.035602085 0.9603637 0.01223433
0000f0 05 fd ec bc 26 95 8a 40 f5 67 21 40 0a 3a 33 3d
       -0.028929243 4.3307066 2.52197 0.043756522
000100 5b da 3d bc 00 39 03 3b a8 35 68 bd bb d2 24 3c
       -0.0115877045 0.0020022988 -0.056691796 0.010060008
000110 4f 9c cf bb cd 3a 52 bc 66 6d 6a 3d 27 41 1c 40
       -0.006335772 -0.012831402 0.057233237 2.4414766
000120 d2 d1 1b bd 28 1f c0 bc 1b e2 c5 bb 60 3f 31 3b
       -0.038041897 -0.023452356 -0.0060389168 0.002704583
000130 18 e1 08 bc 20 46 87 3c a6 29 7d 3b 2e fe 4c 3d
       -0.008354448 0.01651293 0.003862956 0.050047092
000140 d5 24 01 3d 3d dd 4c bd 81 40 44 3c ac 9a bf 3f
       0.031529266 -0.050015677 0.01197827 1.4969077
000150 1b d4 ec 3f 5c e9 6e 3d ee 0a e9 3f 82 a0 1f bd
       1.850223 0.058328018 1.820646 -0.03897143
000160 9b db 0f bd dd ef 5c bd 97 0a e1 3f a2 03 37 40
       -0.03512154 -0.05393969 1.7581357 2.8595967
000170 65 86 f1 3a ec 19 8c bf 20 4e a8 3b 08 fd fd 3c
       0.0018426894 -1.0945411 0.0051362664 0.031004444
000180 f2 c4 4f 3f ea 2f 63 bd e0 5a ba bb 2d 58 14 40
       0.8115989 -0.055465616 -0.0056871027 2.3178818
000190 23 4a d7 bc d3 b6 c6 3f 32 66 6d 3d 6a 8a 75 bd
       -0.026280468 1.5524544 0.05795879 -0.059946455
0001a0 3c 2e 90 bc 93 bc 31 bd 9c fb 2a bc d6 51 84 bc
       -0.017600171 -0.04339273 -0.010435965 -0.016152304
0001b0 0a 97 2f bc 52 78 54 bd 33 8f 0f 40 77 c5 1b 40
       -0.010717163 -0.05187256 2.2431152 2.4339273
0001c0 c4 f2 18 bd 7f da 78 40 eb fb 21 40 39 ef 05 bd
       -0.037340894 3.888336 2.5310009 -0.032698844
0001d0 4b ea e1 bc 81 13 f8 bc f9 8f 51 40 7d 1f 8f bc
       -0.02757754 -0.030282738 3.2744124 -0.01747107
0001e0 6b 52 98 bc a8 08 56 40 7f 40 8e 3f a6 60 52 3d
       -0.018593987 3.3442783 1.1113433 0.051361702
0001f0 70 53 90 bb 7c 34 a4 3a b7 51 1e 40 80 2a f0 bb
       -0.004404478 0.0012527849 2.4737375 -0.007329285
000200 4c 77 06 40 ef df b0 3f 00 ba 9f bb 76 a6 1f 40
       2.1010313 1.3818339 -0.004874468 2.494535
000210 83 11 b5 3c e2 86 14 bd 0d 96 e9 3c 8e 25 77 3d
       0.022103077 -0.036261447 0.028513933 0.06033855
000220 9d 05 12 40 af 2f 16 bd 70 71 16 bd 20 49 91 bb
       2.2815926 -0.03666657 -0.036729276 -0.004433766
000230 8b e3 ab 3b 62 89 69 bf 05 e7 d4 3f 34 d2 4e 3d
       0.005245631 -0.91225255 1.6633002 0.050493434
000240 36 a1 cd 3c 37 af 3b bf c5 b7 c0 be 9b 72 fb 3f
       0.025101285 -0.7331423 -0.37640205 1.964435
000250 ce 3d 19 bb 04 5a d8 3c 0a a7 5d bc 28 58 cb 3b
       -0.0023382786 0.02641011 -0.013528595 0.0062055774
000260 93 64 7e 3b 6d 24 35 3f 0e 48 75 3d 52 86 23 40
       0.003881727 0.70758706 0.05988317 2.5550733
000270 7e c5 3c 3c b5 e3 29 bd 37 9f bf 3a 84 54 38 3c
       0.011521695 -0.041476924 0.0014619593 0.011250619
000280 1c 0a 18 bd f3 d7 ef bc 0c ab 18 3c cb 70 8d 3c
       -0.037119016 -0.029277777 0.0093181245 0.017265698
000290 70 6c c2 3e 61 02 2e 40 c6 9e 17 3f ff ad f8 be
       0.37973356 2.7188952 0.59226644 -0.48570248
0002a0 a0 e9 13 bd 1d 61 e7 3d f1 c4 18 40 ec 52 4b 3b
       -0.036111474 0.1129782 2.3870203 0.0031024767
0002b0 57 5a c1 bc 0f e5 a4 bc f7 e9 0f 40 21 60 82 3c
       -0.023602648 -0.020128755 2.248655 0.015914978
0002c0 78 77 98 3c fa f3 00 3c 39 8e 01 bd 62 44 cc 3f
       0.018611655 0.007870669 -0.031629775 1.5958369
0002d0 5e 25 63 40 5f 95 77 40 85 40 73 3f ad 5d 11 40
       3.5491557 3.868492 0.95020324 2.2713425
0002e0 36 07 4c bd 7e e1 f6 3f 5e 9f 3f 40 5e ff 0b c0
       -0.049811564 1.9287565 2.994102 -2.1874614
0002f0 51 11 05 bd b9 21 90 3c 26 9a 3b bd 82 94 21 3d
       -0.032487217 0.017594205 -0.045801304 0.03944827
000300 50 7f d4 3b 2b 33 23 40 5c 75 1b bc 29 88 8e 3f
       0.0064849034 2.549998 -0.00948843 1.1135303
000310 2d 9d 20 bd 1e d0 85 bc 58 b6 46 bf bc a2 35 bd
       -0.039212395 -0.01633459 -0.77621984 -0.04434465
000320 a3 07 6f 3c 34 4a e9 bc 55 24 ef 3b 5e 19 b2 3a
       0.014589223 -0.028477766 0.0072980323 0.0013587882
000330 34 19 48 bd 9d 56 52 40 79 8d 6c bc 98 28 02 3c
       -0.04885216 3.2865365 -0.014438027 0.007944249
000340 d5 94 a7 3f 0d 07 25 be 05 e0 6b 3f ac e2 6c bd
       1.3092295 -0.16115971 0.921387 -0.05783336
000350 3c 6c 24 40 e8 bf e0 3c 1d 71 bc ba e0 37 39 3c
       2.569106 0.027435258 -0.0014376972 0.011304826
000360 2f 96 17 bd dc 65 10 bd d0 99 39 3d d6 b5 18 bb
       -0.03700846 -0.03525339 0.045312703 -0.0023301742
000370 75 8c a5 bc 74 f8 57 40 a4 23 ab 3f d4 62 7f 3d
       -0.020208577 3.3745394 1.3370252 0.06235011
000380 22 c4 33 3d 14 1a 57 3c c4 0a c1 3f 61 2a 06 3f
       0.04388822 0.013128776 1.508141 0.52408415
000390 69 5b 4a 3c e8 c4 0d 3c 3e 3c 0c 40 21 15 fc 3c
       0.012350895 0.008652903 2.191177 0.030771794
0003a0 4d a2 4d 3f 00 4c 14 40 94 6f 9e 3e 7b 82 89 bd
       0.80325776 2.3171387 0.30944502 -0.0671434
0003b0 f6 b4 19 3d e4 ab df 3b b2 a4 c4 3f b2 76 09 bd
       0.037526093 0.006825911 1.5362761 -0.033560462
0003c0 3b 43 32 bd 27 33 fb bc 5f 87 03 3f 39 22 79 3d
       -0.043521147 -0.03066404 0.51378435 0.060823653
0003d0 24 a2 69 3f f7 44 61 40 90 49 b1 3c 1f 0d 49 be
       0.9126303 3.5198343 0.021641523 -0.19633912
0003e0 4c 0a 76 3d 75 57 19 bd d0 17 79 3c 45 1e 31 40
       0.060068414 -0.03743692 0.015203431 2.7674725
0003f0 12 14 42 40 25 ed 27 3c 10 3c 45 bd d4 06 f7 3f
       3.032475 0.010249411 -0.048152983 1.9298959

fc3.bias f4 [5]
000000 64 ab 46 3d 37 bd b6 3d 5e 32 dd 3e ed 87 29 3d
       0.048503295 0.089228086 0.4320249 0.041389395
000010 c5 30 0a 3c
       0.008434479
