other_model/dqn_team_b_ep90.pth (torch, 286773 bytes, 6 tensors)

fc1.weight f4 [256, 14]
0.13115658 -0.42073387 0.09340249 0.21467434 0.3069289 -1.0038652 -0.20224756 -0.6159253
0.4381481 -0.31783053 2.3282466 -1.1504258 0.17761645 -0.08564178 -0.24266438 -0.4795665
-0.07749384 0.15746275 -0.11402029 -0.022004794 -0.038458645 -0.27047312 0.32485068 0.04607981
-0.32613868 0.102794684 -0.16426343 -0.08632246 -0.29740345 -0.9431111 0.15662481 0.05858404
0.20112085 0.20498177 -0.06991224 -0.20248216 -0.6453142 0.5444166 -0.4170333 0.9291925
0.26196575 -0.14129618 -0.24234253 0.09704951 -0.23640867 0.1069619 -0.20273112 -0.26035237
0.03501461 -0.05426173 0.15389045 -0.10411173 0.02890526 0.19809867 -0.062564 -0.06057839
-0.19862261 0.13122681 -0.0019915062 0.21035905 0.12970725 -0.20024388 -0.18554194 0.14890501
-0.10363084 0.20941257 -0.15495157 -0.22777826 -0.16943963 -0.25537983 -0.48879597 -0.12974398
-0.4454649 0.05010854 -0.21066804 -0.09180002 0.03505247 -0.37026513 -0.29186848 0.3331193
0.46397695 -1.1507336 0.3076817 -0.0933255 -0.21086837 0.22496657 -0.22631921 -0.01304305
-0.24127339 -0.26593807 0.1712232 -0.093175635 0.14162068 -0.23780002 -0.027436348 0.13062023
-0.05928119 0.1445206 0.19193079 -0.14295323 0.07784986 -0.44631183 0.12152465 -0.16784194
0.39518654 -0.20254952 -0.28893062 -0.19114734 0.5542649 -0.41874978 -0.0810367 -0.18532723
0.12444363 -0.23902299 0.2070641 -0.12375925 0.18270029 -0.03594656 -0.052755736 0.337749
-1.0407547 -0.6291246 -2.5980096 -0.286626 0.32008734 0.24813162 -0.19417004 -0.102302246
-0.12643181 0.10486086 -0.09447815 0.04379912 -0.20564026 0.08689945 -0.25134787 -0.17923693
0.20521416 -0.01101608 -0.15817033 -0.241106 -0.2887694 -0.12586789 0.023156827 0.027712353
-0.1487359 -0.08971508 0.1385954 -0.09100846 0.4590212 0.5423118 1.8750144 2.0482318
-0.14887981 -0.29291382 -0.26818317 0.48343006 -0.24535348 0.27392524 -0.550972 0.3741193
-0.63210076 -0.08578798 0.3631867 -0.107788675 -1.0271131 2.008858 0.11368419 0.091774866
-0.23551357 -0.20303372 -0.31160712 0.07681492 -0.2915126 -0.70219105 -0.3097757 -0.10307771
0.33406118 0.4307144 1.0147353 2.2215056 0.22179852 -0.022342745 0.12238574 -0.02012466
-0.12845021 -0.13556543 -0.381949 -0.09107691 -0.09687997 0.23561826 0.2456993 0.24554135
0.5699006 2.7437649 0.11706159 0.10072907 -0.6013328 -0.11104142 -0.54618174 0.23864757
-0.4240245 0.16540824 -0.5681056 0.24811676 0.2101 -0.21809493 0.29398715 -0.0025534595
0.28858393 0.20831159 -0.092490666 0.05089698 -0.26267794 0.095207654 0.19873805 0.10438987
-0.15414417 -0.14394408 0.04139766 0.029382136 -0.18466648 -0.17906342 -0.2480611 0.11888337
0.007654426 -0.17189968 -0.19542803 -0.41494006 0.28437307 0.3029192 0.367218 0.368757
-0.3036007 0.06240393 -0.41057363 1.8023117 -0.16342503 0.008802144 0.13605015 0.12776576
-0.30013308 -0.31734687 0.15930422 -0.43382466 -0.31928158 -0.18654846 0.324517 0.16241364
0.004833947 0.50818974 -0.01541241 -0.33673364 -0.19133689 -0.017397642 0.035397887 -0.082452334
00000000: e94d 063e 6e6a d7be ce49 bf3d 97d3 5b3e
00000010: c925 9d3e a87e 80bf fc19 4fbe 48ad 1dbf
00000020: f354 e03e afba a2be fe01 1540 2741 93bf
00000030: 16e1 353e f564 afbd 037d 78be be89 f5be
00000040: 17b5 9ebd ea3d 213e 7883 e9bd 6643 b4bc
00000050: d086 1dbd 747b 8abe d452 a63e 2fbe 3c3d
00000060: a6fb a6be 0586 d23d ac34 28be d4c9 b0bd
00000070: 4445 98be bb6f 71bf 4162 203e d1f5 6f3d
00000080: a0f2 4d3e bee6 513e 262e 8fbd 7c57 4fbe
00000090: 5033 25bf e35e 0b3f 6485 d5be 8fdf 6d3f
000000a0: 6020 863e f2af 10be a428 78be e5c1 c63d
000000b0: 1d15 72be d70e db3d bf98 4fbe e84c 85be
000000c0: 7b6b 0f3d 8c41 5ebd 7595 1d3e 8838 d5bd
000000d0: b9ca ec3c 61da 4a3e 8e21 80bd 0c21 78bd
000000e0: ba63 4bbe 5260 063e ee83 02bb 5d68 573e
000000f0: fad1 043e bb0c 4dbe b5fe 3dbe 8e7a 183e
00000100: 683c d4bd 4070 563e a0ab 1ebe b43e 69be
00000110: 9581 2dbe 25c1 82be 7743 fabe 9bdb 04be
00000120: fa13 e4be 9d3e 4d3d 5db9 57be a601 bcbd
00000130: 2e93 0f3d 6493 bdbe c96f 95be 9d8e aa3e
00000140: 638e ed3e 3d4b 93bf 7588 9d3e 7121 bfbd
00000150: e1ed 57be a35d 663e 39c0 67be 84b2 55bc
00000160: 5f10 77be 0929 88be 2255 2f3e ded2 bebd
00000170: 0305 113e d981 73be 31c2 e0bc 4fc1 053e
00000180: d5d0 72bd 35fd 133e 8189 443e 5562 12be
00000190: bf6f 9f3d fc82 e4be eae1 f83d c2de 2bbe
000001a0: e455 ca3e 2469 4fbe b7ee 93be 21bc 43be
000001b0: 4ee4 0d3f 5f66 d6be 92f6 a5bd 6cc6 3dbe
000001c0: 4ddc fe3d 71c2 74be 9d08 543e 7d75 fdbd
000001d0: c915 3b3e b33c 13bd 6616 58bd 70ed ac3e
000001e0: 7337 85bf 4f0e 21bf ca45 26c0 a5c0 92be
000001f0: 7de2 a33e 3716 7e3e 83d4 46be d783 d1bd
00000200: 5777 01be 4ac1 d63d c37d c1bd b566 333d
00000210: 5c93 52be 57f8 b13d abb0 80be e389 37be
00000220: a923 523e ca7c 34bc 67f7 21be 7ee4 76be
00000230: 95d9 93be 83e3 00be 63b3 bd3c 0405 e33c
00000240: 394e 18be 8abc b7bd f4eb 0d3e a562 babd
00000250: d404 eb3e f2d4 0a3f 7900 f03f 3b16 0340
00000260: f373 18be cdf8 95be 4e4f 89be 2584 f73e
00000270: f13d 7bbe ee3f 8c3e 800c 0dbf 918c bf3e
00000280: 5bd1 21bf 9cb1 afbd 9bf3 b93e 4fc0 dcbd
00000290: 7178 83bf 2191 0040 42d3 e83d 76f4 bb3d
000002a0: 782a 71be 12e8 4fbe f88a 9fbe 2451 9d3d
000002b0: 2441 95be cbc2 33bf ec9a 9ebe 681a d3bd
000002c0: 110a ab3e 9986 dc3e d9e2 813f 262d 0e40
000002d0: 271f 633e 2208 b7bc 60a5 fa3d 79dc a4bc
000002e0: 7488 03be aad1 0abe d28e c3be 8886 babd
000002f0: 0169 c6bd ea45 713e 9998 7b3e 316f 7b3e
00000300: 01e5 113f d899 2f40 fdbd ef3d 0b4b ce3d
00000310: f2f0 19bf af69 e3bd 91d2 0bbf 0760 743e
00000320: bd19 d9be c760 293e 5e6f 11bf 5212 7e3e
00000330: 7424 573e 4754 5fbe 7c85 963e f157 27bb
00000340: 46c1 933e a24f 553e bf6b bdbd 5a79 503d
00000350: b97d 86be 3bfc c23d fd81 4b3e 5bca d53d
00000360: f8d7 1dbe 1466 13be 9890 293d ceb2 f03c
00000370: 3619 3dbe 675c 37be bb03 7ebe 2079 f33d
00000380: fbd1 fa3b 7806 30be 491e 48be 0673 d4be
00000390: 5999 913e 3a18 9b3e ff03 bc3e b8cd bc3e
000003a0: 8d71 9bbe 439b 7f3d b536 d2be 26b2 e63f
000003b0: e458 27be de36 103c bb50 0b3e 07d5 023e
000003c0: 0bab 99be 4a7b a2be a520 233e 441e debe
000003d0: e078 a3be 8f06 3fbe 1827 a63e c34f 263e
000003e0: 1666 9e3b b918 023f 5584 7cbc 5a68 acbe
000003f0: d1ed 43be 8085 8ebc 60fd 103d c5dc a8bd

fc1.bias f4 [256]
-0.02290244 -0.104695305 0.18671891 -0.06510732 -0.21533905 0.3002047 -0.21786042 0.05220178
0.38713303 0.12608571 0.0723008 -0.199417 0.07127611 0.20955145 0.22692606 -0.13380401
0.12305037 -0.24201888 -0.18945734 -0.18589666 0.015774662 0.28864095 0.0920877 0.051247723
-0.056678336 0.28398454 0.15700959 -0.11183763 -0.05363429 0.43777266 0.04883002 0.29441822
-0.009045985 -0.021829413 0.20796826 0.19817162 0.10621066 -0.21523963 -0.20493864 -0.19822796
0.2167726 -0.06301445 0.052258845 -0.14449014 0.06928347 -0.061379384 0.0067673875 -0.07630197
0.2092367 -0.12853108 0.0114240805 -0.27441847 0.11909833 -0.08939457 0.25626218 0.06378335
-0.06880646 -0.349179 -0.30882835 -0.004960924 -0.13341568 -0.24428083 0.13619442 -0.18375427
0.21570538 0.02069608 -0.028054023 0.016675666 0.075911134 -0.2526815 -0.011403066 -0.19050144
0.15638317 -0.14902264 0.0634319 0.09618012 -0.1471507 -0.21014725 0.026126172 -0.22389162
-0.05042433 0.078149416 0.20701739 -0.12010384 -0.25349548 -0.069808275 0.12580426 -0.03185214
-0.1242071 0.35106918 -0.09707775 -0.090238735 -0.02548431 -0.23329097 -0.27458817 0.1766864
-0.035033353 -0.012261806 0.04649168 0.16111241 -0.33715424 -0.40333408 -0.23623393 0.2772719
-0.26062608 0.40974665 0.021367434 0.045673143 -0.09352926 0.33068752 -0.1473695 0.023681007
-0.07694411 -0.22537458 -0.17584857 -0.111651264 -0.2415323 -0.12175736 -0.15713684 0.07391049
0.056328807 0.23853634 0.10972764 -0.19090761 0.2103983 -0.027777039 0.13849704 0.16189767
-0.01302061 -0.12495507 -0.20720139 -0.2547155 -0.11651085 -0.15755872 0.18352571 0.03691552
0.060082033 0.027700597 -0.1963372 -0.02060013 -0.111111544 -0.0072720503 -0.21792328 0.060483925
-0.19091502 0.22742498 0.16457094 0.26487124 -0.028776426 0.14492731 -0.098276734 -0.024720669
-0.105246395 0.233387 0.057830025 0.10052557 0.13648748 -0.11602321 0.10138812 0.07865635
-0.03406825 -0.1827403 0.098015636 0.10708763 0.1682682 0.002479733 0.08591636 0.1437756
0.2313631 0.30563685 0.22748353 -0.11820081 -0.045902807 0.27700874 -0.13592613 -0.20985037
0.051913284 -0.2384046 0.0008661147 -0.16146168 -0.03259267 0.19719657 0.32012472 -0.032514043
0.3517089 -0.06263846 -0.14167202 0.042712986 -0.18467158 0.091743365 0.3128517 -0.04344137
-0.24199376 -0.27627283 0.3008445 0.042886477 -0.07018832 -0.0585342 -0.022621278 -0.2906739
0.0054552644 -0.020702776 -0.14787792 -0.04180265 0.030815646 0.13999517 0.29637536 0.25683174
0.13919297 0.11798471 0.14418247 0.055608183 -0.16937122 0.06822187 -0.00024691416 -0.3030113
-0.18536095 -0.041992433 -0.17383288 -0.07488857 0.037499048 0.1772078 0.108408555 -0.27229708
-0.2841577 -0.22051297 0.16226523 0.16815488 -0.17722864 -0.08037796 0.2784335 0.11488753
0.08679629 0.24140371 0.20626304 0.015477635 -0.06477082 -0.08350649 -0.27054092 -0.09104438
-0.3314748 -0.13781764 0.013536737 -0.1029583 0.17310545 0.078050174 0.2910251 0.16144055
-0.05352292 -0.1862369 0.04873481 -0.0899728 -0.22421779 0.15332316 0.018677799 -0.17509973
00000000: e69d bbbc 7e6a d6bd 3e33 3f3e fd56 85bd
00000010: d781 5cbe 6eb4 993e cd16 5fbe 89d1 553d
00000020: 4d36 c63e 9d1c 013e 7112 943d f833 4cbe
00000030: 36f9 913d a894 563e 4e5f 683e eb03 09be
00000040: d501 fc3d ccd3 77be 1b01 42be b25b 3ebe
00000050: dd39 813c bfc8 933e 7a98 bc3d 22e9 513d
00000060: 8b27 68bd 6c66 913e 1fc7 203e 210b e5bd
00000070: a1af 5bbd bd23 e03e fd01 483d fcbd 963e
00000080: 9c35 14bc 99d3 b2bc a2f5 543e 80ed 4a3e
00000090: f984 d93d c767 5cbe 6fdb 51be 45fc 4abe
000000a0: a3f9 5d3e b80d 81bd 5f0d 563d 39f5 13be
000000b0: 7ee4 8d3d f368 7bbd f6c0 dd3b 3544 9cbd
000000c0: 2542 563e a79d 03be 112c 3b3c 9480 8cbe
000000d0: d3e9 f33d 8014 b7bd cc34 833e d8a0 823d
000000e0: 67ea 8cbd 97c7 b2be c01e 9ebe 3f8f a2bb
000000f0: 1f9e 08be c124 7abe 8d76 0b3e 142a 3cbe
00000100: dfe1 5c3e d38a a93c 8dd1 e5bc 689b 883c
00000110: 4c77 9b3d 785f 81be edd3 3abc cf12 43be
00000120: e922 203e 6499 18be 96e8 813d 15fa c43d
00000130: acae 16be d730 57be 8e06 d63c d843 65be
00000140: be89 4ebd cd0c a03d 5efc 533e 01f9 f5bd
00000150: 29ca 81be a4f7 8ebd d5d2 003e 6477 02bd
00000160: 4b60 febd 57bf b33e b3d0 c6bd 16cf b8bd
00000170: 79c4 d0bc d4e3 6ebe d296 8cbe 48ed 343e
00000180: 227f 0fbd bee5 48bc 0f6e 3e3d a7fa 243e
00000190: 7b9f acbe ce81 cebe 4fe7 71be 95f6 8d3e
000001a0: c870 85be 50ca d13e c20a af3c c313 3b3d
000001b0: 458c bfbd e04f a93e 08e8 16be acfe c13c
000001c0: e094 9dbd 98c8 66be a611 34be 6ba9 e4bd
000001d0: 3e54 77be ec5b f9bd 7be8 20be 625e 973d
000001e0: 09b9 663d df42 743e e3b8 e03d 497d 43be
000001f0: a772 573e ac8c e3bc 2bd2 0d3e 81c8 253e
00000200: 6654 55bc 72e8 ffbd 9a2c 54be 126a 82be
00000210: 3e9d eebd 1357 21be 2aee 3b3e ba34 173d
00000220: 9418 763d 5dec e23c 9e0c 49be 9bc1 a8bc
00000230: 738e e3bd 614a eebb 4827 5fbe febd 773d
00000240: 3a7f 43be 18e2 683e 4985 283e 349d 873e
00000250: 8abc ebbc d367 143e 5045 c9bd 0083 cabc
00000260: 6c8b d7bd 00fd 6e3e 2ddf 6c3d 5ae0 cd3d
00000270: 60c3 0b3e 949d edbd 93a4 cf3d 9516 a13d
00000280: 268b 0bbd 4620 3bbe 6cbc c83d c250 db3d
00000290: 804e 2c3e 0483 223b ebf4 af3d e939 133e
000002a0: 73ea 6c3e 6f7c 9c3e 71f1 683e 4413 f2bd
000002b0: 9504 3cbd 17d4 8d3e 3830 0bbe 04e3 56be
000002c0: 06a3 543d 5620 74be f90b 633a 3656 25be
000002d0: e47f 05bd e6ed 493e 63e7 a33e 722d 05bd
000002e0: 3013 b43e 9848 80bd 7812 11be d0f3 2e3d
000002f0: 8c1a 3dbe f2e3 bb3d 192e a03e 94ef 31bd
00000300: 36cd 77be a273 8dbe 4a08 9a3e bba9 2f3d
00000310: e5be 8fbd 8fc1 6fbd 4250 b9bc 36d3 94be
00000320: 13c2 b23b de98 a9bc 4f6d 17be 4139 2bbd
00000330: 1871 fc3c e55a 0f3e 83be 973e 737f 833e
00000340: 9a88 0e3e f8a1 f13d 92a4 133e 68c5 633d
00000350: a66f 2dbe e8b7 8b3d 4274 81b9 4c24 9bbe
00000360: 43cf 3dbe 4200 2cbd 3f01 32be 2e5f 99bd
00000370: 9a98 193d f675 353e 4e05 de3d 866a 8bbe
00000380: 1e7d 91be 27ce 61be db28 263e cb30 2c3e
00000390: 6d7b 35be 339d a4bd d68e 8e3e 274a eb3d
000003a0: 41c2 b13d 8932 773e 9e36 533e e895 7d3c
000003b0: 90a6 84bd 7305 abbd 5784 8abe 7a75 babd
000003c0: 11b7 a9be 1120 0dbe 31c9 5d3c cddb d2bd
000003d0: 8e42 313e c5d8 9f3d 3e01 953e ac50 253e
000003e0: d93a 5bbd e3b4 3ebe 279e 473d a943 b8bd
000003f0: 5999 65be bf00 1d3e 2f02 993c 584d 33be

fc2.weight f4 [256, 256]
-0.946913 -0.46023265 0.8479362 0.018479869 -0.016960897 -1.1800499 -0.047159642 -0.6202346
-1.3807997 0.030438222 0.07916423 -0.7008134 0.74629074 0.4420221 -0.072457656 0.01681439
0.30956808 -0.87044597 0.026978023 0.5868132 0.0026563779 -0.24678795 0.0012124106 -0.2768657
-0.109082446 0.22716111 1.4102188 0.06195175 0.5732641 -0.25320867 0.019768527 0.4763166
-0.022133164 2.2998545 -0.0155186355 -0.028075466 -1.8032866 -0.020269055 -0.052667968 -0.32996994
-0.020170696 0.23388298 0.10600883 -0.014036283 -0.047815457 -0.0075515583 0.010521442 -0.05005127
-1.5473267 1.3415954 0.020050183 1.3208318 0.26861465 0.028385222 0.4315815 -0.017040715
0.03651204 0.02718427 -0.92117083 0.041389354 0.062182188 -0.16708837 -0.00025754422 -0.04963941
1.4283316 -0.12664838 -0.4567325 0.19105218 -0.04839172 -0.819921 -0.03555847 0.7768895
0.034542568 0.007717356 0.038742535 0.013808683 0.032641202 -0.78982955 -2.4150486 0.007651959
0.29786247 0.045836024 0.42987427 0.06281519 1.6244736 -0.5082236 0.19127439 -0.084091984
-0.7265322 0.3852567 -0.90616244 -0.012136036 0.3897431 -0.048667315 -0.28005892 -1.1527314
-0.04579645 -0.13003464 -0.39500967 -0.044554852 -0.67824715 -1.6366798 -0.024388801 0.8396528
0.009273424 -1.076208 0.024136104 -0.8287105 -0.039030258 0.39188808 0.2800886 -0.02181384
-0.040379792 0.11298943 0.34102735 -0.044932418 0.055493776 -0.90832496 -0.049355417 1.0855031
0.026670337 0.0067258417 -0.9453806 0.6625762 0.072429866 0.18692671 1.3787445 -1.0401089
-0.9623235 -0.014283279 -0.77355456 -1.8276767 -0.66426694 0.005175027 -0.045543745 0.0720126
0.26113433 0.29810506 0.012916185 -0.27649075 -0.0093178 -0.048530594 0.035864033 0.020437248
-0.13920769 0.69278103 -0.36716655 -0.0006436035 0.18907359 -0.8175752 -0.023530833 0.059503965
-0.0571808 0.24817026 0.008983988 0.050886843 0.1383442 -0.037832886 -0.0057650283 0.62416446
0.052787215 -0.14615262 -0.07024276 0.049178954 0.052299768 -0.14068396 -0.13248532 -0.2189094
0.8848538 0.38846567 0.009496816 0.045294397 -1.092349 0.10242561 0.047892235 -0.03904754
-0.07052266 0.6343483 0.014079228 -0.3827932 -0.05145272 0.020217162 -0.19007999 0.03034731
-2.1051774 -1.104463 0.87324136 -0.16488343 -0.014868341 -0.4018891 0.10331298 -1.6837006
-0.019158065 0.48055243 1.1118736 -0.23146737 0.06841851 0.332226 0.030855725 0.05633137
0.05043084 -0.17405565 0.03698042 0.13468155 -1.584972 0.0037360294 0.24971354 -0.15508129
-0.03741567 -0.10979053 -0.035513386 0.012919933 -0.03272111 0.044217005 0.030485112 -0.01388012
-0.064506985 0.0041610375 0.04017652 0.08916212 0.13580032 0.286543 -2.085065 -0.017270517
-0.57740897 0.029915601 -0.037404552 -0.036333144 0.021359295 -0.050834462 -0.38915992 0.014839873
0.011670202 -0.021353975 1.0550015 0.047790658 0.26147503 -0.042620882 -1.3189926 0.002738313
0.47024396 0.13131838 0.5953947 0.15270424 1.246792 0.0569702 1.0327426 0.02069353
-0.5817479 -0.008254157 0.04206001 -0.78545666 -0.024543868 -1.0889984 -1.963147 -0.0039896057
00000000: e468 72bf 9da3 ebbe 5912 593f 1863 973c
00000010: 94f1 8abc e00b 97bf 782a 41bd b2c7 1ebf
00000020: 0bbe b0bf 9459 f93c db20 a23d 8268 33bf
00000030: e90c 3f3f b850 e23e ae64 94bd 55be 893c
00000040: b57f 9e3e 8cd5 5ebf 0401 dd3c 6439 163f
00000050: a016 2e3b fbb5 7cbe c0e9 9e3a 57c1 8dbe
00000060: 9e66 dfbd ec9c 683e 0d82 b43f 1ec1 7d3d
00000070: 70c1 123f 91a4 81be 9bf1 a13c c5df f33e
00000080: 9c50 b5bc d130 1340 e041 7ebc 85fe e5bc
00000090: 18d2 e6bf 4a0b a6bc 5eba 57bd d2f1 a8be
000000a0: 043d a5bc 057f 6f3e 281b d93d 70f8 65bc
000000b0: 24da 43bd 1073 f7bb 2062 2c3c 8f02 4dbd
000000c0: cd0e c6bf 66b9 ab3f 4840 a43c 0411 a93f
000000d0: dc87 893e 2088 e83c 40f8 dc3e f898 8bbc
000000e0: a68d 153d 8cb1 de3c dad1 6bbf e287 293d
000000f0: c0b2 7e3d 3719 2bbe 0007 87b9 b252 4bbd
00000100: 92d3 b63f 1db0 01be d8d8 e9be 2fa3 433e
00000110: 6536 46bd 58e6 51bf c2a5 11bd 3be2 463f
00000120: 827c 0d3d e0e1 fc3b 7eb0 1e3d d03d 623c
00000130: c8b2 053d 4532 4abf 2890 1ac0 49bd fa3b
00000140: 6e81 983e 8ebe 3b3d 7b18 dc3e 40a5 803d
00000150: c0ee cf3f f11a 02bf 6fdd 433e 6b38 acbd
00000160: 04fe 39bf 5e40 c53e 43fa 67bf 39d6 46bc
00000170: 688c c73e 6157 47bd e263 8fbe b48c 93bf
00000180: 0f95 3bbd cd27 05be b53e cabe 267f 36bd
00000190: 9ba1 2dbf b97e d1bf 06cb c7bc 7cf3 563f
000001a0: 8fef 173c 2fc1 89bf 14b9 c53c 5f26 54bf
000001b0: 31de 1fbd 8ea5 c83e c667 8f3e f0b2 b2bc
000001c0: 4865 25bd 0167 e73d 239b ae3e 0e0b 38bd
000001d0: 714d 633d fc87 68bf e828 4abd c4f1 8a3f
000001e0: c07b da3c 7364 dc3b 7704 72bf 989e 293f
000001f0: 1c56 943d b769 3f3e b37a b03f 4a22 85bf
00000200: d55a 76bf 6a04 6abc ac07 46bf 4ff1 e9bf
00000210: 660d 2abf 4693 a93b 148c 3abd 587b 933d
00000220: 66b3 853e 3aa1 983e 689e 533c 3290 8dbe
00000230: b0a9 18bc 04c8 46bd 2ae6 123d 046c a73c
00000240: 768c 0ebe 195a 313f 41fd bbbe 80b7 28ba
00000250: 829c 413e 9c4c 51bf bcc3 c0bc 6eba 733d
00000260: 6a36 6abd 5820 7e3e 9431 133c b96e 503d
00000270: 1aaa 0d3e a8f6 1abd 90e8 bcbb 3ec9 1f3f
00000280: 6837 583d 08a9 15be 70db 8fbd df6f 493d
00000290: 4838 563d 750f 10be 3baa 07be c929 60be
000002a0: c785 623f f9e4 c63e 8998 1b3c 9e86 393d
000002b0: 18d2 8bbf 85c4 d13d a62a 443d 50f0 1fbd
000002c0: 2f6e 90bd a664 223f 90ac 663c 78fd c3be
000002d0: 16c0 52bd 769e a53c 54a4 42be ec9a f83c
000002e0: 3abb 06c0 0b5f 8dbf bf8c 5f3f 34d7 28be
000002f0: 589a 73bc 68c4 cdbe c195 d33d 8083 d7bf
00000300: 60f1 9cbc f80a f63e e051 8e3f c805 6dbe
00000310: 011f 8c3d 8719 aa3e 25c5 fc3c b9bb 663d
00000320: 9290 4e3d a53b 32be c878 173d f6e9 093e
00000330: 5de0 cabf 2cd8 743b e8b4 7f3e a1cd 1ebe
00000340: 2c41 19bd dbd9 e0bd 7c76 11bd 20ae 533c
00000350: 9206 06bd e41c 353d eabb f93c 7169 63bc
00000360: 3d1c 84bd 5059 883b 2290 243d a19a b63d
00000370: 3d0f 0b3e c4b5 923e b471 05c0 e67a 8dbc
00000380: 13d1 13bf 9011 f53c 8435 19bd 10d2 14bd
00000390: b0f9 ae3c cc37 50bd f83f c7be f022 733c
000003a0: 6034 3f3c 88ee aebc 4a0a 873f 23c0 433d
000003b0: 0ee0 853e 3c93 2ebd c0d4 a8bf 4575 333b
000003c0: d1c3 f03e 5378 063e c96b 183f 805e 1c3e
000003d0: e196 9f3f 9659 693d e930 843f 7a85 a93c
000003e0: 6eed 14bf 723c 07bc 1e47 2c3d b013 49bf
000003f0: 3910 c9bc 4d64 8bbf 6748 fbbf 3dbb 82bb

fc2.bias f4 [256]
0.07969483 0.017869083 -0.07432198 -0.07578736 0.21467341 0.0022044878 0.036184408 0.012243132
0.03671816 -0.0027358187 -0.0037350599 -0.05928407 -0.03652179 0.04111731 0.044088997 -0.048176724
0.013102564 -0.017946532 -0.00688827 -0.022445759 -0.026092729 0.026015926 -0.035664383 0.147646
0.15047522 0.056492828 -0.24119769 -0.07373359 -0.05590921 0.018125972 -0.07275308 -0.06157796
-0.028203776 0.14431603 0.008834024 -0.0086348895 0.060473867 -0.01595442 -0.011467235 0.05830161
0.32136238 -0.033474367 -0.015745685 0.07682957 0.0031171273 0.12084283 -0.011405265 0.04239352
0.10233042 -0.025629664 0.4932722 -0.061148293 0.10519299 0.018110309 -0.013165185 0.060341585
0.0422436 -0.095341645 0.03614434 0.006086681 0.053737387 -0.00088276697 -0.0058974787 0.038871232
-0.012904961 -0.06583319 -0.04917909 -0.039151855 0.008223847 0.0059624864 -0.045112103 -0.045184843
-0.040513054 -0.06098293 0.018140346 -0.004750662 -0.026997859 -0.044749442 0.0074223923 -0.03283042
-0.17154445 -0.039998975 -0.026091514 0.016483009 -0.05316441 -0.035473496 -0.041313957 0.035974246
0.072575554 0.007082191 0.0005153429 0.0064689233 -0.0839284 0.031979837 0.016830854 0.014680032
-0.028900877 -0.00702454 0.040371235 0.06609539 0.04176486 0.048554186 -0.0469487 0.00767523
-0.15939155 -0.035398316 0.010085611 -0.018979779 0.028156415 -0.027422842 -0.024811516 -0.0056925225
-0.01442533 -0.010339747 -0.057171583 0.043161225 0.17307127 -0.044049483 -0.07860784 0.081170686
-0.02499107 0.016606 -0.059168518 0.35739765 -0.03274944 0.04184873 0.008823732 -0.05562335
-0.021386676 0.010555351 -0.22234492 0.028550755 -0.004701323 -0.041998383 -0.00089139066 -0.015323835
-0.0053591067 0.055851463 -0.08929332 0.014145463 0.12518118 -0.00714722 -0.041591294 -0.055726834
0.0017980261 0.03001379 -0.094060324 -0.028605906 -0.060993128 -0.014113242 -0.010824982 0.23333538
-0.09228474 -0.07126518 -0.067441784 -0.05220409 -0.02449471 0.40753675 0.13791668 0.20572442
-0.085038185 0.03334685 0.02226723 0.03154897 0.03224752 0.008857961 0.027539574 0.041104876
0.038344584 -0.060534384 -0.06893209 0.01003493 -0.008801342 0.020464407 -0.061580148 -0.041969385
-0.053941544 0.26919004 0.12800439 0.0051553138 0.00487047 0.037583355 -0.030945243 0.10646646
0.037559614 0.30441314 -0.06455713 -0.024982588 0.05773365 -0.07744028 0.10521559 0.019028265
-0.069668375 -0.016935272 0.009548341 -0.059554107 0.13841502 0.35468677 -0.060439423 -0.05325066
-0.07501917 -0.013441381 -0.026374435 0.05275134 0.11564108 -0.08113029 -0.03087529 -0.010314728
-0.020762002 0.010949985 -0.016018968 0.006754307 0.022977004 0.080760226 0.02278435 -0.050552905
0.17006975 0.041599832 0.042270564 0.12062405 -0.087564 -0.055842314 0.057079073 -0.028361605
-0.01994674 0.044693507 0.21038164 0.04030134 -0.00096488855 -0.07151995 -0.092194125 0.014474627
0.022901567 0.04142923 0.0351443 -0.0023602988 -0.06437032 0.03306421 0.015732802 -0.3877335
0.10503437 0.14995459 0.012545254 2.1624994e-05 0.0025954202 -0.052393276 0.06789061 0.062245596
-0.0017143852 -0.02984981 0.19134142 0.14259094 0.038363874 -0.073394716 -0.07067095 -0.07436927
00000000: 0b37 a33d 2f62 923c 1f36 98bd 6736 9bbd
00000010: 59d3 5b3e 2b79 103b 1a36 143d 6b97 483c
00000020: c865 163d 6c4b 33bb e8c7 74bb dad3 72bd
00000030: df97 15bd a06a 283d aa96 343d f554 45bd
00000040: 23ac 563c 9b04 93bc ffb6 e1bb 2be0 b7bc
00000050: 6bc0 d5bc 5a1f d53c d114 12bd 8330 173e
00000060: 2d16 1a3e 0665 673d 87fc 76be a301 97bd
00000070: 0e01 65bd eb7c 943c 91ff 94bd 2c39 7cbd
00000080: 9b0b e7bc 95c7 133e 95bc 103c 5a79 0dbc
00000090: 72b3 773d d8b2 82bc 12e1 3bbc abcd 6e3d
000000a0: 9c89 a43e 6b1c 09bd 18fd 80bc d258 9d3d
000000b0: b848 4c3b 727c f73d 26dd 3abc d4a4 2d3d
000000c0: 9c92 d13d 4df5 d1bc 2c8e fc3e a276 7abd
000000d0: 6c6f d73d 125c 943c cab2 57bc bd28 773d
000000e0: a007 2d3d 7b42 c3bd 160c 143d c872 c73b
000000f0: bc1b 5c3d 7d69 67ba a33f c1bb 7137 1f3d
00000100: 546f 53bc 8dd3 86bd 0370 49bd b25d 20bd
00000110: 50bd 063c f660 c33b 78c7 38bd be13 39bd
00000120: 04f1 25bd 3dc9 79bd 109b 943c 71ab 9bbb
00000130: 9d2a ddbc 314b 37bd 8a37 f33b 3179 06bd
00000140: 59a9 2fbe f7d5 23bd dfbd d5bc 6007 873c
00000150: edc2 59bd a84c 11bd d338 29bd bb59 133d
00000160: 7ea2 943d b911 e83b 1418 073a 43f9 d33b
00000170: a7e2 abbd 4afd 023d dce0 893c 8484 703c
00000180: 88c1 ecbc 1d2e e6bb 4f5c 253d 055d 873d
00000190: a111 2b3d c1e0 463d 484d 40bd 7f80 fb3b
000001a0: 8a37 23be d3fd 10bd 1e3e 253c 7b7b 9bbc
000001b0: 48a8 e63c dea5 e0bc 8541 cbbc 5788 babb
000001c0: 3858 6cbc 0b68 29bc c02c 6abd d3c9 303d
000001d0: 9839 313e 3b6d 34bd 26fd a0bd d13c a63d
000001e0: 13ba ccbc 4e09 883c b05a 72bd d3fc b63e
000001f0: 4724 06bd 9369 2b3d 6a91 103c 4fd5 63bd
00000200: 1c33 afbc 5af0 2c3c 63ae 63be 46e3 e93c
00000210: 8e0d 9abb 7f06 2cbd 37ac 69ba d310 7bbc
00000220: 729b afbb 81c4 643d 6bdf b6bd 5fc2 673c
00000230: 7f2f 003e 3a33 eabb a25b 2abd d241 64bd
00000240: bfab eb3a 7bdf f53c b3a2 c0bd ef56 eabc
00000250: eed3 79bd 3a3b 67bc 445b 31bc 78ef 6e3e
00000260: c8ff bcbd 7bf3 91bd eb1e 8abd f5d3 55bd
00000270: 21a9 c8bc a8a8 d03e 083a 0d3e 6ca9 523e
00000280: 8028 aebd b596 083d c469 b63c 7e39 013d
00000290: fa15 043d fb20 113c ac9a e13c 965d 283d
000002a0: 360f 1d3d e7f2 77bd 452c 8dbd 8c69 243c
000002b0: 8133 10bc f9a4 a73c 773b 7cbd 17e8 2bbd
000002c0: cff1 5cbd 47d3 893e 9513 033e e8ed a83b
000002d0: 7798 9f3b 01f1 193d e180 fdbc 160b da3d
000002e0: 1cd8 193d 0adc 9b3e 8736 84bd 49a8 ccbc
000002f0: 1f7a 6c3d 0299 9ebd 457b d73d 2ae1 9b3c
00000300: 4bae 8ebd d7bb 8abc a570 1c3c 02ef 73bd
00000310: abbc 0d3e 8199 b53e 548f 77bd 5d1d 5abd
00000320: a7a3 99bd 3d39 5cbc 330f d8bc ca11 583d
00000330: 3bd5 ec3d a327 a6bd 2dee fcbc 1bff 28bc
00000340: 1315 aabc 9167 333c 363a 83bc 3c53 dd3b
00000350: 453a bc3c 9e65 a53d 3fa6 ba3c 9010 4fbd
00000360: c426 2e3e 9664 2a3d e623 2d3d be09 f73d
00000370: c154 b3bd e9ba 64bd bfcb 693d 9956 e8bc
00000380: 5867 a3bc 8a10 373d 496e 573e 0513 253d
00000390: 93f0 7cba 0d79 92bd 46d0 bcbd fc26 6d3c
000003a0: 119c bb3c b2b1 293d 78f3 0f3d 3eaf 1abb
000003b0: 96d4 83bd 566e 073d 14e2 803c 0185 c6be
000003c0: 431c d73d b28d 193e 9c8a 4d3c 5267 b537
000003d0: ed17 2a3b 559a 56bd 3b0a 8b3d 3df5 7e3d
000003e0: 39b5 e0ba 9787 f4bc 01ef 433e 5c03 123e
000003f0: 7023 1d3d f84f 96bd eebb 90bd ea4e 98bd

fc3.weight f4 [5, 256]
0.84328294 0.03928203 -0.033727463 0.037126355 1.0901653 -1.0307031 -0.056723848 0.6019827
0.006317377 -0.025879156 -0.059203394 0.006998757 -0.075734645 0.026295058 0.022618793 0.03073769
-0.056662813 0.048830207 -0.043459013 -0.030971527 1.0267855 -0.04469721 0.009572625 0.9425582
0.59432745 -0.16355287 -0.7925791 -0.038039833 -0.0035927102 -0.011028773 -1.5705596 0.055511333
-0.024276242 -0.8728251 0.95061105 -0.04007158 0.98498344 0.04741562 0.04999061 1.0131882
-0.2469416 1.2015203 0.0424054 0.23295619 0.07467443 1.300099 0.043118134 0.042043865
0.55468416 -0.023318864 1.7846254 -0.02042611 0.62884146 0.75482893 0.014849551 0.79620004
0.005327446 0.082594894 0.006145522 0.004116578 0.4567113 -0.035756096 -0.012706938 -0.03648409
-0.01237982 -0.003126368 -0.99894416 -0.01722131 0.03298042 -0.038618304 0.0065593813 2.343563
0.05558771 -0.031205682 0.0034123063 0.99531376 -0.05884513 0.009290714 0.028855562 -0.039011497
-0.23489295 -0.023415813 0.0003504831 -0.04028751 0.019221902 1.6721383 -0.013949318 -0.015063852
-0.43876782 0.6257351 -0.016214803 0.01994044 -0.05233468 0.843092 -0.034778137 -0.035689875
-0.04293731 -0.008380113 0.0023701643 1.212968 -0.006884571 -0.28424826 0.001567136 0.6087807
1.8881897 0.06021496 0.024140092 1.2809062 -0.006546825 0.0028433662 0.05812926 -0.03427573
2.0469675 0.029536212 -0.052717768 0.03063959 0.6951313 0.032979928 -0.036545884 0.57581633
-0.053299163 -0.011388029 -0.055033095 1.7325871 0.009431657 -0.17076813 -0.036822177 -0.014774876
0.03304097 -0.03394687 0.2139906 -0.0452867 0.01880131 0.032114387 -0.005206312 0.019917808
0.03421148 1.8185796 -0.9858249 -0.043232933 1.014035 0.036148265 0.08002247 -0.031967018
0.01567356 0.013359845 -0.009031625 -0.040149994 0.0072402395 0.61928064 -0.005285476 -1.1466526
0.050951026 0.006266975 0.022175996 0.00155882 0.003608933 1.8461809 0.67641264 -0.09373203
-0.031161942 0.58939004 -0.060655743 -0.0011431144 -0.02121737 -0.021625636 -0.037041016 0.009973692
-0.023368247 0.004571825 0.00279788 -0.6349561 -0.030329777 -0.013661268 0.0017158538 0.03423733
0.022176411 1.1344073 0.69709885 -0.0049359626 -0.04645079 -0.057528578 0.0095858 1.6704571
0.017718773 -1.5338545 -0.0008160958 -0.041119028 1.7503837 -0.030257499 0.81749594 -0.041999284
-0.0051126406 0.012975968 -0.028137498 0.022469701 2.53559 2.2327452 -0.013306667 0.007637476
0.0063818693 0.00024818198 0.038179383 0.5207979 1.2497736 -0.03076624 0.057269864 -0.0048760916
-0.021067997 0.01459245 0.020505322 -0.00826206 0.049708165 0.5809184 -0.019048806 -0.0056579285
0.5476736 0.9217672 -0.023921214 0.6650605 -0.008112537 0.057850264 -0.23562077 -0.005882442
-0.04380153 1.1421788 3.3989751 0.0007948644 -0.263296 0.97349644 0.030463748 -0.05851181
0.0114905555 0.12948821 0.033373192 -0.03934771 -0.0014500177 0.043629766 -0.044442322 0.6837426
0.74561465 1.0998183 -0.004048388 0.011298486 0.74284995 -0.0044765784 0.82013506 1.0098269
0.00064308505 -0.045541137 -1.9284704 -0.5221297 0.96410805 0.6716175 -1.325386 0.022212483
00000000: 64e1 573f 32e6 203d cf25 0abd ce11 183d
00000010: 898a 8b3f 14ee 83bf 4457 68bd 8a1b 1a3f
00000020: 0002 cf3b 8600 d4bc 427f 72bd d455 e53b
00000030: c41a 9bbd bc68 d73c 0c4b b93c 9ccd fb3c
00000040: 4417 68bd 2f02 483d 1402 32bd 00b8 fdbc
00000050: b56d 833f 6c14 37bd 80d6 1c3c 7f4b 713f
00000060: d825 183f 677a 27be 77e6 4abf a8cf 1bbd
00000070: ad73 6bbb 07b2 34bc 1908 c9bf da5f 633d
00000080: f8de c6bc 7771 5fbf 3f5b 733f 1922 24bd
00000090: e027 7c3f e236 423d f4c2 4c3d 27b0 813f
000000a0: 42de 7cbe 6bcb 993f 49b1 2d3d 118c 6e3e
000000b0: e8ee 983d a569 a63f a49c 303d 3036 2c3d
000000c0: c8ff 0d3f 3407 bfbc 9b6e e43f a854 a7bc
000000d0: c1fb 203f 783c 413f 884b 733c c4d3 4b3f
000000e0: db91 ae3b 8327 a93d 6060 c93b 5ce4 863b
000000f0: 10d6 e93e fc74 12bd c330 50bc 5770 15bd
00000100: bbd4 4abc c0e3 4cbb ceba 7fbf b413 8dbc
00000110: 7a16 073d 3a2e 1ebd 14f0 d63b f0fc 1540
00000120: f0af 633d 0fa3 ffbc 00a1 5f3b e2cc 7e3f
00000130: 9707 71bd 1438 183c 8062 ec3c 85ca 1fbd
00000140: c787 70be 85d2 bfbc 0cc1 b739 8404 25bd
00000150: 4077 9d3c a108 d63f ae8b 64bc 60ce 76bc
00000160: 2da6 e0be 2d30 203f e8d4 84bc 225a a33c
00000170: e45c 56bd e1d4 573f 8573 0ebd 8c2f 12bd
00000180: 08df 2fbd be4c 09bc c254 1b3b 8942 9b3f
00000190: f897 e1bb fd88 91be 5c68 cd3a 0dd9 1b3f
000001a0: 33b0 f13f f6a3 763d 71c1 c53c bcf4 a33f
000001b0: c086 d6bb c557 3a3b f218 6e3d b564 0cbd
000001c0: 8401 0340 edf5 f13c 96ee 57bd e1ff fa3c
000001d0: 20f4 313f f615 073d 23b1 15bd b368 133f
000001e0: 3950 5abd db94 3abc 626a 61bd 6ac5 dd3f
000001f0: 3d87 1a3c d7dd 2ebe dad2 16bd 5212 72bc
00000200: f855 073d e00b 0bbd 5a20 5b3e 8c7e 39bd
00000210: 3405 9a3c 608a 033d b699 aabb ac2a a33c
00000220: 5621 0c3d 37c7 e83f 055f 7cbf 0415 31bd
00000230: e6cb 813f 3410 143d d2e2 a33d d9ef 02bd
00000240: d665 803c 40e3 5a3c 62f9 13bc 5274 24bd
00000250: 883f ed3b 2d89 1e3f c931 adbb 83c5 92bf
00000260: 06b2 503d 325b cd3b 6faa b53c 5251 cc3a
00000270: d983 6c3b a84f ec3f 6129 2d3f 94f6 bfbd
00000280: 5447 ffbc 44e2 163f 2872 78bd 8ed4 95ba
00000290: 0dd0 adbc 3f28 b1bc 52b8 17bd b268 233c
000002a0: c46e bfbc 3fcf 953b a35c 373b 7c8c 22bf
000002b0: 2776 f8bc 83d3 5fbc 80e6 e03a 713c 0c3d
000002c0: 4eab b53c 4234 913f 1275 323f dbbd a1bb
000002d0: 2f43 3ebd 16a3 6bbd c20d 1d3c 8ad1 d53f
000002e0: f626 913c 5855 c4bf 43ef 55ba 6d6c 28bd
000002f0: 930c e03f 93de f7bc 6a47 513f 7107 2cbd
00000300: f087 a7bb 2899 543c 9c80 e6bc 6112 b83c
00000310: 1b47 2240 4ce5 0e40 3504 5abc cb43 fa3b
00000320: 001f d13b 6c1e 8239 fc61 1c3d 0353 053f
00000330: 95f8 9f3f 7b09 fcbc ce93 6a3d 9fc7 9fbb
00000340: cb96 acbc 2c15 6f3c c7fa a73c 975d 07bc
00000350: ca9a 4b3d 11b7 143f 3e0c 9cbc 2566 b9bb
00000360: 5634 0c3f eff8 6b3f 6cf6 c3bc 6841 2a3f
00000370: 72ea 04bc 66f4 6c3d 9246 71be 80c1 c0bb
00000380: 3c69 33bd ea32 923f cf88 5940 725e 503a
00000390: bcce 86be 1037 793f 1c8f f93c 14aa 6fbd
000003a0: e242 3c3c 8f98 043e 54b2 083d 102b 21bd
000003b0: 850e beba 20b5 323d 2709 36bd c109 2f3f
000003c0: 9ae0 3e3f d9c6 8c3f 57a8 84bb 491d 393c
000003d0: 6a2b 3e3f 43b0 92bb 5ff4 513f 0242 813f
000003e0: b594 283a 5889 3abd 1ed8 f6bf 4baa 05bf
000003f0: c9cf 763f 20ef 2b3f 40a6 a9bf f4f6 b53c

fc3.bias f4 [5]
0.25008157 -0.21479456 0.08261845 0.19509868 0.27273026
00000000: b10a 803e 1bf3 5bbe dd33 a93d f3c7 473e
00000010: 4da3 8b3e
