other_model/dqn_team_b_ep100.pth (torch, 286849 bytes, 6 tensors)

fc1.weight f4 [256, 14]
0.16537614 -0.5745883 0.12801248 0.109095834 0.31853074 -0.88480157 -0.19057132 -0.61141866
0.48306647 -0.3321153 2.535922 -1.6433792 0.15046166 -0.11279679 -0.24266438 -0.4795665
-0.07749384 0.15746275 -0.11402029 -0.022004794 -0.038458645 -0.27047312 0.32485068 0.04607981
-0.32613868 0.102794684 -0.16426343 -0.08632246 -0.24013892 -0.94215596 0.21390392 0.076397985
0.19020216 0.19398521 -0.08083795 -0.18658486 -0.63400084 0.5725933 0.051820435 0.9008407
0.28942508 -0.113836385 -0.24234253 0.09704951 -0.23640867 0.1069619 -0.20273112 -0.26035237
0.03501461 -0.05426173 0.15389045 -0.10411173 0.02890526 0.19809867 -0.062564 -0.06057839
-0.20839585 0.12389674 -0.011764755 0.20264708 0.12182164 -0.20593117 -0.19342758 0.14171734
-0.11147272 0.20204139 -0.13906872 -0.2118954 -0.17722723 -0.2631674 -0.5874015 -0.11756688
-0.5440696 0.05258042 -0.19161455 -0.095246874 0.054106187 -0.37171873 -0.29686353 0.32812423
0.46397695 -1.1507336 0.30268967 -0.09831784 -0.21086837 0.22496657 -0.22631921 -0.01304305
-0.24127339 -0.26593807 0.1712232 -0.093175635 0.14162068 -0.23780002 -0.027436348 0.13062023
-0.05928119 0.1445206 0.16086046 -0.1740675 0.046779413 -0.47739023 0.09044337 -0.19874263
0.36410534 -0.23369795 -0.32002667 -0.2222434 0.5542649 -0.41874978 -0.1121328 -0.21642327
0.0690556 -0.25892076 0.15160443 -0.16694698 0.127778 -0.054462805 -0.10763646 0.30480927
-1.0679528 -0.45706603 -3.2855217 0.25800905 0.28069037 0.20873645 -0.19417004 -0.102302246
-0.12643181 0.10486086 -0.09447815 0.04379912 -0.20564026 0.08689945 -0.25134787 -0.17923693
0.20521416 -0.01101608 -0.15817033 -0.241106 -0.23143582 -0.19255295 0.08036434 0.018996984
-0.09988725 -0.09696136 0.18749319 -0.11042614 0.49678355 0.63419986 2.2180579 1.982328
-0.11370581 -0.2577395 -0.21401057 0.49035266 -0.19118074 0.2791035 -0.5676401 0.44467735
-0.64876896 -0.045471683 0.34630942 -0.1205744 -1.438975 1.7172499 0.10989103 0.087981604
-0.09954355 -0.25702563 -0.17364177 0.06752559 -0.31458542 -0.652799 -0.3343605 -0.07490577
0.3427547 0.460109 1.0675683 2.3516777 0.22908567 -0.015055366 0.18683189 0.053725164
-0.06388971 -0.12651306 -0.41814303 -0.12320696 -0.13298337 0.19588563 0.25117508 0.23456702
1.032105 2.4693644 0.12483695 0.108504355 -0.7464439 -0.11542946 -0.6912928 0.23437749
-0.45427588 0.16488594 -0.59835756 0.25112894 0.239348 -0.18865328 0.725661 0.26009762
0.30199006 0.22171755 -0.092490666 0.05089698 -0.26267794 0.095207654 0.19873805 0.10438987
-0.15414417 -0.14394408 0.04139766 0.029382136 -0.18466648 -0.17906342 -0.2480611 0.11888337
0.025811011 -0.26419848 -0.17761128 -0.42123348 0.2712909 0.33118483 0.35401484 0.38585597
-0.32376072 0.050017737 0.30612412 1.7657547 -0.17839144 -0.006164636 0.13605015 0.12776576
-0.30013308 -0.31734687 0.15930422 -0.43382466 -0.31928158 -0.18654846 0.324517 0.16241364
0.004833947 0.50818974 -0.01541241 -0.33673364 -0.19133689 -0.017397642 0.035397887 -0.082452334
00000000: 5d58 293e 3818 13bf b415 033e a36d df3d
00000010: 7616 a33e 5b82 62bf 2125 43be ef85 1cbf
00000020: 7d54 f73e 040b aabe 8c4c 2240 405a d2bf
00000030: 9f12 1a3e 0102 e7bd 037d 78be be89 f5be
00000040: 17b5 9ebd ea3d 213e 7883 e9bd 6643 b4bc
00000050: d086 1dbd 747b 8abe d452 a63e 2fbe 3c3d
00000060: a6fb a6be 0586 d23d ac34 28be d4c9 b0bd
00000070: fae6 75be 2231 71bf a109 5b3e 8c76 9c3d
00000080: 5bc4 423e 0fa4 463e 5e8e a5bd 1a10 3fbe
00000090: e14d 22bf 7995 123f aa41 543d 7f9d 663f
000000a0: 862f 943e 0d23 e9bd a428 78be e5c1 c63d
000000b0: 1d15 72be d70e db3d bf98 4fbe e84c 85be
000000c0: 7b6b 0f3d 8c41 5ebd 7595 1d3e 8838 d5bd
000000d0: b9ca ec3c 61da 4a3e 8e21 80bd 0c21 78bd
000000e0: b965 55be 93bd fd3d f5c0 40bc b782 4f3e
000000f0: a07d f93d 9fdf 52be e111 46be 5a1e 113e
00000100: cf4b e4bd f0e3 4e3e 0868 0ebe 1cfb 58be
00000110: 0e7b 35be e1bd 86be f25f 16bf e8c6 f0bd
00000120: 2548 0bbf 915e 573d 9b36 44be cb10 c3bd
00000130: 739e 5d3d eb51 bebe 7ffe 97be e6ff a73e
00000140: 638e ed3e 3d4b 93bf 24fa 9a3e dd5a c9bd
00000150: e1ed 57be a35d 663e 39c0 67be 84b2 55bc
00000160: 5f10 77be 0929 88be 2255 2f3e ded2 bebd
00000170: 0305 113e d981 73be 31c2 e0bc 4fc1 053e
00000180: d5d0 72bd 35fd 133e 9bb8 243e c03e 32be
00000190: c59b 3f3d 7e6c f4be 603a b93d 3083 4bbe
000001a0: 046c ba3e 844e 6fbe 89da a3be c693 63be
000001b0: 4ee4 0d3f 5f66 d6be e2a5 e5bd 109e 5dbe
000001c0: 066d 8d3d 4391 84be 313e 1b3e 26f4 2abe
000001d0: 3cd8 023e 6414 5fbd 8170 dcbd f60f 9c3e
000001e0: adb2 88bf 8f04 eabe fd45 52c0 c319 843e
000001f0: a6b6 8f3e 02bf 553e 83d4 46be d783 d1bd
00000200: 5777 01be 4ac1 d63d c37d c1bd b566 333d
00000210: 5c93 52be 57f8 b13d abb0 80be e389 37be
00000220: a923 523e ca7c 34bc 67f7 21be 7ee4 76be
00000230: 83fd 6cbe 9a2c 45be 0f96 a43d 909f 9b3c
00000240: b091 ccbd ad93 c6bd 37fe 3f3e 1a27 e2bd
00000250: 6a5a fe3e ec5a 223f a9f4 0d40 edbc fd3f
00000260: 97de e8bd 6ff6 83be 9625 5bbe 810f fb3e
00000270: e2c4 43be a7e6 8e3e dd50 11bf c0ac e33e
00000280: b915 26bf 8440 3abd 784f b13e b6ef f6bd
00000290: 5530 b8bf d8ce db3f 8c0e e13d b32f b43d
000002a0: 7ddd cbbd dd98 83be 26cf 31be db4a 8a3d
000002b0: 5711 a1be d61d 27bf 4d31 abbe 3268 99bd
000002c0: 8b7d af3e 6893 eb3e 14a6 883f e381 1640
000002d0: 6f95 6a3e c8aa 76bc dc50 3f3e eb0e 5c3d
000002e0: 9cd8 82bd a48c 01be d816 d6be ee53 fcbd
000002f0: cb2c 08be 3e96 483e 059a 803e 5632 703e
00000300: 041c 843f 110a 1e40 84aa ff3d 8837 de3d
00000310: f316 3fbf 4866 ecbd 91f8 30bf a700 703e
00000320: d996 e8be dcd7 283e f62d 19bf f993 803e
00000330: a417 753e 532e 41be ebc4 393f 842b 853e
00000340: 719e 9a3e ed09 633e bf6b bdbd 5a79 503d
00000350: b97d 86be 3bfc c23d fd81 4b3e 5bca d53d
00000360: f8d7 1dbe 1466 13be 9890 293d ceb2 f03c
00000370: 3619 3dbe 675c 37be bb03 7ebe 2079 f33d
00000380: 9d71 d33c 0645 87be bbdf 35be eaab d7be
00000390: a4e6 8a3e 0f91 a93e 6f41 b53e ea8e c53e
000003a0: f7c3 a5be 66df 4c3d 4dbc 9c3e 4004 e23f
000003b0: 3fac 36be b700 cabb bb50 0b3e 07d5 023e
000003c0: 0bab 99be 4a7b a2be a520 233e 441e debe
000003d0: e078 a3be 8f06 3fbe 1827 a63e c34f 263e
000003e0: 1666 9e3b b918 023f 5584 7cbc 5a68 acbe
000003f0: d1ed 43be 8085 8ebc 60fd 103d c5dc a8bd

fc1.bias f4 [256]
-0.05005742 -0.104695305 0.21417862 -0.06510732 -0.22312665 0.29521275 -0.21786042 0.02110571
0.34773615 0.12608571 0.10747446 -0.20321074 0.07856345 0.21732685 0.24033207 -0.13380401
0.10808349 -0.24201888 -0.18945734 -0.16804458 0.015774662 0.31213164 0.0920877 0.03775779
-0.056678336 0.29255503 0.16784492 -0.11183763 -0.03168409 0.42634878 0.04883002 0.3018644
-0.009045985 -0.020546824 0.20796826 0.19817162 0.1840664 -0.21523963 -0.20493864 -0.2169929
0.2167726 -0.07012169 0.036775056 -0.14449014 0.06928347 -0.061379384 0.0067673875 -0.07630197
0.2092367 -0.14401133 0.0114240805 -0.30497774 0.133291 -0.08939457 0.20698766 0.06378335
-0.06880646 -0.349179 -0.30366096 -0.004960924 -0.13341568 -0.24462014 0.13619442 -0.18375427
0.15493497 0.02069608 0.0020696148 0.036869917 0.075911134 -0.29311138 -0.011403066 -0.19050144
0.15638317 -0.14902264 0.0634319 0.09618012 -0.1471507 -0.21014725 0.0020097161 -0.22389162
-0.05042433 0.078149416 0.21871358 -0.12010384 -0.25498447 -0.069808275 0.12608442 -0.025372973
-0.1242071 0.34663838 -0.10048194 -0.057833552 -0.009865377 -0.23329097 -0.27458817 0.26645735
-0.035033353 -0.012261806 0.03269886 0.16111241 -0.33715424 -0.46472898 -0.23623393 0.27119753
-0.26062608 0.39554933 0.021367434 0.045673143 -0.09352926 0.3445194 -0.1572017 0.023681007
-0.07694411 -0.23186393 -0.1602445 -0.111651264 -0.2415323 -0.11434133 -0.15713684 0.053222273
0.056328807 0.21108569 0.102700114 -0.2076107 0.2103983 -0.024019632 0.12661397 0.1427824
-0.01302061 -0.12495507 -0.18225442 -0.20330343 -0.1388858 -0.15755872 0.18352571 0.03691552
0.10609981 0.048637465 -0.1963372 -0.04997589 -0.111111544 -0.0072720503 -0.21792328 0.060483925
-0.19091502 0.24906485 0.16457094 0.26487124 -0.044345587 0.14040773 -0.098276734 -0.024720669
-0.105246395 0.23185408 0.046949342 0.08464265 0.13648748 -0.11602321 0.10138812 0.074156776
-0.03406825 -0.1827403 0.098015636 0.10708763 0.1682682 0.002479733 0.13018532 0.1437756
0.2173154 0.2940459 0.25949603 -0.11820081 -0.068464234 0.27842942 -0.13592613 -0.20985037
0.03336208 -0.25375137 0.0008661147 -0.19244012 -0.07151675 0.19719657 0.28875798 -0.032514043
0.3189716 -0.06643674 -0.11944985 0.042712986 -0.18467158 0.10534988 0.29946238 -0.030271942
-0.24199376 -0.27433008 0.34164783 0.042886477 -0.07018832 -0.0585342 -0.022621278 -0.2906739
0.0054552644 -0.021803671 -0.14787792 -0.07956358 0.045613326 0.13999517 0.3342857 0.24179435
0.13919297 0.11798471 0.14418247 0.055608183 -0.16937122 0.06822187 -0.00024691416 -0.3030113
-0.18536095 -0.041992433 -0.1894905 -0.097441755 0.026100783 0.18155321 0.09017913 -0.27229708
-0.2841577 -0.23150563 0.16226523 0.13292119 -0.17722864 -0.08037796 0.2784335 0.11488753
0.08679629 0.24140371 0.17686583 0.015477635 -0.055209745 -0.08350649 -0.28607765 -0.09104438
-0.3314748 -0.13781764 0.013536737 -0.09437107 0.19594508 0.078050174 0.31912136 0.16144055
-0.05687838 -0.1862369 0.04873481 -0.0899728 -0.22421779 0.18569867 -0.0097945575 -0.17509973
00000000: 0209 4dbd 7e6a d6bd a451 5b3e fd56 85bd
00000010: 507b 64be 2026 973e cd16 5fbe e2e5 ac3c
00000020: 790a b23e 9d1c 013e 921b dc3d 7a16 50be
00000030: e0e5 a03d ee8a 5e3e 9c19 763e eb03 09be
00000040: e05a dd3d ccd3 77be 1b01 42be e113 2cbe
00000050: dd39 813c b8cf 9f3e 7a98 bc3d eaa7 1a3d
00000060: 8b27 68bd c6c9 953e 8adf 2b3e 210b e5bd
00000070: 2dc7 01bd 634a da3e fd01 483d f88d 9a3e
00000080: 9c35 14bc d051 a8bc a2f5 543e 80ed 4a3e
00000090: e77b 3c3e c767 5cbe 6fdb 51be 6333 5ebe
000000a0: a3f9 5d3e f69b 8fbd 71a1 163d 39f5 13be
000000b0: 7ee4 8d3d f368 7bbd f6c0 dd3b 3544 9cbd
000000c0: 2542 563e b577 13be 112c 3b3c 0b26 9cbe
000000d0: 707d 083e 8014 b7bd 93f4 533e d8a0 823d
000000e0: 67ea 8cbd 97c7 b2be 7379 9bbe 3f8f a2bb
000000f0: 1f9e 08be b47d 7abe 8d76 0b3e 142a 3cbe
00000100: 46a7 1e3e d38a a93c 60a2 073b e904 173d
00000110: 4c77 9b3d b212 96be edd3 3abc cf12 43be
00000120: e922 203e 6499 18be 96e8 813d 15fa c43d
00000130: acae 16be d730 57be 71b5 033b d843 65be
00000140: be89 4ebd cd0c a03d 74f6 5f3e 01f9 f5bd
00000150: 538d 82be a4f7 8ebd 461c 013e fbda cfbc
00000160: 4b60 febd 967a b13e 7ac9 cdbd e0e2 6cbd
00000170: 64a2 21bc d4e3 6ebe d296 8cbe 196d 883e
00000180: 227f 0fbd bee5 48bc 3def 053d a7fa 243e
00000190: 7b9f acbe f5f0 edbe 4fe7 71be 67da 8a3e
000001a0: c870 85be 7185 ca3e c20a af3c c313 3b3d
000001b0: 458c bfbd d964 b03e 7cf9 20be acfe c13c
000001c0: e094 9dbd bd6d 6dbe 2217 24be 6ba9 e4bd
000001d0: 3e54 77be ca2b eabd 7be8 20be 99ff 593d
000001e0: 09b9 663d d926 583e 7054 d23d e697 54be
000001f0: a772 573e d2c4 c4bc 18a7 013e 8d35 123e
00000200: 6654 55bc 72e8 ffbd e7a0 3abe c62e 50be
00000210: 1438 0ebe 1357 21be 2aee 3b3e ba34 173d
00000220: db4a d93d 1438 473d 9e0c 49be 85b3 4cbd
00000230: 738e e3bd 614a eebb 4827 5fbe febd 773d
00000240: 3a7f 43be db0a 7f3e 4985 283e 349d 873e
00000250: b8a3 35bd 0bc7 0f3e 5045 c9bd 0083 cabc
00000260: 6c8b d7bd 286b 6d3e f44d 403d 2059 ad3d
00000270: 60c3 0b3e 949d edbd 93a4 cf3d 82df 973d
00000280: 268b 0bbd 4620 3bbe 6cbc c83d c250 db3d
00000290: 804e 2c3e 0483 223b 4d4f 053e e939 133e
000002a0: ee87 5e3e 2f8d 963e aadc 843e 4413 f2bd
000002b0: fa36 8cbd 4d8e 8e3e 3830 0bbe 04e3 56be
000002c0: ada6 083d b3eb 81be f90b 633a 060f 45be
000002d0: 6077 92bd e6ed 493e 16d8 933e 722d 05bd
000002e0: 3f50 a33e fc0f 88bd 1fa2 f4bd d0f3 2e3d
000002f0: 8c1a 3dbe aec1 d73d 2253 993e ddfc f7bc
00000300: 36cd 77be fe74 8cbe 77ec ae3e bba9 2f3d
00000310: e5be 8fbd 8fc1 6fbd 4250 b9bc 36d3 94be
00000320: 13c2 b23b 9d9d b2bc 4f6d 17be 3bf2 a2bd
00000330: 0ad5 3a3d e55a 0f3e 7f27 ab3e f098 773e
00000340: 9a88 0e3e f8a1 f13d 92a4 133e 68c5 633d
00000350: a66f 2dbe e8b7 8b3d 4274 81b9 4c24 9bbe
00000360: 43cf 3dbe 4200 2cbd cc09 42be 8b8f c7bd
00000370: 4fd1 d53c 16e9 393e d6af b83d 866a 8bbe
00000380: 1e7d 91be d00f 6dbe db28 263e 7e1c 083e
00000390: 6d7b 35be 339d a4bd d68e 8e3e 274a eb3d
000003a0: 41c2 b13d 8932 773e 511c 353e e895 7d3c
000003b0: 9d23 62bd 7305 abbd c578 92be 7a75 babd
000003c0: 11b7 a9be 1120 0dbe 31c9 5d3c 9f45 c1bd
000003d0: d4a5 483e c5d8 9f3d e063 a33e ac50 253e
000003e0: 4ef9 68bd e3b4 3ebe 279e 473d a943 b8bd
000003f0: 5999 65be cb27 3e3e 5a79 20bc 584d 33be

fc2.weight f4 [256, 256]
-1.0678747 -0.46023265 1.0065507 0.018479869 -0.01022641 -1.1791934 -0.047159642 -0.5890235
-1.2832705 0.030438222 0.07337016 -0.811619 0.737777 0.63239616 0.46276245 0.01681439
0.27241254 -0.87044597 0.026978023 0.5775963 0.0026563779 -0.36627117 0.0012124106 -0.22040291
-0.109082446 0.2709646 1.4946845 0.06195175 0.5304004 -0.3142397 0.019768527 0.4861162
-0.022133164 2.5921538 -0.0155186355 -0.028075466 -2.3433871 -0.020269055 -0.052667968 -0.5808319
-0.020170696 0.21244429 0.15763626 -0.014036283 -0.047815457 -0.0075515583 0.010521442 -0.05005127
-1.5473267 1.3458885 0.020050183 1.5667775 0.3546892 0.028385222 0.44816282 -0.017040715
0.03651204 0.02718427 -1.3738143 0.041389354 0.062182188 -0.34295547 -0.00025754422 -0.04963941
1.3775831 -0.12664838 -0.44901454 0.26975822 -0.04839172 -0.784485 -0.03555847 0.7768895
0.034542568 0.007717356 0.038742535 0.013808683 0.032641202 -0.78982955 -2.4638882 0.007651959
0.29786247 0.045836024 0.40418312 0.06281519 1.5180259 -0.5082236 0.22926903 -0.14115457
-0.7265322 0.38684314 -1.055604 -0.2801635 0.5982665 -0.048667315 -0.28005892 -1.4462101
-0.04579645 -0.13003464 -0.4831915 -0.044554852 -0.67824715 -1.8620414 -0.024388801 0.73462903
0.009273424 -1.1585809 0.024136104 -0.8287105 -0.039030258 0.36332172 0.3088899 -0.02181384
-0.040379792 0.12557462 0.99968195 -0.044932418 0.055493776 -1.074986 -0.049355417 1.0605289
0.026670337 -0.010855831 -1.076124 1.4930253 0.072429866 0.1332184 1.4846692 -1.0106637
-0.9623235 -0.014283279 -0.73176306 -2.2654164 -0.86500305 0.005175027 -0.045543745 0.0720126
0.37219903 0.53568256 0.012916185 -0.22154766 -0.0093178 -0.048530594 0.035864033 0.020437248
-0.13920769 0.64605665 -0.36716655 -0.0006436035 0.40028504 -1.1772474 -0.023530833 0.059503965
-0.0571808 0.24375193 -0.034050487 0.035003945 0.1383442 -0.037832886 -0.0057650283 0.71329087
0.052787215 -0.14615262 -0.07024276 0.049178954 0.052299768 -0.14068396 -0.24931282 -0.2189094
0.79492813 0.3999265 0.07353894 0.045294397 -1.1130298 0.027351119 0.047892235 -0.03904754
-0.052032027 0.97567177 0.014079228 -0.41443476 -0.055405114 0.020217162 -0.12590533 0.03034731
-2.0532322 -1.4674711 0.9012034 -0.16488343 -0.014868341 -0.5116069 0.11536296 -1.6516619
-0.019158065 0.53471494 1.1398723 -0.23146737 0.06841851 0.332226 0.030855725 0.05633137
0.05043084 -0.2196293 0.03698042 0.110966705 -1.6779698 0.0037360294 0.35308304 -0.18876661
-0.03741567 -0.10979053 -0.035513386 0.012919933 -0.03272111 0.044217005 0.030485112 -0.01388012
-0.064506985 0.0041610375 0.035468604 0.081072316 0.28813872 0.21204019 -2.085065 -0.017270517
-0.57740897 0.036561713 -0.037404552 -0.041245792 0.021359295 -0.050834462 -0.38915992 0.014839873
0.011670202 -0.021353975 1.1935587 0.047790658 0.30279678 -0.042620882 -1.3058642 0.002738313
0.47024396 0.13131838 0.5953947 0.2486062 1.4572071 0.0569702 1.0027725 0.02069353
-0.61169714 -0.008254157 0.04206001 -0.78545666 -0.024543868 -1.1408668 -1.9907515 -0.0039896057
00000000: 1eb0 88bf 9da3 ebbe a7d6 803f 1863 973c
00000010: ac8c 27bc cfef 96bf 782a 41bd 3eca 16bf
00000020: 3542 a4bf 9459 f93c 1843 963d 43c6 4fbf
00000030: f4de 3c3f b7e4 213f 33ef ec3e 55be 893c
00000040: a879 8b3e 8cd5 5ebf 0401 dd3c 5add 133f
00000050: a016 2e3b e587 bbbe c0e9 9e3a 4db1 61be
00000060: 9e66 dfbd dfbb 8a3e d251 bf3f 1ec1 7d3d
00000070: 52c8 073f 07e4 a0be 9bf1 a13c 39e4 f83e
00000080: 9c50 b5bc d9e5 2540 e041 7ebc 85fe e5bc
00000090: 0efa 15c0 4a0b a6bc 5eba 57bd 66b1 14bf
000000a0: 043d a5bc ff8a 593e 666b 213e 70f8 65bc
000000b0: 24da 43bd 1073 f7bb 2062 2c3c 8f02 4dbd
000000c0: cd0e c6bf 1346 ac3f 4840 a43c 2a8c c83f
000000d0: d399 b53e 2088 e83c 9975 e53e f898 8bbc
000000e0: a68d 153d 8cb1 de3c 26d9 afbf e287 293d
000000f0: c0b2 7e3d dc97 afbe 0007 87b9 b252 4bbd
00000100: a554 b03f 1db0 01be 3ce5 e5be c01d 8a3e
00000110: 6536 46bd 02d4 48bf c2a5 11bd 3be2 463f
00000120: 827c 0d3d e0e1 fc3b 7eb0 1e3d d03d 623c
00000130: c8b2 053d 4532 4abf 58b0 1dc0 49bd fa3b
00000140: 6e81 983e 8ebe 3b3d 17f1 ce3e 40a5 803d
00000150: ac4e c23f f11a 02bf 80c5 6a3e d38a 10be
00000160: 04fe 39bf 4e10 c63e 081e 87bf 9771 8fbe
00000170: fe27 193f 6157 47bd e263 8fbe 6a1d b9bf
00000180: 0f95 3bbd cd27 05be e064 f7be 267f 36bd
00000190: 9ba1 2dbf 5f57 eebf 06cb c7bc a610 3c3f
000001a0: 8fef 173c 614c 94bf 14b9 c53c 5f26 54bf
000001b0: 31de 1fbd 4e05 ba3e d126 9e3e f0b2 b2bc
000001c0: 4865 25bd a296 003e 28eb 7f3f 0e0b 38bd
000001d0: 714d 633d 2499 89bf e828 4abd 69bf 873f
000001e0: c07b da3c a8dc 31bc 6ebe 89bf 741b bf3f
000001f0: 1c56 943d 676a 083e a409 be3f 6e5d 81bf
00000200: d55a 76bf 6a04 6abc d354 3bbf 95fc 10c0
00000210: d770 5dbf 4693 a93b 148c 3abd 587b 933d
00000220: df90 be3e 7e22 093f 689e 533c 64dd 62be
00000230: b0a9 18bc 04c8 46bd 2ae6 123d 046c a73c
00000240: 768c 0ebe f863 253f 41fd bbbe 80b7 28ba
00000250: 29f2 cc3e 0bb0 96bf bcc3 c0bc 6eba 733d
00000260: 6a36 6abd 1b9a 793e 8678 0bbd 4c60 0f3d
00000270: 1aaa 0d3e a8f6 1abd 90e8 bcbb 3b9a 363f
00000280: 6837 583d 08a9 15be 70db 8fbd df6f 493d
00000290: 4838 563d 750f 10be dc4b 7fbe c929 60be
000002a0: 6980 4b3f 2bc3 cc3e 959b 963d 9e86 393d
000002b0: c377 8ebf 740f e03c a62a 443d 50f0 1fbd
000002c0: 891f 55bd a0c5 793f 90ac 663c cb30 d4be
000002d0: 79f0 62bd 769e a53c 54ed 00be ec9a f83c
000002e0: 2868 03c0 18d6 bbbf 44b5 663f 34d7 28be
000002f0: 589a 73bc abf8 02bf 6a43 ec3d a869 d3bf
00000300: 60f1 9cbc 14e3 083f 56e7 913f c805 6dbe
00000310: 011f 8c3d 8719 aa3e 25c5 fc3c b9bb 663d
00000320: 9290 4e3d 81e6 60be c878 173d 8342 e33d
00000330: b7c7 d6bf 2cd8 743b 4dc7 b43e 094c 41be
00000340: 2c41 19bd dbd9 e0bd 7c76 11bd 20ae 533c
00000350: 9206 06bd e41c 353d eabb f93c 7169 63bc
00000360: 3d1c 84bd 5059 883b 8747 113d 3e09 a63d
00000370: eb86 933e 1021 593e b471 05c0 e67a 8dbc
00000380: 13d1 13bf bcc1 153d 8435 19bd 59f1 28bd
00000390: b0f9 ae3c cc37 50bd f83f c7be f022 733c
000003a0: 6034 3f3c 88ee aebc 88c6 983f 23c0 433d
000003b0: 2e08 9b3e 3c93 2ebd 8f26 a7bf 4575 333b
000003c0: d1c3 f03e 5378 063e c96b 183f a092 7e3e
000003d0: c385 ba3f 9659 693d d95a 803f 7a85 a93c
000003e0: 2f98 1cbf 723c 07bc 1e47 2c3d b013 49bf
000003f0: 3910 c9bc ec07 92bf f2d0 febf 3dbb 82bb

fc2.bias f4 [256]
0.064625084 0.017869083 -0.07432198 -0.09293559 0.1784932 -0.02564386 0.036184408 -0.036641702
0.03671816 -0.0027360097 -0.0037350599 -0.05928407 -0.03652179 0.04111731 0.044088997 -0.048176724
0.013102564 -0.017946532 -0.00688827 -0.022445759 -0.017073447 0.026015926 -0.035664383 0.13006641
0.21221365 0.03986541 -0.30665088 -0.0010671332 -0.05590921 0.018125972 -0.07275308 -0.06157796
-0.028203776 0.10451687 -0.034724038 -0.017986845 0.016675571 -0.01595442 -0.011467235 0.067954265
0.24192226 -0.02673276 -0.015745685 0.060433023 0.0031171273 0.11630285 -0.011405265 0.04239352
0.051361963 -0.04151255 0.49401256 -0.07367471 0.05935375 0.062074 -0.013165185 -0.03471101
0.0422436 -0.095341645 0.03614434 0.006086681 0.0019241824 -0.00088276697 -0.0058974787 0.038871232
-0.012904961 -0.06583319 0.06121575 0.031084128 0.008223847 0.0059624864 -0.045112103 -0.049708776
-0.040513054 -0.06098293 0.018140346 0.004970162 -0.026997859 -0.044749442 0.0074223923 -0.03283042
-0.21942548 -0.039998975 -0.041974414 0.016483009 -0.05316441 -0.009048565 -0.041313957 0.120523214
0.22936448 -0.040770154 0.0005153429 0.0064689233 -0.0839284 0.024713704 0.016830854 0.014680032
-0.028900877 -0.00702454 0.040371235 0.10161576 0.04176486 0.083532736 -0.0469487 -0.041905656
-0.049232304 -0.035398316 0.010085611 0.03037041 0.028156415 -0.027422842 -0.024811516 -0.0056925225
-0.039229583 -0.010339747 -0.057171583 0.043161225 0.13638507 -0.044049483 -0.07860784 0.03751773
-0.02499107 0.016606 -0.059168518 0.34756312 -0.03274944 0.09075537 0.008823732 -0.05562335
-0.021386676 0.010555351 -0.22234492 0.028550755 -0.004701323 -0.057881247 -0.00089139066 -0.015323835
-0.0053591067 0.018429982 -0.035877217 0.014145463 0.08665648 -0.00714722 -0.041591294 -0.055726834
0.0017980261 0.03001379 -0.094060324 -0.028605906 -0.060993128 -0.063473515 -0.010824982 0.26763567
-0.09228474 -0.08197222 -0.067441784 -0.07639048 -0.02449471 0.4259217 0.090319514 0.12767419
-0.085038185 -0.01529463 0.02226723 0.03154897 0.03224752 0.008857961 0.027539574 0.041104876
0.038344584 -0.060534384 -0.06893209 -0.029140376 -0.008801342 0.020464407 -0.061580148 -0.041969385
-0.053941544 0.25155827 0.07268531 0.0051553138 0.00487047 0.037583355 -0.030945243 0.06993856
0.03034266 0.33918208 -0.06455713 -0.024982588 0.041760605 -0.07744028 0.12333193 0.019028265
-0.069668375 -0.016935272 0.009548341 -0.059554107 0.09788215 0.35998762 -0.060439423 -0.05325066
-0.07501917 -0.013441381 -0.026374435 0.0013193199 0.0811646 -0.08113029 -0.03087529 0.14328316
-0.020762002 0.010949985 -0.016018968 0.006754307 0.022977004 0.033442724 0.02278435 -0.050552905
0.12402023 0.039766826 0.026387686 0.07451491 -0.087564 -0.06669399 0.054921255 -0.028361605
-0.03582961 0.06809898 0.20515086 0.04030134 -0.00096488855 -0.060077813 -0.092194125 0.014474627
0.022901567 0.14748257 -0.01763057 -0.0023602988 -0.06437032 0.03306421 0.015732802 -0.5236175
0.09991945 0.11380549 0.012545254 2.1624994e-05 -0.049431786 -0.052393276 0.060095284 0.04094652
-0.0017143852 -0.02984981 0.20347871 0.22745623 0.05753777 -0.08450733 -0.08655387 -0.09025212
00000000: 285a 843d 2f62 923c 1f36 98bd 0455 bebd
00000010: ecc6 363e 1313 d2bc 1a36 143d 9c15 16bd
00000020: c865 163d a04e 33bb e8c7 74bb dad3 72bd
00000030: df97 15bd a06a 283d aa96 343d f554 45bd
00000040: 23ac 563c 9b04 93bc ffb6 e1bb 2be0 b7bc
00000050: 9ddd 8bbc 5a1f d53c d114 12bd 2130 053e
00000060: 894e 593e ea49 233d 5801 9dbe 0cdf 8bba
00000070: 0e01 65bd eb7c 943c 91ff 94bd 2c39 7cbd
00000080: 9b0b e7bc f10c d63d cb3a 0ebd 2659 93bc
00000090: 359b 883c d8b2 82bc 12e1 3bbc 9b2b 8b3d
000000a0: 78ba 773e a9fe dabc 18fd 80bc 9e88 773d
000000b0: b848 4c3b 3030 ee3d 26dd 3abc d4a4 2d3d
000000c0: ec60 523d 1009 2abd 37ef fc3e c4e2 96bd
000000d0: eb1c 733d 4e41 7e3d cab2 57bc 222d 0ebd
000000e0: a007 2d3d 7b42 c3bd 160c 143d c872 c73b
000000f0: d934 fc3a 7d69 67ba a33f c1bb 7137 1f3d
00000100: 546f 53bc 8dd3 86bd 5ebd 7a3d 24a4 fe3c
00000110: 50bd 063c f660 c33b 78c7 38bd 6e9b 4bbd
00000120: 04f1 25bd 3dc9 79bd 109b 943c bedc a23b
00000130: 9d2a ddbc 314b 37bd 8a37 f33b 3179 06bd
00000140: 13b1 60be f7d5 23bd 5ded 2bbd 6007 873c
00000150: edc2 59bd 6f40 14bc d338 29bd e0d4 f63d
00000160: 86de 6a3e 9bfe 26bd 1418 073a 43f9 d33b
00000170: a7e2 abbd 6574 ca3c dce0 893c 8484 703c
00000180: 88c1 ecbc 1d2e e6bb 4f5c 253d ec1b d03d
00000190: a111 2b3d 3613 ab3d 484d 40bd 44a5 2bbd
000001a0: d0a7 49bd d3fd 10bd 1e3e 253c 5ecb f83c
000001b0: 48a8 e63c dea5 e0bc 8541 cbbc 5788 babb
000001c0: 33af 20bd 0b68 29bc c02c 6abd d3c9 303d
000001d0: 87a8 0b3e 3b6d 34bd 26fd a0bd 31ac 193d
000001e0: 13ba ccbc 4e09 883c b05a 72bd cbf3 b13e
000001f0: 4724 06bd f4dd b93d 6a91 103c 4fd5 63bd
00000200: 1c33 afbc 5af0 2c3c 63ae 63be 46e3 e93c
00000210: 8e0d 9abb e314 6dbd 37ac 69ba d310 7bbc
00000220: 729b afbb 79fa 963c fdf3 12bd 5fc2 673c
00000230: f478 b13d 3a33 eabb a25b 2abd d241 64bd
00000240: bfab eb3a 7bdf f53c b3a2 c0bd ef56 eabc
00000250: eed3 79bd 67fe 81bd 445b 31bc 8b07 893e
00000260: c8ff bcbd 0de1 a7bd eb1e 8abd 9d72 9cbd
00000270: 21a9 c8bc 6912 da3e 70f9 b83d 06bd 023e
00000280: 8028 aebd 5496 7abc c469 b63c 7e39 013d
00000290: fa15 043d fb20 113c ac9a e13c 965d 283d
000002a0: 360f 1d3d e7f2 77bd 452c 8dbd ccb7 eebc
000002b0: 8133 10bc f9a4 a73c 773b 7cbd 17e8 2bbd
000002c0: cff1 5cbd 3fcc 803e 09dc 943d e8ed a83b
000002d0: 7798 9f3b 01f1 193d e180 fdbc f33b 8f3d
000002e0: 2c91 f83c 46a9 ad3e 8736 84bd 49a8 ccbc
000002f0: 2b0d 2b3d 0299 9ebd 7395 fc3d 2ae1 9b3c
00000300: 4bae 8ebd d7bb 8abc a570 1c3c 02ef 73bd
00000310: 7076 c83d 4c50 b83e 548f 77bd 5d1d 5abd
00000320: a7a3 99bd 3d39 5cbc 330f d8bc 08ed ac3a
00000330: a039 a63d a327 a6bd 2dee fcbc d2b8 123e
00000340: 1315 aabc 9167 333c 363a 83bc 3c53 dd3b
00000350: 453a bc3c 3dfb 083d 3fa6 ba3c 9010 4fbd
00000360: 51fe fd3d 8ae2 223d fd2a d83c 469b 983d
00000370: c154 b3bd dc96 88bd 1cf5 603d 9956 e8bc
00000380: 12c2 12bd 7a77 8b3d 1113 523e 0513 253d
00000390: 93f0 7cba 2714 76bd 46d0 bcbd fc26 6d3c
000003a0: 119c bb3c ac05 173e fc6d 90bc 3eaf 1abb
000003b0: 96d4 83bd 566e 073d 14e2 803c cc0b 06bf
000003c0: 92a2 cc3d da12 e93d 9c8a 4d3c 5267 b537
000003d0: fc78 4abd 559a 56bd 7926 763d 8ab7 273d
000003e0: 39b5 e0ba 9787 f4bc b95c 503e 49ea 683e
000003f0: baac 6b3d 2e12 adbd 2843 b1bd 1ad6 b8bd

fc3.weight f4 [5, 256]
0.9072596 0.03928203 -0.033727463 0.037126355 1.1540313 -0.49928167 -0.056723848 0.6508412
0.006317377 -0.025879156 -0.059203394 0.006998757 -0.075734645 0.026295058 0.022618793 0.03073769
-0.056662813 0.048830207 -0.043459013 -0.030971527 1.0865316 -0.04469721 0.009572625 1.0015906
0.6103651 -0.18040062 -0.7925791 -0.030411799 -0.0035927102 -0.011028773 -1.5705596 0.055511333
-0.024276242 -0.8655994 0.9763998 -0.04007158 1.001377 0.04741562 0.04999061 1.0886189
-0.21224521 1.2659396 0.0424054 0.43656543 0.07467443 1.3343747 0.043118134 0.042043865
0.57666135 -0.023318864 1.8252825 -0.02042611 0.6734256 1.0244538 0.014849551 1.5253532
0.005327446 0.082594894 0.006145522 0.004116578 0.50104463 -0.035756096 -0.012706938 -0.03648409
-0.01237982 -0.003126368 -1.0217501 -0.113673784 0.03298042 -0.038618304 0.0065593813 2.4353926
0.05558771 -0.031205682 0.0034123063 1.0561559 -0.05884513 0.009290714 0.028855562 -0.039011497
-0.23489295 -0.023415813 0.0003504831 -0.04028751 0.019221902 1.9688045 -0.013949318 0.0122868605
-0.54151326 0.6761953 -0.016214803 0.01994044 -0.05233468 0.90278137 -0.034778137 -0.035689875
-0.04293731 -0.008380113 0.0023701643 1.3168141 -0.006884571 -0.5730948 0.001567136 0.6629628
2.1337225 0.06021496 0.024140092 1.3827103 -0.006546825 0.0028433662 0.05812926 -0.03427573
2.0236135 0.029536212 -0.052717768 0.03063959 0.7264937 0.032979928 -0.036545884 0.6741166
-0.053299163 -0.011388029 -0.055033095 2.0084507 0.009431657 -0.24035957 -0.036822177 -0.014774876
0.03304097 -0.03394687 0.2139906 -0.0452867 0.01880131 0.032114387 -0.005206312 0.019917808
0.03421148 1.8875251 -1.0426092 -0.043232933 1.0765078 0.036148265 0.08002247 -0.031967018
0.01567356 0.013359845 -0.009031625 -0.040149994 0.0072402395 0.67084223 -0.005285476 -0.9856525
0.050951026 -0.009615938 0.022175996 0.15806231 0.003608933 1.8699822 0.7230371 -0.106669724
-0.031161942 0.6386698 -0.060655743 -0.0011431144 -0.02121737 -0.021625636 -0.037041016 0.009973692
-0.023368247 0.004571825 0.00279788 -0.27378055 -0.030329777 -0.013661268 0.0017158538 0.03423733
0.022176411 1.1187512 0.7575592 -0.0049359626 -0.04645079 -0.057528578 0.0095858 1.7621049
0.024105934 -1.4645514 -0.0008160958 -0.041119028 1.8504198 -0.030257499 0.68721735 -0.041999284
-0.0051126406 0.012975968 -0.028137498 0.022469701 2.5395067 2.5492423 -0.013306667 0.007637476
0.0063818693 0.00024818198 0.038179383 0.56771606 1.2619236 -0.03076624 0.057269864 -0.15201698
-0.021067997 0.01459245 0.020505322 -0.00826206 0.049708165 0.63239384 -0.019048806 -0.0056579285
0.6161316 0.9139132 -0.023921214 0.7171632 -0.008112537 0.058678675 -0.4741023 -0.005882442
-0.04380153 1.2127357 3.1651113 0.0007948644 -0.263296 1.0618603 0.030463748 -0.05851181
0.0114905555 0.21257792 0.078025445 -0.03934771 -0.0014500177 0.043629766 -0.044442322 0.93195
0.8120258 1.1504524 -0.004048388 0.011298486 0.7843705 -0.0044765784 0.8948208 1.0093764
0.00064308505 -0.045541137 -2.0502255 -0.80563605 1.0305145 0.71254826 -1.325386 0.022212483
00000000: 2a42 683f 32e6 203d cf25 0abd ce11 183d
00000010: 4cb7 933f d9a1 ffbe 4457 68bd 879d 263f
00000020: 0002 cf3b 8600 d4bc 427f 72bd d455 e53b
00000030: c41a 9bbd bc68 d73c 0c4b b93c 9ccd fb3c
00000040: 4417 68bd 2f02 483d 1402 32bd 00b8 fdbc
00000050: 7813 8b3f 6c14 37bd 80d6 1c3c 1f34 803f
00000060: e340 1c3f f1ba 38be 77e6 4abf 2a22 f9bc
00000070: ad73 6bbb 07b2 34bc 1908 c9bf da5f 633d
00000080: f8de c6bc ec97 5dbf 56f5 793f 1922 24bd
00000090: 1f2d 803f e236 423d f4c2 4c3d dd57 8b3f
000000a0: cf56 59be 4f0a a23f 49b1 2d3d 8185 df3e
000000b0: e8ee 983d cacc aa3f a49c 303d 3036 2c3d
000000c0: 14a0 133f 3407 bfbc dba2 e93f a854 a7bc
000000d0: 9f65 2c3f 4d21 833f 884b 733c c63e c33f
000000e0: db91 ae3b 8327 a93d 6060 c93b 5ce4 863b
000000f0: 7644 003f fc74 12bd c330 50bc 5770 15bd
00000100: bbd4 4abc c0e3 4cbb b5c8 82bf cdcd e8bd
00000110: 7a16 073d 3a2e 1ebd 14f0 d63b 79dd 1b40
00000120: f0af 633d 0fa3 ffbc 00a1 5f3b 1e30 873f
00000130: 9707 71bd 1438 183c 8062 ec3c 85ca 1fbd
00000140: c787 70be 85d2 bfbc 0cc1 b739 8404 25bd
00000150: 4077 9d3c c901 fc3f ae8b 64bc d44e 493c
00000160: 9da0 0abf 231b 2d3f e8d4 84bc 225a a33c
00000170: e45c 56bd ae1c 673f 8573 0ebd 8c2f 12bd
00000180: 08df 2fbd be4c 09bc c254 1b3b 5d8d a83f
00000190: f897 e1bb 57b6 12bf 5c68 cd3a eeb7 293f
000001a0: e98e 0840 f6a3 763d 71c1 c53c a7fc b03f
000001b0: c086 d6bb c557 3a3b f218 6e3d b564 0cbd
000001c0: e282 0140 edf5 f13c 96ee 57bd e1ff fa3c
000001d0: 7efb 393f f615 073d 23b1 15bd e892 2c3f
000001e0: 3950 5abd db94 3abc 626a 61bd 758a 0040
000001f0: 3d87 1a3c d220 76be dad2 16bd 5212 72bc
00000200: f855 073d e00b 0bbd 5a20 5b3e 8c7e 39bd
00000210: 3405 9a3c 608a 033d b699 aabb ac2a a33c
00000220: 5621 0c3d 6c9a f13f 3874 85bf 0415 31bd
00000230: 02cb 893f 3410 143d d2e2 a33d d9ef 02bd
00000240: d665 803c 40e3 5a3c 62f9 13bc 5274 24bd
00000250: 883f ed3b 51bc 2b3f c931 adbb b953 7cbf
00000260: 06b2 503d 2b8c 1dbc 6faa b53c 16db 213e
00000270: d983 6c3b 945b ef3f f618 393f a875 dabd
00000280: 5447 ffbc dd7f 233f 2872 78bd 8ed4 95ba
00000290: 0dd0 adbc 3f28 b1bc 52b8 17bd b268 233c
000002a0: c46e bfbc 3fcf 953b a35c 373b f72c 8cbe
000002b0: 2776 f8bc 83d3 5fbc 80e6 e03a 713c 0c3d
000002c0: 4eab b53c 3d33 8f3f 66ef 413f dbbd a1bb
000002d0: 2f43 3ebd 16a3 6bbd c20d 1d3c a78c e13f
000002e0: cf79 c53c 6c76 bbbf 43ef 55ba 6d6c 28bd
000002f0: 8eda ec3f 93de f7bc 7aed 2f3f 7107 2cbd
00000300: f087 a7bb 2899 543c 9c80 e6bc 6112 b83c
00000310: 4787 2240 c926 2340 3504 5abc cb43 fa3b
00000320: 001f d13b 6c1e 8239 fc61 1c3d d755 113f
00000330: b686 a13f 7b09 fcbc ce93 6a3d 57aa 1bbe
00000340: cb96 acbc 2c15 6f3c c7fa a73c 975d 07bc
00000350: ca9a 4b3d 90e4 213f 3e0c 9cbc 2566 b9bb
00000360: cdba 1d3f 37f6 693f 6cf6 c3bc 0298 373f
00000370: 72ea 04bc 0d59 703d 89bd f2be 80c1 c0bb
00000380: 3c69 33bd ec3a 9b3f 2f91 4a40 725e 503a
00000390: bcce 86be 0aeb 873f 1c8f f93c 14aa 6fbd
000003a0: e242 3c3c 07ae 593e cecb 9f3d 102b 21bd
000003b0: 850e beba 20b5 323d 2709 36bd 4694 6e3f
000003c0: ece0 4f3f 0642 933f 57a8 84bb 491d 393c
000003d0: 81cc 483f 43b0 92bb fa12 653f 3f33 813f
000003e0: b594 283a 5889 3abd e536 03c0 2a3e 4ebf
000003f0: e6e7 833f 9069 363f 40a6 a9bf f4f6 b53c

fc3.bias f4 [5]
0.2948107 -0.22941692 0.070066474 0.14396897 0.21236384
00000000: 6ef1 963e 45ec 6abe 037f 8f3d 9a6c 133e
00000010: e875 593e
